{"backend": "tensorflow", "keras_version": "2.2.4-tf", "class_name": "Sequential", "config": {"layers": [{"class_name": "Model", "config": {"layers": [{"name": "input_1", "inbound_nodes": [], "class_name": "InputLayer", "config": {"sparse": false, "name": "input_1", "batch_input_shape": [null, 256, 256, 3], "dtype": "float32"}}, {"name": "conv2d", "inbound_nodes": [[["input_1", 0, 0, {}]]], "class_name": "Conv2D", "config": {"trainable": false, "bias_regularizer": null, "strides": [2, 2], "data_format": "channels_last", "kernel_initializer": {"class_name": "GlorotUniform", "config": {"seed": null}}, "dtype": "float32", "padding": "valid", "bias_initializer": {"class_name": "Zeros", "config": {}}, "kernel_constraint": null, "activation": "linear", "filters": 32, "kernel_size": [3, 3], "use_bias": false, "dilation_rate": [1, 1], "bias_constraint": null, "activity_regularizer": null, "name": "conv2d", "kernel_regularizer": null}}, {"name": "batch_normalization", "inbound_nodes": [[["conv2d", 0, 0, {}]]], "class_name": "BatchNormalization", "config": {"beta_regularizer": null, "beta_initializer": {"class_name": "Zeros", "config": {}}, "dtype": "float32", "axis": [3], "gamma_initializer": {"class_name": "Ones", "config": {}}, "center": true, "beta_constraint": null, "scale": false, "gamma_constraint": null, "trainable": false, "moving_mean_initializer": {"class_name": "Zeros", "config": {}}, "moving_variance_initializer": {"class_name": "Ones", "config": {}}, "name": "batch_normalization", "momentum": 0.99, "epsilon": 0.001, "gamma_regularizer": null}}, {"name": "activation", "inbound_nodes": [[["batch_normalization", 0, 0, {}]]], "class_name": "Activation", "config": {"name": "activation", "activation": "relu", "dtype": "float32", "trainable": false}}, {"name": "conv2d_1", "inbound_nodes": [[["activation", 0, 0, {}]]], "class_name": "Conv2D", "config": {"trainable": false, "bias_regularizer": null, "strides": [1, 1], "data_format": "channels_last", "kernel_initializer": {"class_name": "GlorotUniform", "config": {"seed": null}}, "dtype": "float32", "padding": "valid", "bias_initializer": {"class_name": "Zeros", "config": {}}, "kernel_constraint": null, "activation": "linear", "filters": 32, "kernel_size": [3, 3], "use_bias": false, "dilation_rate": [1, 1], "bias_constraint": null, "activity_regularizer": null, "name": "conv2d_1", "kernel_regularizer": null}}, {"name": "batch_normalization_1", "inbound_nodes": [[["conv2d_1", 0, 0, {}]]], "class_name": "BatchNormalization", "config": {"beta_regularizer": null, "beta_initializer": {"class_name": "Zeros", "config": {}}, "dtype": "float32", "axis": [3], "gamma_initializer": {"class_name": "Ones", "config": {}}, "center": true, "beta_constraint": null, "scale": false, "gamma_constraint": null, "trainable": false, "moving_mean_initializer": {"class_name": "Zeros", "config": {}}, "moving_variance_initializer": {"class_name": "Ones", "config": {}}, "name": "batch_normalization_1", "momentum": 0.99, "epsilon": 0.001, "gamma_regularizer": null}}, {"name": "activation_1", "inbound_nodes": [[["batch_normalization_1", 0, 0, {}]]], "class_name": "Activation", "config": {"name": "activation_1", "activation": "relu", "dtype": "float32", "trainable": false}}, {"name": "conv2d_2", "inbound_nodes": [[["activation_1", 0, 0, {}]]], "class_name": "Conv2D", "config": {"trainable": false, "bias_regularizer": null, "strides": [1, 1], "data_format": "channels_last", "kernel_initializer": {"class_name": "GlorotUniform", "config": {"seed": null}}, "dtype": "float32", "padding": "same", "bias_initializer": {"class_name": "Zeros", "config": {}}, "kernel_constraint": null, "activation": "linear", "filters": 64, "kernel_size": [3, 3], "use_bias": false, "dilation_rate": [1, 1], "bias_constraint": null, "activity_regularizer": null, "name": "conv2d_2", "kernel_regularizer": null}}, {"name": "batch_normalization_2", "inbound_nodes": [[["conv2d_2", 0, 0, {}]]], "class_name": "BatchNormalization", "config": {"beta_regularizer": null, "beta_initializer": {"class_name": "Zeros", "config": {}}, "dtype": "float32", "axis": [3], "gamma_initializer": {"class_name": "Ones", "config": {}}, "center": true, "beta_constraint": null, "scale": false, "gamma_constraint": null, "trainable": false, "moving_mean_initializer": {"class_name": "Zeros", "config": {}}, "moving_variance_initializer": {"class_name": "Ones", "config": {}}, "name": "batch_normalization_2", "momentum": 0.99, "epsilon": 0.001, "gamma_regularizer": null}}, {"name": "activation_2", "inbound_nodes": [[["batch_normalization_2", 0, 0, {}]]], "class_name": "Activation", "config": {"name": "activation_2", "activation": "relu", "dtype": "float32", "trainable": false}}, {"name": "max_pooling2d", "inbound_nodes": [[["activation_2", 0, 0, {}]]], "class_name": "MaxPooling2D", "config": {"pool_size": [3, 3], "padding": "valid", "trainable": true, "data_format": "channels_last", "dtype": "float32", "name": "max_pooling2d", "strides": [2, 2]}}, {"name": "conv2d_3", "inbound_nodes": [[["max_pooling2d", 0, 0, {}]]], "class_name": "Conv2D", "config": {"trainable": true, "bias_regularizer": null, "strides": [1, 1], "data_format": "channels_last", "kernel_initializer": {"class_name": "GlorotUniform", "config": {"seed": null}}, "dtype": "float32", "padding": "valid", "bias_initializer": {"class_name": "Zeros", "config": {}}, "kernel_constraint": null, "activation": "linear", "filters": 80, "kernel_size": [1, 1], "use_bias": false, "dilation_rate": [1, 1], "bias_constraint": null, "activity_regularizer": null, "name": "conv2d_3", "kernel_regularizer": null}}, {"name": "batch_normalization_3", "inbound_nodes": [[["conv2d_3", 0, 0, {}]]], "class_name": "BatchNormalization", "config": {"beta_regularizer": null, "beta_initializer": {"class_name": "Zeros", "config": {}}, "dtype": "float32", "axis": [3], "gamma_initializer": {"class_name": "Ones", "config": {}}, "center": true, "beta_constraint": null, "scale": false, "gamma_constraint": null, "trainable": true, "moving_mean_initializer": {"class_name": "Zeros", "config": {}}, "moving_variance_initializer": {"class_name": "Ones", "config": {}}, "name": "batch_normalization_3", "momentum": 0.99, "epsilon": 0.001, "gamma_regularizer": null}}, {"name": "activation_3", "inbound_nodes": [[["batch_normalization_3", 0, 0, {}]]], "class_name": "Activation", "config": {"name": "activation_3", "activation": "relu", "dtype": "float32", "trainable": true}}, {"name": "conv2d_4", "inbound_nodes": [[["activation_3", 0, 0, {}]]], "class_name": "Conv2D", "config": {"trainable": true, "bias_regularizer": null, "strides": [1, 1], "data_format": "channels_last", "kernel_initializer": {"class_name": "GlorotUniform", "config": {"seed": null}}, "dtype": "float32", "padding": "valid", "bias_initializer": {"class_name": "Zeros", "config": {}}, "kernel_constraint": null, "activation": "linear", "filters": 192, "kernel_size": [3, 3], "use_bias": false, "dilation_rate": [1, 1], "bias_constraint": null, "activity_regularizer": null, "name": "conv2d_4", "kernel_regularizer": null}}, {"name": "batch_normalization_4", "inbound_nodes": [[["conv2d_4", 0, 0, {}]]], "class_name": "BatchNormalization", "config": {"beta_regularizer": null, "beta_initializer": {"class_name": "Zeros", "config": {}}, "dtype": "float32", "axis": [3], "gamma_initializer": {"class_name": "Ones", "config": {}}, "center": true, "beta_constraint": null, "scale": false, "gamma_constraint": null, "trainable": true, "moving_mean_initializer": {"class_name": "Zeros", "config": {}}, "moving_variance_initializer": {"class_name": "Ones", "config": {}}, "name": "batch_normalization_4", "momentum": 0.99, "epsilon": 0.001, "gamma_regularizer": null}}, {"name": "activation_4", "inbound_nodes": [[["batch_normalization_4", 0, 0, {}]]], "class_name": "Activation", "config": {"name": "activation_4", "activation": "relu", "dtype": "float32", "trainable": true}}, {"name": "max_pooling2d_1", "inbound_nodes": [[["activation_4", 0, 0, {}]]], "class_name": "MaxPooling2D", "config": {"pool_size": [3, 3], "padding": "valid", "trainable": true, "data_format": "channels_last", "dtype": "float32", "name": "max_pooling2d_1", "strides": [2, 2]}}, {"name": "conv2d_8", "inbound_nodes": [[["max_pooling2d_1", 0, 0, {}]]], "class_name": "Conv2D", "config": {"trainable": true, "bias_regularizer": null, "strides": [1, 1], "data_format": "channels_last", "kernel_initializer": {"class_name": "GlorotUniform", "config": {"seed": null}}, "dtype": "float32", "padding": "same", "bias_initializer": {"class_name": "Zeros", "config": {}}, "kernel_constraint": null, "activation": "linear", "filters": 64, "kernel_size": [1, 1], "use_bias": false, "dilation_rate": [1, 1], "bias_constraint": null, "activity_regularizer": null, "name": "conv2d_8", "kernel_regularizer": null}}, {"name": "batch_normalization_8", "inbound_nodes": [[["conv2d_8", 0, 0, {}]]], "class_name": "BatchNormalization", "config": {"beta_regularizer": null, "beta_initializer": {"class_name": "Zeros", "config": {}}, "dtype": "float32", "axis": [3], "gamma_initializer": {"class_name": "Ones", "config": {}}, "center": true, "beta_constraint": null, "scale": false, "gamma_constraint": null, "trainable": true, "moving_mean_initializer": {"class_name": "Zeros", "config": {}}, "moving_variance_initializer": {"class_name": "Ones", "config": {}}, "name": "batch_normalization_8", "momentum": 0.99, "epsilon": 0.001, "gamma_regularizer": null}}, {"name": "activation_8", "inbound_nodes": [[["batch_normalization_8", 0, 0, {}]]], "class_name": "Activation", "config": {"name": "activation_8", "activation": "relu", "dtype": "float32", "trainable": true}}, {"name": "conv2d_6", "inbound_nodes": [[["max_pooling2d_1", 0, 0, {}]]], "class_name": "Conv2D", "config": {"trainable": true, "bias_regularizer": null, "strides": [1, 1], "data_format": "channels_last", "kernel_initializer": {"class_name": "GlorotUniform", "config": {"seed": null}}, "dtype": "float32", "padding": "same", "bias_initializer": {"class_name": "Zeros", "config": {}}, "kernel_constraint": null, "activation": "linear", "filters": 48, "kernel_size": [1, 1], "use_bias": false, "dilation_rate": [1, 1], "bias_constraint": null, "activity_regularizer": null, "name": "conv2d_6", "kernel_regularizer": null}}, {"name": "conv2d_9", "inbound_nodes": [[["activation_8", 0, 0, {}]]], "class_name": "Conv2D", "config": {"trainable": true, "bias_regularizer": null, "strides": [1, 1], "data_format": "channels_last", "kernel_initializer": {"class_name": "GlorotUniform", "config": {"seed": null}}, "dtype": "float32", "padding": "same", "bias_initializer": {"class_name": "Zeros", "config": {}}, "kernel_constraint": null, "activation": "linear", "filters": 96, "kernel_size": [3, 3], "use_bias": false, "dilation_rate": [1, 1], "bias_constraint": null, "activity_regularizer": null, "name": "conv2d_9", "kernel_regularizer": null}}, {"name": "batch_normalization_6", "inbound_nodes": [[["conv2d_6", 0, 0, {}]]], "class_name": "BatchNormalization", "config": {"beta_regularizer": null, "beta_initializer": {"class_name": "Zeros", "config": {}}, "dtype": "float32", "axis": [3], "gamma_initializer": {"class_name": "Ones", "config": {}}, "center": true, "beta_constraint": null, "scale": false, "gamma_constraint": null, "trainable": true, "moving_mean_initializer": {"class_name": "Zeros", "config": {}}, "moving_variance_initializer": {"class_name": "Ones", "config": {}}, "name": "batch_normalization_6", "momentum": 0.99, "epsilon": 0.001, "gamma_regularizer": null}}, {"name": "batch_normalization_9", "inbound_nodes": [[["conv2d_9", 0, 0, {}]]], "class_name": "BatchNormalization", "config": {"beta_regularizer": null, "beta_initializer": {"class_name": "Zeros", "config": {}}, "dtype": "float32", "axis": [3], "gamma_initializer": {"class_name": "Ones", "config": {}}, "center": true, "beta_constraint": null, "scale": false, "gamma_constraint": null, "trainable": true, "moving_mean_initializer": {"class_name": "Zeros", "config": {}}, "moving_variance_initializer": {"class_name": "Ones", "config": {}}, "name": "batch_normalization_9", "momentum": 0.99, "epsilon": 0.001, "gamma_regularizer": null}}, {"name": "activation_6", "inbound_nodes": [[["batch_normalization_6", 0, 0, {}]]], "class_name": "Activation", "config": {"name": "activation_6", "activation": "relu", "dtype": "float32", "trainable": true}}, {"name": "activation_9", "inbound_nodes": [[["batch_normalization_9", 0, 0, {}]]], "class_name": "Activation", "config": {"name": "activation_9", "activation": "relu", "dtype": "float32", "trainable": true}}, {"name": "average_pooling2d", "inbound_nodes": [[["max_pooling2d_1", 0, 0, {}]]], "class_name": "AveragePooling2D", "config": {"pool_size": [3, 3], "padding": "same", "trainable": true, "data_format": "channels_last", "dtype": "float32", "name": "average_pooling2d", "strides": [1, 1]}}, {"name": "conv2d_5", "inbound_nodes": [[["max_pooling2d_1", 0, 0, {}]]], "class_name": "Conv2D", "config": {"trainable": true, "bias_regularizer": null, "strides": [1, 1], "data_format": "channels_last", "kernel_initializer": {"class_name": "GlorotUniform", "config": {"seed": null}}, "dtype": "float32", "padding": "same", "bias_initializer": {"class_name": "Zeros", "config": {}}, "kernel_constraint": null, "activation": "linear", "filters": 64, "kernel_size": [1, 1], "use_bias": false, "dilation_rate": [1, 1], "bias_constraint": null, "activity_regularizer": null, "name": "conv2d_5", "kernel_regularizer": null}}, {"name": "conv2d_7", "inbound_nodes": [[["activation_6", 0, 0, {}]]], "class_name": "Conv2D", "config": {"trainable": true, "bias_regularizer": null, "strides": [1, 1], "data_format": "channels_last", "kernel_initializer": {"class_name": "GlorotUniform", "config": {"seed": null}}, "dtype": "float32", "padding": "same", "bias_initializer": {"class_name": "Zeros", "config": {}}, "kernel_constraint": null, "activation": "linear", "filters": 64, "kernel_size": [5, 5], "use_bias": false, "dilation_rate": [1, 1], "bias_constraint": null, "activity_regularizer": null, "name": "conv2d_7", "kernel_regularizer": null}}, {"name": "conv2d_10", "inbound_nodes": [[["activation_9", 0, 0, {}]]], "class_name": "Conv2D", "config": {"trainable": true, "bias_regularizer": null, "strides": [1, 1], "data_format": "channels_last", "kernel_initializer": {"class_name": "GlorotUniform", "config": {"seed": null}}, "dtype": "float32", "padding": "same", "bias_initializer": {"class_name": "Zeros", "config": {}}, "kernel_constraint": null, "activation": "linear", "filters": 96, "kernel_size": [3, 3], "use_bias": false, "dilation_rate": [1, 1], "bias_constraint": null, "activity_regularizer": null, "name": "conv2d_10", "kernel_regularizer": null}}, {"name": "conv2d_11", "inbound_nodes": [[["average_pooling2d", 0, 0, {}]]], "class_name": "Conv2D", "config": {"trainable": true, "bias_regularizer": null, "strides": [1, 1], "data_format": "channels_last", "kernel_initializer": {"class_name": "GlorotUniform", "config": {"seed": null}}, "dtype": "float32", "padding": "same", "bias_initializer": {"class_name": "Zeros", "config": {}}, "kernel_constraint": null, "activation": "linear", "filters": 32, "kernel_size": [1, 1], "use_bias": false, "dilation_rate": [1, 1], "bias_constraint": null, "activity_regularizer": null, "name": "conv2d_11", "kernel_regularizer": null}}, {"name": "batch_normalization_5", "inbound_nodes": [[["conv2d_5", 0, 0, {}]]], "class_name": "BatchNormalization", "config": {"beta_regularizer": null, "beta_initializer": {"class_name": "Zeros", "config": {}}, "dtype": "float32", "axis": [3], "gamma_initializer": {"class_name": "Ones", "config": {}}, "center": true, "beta_constraint": null, "scale": false, "gamma_constraint": null, "trainable": true, "moving_mean_initializer": {"class_name": "Zeros", "config": {}}, "moving_variance_initializer": {"class_name": "Ones", "config": {}}, "name": "batch_normalization_5", "momentum": 0.99, "epsilon": 0.001, "gamma_regularizer": null}}, {"name": "batch_normalization_7", "inbound_nodes": [[["conv2d_7", 0, 0, {}]]], "class_name": "BatchNormalization", "config": {"beta_regularizer": null, "beta_initializer": {"class_name": "Zeros", "config": {}}, "dtype": "float32", "axis": [3], "gamma_initializer": {"class_name": "Ones", "config": {}}, "center": true, "beta_constraint": null, "scale": false, "gamma_constraint": null, "trainable": true, "moving_mean_initializer": {"class_name": "Zeros", "config": {}}, "moving_variance_initializer": {"class_name": "Ones", "config": {}}, "name": "batch_normalization_7", "momentum": 0.99, "epsilon": 0.001, "gamma_regularizer": null}}, {"name": "batch_normalization_10", "inbound_nodes": [[["conv2d_10", 0, 0, {}]]], "class_name": "BatchNormalization", "config": {"beta_regularizer": null, "beta_initializer": {"class_name": "Zeros", "config": {}}, "dtype": "float32", "axis": [3], "gamma_initializer": {"class_name": "Ones", "config": {}}, "center": true, "beta_constraint": null, "scale": false, "gamma_constraint": null, "trainable": true, "moving_mean_initializer": {"class_name": "Zeros", "config": {}}, "moving_variance_initializer": {"class_name": "Ones", "config": {}}, "name": "batch_normalization_10", "momentum": 0.99, "epsilon": 0.001, "gamma_regularizer": null}}, {"name": "batch_normalization_11", "inbound_nodes": [[["conv2d_11", 0, 0, {}]]], "class_name": "BatchNormalization", "config": {"beta_regularizer": null, "beta_initializer": {"class_name": "Zeros", "config": {}}, "dtype": "float32", "axis": [3], "gamma_initializer": {"class_name": "Ones", "config": {}}, "center": true, "beta_constraint": null, "scale": false, "gamma_constraint": null, "trainable": true, "moving_mean_initializer": {"class_name": "Zeros", "config": {}}, "moving_variance_initializer": {"class_name": "Ones", "config": {}}, "name": "batch_normalization_11", "momentum": 0.99, "epsilon": 0.001, "gamma_regularizer": null}}, {"name": "activation_5", "inbound_nodes": [[["batch_normalization_5", 0, 0, {}]]], "class_name": "Activation", "config": {"name": "activation_5", "activation": "relu", "dtype": "float32", "trainable": true}}, {"name": "activation_7", "inbound_nodes": [[["batch_normalization_7", 0, 0, {}]]], "class_name": "Activation", "config": {"name": "activation_7", "activation": "relu", "dtype": "float32", "trainable": true}}, {"name": "activation_10", "inbound_nodes": [[["batch_normalization_10", 0, 0, {}]]], "class_name": "Activation", "config": {"name": "activation_10", "activation": "relu", "dtype": "float32", "trainable": true}}, {"name": "activation_11", "inbound_nodes": [[["batch_normalization_11", 0, 0, {}]]], "class_name": "Activation", "config": {"name": "activation_11", "activation": "relu", "dtype": "float32", "trainable": true}}, {"name": "mixed0", "inbound_nodes": [[["activation_5", 0, 0, {}], ["activation_7", 0, 0, {}], ["activation_10", 0, 0, {}], ["activation_11", 0, 0, {}]]], "class_name": "Concatenate", "config": {"name": "mixed0", "axis": 3, "dtype": "float32", "trainable": true}}, {"name": "conv2d_15", "inbound_nodes": [[["mixed0", 0, 0, {}]]], "class_name": "Conv2D", "config": {"trainable": true, "bias_regularizer": null, "strides": [1, 1], "data_format": "channels_last", "kernel_initializer": {"class_name": "GlorotUniform", "config": {"seed": null}}, "dtype": "float32", "padding": "same", "bias_initializer": {"class_name": "Zeros", "config": {}}, "kernel_constraint": null, "activation": "linear", "filters": 64, "kernel_size": [1, 1], "use_bias": false, "dilation_rate": [1, 1], "bias_constraint": null, "activity_regularizer": null, "name": "conv2d_15", "kernel_regularizer": null}}, {"name": "batch_normalization_15", "inbound_nodes": [[["conv2d_15", 0, 0, {}]]], "class_name": "BatchNormalization", "config": {"beta_regularizer": null, "beta_initializer": {"class_name": "Zeros", "config": {}}, "dtype": "float32", "axis": [3], "gamma_initializer": {"class_name": "Ones", "config": {}}, "center": true, "beta_constraint": null, "scale": false, "gamma_constraint": null, "trainable": true, "moving_mean_initializer": {"class_name": "Zeros", "config": {}}, "moving_variance_initializer": {"class_name": "Ones", "config": {}}, "name": "batch_normalization_15", "momentum": 0.99, "epsilon": 0.001, "gamma_regularizer": null}}, {"name": "activation_15", "inbound_nodes": [[["batch_normalization_15", 0, 0, {}]]], "class_name": "Activation", "config": {"name": "activation_15", "activation": "relu", "dtype": "float32", "trainable": true}}, {"name": "conv2d_13", "inbound_nodes": [[["mixed0", 0, 0, {}]]], "class_name": "Conv2D", "config": {"trainable": true, "bias_regularizer": null, "strides": [1, 1], "data_format": "channels_last", "kernel_initializer": {"class_name": "GlorotUniform", "config": {"seed": null}}, "dtype": "float32", "padding": "same", "bias_initializer": {"class_name": "Zeros", "config": {}}, "kernel_constraint": null, "activation": "linear", "filters": 48, "kernel_size": [1, 1], "use_bias": false, "dilation_rate": [1, 1], "bias_constraint": null, "activity_regularizer": null, "name": "conv2d_13", "kernel_regularizer": null}}, {"name": "conv2d_16", "inbound_nodes": [[["activation_15", 0, 0, {}]]], "class_name": "Conv2D", "config": {"trainable": true, "bias_regularizer": null, "strides": [1, 1], "data_format": "channels_last", "kernel_initializer": {"class_name": "GlorotUniform", "config": {"seed": null}}, "dtype": "float32", "padding": "same", "bias_initializer": {"class_name": "Zeros", "config": {}}, "kernel_constraint": null, "activation": "linear", "filters": 96, "kernel_size": [3, 3], "use_bias": false, "dilation_rate": [1, 1], "bias_constraint": null, "activity_regularizer": null, "name": "conv2d_16", "kernel_regularizer": null}}, {"name": "batch_normalization_13", "inbound_nodes": [[["conv2d_13", 0, 0, {}]]], "class_name": "BatchNormalization", "config": {"beta_regularizer": null, "beta_initializer": {"class_name": "Zeros", "config": {}}, "dtype": "float32", "axis": [3], "gamma_initializer": {"class_name": "Ones", "config": {}}, "center": true, "beta_constraint": null, "scale": false, "gamma_constraint": null, "trainable": true, "moving_mean_initializer": {"class_name": "Zeros", "config": {}}, "moving_variance_initializer": {"class_name": "Ones", "config": {}}, "name": "batch_normalization_13", "momentum": 0.99, "epsilon": 0.001, "gamma_regularizer": null}}, {"name": "batch_normalization_16", "inbound_nodes": [[["conv2d_16", 0, 0, {}]]], "class_name": "BatchNormalization", "config": {"beta_regularizer": null, "beta_initializer": {"class_name": "Zeros", "config": {}}, "dtype": "float32", "axis": [3], "gamma_initializer": {"class_name": "Ones", "config": {}}, "center": true, "beta_constraint": null, "scale": false, "gamma_constraint": null, "trainable": true, "moving_mean_initializer": {"class_name": "Zeros", "config": {}}, "moving_variance_initializer": {"class_name": "Ones", "config": {}}, "name": "batch_normalization_16", "momentum": 0.99, "epsilon": 0.001, "gamma_regularizer": null}}, {"name": "activation_13", "inbound_nodes": [[["batch_normalization_13", 0, 0, {}]]], "class_name": "Activation", "config": {"name": "activation_13", "activation": "relu", "dtype": "float32", "trainable": true}}, {"name": "activation_16", "inbound_nodes": [[["batch_normalization_16", 0, 0, {}]]], "class_name": "Activation", "config": {"name": "activation_16", "activation": "relu", "dtype": "float32", "trainable": true}}, {"name": "average_pooling2d_1", "inbound_nodes": [[["mixed0", 0, 0, {}]]], "class_name": "AveragePooling2D", "config": {"pool_size": [3, 3], "padding": "same", "trainable": true, "data_format": "channels_last", "dtype": "float32", "name": "average_pooling2d_1", "strides": [1, 1]}}, {"name": "conv2d_12", "inbound_nodes": [[["mixed0", 0, 0, {}]]], "class_name": "Conv2D", "config": {"trainable": true, "bias_regularizer": null, "strides": [1, 1], "data_format": "channels_last", "kernel_initializer": {"class_name": "GlorotUniform", "config": {"seed": null}}, "dtype": "float32", "padding": "same", "bias_initializer": {"class_name": "Zeros", "config": {}}, "kernel_constraint": null, "activation": "linear", "filters": 64, "kernel_size": [1, 1], "use_bias": false, "dilation_rate": [1, 1], "bias_constraint": null, "activity_regularizer": null, "name": "conv2d_12", "kernel_regularizer": null}}, {"name": "conv2d_14", "inbound_nodes": [[["activation_13", 0, 0, {}]]], "class_name": "Conv2D", "config": {"trainable": true, "bias_regularizer": null, "strides": [1, 1], "data_format": "channels_last", "kernel_initializer": {"class_name": "GlorotUniform", "config": {"seed": null}}, "dtype": "float32", "padding": "same", "bias_initializer": {"class_name": "Zeros", "config": {}}, "kernel_constraint": null, "activation": "linear", "filters": 64, "kernel_size": [5, 5], "use_bias": false, "dilation_rate": [1, 1], "bias_constraint": null, "activity_regularizer": null, "name": "conv2d_14", "kernel_regularizer": null}}, {"name": "conv2d_17", "inbound_nodes": [[["activation_16", 0, 0, {}]]], "class_name": "Conv2D", "config": {"trainable": true, "bias_regularizer": null, "strides": [1, 1], "data_format": "channels_last", "kernel_initializer": {"class_name": "GlorotUniform", "config": {"seed": null}}, "dtype": "float32", "padding": "same", "bias_initializer": {"class_name": "Zeros", "config": {}}, "kernel_constraint": null, "activation": "linear", "filters": 96, "kernel_size": [3, 3], "use_bias": false, "dilation_rate": [1, 1], "bias_constraint": null, "activity_regularizer": null, "name": "conv2d_17", "kernel_regularizer": null}}, {"name": "conv2d_18", "inbound_nodes": [[["average_pooling2d_1", 0, 0, {}]]], "class_name": "Conv2D", "config": {"trainable": true, "bias_regularizer": null, "strides": [1, 1], "data_format": "channels_last", "kernel_initializer": {"class_name": "GlorotUniform", "config": {"seed": null}}, "dtype": "float32", "padding": "same", "bias_initializer": {"class_name": "Zeros", "config": {}}, "kernel_constraint": null, "activation": "linear", "filters": 64, "kernel_size": [1, 1], "use_bias": false, "dilation_rate": [1, 1], "bias_constraint": null, "activity_regularizer": null, "name": "conv2d_18", "kernel_regularizer": null}}, {"name": "batch_normalization_12", "inbound_nodes": [[["conv2d_12", 0, 0, {}]]], "class_name": "BatchNormalization", "config": {"beta_regularizer": null, "beta_initializer": {"class_name": "Zeros", "config": {}}, "dtype": "float32", "axis": [3], "gamma_initializer": {"class_name": "Ones", "config": {}}, "center": true, "beta_constraint": null, "scale": false, "gamma_constraint": null, "trainable": true, "moving_mean_initializer": {"class_name": "Zeros", "config": {}}, "moving_variance_initializer": {"class_name": "Ones", "config": {}}, "name": "batch_normalization_12", "momentum": 0.99, "epsilon": 0.001, "gamma_regularizer": null}}, {"name": "batch_normalization_14", "inbound_nodes": [[["conv2d_14", 0, 0, {}]]], "class_name": "BatchNormalization", "config": {"beta_regularizer": null, "beta_initializer": {"class_name": "Zeros", "config": {}}, "dtype": "float32", "axis": [3], "gamma_initializer": {"class_name": "Ones", "config": {}}, "center": true, "beta_constraint": null, "scale": false, "gamma_constraint": null, "trainable": true, "moving_mean_initializer": {"class_name": "Zeros", "config": {}}, "moving_variance_initializer": {"class_name": "Ones", "config": {}}, "name": "batch_normalization_14", "momentum": 0.99, "epsilon": 0.001, "gamma_regularizer": null}}, {"name": "batch_normalization_17", "inbound_nodes": [[["conv2d_17", 0, 0, {}]]], "class_name": "BatchNormalization", "config": {"beta_regularizer": null, "beta_initializer": {"class_name": "Zeros", "config": {}}, "dtype": "float32", "axis": [3], "gamma_initializer": {"class_name": "Ones", "config": {}}, "center": true, "beta_constraint": null, "scale": false, "gamma_constraint": null, "trainable": true, "moving_mean_initializer": {"class_name": "Zeros", "config": {}}, "moving_variance_initializer": {"class_name": "Ones", "config": {}}, "name": "batch_normalization_17", "momentum": 0.99, "epsilon": 0.001, "gamma_regularizer": null}}, {"name": "batch_normalization_18", "inbound_nodes": [[["conv2d_18", 0, 0, {}]]], "class_name": "BatchNormalization", "config": {"beta_regularizer": null, "beta_initializer": {"class_name": "Zeros", "config": {}}, "dtype": "float32", "axis": [3], "gamma_initializer": {"class_name": "Ones", "config": {}}, "center": true, "beta_constraint": null, "scale": false, "gamma_constraint": null, "trainable": true, "moving_mean_initializer": {"class_name": "Zeros", "config": {}}, "moving_variance_initializer": {"class_name": "Ones", "config": {}}, "name": "batch_normalization_18", "momentum": 0.99, "epsilon": 0.001, "gamma_regularizer": null}}, {"name": "activation_12", "inbound_nodes": [[["batch_normalization_12", 0, 0, {}]]], "class_name": "Activation", "config": {"name": "activation_12", "activation": "relu", "dtype": "float32", "trainable": true}}, {"name": "activation_14", "inbound_nodes": [[["batch_normalization_14", 0, 0, {}]]], "class_name": "Activation", "config": {"name": "activation_14", "activation": "relu", "dtype": "float32", "trainable": true}}, {"name": "activation_17", "inbound_nodes": [[["batch_normalization_17", 0, 0, {}]]], "class_name": "Activation", "config": {"name": "activation_17", "activation": "relu", "dtype": "float32", "trainable": true}}, {"name": "activation_18", "inbound_nodes": [[["batch_normalization_18", 0, 0, {}]]], "class_name": "Activation", "config": {"name": "activation_18", "activation": "relu", "dtype": "float32", "trainable": true}}, {"name": "mixed1", "inbound_nodes": [[["activation_12", 0, 0, {}], ["activation_14", 0, 0, {}], ["activation_17", 0, 0, {}], ["activation_18", 0, 0, {}]]], "class_name": "Concatenate", "config": {"name": "mixed1", "axis": 3, "dtype": "float32", "trainable": true}}, {"name": "conv2d_22", "inbound_nodes": [[["mixed1", 0, 0, {}]]], "class_name": "Conv2D", "config": {"trainable": true, "bias_regularizer": null, "strides": [1, 1], "data_format": "channels_last", "kernel_initializer": {"class_name": "GlorotUniform", "config": {"seed": null}}, "dtype": "float32", "padding": "same", "bias_initializer": {"class_name": "Zeros", "config": {}}, "kernel_constraint": null, "activation": "linear", "filters": 64, "kernel_size": [1, 1], "use_bias": false, "dilation_rate": [1, 1], "bias_constraint": null, "activity_regularizer": null, "name": "conv2d_22", "kernel_regularizer": null}}, {"name": "batch_normalization_22", "inbound_nodes": [[["conv2d_22", 0, 0, {}]]], "class_name": "BatchNormalization", "config": {"beta_regularizer": null, "beta_initializer": {"class_name": "Zeros", "config": {}}, "dtype": "float32", "axis": [3], "gamma_initializer": {"class_name": "Ones", "config": {}}, "center": true, "beta_constraint": null, "scale": false, "gamma_constraint": null, "trainable": true, "moving_mean_initializer": {"class_name": "Zeros", "config": {}}, "moving_variance_initializer": {"class_name": "Ones", "config": {}}, "name": "batch_normalization_22", "momentum": 0.99, "epsilon": 0.001, "gamma_regularizer": null}}, {"name": "activation_22", "inbound_nodes": [[["batch_normalization_22", 0, 0, {}]]], "class_name": "Activation", "config": {"name": "activation_22", "activation": "relu", "dtype": "float32", "trainable": true}}, {"name": "conv2d_20", "inbound_nodes": [[["mixed1", 0, 0, {}]]], "class_name": "Conv2D", "config": {"trainable": true, "bias_regularizer": null, "strides": [1, 1], "data_format": "channels_last", "kernel_initializer": {"class_name": "GlorotUniform", "config": {"seed": null}}, "dtype": "float32", "padding": "same", "bias_initializer": {"class_name": "Zeros", "config": {}}, "kernel_constraint": null, "activation": "linear", "filters": 48, "kernel_size": [1, 1], "use_bias": false, "dilation_rate": [1, 1], "bias_constraint": null, "activity_regularizer": null, "name": "conv2d_20", "kernel_regularizer": null}}, {"name": "conv2d_23", "inbound_nodes": [[["activation_22", 0, 0, {}]]], "class_name": "Conv2D", "config": {"trainable": true, "bias_regularizer": null, "strides": [1, 1], "data_format": "channels_last", "kernel_initializer": {"class_name": "GlorotUniform", "config": {"seed": null}}, "dtype": "float32", "padding": "same", "bias_initializer": {"class_name": "Zeros", "config": {}}, "kernel_constraint": null, "activation": "linear", "filters": 96, "kernel_size": [3, 3], "use_bias": false, "dilation_rate": [1, 1], "bias_constraint": null, "activity_regularizer": null, "name": "conv2d_23", "kernel_regularizer": null}}, {"name": "batch_normalization_20", "inbound_nodes": [[["conv2d_20", 0, 0, {}]]], "class_name": "BatchNormalization", "config": {"beta_regularizer": null, "beta_initializer": {"class_name": "Zeros", "config": {}}, "dtype": "float32", "axis": [3], "gamma_initializer": {"class_name": "Ones", "config": {}}, "center": true, "beta_constraint": null, "scale": false, "gamma_constraint": null, "trainable": true, "moving_mean_initializer": {"class_name": "Zeros", "config": {}}, "moving_variance_initializer": {"class_name": "Ones", "config": {}}, "name": "batch_normalization_20", "momentum": 0.99, "epsilon": 0.001, "gamma_regularizer": null}}, {"name": "batch_normalization_23", "inbound_nodes": [[["conv2d_23", 0, 0, {}]]], "class_name": "BatchNormalization", "config": {"beta_regularizer": null, "beta_initializer": {"class_name": "Zeros", "config": {}}, "dtype": "float32", "axis": [3], "gamma_initializer": {"class_name": "Ones", "config": {}}, "center": true, "beta_constraint": null, "scale": false, "gamma_constraint": null, "trainable": true, "moving_mean_initializer": {"class_name": "Zeros", "config": {}}, "moving_variance_initializer": {"class_name": "Ones", "config": {}}, "name": "batch_normalization_23", "momentum": 0.99, "epsilon": 0.001, "gamma_regularizer": null}}, {"name": "activation_20", "inbound_nodes": [[["batch_normalization_20", 0, 0, {}]]], "class_name": "Activation", "config": {"name": "activation_20", "activation": "relu", "dtype": "float32", "trainable": true}}, {"name": "activation_23", "inbound_nodes": [[["batch_normalization_23", 0, 0, {}]]], "class_name": "Activation", "config": {"name": "activation_23", "activation": "relu", "dtype": "float32", "trainable": true}}, {"name": "average_pooling2d_2", "inbound_nodes": [[["mixed1", 0, 0, {}]]], "class_name": "AveragePooling2D", "config": {"pool_size": [3, 3], "padding": "same", "trainable": true, "data_format": "channels_last", "dtype": "float32", "name": "average_pooling2d_2", "strides": [1, 1]}}, {"name": "conv2d_19", "inbound_nodes": [[["mixed1", 0, 0, {}]]], "class_name": "Conv2D", "config": {"trainable": true, "bias_regularizer": null, "strides": [1, 1], "data_format": "channels_last", "kernel_initializer": {"class_name": "GlorotUniform", "config": {"seed": null}}, "dtype": "float32", "padding": "same", "bias_initializer": {"class_name": "Zeros", "config": {}}, "kernel_constraint": null, "activation": "linear", "filters": 64, "kernel_size": [1, 1], "use_bias": false, "dilation_rate": [1, 1], "bias_constraint": null, "activity_regularizer": null, "name": "conv2d_19", "kernel_regularizer": null}}, {"name": "conv2d_21", "inbound_nodes": [[["activation_20", 0, 0, {}]]], "class_name": "Conv2D", "config": {"trainable": true, "bias_regularizer": null, "strides": [1, 1], "data_format": "channels_last", "kernel_initializer": {"class_name": "GlorotUniform", "config": {"seed": null}}, "dtype": "float32", "padding": "same", "bias_initializer": {"class_name": "Zeros", "config": {}}, "kernel_constraint": null, "activation": "linear", "filters": 64, "kernel_size": [5, 5], "use_bias": false, "dilation_rate": [1, 1], "bias_constraint": null, "activity_regularizer": null, "name": "conv2d_21", "kernel_regularizer": null}}, {"name": "conv2d_24", "inbound_nodes": [[["activation_23", 0, 0, {}]]], "class_name": "Conv2D", "config": {"trainable": true, "bias_regularizer": null, "strides": [1, 1], "data_format": "channels_last", "kernel_initializer": {"class_name": "GlorotUniform", "config": {"seed": null}}, "dtype": "float32", "padding": "same", "bias_initializer": {"class_name": "Zeros", "config": {}}, "kernel_constraint": null, "activation": "linear", "filters": 96, "kernel_size": [3, 3], "use_bias": false, "dilation_rate": [1, 1], "bias_constraint": null, "activity_regularizer": null, "name": "conv2d_24", "kernel_regularizer": null}}, {"name": "conv2d_25", "inbound_nodes": [[["average_pooling2d_2", 0, 0, {}]]], "class_name": "Conv2D", "config": {"trainable": true, "bias_regularizer": null, "strides": [1, 1], "data_format": "channels_last", "kernel_initializer": {"class_name": "GlorotUniform", "config": {"seed": null}}, "dtype": "float32", "padding": "same", "bias_initializer": {"class_name": "Zeros", "config": {}}, "kernel_constraint": null, "activation": "linear", "filters": 64, "kernel_size": [1, 1], "use_bias": false, "dilation_rate": [1, 1], "bias_constraint": null, "activity_regularizer": null, "name": "conv2d_25", "kernel_regularizer": null}}, {"name": "batch_normalization_19", "inbound_nodes": [[["conv2d_19", 0, 0, {}]]], "class_name": "BatchNormalization", "config": {"beta_regularizer": null, "beta_initializer": {"class_name": "Zeros", "config": {}}, "dtype": "float32", "axis": [3], "gamma_initializer": {"class_name": "Ones", "config": {}}, "center": true, "beta_constraint": null, "scale": false, "gamma_constraint": null, "trainable": true, "moving_mean_initializer": {"class_name": "Zeros", "config": {}}, "moving_variance_initializer": {"class_name": "Ones", "config": {}}, "name": "batch_normalization_19", "momentum": 0.99, "epsilon": 0.001, "gamma_regularizer": null}}, {"name": "batch_normalization_21", "inbound_nodes": [[["conv2d_21", 0, 0, {}]]], "class_name": "BatchNormalization", "config": {"beta_regularizer": null, "beta_initializer": {"class_name": "Zeros", "config": {}}, "dtype": "float32", "axis": [3], "gamma_initializer": {"class_name": "Ones", "config": {}}, "center": true, "beta_constraint": null, "scale": false, "gamma_constraint": null, "trainable": true, "moving_mean_initializer": {"class_name": "Zeros", "config": {}}, "moving_variance_initializer": {"class_name": "Ones", "config": {}}, "name": "batch_normalization_21", "momentum": 0.99, "epsilon": 0.001, "gamma_regularizer": null}}, {"name": "batch_normalization_24", "inbound_nodes": [[["conv2d_24", 0, 0, {}]]], "class_name": "BatchNormalization", "config": {"beta_regularizer": null, "beta_initializer": {"class_name": "Zeros", "config": {}}, "dtype": "float32", "axis": [3], "gamma_initializer": {"class_name": "Ones", "config": {}}, "center": true, "beta_constraint": null, "scale": false, "gamma_constraint": null, "trainable": true, "moving_mean_initializer": {"class_name": "Zeros", "config": {}}, "moving_variance_initializer": {"class_name": "Ones", "config": {}}, "name": "batch_normalization_24", "momentum": 0.99, "epsilon": 0.001, "gamma_regularizer": null}}, {"name": "batch_normalization_25", "inbound_nodes": [[["conv2d_25", 0, 0, {}]]], "class_name": "BatchNormalization", "config": {"beta_regularizer": null, "beta_initializer": {"class_name": "Zeros", "config": {}}, "dtype": "float32", "axis": [3], "gamma_initializer": {"class_name": "Ones", "config": {}}, "center": true, "beta_constraint": null, "scale": false, "gamma_constraint": null, "trainable": true, "moving_mean_initializer": {"class_name": "Zeros", "config": {}}, "moving_variance_initializer": {"class_name": "Ones", "config": {}}, "name": "batch_normalization_25", "momentum": 0.99, "epsilon": 0.001, "gamma_regularizer": null}}, {"name": "activation_19", "inbound_nodes": [[["batch_normalization_19", 0, 0, {}]]], "class_name": "Activation", "config": {"name": "activation_19", "activation": "relu", "dtype": "float32", "trainable": true}}, {"name": "activation_21", "inbound_nodes": [[["batch_normalization_21", 0, 0, {}]]], "class_name": "Activation", "config": {"name": "activation_21", "activation": "relu", "dtype": "float32", "trainable": true}}, {"name": "activation_24", "inbound_nodes": [[["batch_normalization_24", 0, 0, {}]]], "class_name": "Activation", "config": {"name": "activation_24", "activation": "relu", "dtype": "float32", "trainable": true}}, {"name": "activation_25", "inbound_nodes": [[["batch_normalization_25", 0, 0, {}]]], "class_name": "Activation", "config": {"name": "activation_25", "activation": "relu", "dtype": "float32", "trainable": true}}, {"name": "mixed2", "inbound_nodes": [[["activation_19", 0, 0, {}], ["activation_21", 0, 0, {}], ["activation_24", 0, 0, {}], ["activation_25", 0, 0, {}]]], "class_name": "Concatenate", "config": {"name": "mixed2", "axis": 3, "dtype": "float32", "trainable": true}}, {"name": "conv2d_27", "inbound_nodes": [[["mixed2", 0, 0, {}]]], "class_name": "Conv2D", "config": {"trainable": true, "bias_regularizer": null, "strides": [1, 1], "data_format": "channels_last", "kernel_initializer": {"class_name": "GlorotUniform", "config": {"seed": null}}, "dtype": "float32", "padding": "same", "bias_initializer": {"class_name": "Zeros", "config": {}}, "kernel_constraint": null, "activation": "linear", "filters": 64, "kernel_size": [1, 1], "use_bias": false, "dilation_rate": [1, 1], "bias_constraint": null, "activity_regularizer": null, "name": "conv2d_27", "kernel_regularizer": null}}, {"name": "batch_normalization_27", "inbound_nodes": [[["conv2d_27", 0, 0, {}]]], "class_name": "BatchNormalization", "config": {"beta_regularizer": null, "beta_initializer": {"class_name": "Zeros", "config": {}}, "dtype": "float32", "axis": [3], "gamma_initializer": {"class_name": "Ones", "config": {}}, "center": true, "beta_constraint": null, "scale": false, "gamma_constraint": null, "trainable": true, "moving_mean_initializer": {"class_name": "Zeros", "config": {}}, "moving_variance_initializer": {"class_name": "Ones", "config": {}}, "name": "batch_normalization_27", "momentum": 0.99, "epsilon": 0.001, "gamma_regularizer": null}}, {"name": "activation_27", "inbound_nodes": [[["batch_normalization_27", 0, 0, {}]]], "class_name": "Activation", "config": {"name": "activation_27", "activation": "relu", "dtype": "float32", "trainable": true}}, {"name": "conv2d_28", "inbound_nodes": [[["activation_27", 0, 0, {}]]], "class_name": "Conv2D", "config": {"trainable": true, "bias_regularizer": null, "strides": [1, 1], "data_format": "channels_last", "kernel_initializer": {"class_name": "GlorotUniform", "config": {"seed": null}}, "dtype": "float32", "padding": "same", "bias_initializer": {"class_name": "Zeros", "config": {}}, "kernel_constraint": null, "activation": "linear", "filters": 96, "kernel_size": [3, 3], "use_bias": false, "dilation_rate": [1, 1], "bias_constraint": null, "activity_regularizer": null, "name": "conv2d_28", "kernel_regularizer": null}}, {"name": "batch_normalization_28", "inbound_nodes": [[["conv2d_28", 0, 0, {}]]], "class_name": "BatchNormalization", "config": {"beta_regularizer": null, "beta_initializer": {"class_name": "Zeros", "config": {}}, "dtype": "float32", "axis": [3], "gamma_initializer": {"class_name": "Ones", "config": {}}, "center": true, "beta_constraint": null, "scale": false, "gamma_constraint": null, "trainable": true, "moving_mean_initializer": {"class_name": "Zeros", "config": {}}, "moving_variance_initializer": {"class_name": "Ones", "config": {}}, "name": "batch_normalization_28", "momentum": 0.99, "epsilon": 0.001, "gamma_regularizer": null}}, {"name": "activation_28", "inbound_nodes": [[["batch_normalization_28", 0, 0, {}]]], "class_name": "Activation", "config": {"name": "activation_28", "activation": "relu", "dtype": "float32", "trainable": true}}, {"name": "conv2d_26", "inbound_nodes": [[["mixed2", 0, 0, {}]]], "class_name": "Conv2D", "config": {"trainable": true, "bias_regularizer": null, "strides": [2, 2], "data_format": "channels_last", "kernel_initializer": {"class_name": "GlorotUniform", "config": {"seed": null}}, "dtype": "float32", "padding": "valid", "bias_initializer": {"class_name": "Zeros", "config": {}}, "kernel_constraint": null, "activation": "linear", "filters": 384, "kernel_size": [3, 3], "use_bias": false, "dilation_rate": [1, 1], "bias_constraint": null, "activity_regularizer": null, "name": "conv2d_26", "kernel_regularizer": null}}, {"name": "conv2d_29", "inbound_nodes": [[["activation_28", 0, 0, {}]]], "class_name": "Conv2D", "config": {"trainable": true, "bias_regularizer": null, "strides": [2, 2], "data_format": "channels_last", "kernel_initializer": {"class_name": "GlorotUniform", "config": {"seed": null}}, "dtype": "float32", "padding": "valid", "bias_initializer": {"class_name": "Zeros", "config": {}}, "kernel_constraint": null, "activation": "linear", "filters": 96, "kernel_size": [3, 3], "use_bias": false, "dilation_rate": [1, 1], "bias_constraint": null, "activity_regularizer": null, "name": "conv2d_29", "kernel_regularizer": null}}, {"name": "batch_normalization_26", "inbound_nodes": [[["conv2d_26", 0, 0, {}]]], "class_name": "BatchNormalization", "config": {"beta_regularizer": null, "beta_initializer": {"class_name": "Zeros", "config": {}}, "dtype": "float32", "axis": [3], "gamma_initializer": {"class_name": "Ones", "config": {}}, "center": true, "beta_constraint": null, "scale": false, "gamma_constraint": null, "trainable": true, "moving_mean_initializer": {"class_name": "Zeros", "config": {}}, "moving_variance_initializer": {"class_name": "Ones", "config": {}}, "name": "batch_normalization_26", "momentum": 0.99, "epsilon": 0.001, "gamma_regularizer": null}}, {"name": "batch_normalization_29", "inbound_nodes": [[["conv2d_29", 0, 0, {}]]], "class_name": "BatchNormalization", "config": {"beta_regularizer": null, "beta_initializer": {"class_name": "Zeros", "config": {}}, "dtype": "float32", "axis": [3], "gamma_initializer": {"class_name": "Ones", "config": {}}, "center": true, "beta_constraint": null, "scale": false, "gamma_constraint": null, "trainable": true, "moving_mean_initializer": {"class_name": "Zeros", "config": {}}, "moving_variance_initializer": {"class_name": "Ones", "config": {}}, "name": "batch_normalization_29", "momentum": 0.99, "epsilon": 0.001, "gamma_regularizer": null}}, {"name": "activation_26", "inbound_nodes": [[["batch_normalization_26", 0, 0, {}]]], "class_name": "Activation", "config": {"name": "activation_26", "activation": "relu", "dtype": "float32", "trainable": true}}, {"name": "activation_29", "inbound_nodes": [[["batch_normalization_29", 0, 0, {}]]], "class_name": "Activation", "config": {"name": "activation_29", "activation": "relu", "dtype": "float32", "trainable": true}}, {"name": "max_pooling2d_2", "inbound_nodes": [[["mixed2", 0, 0, {}]]], "class_name": "MaxPooling2D", "config": {"pool_size": [3, 3], "padding": "valid", "trainable": true, "data_format": "channels_last", "dtype": "float32", "name": "max_pooling2d_2", "strides": [2, 2]}}, {"name": "mixed3", "inbound_nodes": [[["activation_26", 0, 0, {}], ["activation_29", 0, 0, {}], ["max_pooling2d_2", 0, 0, {}]]], "class_name": "Concatenate", "config": {"name": "mixed3", "axis": 3, "dtype": "float32", "trainable": true}}, {"name": "conv2d_34", "inbound_nodes": [[["mixed3", 0, 0, {}]]], "class_name": "Conv2D", "config": {"trainable": true, "bias_regularizer": null, "strides": [1, 1], "data_format": "channels_last", "kernel_initializer": {"class_name": "GlorotUniform", "config": {"seed": null}}, "dtype": "float32", "padding": "same", "bias_initializer": {"class_name": "Zeros", "config": {}}, "kernel_constraint": null, "activation": "linear", "filters": 128, "kernel_size": [1, 1], "use_bias": false, "dilation_rate": [1, 1], "bias_constraint": null, "activity_regularizer": null, "name": "conv2d_34", "kernel_regularizer": null}}, {"name": "batch_normalization_34", "inbound_nodes": [[["conv2d_34", 0, 0, {}]]], "class_name": "BatchNormalization", "config": {"beta_regularizer": null, "beta_initializer": {"class_name": "Zeros", "config": {}}, "dtype": "float32", "axis": [3], "gamma_initializer": {"class_name": "Ones", "config": {}}, "center": true, "beta_constraint": null, "scale": false, "gamma_constraint": null, "trainable": true, "moving_mean_initializer": {"class_name": "Zeros", "config": {}}, "moving_variance_initializer": {"class_name": "Ones", "config": {}}, "name": "batch_normalization_34", "momentum": 0.99, "epsilon": 0.001, "gamma_regularizer": null}}, {"name": "activation_34", "inbound_nodes": [[["batch_normalization_34", 0, 0, {}]]], "class_name": "Activation", "config": {"name": "activation_34", "activation": "relu", "dtype": "float32", "trainable": true}}, {"name": "conv2d_35", "inbound_nodes": [[["activation_34", 0, 0, {}]]], "class_name": "Conv2D", "config": {"trainable": true, "bias_regularizer": null, "strides": [1, 1], "data_format": "channels_last", "kernel_initializer": {"class_name": "GlorotUniform", "config": {"seed": null}}, "dtype": "float32", "padding": "same", "bias_initializer": {"class_name": "Zeros", "config": {}}, "kernel_constraint": null, "activation": "linear", "filters": 128, "kernel_size": [7, 1], "use_bias": false, "dilation_rate": [1, 1], "bias_constraint": null, "activity_regularizer": null, "name": "conv2d_35", "kernel_regularizer": null}}, {"name": "batch_normalization_35", "inbound_nodes": [[["conv2d_35", 0, 0, {}]]], "class_name": "BatchNormalization", "config": {"beta_regularizer": null, "beta_initializer": {"class_name": "Zeros", "config": {}}, "dtype": "float32", "axis": [3], "gamma_initializer": {"class_name": "Ones", "config": {}}, "center": true, "beta_constraint": null, "scale": false, "gamma_constraint": null, "trainable": true, "moving_mean_initializer": {"class_name": "Zeros", "config": {}}, "moving_variance_initializer": {"class_name": "Ones", "config": {}}, "name": "batch_normalization_35", "momentum": 0.99, "epsilon": 0.001, "gamma_regularizer": null}}, {"name": "activation_35", "inbound_nodes": [[["batch_normalization_35", 0, 0, {}]]], "class_name": "Activation", "config": {"name": "activation_35", "activation": "relu", "dtype": "float32", "trainable": true}}, {"name": "conv2d_31", "inbound_nodes": [[["mixed3", 0, 0, {}]]], "class_name": "Conv2D", "config": {"trainable": true, "bias_regularizer": null, "strides": [1, 1], "data_format": "channels_last", "kernel_initializer": {"class_name": "GlorotUniform", "config": {"seed": null}}, "dtype": "float32", "padding": "same", "bias_initializer": {"class_name": "Zeros", "config": {}}, "kernel_constraint": null, "activation": "linear", "filters": 128, "kernel_size": [1, 1], "use_bias": false, "dilation_rate": [1, 1], "bias_constraint": null, "activity_regularizer": null, "name": "conv2d_31", "kernel_regularizer": null}}, {"name": "conv2d_36", "inbound_nodes": [[["activation_35", 0, 0, {}]]], "class_name": "Conv2D", "config": {"trainable": true, "bias_regularizer": null, "strides": [1, 1], "data_format": "channels_last", "kernel_initializer": {"class_name": "GlorotUniform", "config": {"seed": null}}, "dtype": "float32", "padding": "same", "bias_initializer": {"class_name": "Zeros", "config": {}}, "kernel_constraint": null, "activation": "linear", "filters": 128, "kernel_size": [1, 7], "use_bias": false, "dilation_rate": [1, 1], "bias_constraint": null, "activity_regularizer": null, "name": "conv2d_36", "kernel_regularizer": null}}, {"name": "batch_normalization_31", "inbound_nodes": [[["conv2d_31", 0, 0, {}]]], "class_name": "BatchNormalization", "config": {"beta_regularizer": null, "beta_initializer": {"class_name": "Zeros", "config": {}}, "dtype": "float32", "axis": [3], "gamma_initializer": {"class_name": "Ones", "config": {}}, "center": true, "beta_constraint": null, "scale": false, "gamma_constraint": null, "trainable": true, "moving_mean_initializer": {"class_name": "Zeros", "config": {}}, "moving_variance_initializer": {"class_name": "Ones", "config": {}}, "name": "batch_normalization_31", "momentum": 0.99, "epsilon": 0.001, "gamma_regularizer": null}}, {"name": "batch_normalization_36", "inbound_nodes": [[["conv2d_36", 0, 0, {}]]], "class_name": "BatchNormalization", "config": {"beta_regularizer": null, "beta_initializer": {"class_name": "Zeros", "config": {}}, "dtype": "float32", "axis": [3], "gamma_initializer": {"class_name": "Ones", "config": {}}, "center": true, "beta_constraint": null, "scale": false, "gamma_constraint": null, "trainable": true, "moving_mean_initializer": {"class_name": "Zeros", "config": {}}, "moving_variance_initializer": {"class_name": "Ones", "config": {}}, "name": "batch_normalization_36", "momentum": 0.99, "epsilon": 0.001, "gamma_regularizer": null}}, {"name": "activation_31", "inbound_nodes": [[["batch_normalization_31", 0, 0, {}]]], "class_name": "Activation", "config": {"name": "activation_31", "activation": "relu", "dtype": "float32", "trainable": true}}, {"name": "activation_36", "inbound_nodes": [[["batch_normalization_36", 0, 0, {}]]], "class_name": "Activation", "config": {"name": "activation_36", "activation": "relu", "dtype": "float32", "trainable": true}}, {"name": "conv2d_32", "inbound_nodes": [[["activation_31", 0, 0, {}]]], "class_name": "Conv2D", "config": {"trainable": true, "bias_regularizer": null, "strides": [1, 1], "data_format": "channels_last", "kernel_initializer": {"class_name": "GlorotUniform", "config": {"seed": null}}, "dtype": "float32", "padding": "same", "bias_initializer": {"class_name": "Zeros", "config": {}}, "kernel_constraint": null, "activation": "linear", "filters": 128, "kernel_size": [1, 7], "use_bias": false, "dilation_rate": [1, 1], "bias_constraint": null, "activity_regularizer": null, "name": "conv2d_32", "kernel_regularizer": null}}, {"name": "conv2d_37", "inbound_nodes": [[["activation_36", 0, 0, {}]]], "class_name": "Conv2D", "config": {"trainable": true, "bias_regularizer": null, "strides": [1, 1], "data_format": "channels_last", "kernel_initializer": {"class_name": "GlorotUniform", "config": {"seed": null}}, "dtype": "float32", "padding": "same", "bias_initializer": {"class_name": "Zeros", "config": {}}, "kernel_constraint": null, "activation": "linear", "filters": 128, "kernel_size": [7, 1], "use_bias": false, "dilation_rate": [1, 1], "bias_constraint": null, "activity_regularizer": null, "name": "conv2d_37", "kernel_regularizer": null}}, {"name": "batch_normalization_32", "inbound_nodes": [[["conv2d_32", 0, 0, {}]]], "class_name": "BatchNormalization", "config": {"beta_regularizer": null, "beta_initializer": {"class_name": "Zeros", "config": {}}, "dtype": "float32", "axis": [3], "gamma_initializer": {"class_name": "Ones", "config": {}}, "center": true, "beta_constraint": null, "scale": false, "gamma_constraint": null, "trainable": true, "moving_mean_initializer": {"class_name": "Zeros", "config": {}}, "moving_variance_initializer": {"class_name": "Ones", "config": {}}, "name": "batch_normalization_32", "momentum": 0.99, "epsilon": 0.001, "gamma_regularizer": null}}, {"name": "batch_normalization_37", "inbound_nodes": [[["conv2d_37", 0, 0, {}]]], "class_name": "BatchNormalization", "config": {"beta_regularizer": null, "beta_initializer": {"class_name": "Zeros", "config": {}}, "dtype": "float32", "axis": [3], "gamma_initializer": {"class_name": "Ones", "config": {}}, "center": true, "beta_constraint": null, "scale": false, "gamma_constraint": null, "trainable": true, "moving_mean_initializer": {"class_name": "Zeros", "config": {}}, "moving_variance_initializer": {"class_name": "Ones", "config": {}}, "name": "batch_normalization_37", "momentum": 0.99, "epsilon": 0.001, "gamma_regularizer": null}}, {"name": "activation_32", "inbound_nodes": [[["batch_normalization_32", 0, 0, {}]]], "class_name": "Activation", "config": {"name": "activation_32", "activation": "relu", "dtype": "float32", "trainable": true}}, {"name": "activation_37", "inbound_nodes": [[["batch_normalization_37", 0, 0, {}]]], "class_name": "Activation", "config": {"name": "activation_37", "activation": "relu", "dtype": "float32", "trainable": true}}, {"name": "average_pooling2d_3", "inbound_nodes": [[["mixed3", 0, 0, {}]]], "class_name": "AveragePooling2D", "config": {"pool_size": [3, 3], "padding": "same", "trainable": true, "data_format": "channels_last", "dtype": "float32", "name": "average_pooling2d_3", "strides": [1, 1]}}, {"name": "conv2d_30", "inbound_nodes": [[["mixed3", 0, 0, {}]]], "class_name": "Conv2D", "config": {"trainable": true, "bias_regularizer": null, "strides": [1, 1], "data_format": "channels_last", "kernel_initializer": {"class_name": "GlorotUniform", "config": {"seed": null}}, "dtype": "float32", "padding": "same", "bias_initializer": {"class_name": "Zeros", "config": {}}, "kernel_constraint": null, "activation": "linear", "filters": 192, "kernel_size": [1, 1], "use_bias": false, "dilation_rate": [1, 1], "bias_constraint": null, "activity_regularizer": null, "name": "conv2d_30", "kernel_regularizer": null}}, {"name": "conv2d_33", "inbound_nodes": [[["activation_32", 0, 0, {}]]], "class_name": "Conv2D", "config": {"trainable": true, "bias_regularizer": null, "strides": [1, 1], "data_format": "channels_last", "kernel_initializer": {"class_name": "GlorotUniform", "config": {"seed": null}}, "dtype": "float32", "padding": "same", "bias_initializer": {"class_name": "Zeros", "config": {}}, "kernel_constraint": null, "activation": "linear", "filters": 192, "kernel_size": [7, 1], "use_bias": false, "dilation_rate": [1, 1], "bias_constraint": null, "activity_regularizer": null, "name": "conv2d_33", "kernel_regularizer": null}}, {"name": "conv2d_38", "inbound_nodes": [[["activation_37", 0, 0, {}]]], "class_name": "Conv2D", "config": {"trainable": true, "bias_regularizer": null, "strides": [1, 1], "data_format": "channels_last", "kernel_initializer": {"class_name": "GlorotUniform", "config": {"seed": null}}, "dtype": "float32", "padding": "same", "bias_initializer": {"class_name": "Zeros", "config": {}}, "kernel_constraint": null, "activation": "linear", "filters": 192, "kernel_size": [1, 7], "use_bias": false, "dilation_rate": [1, 1], "bias_constraint": null, "activity_regularizer": null, "name": "conv2d_38", "kernel_regularizer": null}}, {"name": "conv2d_39", "inbound_nodes": [[["average_pooling2d_3", 0, 0, {}]]], "class_name": "Conv2D", "config": {"trainable": true, "bias_regularizer": null, "strides": [1, 1], "data_format": "channels_last", "kernel_initializer": {"class_name": "GlorotUniform", "config": {"seed": null}}, "dtype": "float32", "padding": "same", "bias_initializer": {"class_name": "Zeros", "config": {}}, "kernel_constraint": null, "activation": "linear", "filters": 192, "kernel_size": [1, 1], "use_bias": false, "dilation_rate": [1, 1], "bias_constraint": null, "activity_regularizer": null, "name": "conv2d_39", "kernel_regularizer": null}}, {"name": "batch_normalization_30", "inbound_nodes": [[["conv2d_30", 0, 0, {}]]], "class_name": "BatchNormalization", "config": {"beta_regularizer": null, "beta_initializer": {"class_name": "Zeros", "config": {}}, "dtype": "float32", "axis": [3], "gamma_initializer": {"class_name": "Ones", "config": {}}, "center": true, "beta_constraint": null, "scale": false, "gamma_constraint": null, "trainable": true, "moving_mean_initializer": {"class_name": "Zeros", "config": {}}, "moving_variance_initializer": {"class_name": "Ones", "config": {}}, "name": "batch_normalization_30", "momentum": 0.99, "epsilon": 0.001, "gamma_regularizer": null}}, {"name": "batch_normalization_33", "inbound_nodes": [[["conv2d_33", 0, 0, {}]]], "class_name": "BatchNormalization", "config": {"beta_regularizer": null, "beta_initializer": {"class_name": "Zeros", "config": {}}, "dtype": "float32", "axis": [3], "gamma_initializer": {"class_name": "Ones", "config": {}}, "center": true, "beta_constraint": null, "scale": false, "gamma_constraint": null, "trainable": true, "moving_mean_initializer": {"class_name": "Zeros", "config": {}}, "moving_variance_initializer": {"class_name": "Ones", "config": {}}, "name": "batch_normalization_33", "momentum": 0.99, "epsilon": 0.001, "gamma_regularizer": null}}, {"name": "batch_normalization_38", "inbound_nodes": [[["conv2d_38", 0, 0, {}]]], "class_name": "BatchNormalization", "config": {"beta_regularizer": null, "beta_initializer": {"class_name": "Zeros", "config": {}}, "dtype": "float32", "axis": [3], "gamma_initializer": {"class_name": "Ones", "config": {}}, "center": true, "beta_constraint": null, "scale": false, "gamma_constraint": null, "trainable": true, "moving_mean_initializer": {"class_name": "Zeros", "config": {}}, "moving_variance_initializer": {"class_name": "Ones", "config": {}}, "name": "batch_normalization_38", "momentum": 0.99, "epsilon": 0.001, "gamma_regularizer": null}}, {"name": "batch_normalization_39", "inbound_nodes": [[["conv2d_39", 0, 0, {}]]], "class_name": "BatchNormalization", "config": {"beta_regularizer": null, "beta_initializer": {"class_name": "Zeros", "config": {}}, "dtype": "float32", "axis": [3], "gamma_initializer": {"class_name": "Ones", "config": {}}, "center": true, "beta_constraint": null, "scale": false, "gamma_constraint": null, "trainable": true, "moving_mean_initializer": {"class_name": "Zeros", "config": {}}, "moving_variance_initializer": {"class_name": "Ones", "config": {}}, "name": "batch_normalization_39", "momentum": 0.99, "epsilon": 0.001, "gamma_regularizer": null}}, {"name": "activation_30", "inbound_nodes": [[["batch_normalization_30", 0, 0, {}]]], "class_name": "Activation", "config": {"name": "activation_30", "activation": "relu", "dtype": "float32", "trainable": true}}, {"name": "activation_33", "inbound_nodes": [[["batch_normalization_33", 0, 0, {}]]], "class_name": "Activation", "config": {"name": "activation_33", "activation": "relu", "dtype": "float32", "trainable": true}}, {"name": "activation_38", "inbound_nodes": [[["batch_normalization_38", 0, 0, {}]]], "class_name": "Activation", "config": {"name": "activation_38", "activation": "relu", "dtype": "float32", "trainable": true}}, {"name": "activation_39", "inbound_nodes": [[["batch_normalization_39", 0, 0, {}]]], "class_name": "Activation", "config": {"name": "activation_39", "activation": "relu", "dtype": "float32", "trainable": true}}, {"name": "mixed4", "inbound_nodes": [[["activation_30", 0, 0, {}], ["activation_33", 0, 0, {}], ["activation_38", 0, 0, {}], ["activation_39", 0, 0, {}]]], "class_name": "Concatenate", "config": {"name": "mixed4", "axis": 3, "dtype": "float32", "trainable": true}}, {"name": "conv2d_44", "inbound_nodes": [[["mixed4", 0, 0, {}]]], "class_name": "Conv2D", "config": {"trainable": true, "bias_regularizer": null, "strides": [1, 1], "data_format": "channels_last", "kernel_initializer": {"class_name": "GlorotUniform", "config": {"seed": null}}, "dtype": "float32", "padding": "same", "bias_initializer": {"class_name": "Zeros", "config": {}}, "kernel_constraint": null, "activation": "linear", "filters": 160, "kernel_size": [1, 1], "use_bias": false, "dilation_rate": [1, 1], "bias_constraint": null, "activity_regularizer": null, "name": "conv2d_44", "kernel_regularizer": null}}, {"name": "batch_normalization_44", "inbound_nodes": [[["conv2d_44", 0, 0, {}]]], "class_name": "BatchNormalization", "config": {"beta_regularizer": null, "beta_initializer": {"class_name": "Zeros", "config": {}}, "dtype": "float32", "axis": [3], "gamma_initializer": {"class_name": "Ones", "config": {}}, "center": true, "beta_constraint": null, "scale": false, "gamma_constraint": null, "trainable": true, "moving_mean_initializer": {"class_name": "Zeros", "config": {}}, "moving_variance_initializer": {"class_name": "Ones", "config": {}}, "name": "batch_normalization_44", "momentum": 0.99, "epsilon": 0.001, "gamma_regularizer": null}}, {"name": "activation_44", "inbound_nodes": [[["batch_normalization_44", 0, 0, {}]]], "class_name": "Activation", "config": {"name": "activation_44", "activation": "relu", "dtype": "float32", "trainable": true}}, {"name": "conv2d_45", "inbound_nodes": [[["activation_44", 0, 0, {}]]], "class_name": "Conv2D", "config": {"trainable": true, "bias_regularizer": null, "strides": [1, 1], "data_format": "channels_last", "kernel_initializer": {"class_name": "GlorotUniform", "config": {"seed": null}}, "dtype": "float32", "padding": "same", "bias_initializer": {"class_name": "Zeros", "config": {}}, "kernel_constraint": null, "activation": "linear", "filters": 160, "kernel_size": [7, 1], "use_bias": false, "dilation_rate": [1, 1], "bias_constraint": null, "activity_regularizer": null, "name": "conv2d_45", "kernel_regularizer": null}}, {"name": "batch_normalization_45", "inbound_nodes": [[["conv2d_45", 0, 0, {}]]], "class_name": "BatchNormalization", "config": {"beta_regularizer": null, "beta_initializer": {"class_name": "Zeros", "config": {}}, "dtype": "float32", "axis": [3], "gamma_initializer": {"class_name": "Ones", "config": {}}, "center": true, "beta_constraint": null, "scale": false, "gamma_constraint": null, "trainable": true, "moving_mean_initializer": {"class_name": "Zeros", "config": {}}, "moving_variance_initializer": {"class_name": "Ones", "config": {}}, "name": "batch_normalization_45", "momentum": 0.99, "epsilon": 0.001, "gamma_regularizer": null}}, {"name": "activation_45", "inbound_nodes": [[["batch_normalization_45", 0, 0, {}]]], "class_name": "Activation", "config": {"name": "activation_45", "activation": "relu", "dtype": "float32", "trainable": true}}, {"name": "conv2d_41", "inbound_nodes": [[["mixed4", 0, 0, {}]]], "class_name": "Conv2D", "config": {"trainable": true, "bias_regularizer": null, "strides": [1, 1], "data_format": "channels_last", "kernel_initializer": {"class_name": "GlorotUniform", "config": {"seed": null}}, "dtype": "float32", "padding": "same", "bias_initializer": {"class_name": "Zeros", "config": {}}, "kernel_constraint": null, "activation": "linear", "filters": 160, "kernel_size": [1, 1], "use_bias": false, "dilation_rate": [1, 1], "bias_constraint": null, "activity_regularizer": null, "name": "conv2d_41", "kernel_regularizer": null}}, {"name": "conv2d_46", "inbound_nodes": [[["activation_45", 0, 0, {}]]], "class_name": "Conv2D", "config": {"trainable": true, "bias_regularizer": null, "strides": [1, 1], "data_format": "channels_last", "kernel_initializer": {"class_name": "GlorotUniform", "config": {"seed": null}}, "dtype": "float32", "padding": "same", "bias_initializer": {"class_name": "Zeros", "config": {}}, "kernel_constraint": null, "activation": "linear", "filters": 160, "kernel_size": [1, 7], "use_bias": false, "dilation_rate": [1, 1], "bias_constraint": null, "activity_regularizer": null, "name": "conv2d_46", "kernel_regularizer": null}}, {"name": "batch_normalization_41", "inbound_nodes": [[["conv2d_41", 0, 0, {}]]], "class_name": "BatchNormalization", "config": {"beta_regularizer": null, "beta_initializer": {"class_name": "Zeros", "config": {}}, "dtype": "float32", "axis": [3], "gamma_initializer": {"class_name": "Ones", "config": {}}, "center": true, "beta_constraint": null, "scale": false, "gamma_constraint": null, "trainable": true, "moving_mean_initializer": {"class_name": "Zeros", "config": {}}, "moving_variance_initializer": {"class_name": "Ones", "config": {}}, "name": "batch_normalization_41", "momentum": 0.99, "epsilon": 0.001, "gamma_regularizer": null}}, {"name": "batch_normalization_46", "inbound_nodes": [[["conv2d_46", 0, 0, {}]]], "class_name": "BatchNormalization", "config": {"beta_regularizer": null, "beta_initializer": {"class_name": "Zeros", "config": {}}, "dtype": "float32", "axis": [3], "gamma_initializer": {"class_name": "Ones", "config": {}}, "center": true, "beta_constraint": null, "scale": false, "gamma_constraint": null, "trainable": true, "moving_mean_initializer": {"class_name": "Zeros", "config": {}}, "moving_variance_initializer": {"class_name": "Ones", "config": {}}, "name": "batch_normalization_46", "momentum": 0.99, "epsilon": 0.001, "gamma_regularizer": null}}, {"name": "activation_41", "inbound_nodes": [[["batch_normalization_41", 0, 0, {}]]], "class_name": "Activation", "config": {"name": "activation_41", "activation": "relu", "dtype": "float32", "trainable": true}}, {"name": "activation_46", "inbound_nodes": [[["batch_normalization_46", 0, 0, {}]]], "class_name": "Activation", "config": {"name": "activation_46", "activation": "relu", "dtype": "float32", "trainable": true}}, {"name": "conv2d_42", "inbound_nodes": [[["activation_41", 0, 0, {}]]], "class_name": "Conv2D", "config": {"trainable": true, "bias_regularizer": null, "strides": [1, 1], "data_format": "channels_last", "kernel_initializer": {"class_name": "GlorotUniform", "config": {"seed": null}}, "dtype": "float32", "padding": "same", "bias_initializer": {"class_name": "Zeros", "config": {}}, "kernel_constraint": null, "activation": "linear", "filters": 160, "kernel_size": [1, 7], "use_bias": false, "dilation_rate": [1, 1], "bias_constraint": null, "activity_regularizer": null, "name": "conv2d_42", "kernel_regularizer": null}}, {"name": "conv2d_47", "inbound_nodes": [[["activation_46", 0, 0, {}]]], "class_name": "Conv2D", "config": {"trainable": true, "bias_regularizer": null, "strides": [1, 1], "data_format": "channels_last", "kernel_initializer": {"class_name": "GlorotUniform", "config": {"seed": null}}, "dtype": "float32", "padding": "same", "bias_initializer": {"class_name": "Zeros", "config": {}}, "kernel_constraint": null, "activation": "linear", "filters": 160, "kernel_size": [7, 1], "use_bias": false, "dilation_rate": [1, 1], "bias_constraint": null, "activity_regularizer": null, "name": "conv2d_47", "kernel_regularizer": null}}, {"name": "batch_normalization_42", "inbound_nodes": [[["conv2d_42", 0, 0, {}]]], "class_name": "BatchNormalization", "config": {"beta_regularizer": null, "beta_initializer": {"class_name": "Zeros", "config": {}}, "dtype": "float32", "axis": [3], "gamma_initializer": {"class_name": "Ones", "config": {}}, "center": true, "beta_constraint": null, "scale": false, "gamma_constraint": null, "trainable": true, "moving_mean_initializer": {"class_name": "Zeros", "config": {}}, "moving_variance_initializer": {"class_name": "Ones", "config": {}}, "name": "batch_normalization_42", "momentum": 0.99, "epsilon": 0.001, "gamma_regularizer": null}}, {"name": "batch_normalization_47", "inbound_nodes": [[["conv2d_47", 0, 0, {}]]], "class_name": "BatchNormalization", "config": {"beta_regularizer": null, "beta_initializer": {"class_name": "Zeros", "config": {}}, "dtype": "float32", "axis": [3], "gamma_initializer": {"class_name": "Ones", "config": {}}, "center": true, "beta_constraint": null, "scale": false, "gamma_constraint": null, "trainable": true, "moving_mean_initializer": {"class_name": "Zeros", "config": {}}, "moving_variance_initializer": {"class_name": "Ones", "config": {}}, "name": "batch_normalization_47", "momentum": 0.99, "epsilon": 0.001, "gamma_regularizer": null}}, {"name": "activation_42", "inbound_nodes": [[["batch_normalization_42", 0, 0, {}]]], "class_name": "Activation", "config": {"name": "activation_42", "activation": "relu", "dtype": "float32", "trainable": true}}, {"name": "activation_47", "inbound_nodes": [[["batch_normalization_47", 0, 0, {}]]], "class_name": "Activation", "config": {"name": "activation_47", "activation": "relu", "dtype": "float32", "trainable": true}}, {"name": "average_pooling2d_4", "inbound_nodes": [[["mixed4", 0, 0, {}]]], "class_name": "AveragePooling2D", "config": {"pool_size": [3, 3], "padding": "same", "trainable": true, "data_format": "channels_last", "dtype": "float32", "name": "average_pooling2d_4", "strides": [1, 1]}}, {"name": "conv2d_40", "inbound_nodes": [[["mixed4", 0, 0, {}]]], "class_name": "Conv2D", "config": {"trainable": true, "bias_regularizer": null, "strides": [1, 1], "data_format": "channels_last", "kernel_initializer": {"class_name": "GlorotUniform", "config": {"seed": null}}, "dtype": "float32", "padding": "same", "bias_initializer": {"class_name": "Zeros", "config": {}}, "kernel_constraint": null, "activation": "linear", "filters": 192, "kernel_size": [1, 1], "use_bias": false, "dilation_rate": [1, 1], "bias_constraint": null, "activity_regularizer": null, "name": "conv2d_40", "kernel_regularizer": null}}, {"name": "conv2d_43", "inbound_nodes": [[["activation_42", 0, 0, {}]]], "class_name": "Conv2D", "config": {"trainable": true, "bias_regularizer": null, "strides": [1, 1], "data_format": "channels_last", "kernel_initializer": {"class_name": "GlorotUniform", "config": {"seed": null}}, "dtype": "float32", "padding": "same", "bias_initializer": {"class_name": "Zeros", "config": {}}, "kernel_constraint": null, "activation": "linear", "filters": 192, "kernel_size": [7, 1], "use_bias": false, "dilation_rate": [1, 1], "bias_constraint": null, "activity_regularizer": null, "name": "conv2d_43", "kernel_regularizer": null}}, {"name": "conv2d_48", "inbound_nodes": [[["activation_47", 0, 0, {}]]], "class_name": "Conv2D", "config": {"trainable": true, "bias_regularizer": null, "strides": [1, 1], "data_format": "channels_last", "kernel_initializer": {"class_name": "GlorotUniform", "config": {"seed": null}}, "dtype": "float32", "padding": "same", "bias_initializer": {"class_name": "Zeros", "config": {}}, "kernel_constraint": null, "activation": "linear", "filters": 192, "kernel_size": [1, 7], "use_bias": false, "dilation_rate": [1, 1], "bias_constraint": null, "activity_regularizer": null, "name": "conv2d_48", "kernel_regularizer": null}}, {"name": "conv2d_49", "inbound_nodes": [[["average_pooling2d_4", 0, 0, {}]]], "class_name": "Conv2D", "config": {"trainable": true, "bias_regularizer": null, "strides": [1, 1], "data_format": "channels_last", "kernel_initializer": {"class_name": "GlorotUniform", "config": {"seed": null}}, "dtype": "float32", "padding": "same", "bias_initializer": {"class_name": "Zeros", "config": {}}, "kernel_constraint": null, "activation": "linear", "filters": 192, "kernel_size": [1, 1], "use_bias": false, "dilation_rate": [1, 1], "bias_constraint": null, "activity_regularizer": null, "name": "conv2d_49", "kernel_regularizer": null}}, {"name": "batch_normalization_40", "inbound_nodes": [[["conv2d_40", 0, 0, {}]]], "class_name": "BatchNormalization", "config": {"beta_regularizer": null, "beta_initializer": {"class_name": "Zeros", "config": {}}, "dtype": "float32", "axis": [3], "gamma_initializer": {"class_name": "Ones", "config": {}}, "center": true, "beta_constraint": null, "scale": false, "gamma_constraint": null, "trainable": true, "moving_mean_initializer": {"class_name": "Zeros", "config": {}}, "moving_variance_initializer": {"class_name": "Ones", "config": {}}, "name": "batch_normalization_40", "momentum": 0.99, "epsilon": 0.001, "gamma_regularizer": null}}, {"name": "batch_normalization_43", "inbound_nodes": [[["conv2d_43", 0, 0, {}]]], "class_name": "BatchNormalization", "config": {"beta_regularizer": null, "beta_initializer": {"class_name": "Zeros", "config": {}}, "dtype": "float32", "axis": [3], "gamma_initializer": {"class_name": "Ones", "config": {}}, "center": true, "beta_constraint": null, "scale": false, "gamma_constraint": null, "trainable": true, "moving_mean_initializer": {"class_name": "Zeros", "config": {}}, "moving_variance_initializer": {"class_name": "Ones", "config": {}}, "name": "batch_normalization_43", "momentum": 0.99, "epsilon": 0.001, "gamma_regularizer": null}}, {"name": "batch_normalization_48", "inbound_nodes": [[["conv2d_48", 0, 0, {}]]], "class_name": "BatchNormalization", "config": {"beta_regularizer": null, "beta_initializer": {"class_name": "Zeros", "config": {}}, "dtype": "float32", "axis": [3], "gamma_initializer": {"class_name": "Ones", "config": {}}, "center": true, "beta_constraint": null, "scale": false, "gamma_constraint": null, "trainable": true, "moving_mean_initializer": {"class_name": "Zeros", "config": {}}, "moving_variance_initializer": {"class_name": "Ones", "config": {}}, "name": "batch_normalization_48", "momentum": 0.99, "epsilon": 0.001, "gamma_regularizer": null}}, {"name": "batch_normalization_49", "inbound_nodes": [[["conv2d_49", 0, 0, {}]]], "class_name": "BatchNormalization", "config": {"beta_regularizer": null, "beta_initializer": {"class_name": "Zeros", "config": {}}, "dtype": "float32", "axis": [3], "gamma_initializer": {"class_name": "Ones", "config": {}}, "center": true, "beta_constraint": null, "scale": false, "gamma_constraint": null, "trainable": true, "moving_mean_initializer": {"class_name": "Zeros", "config": {}}, "moving_variance_initializer": {"class_name": "Ones", "config": {}}, "name": "batch_normalization_49", "momentum": 0.99, "epsilon": 0.001, "gamma_regularizer": null}}, {"name": "activation_40", "inbound_nodes": [[["batch_normalization_40", 0, 0, {}]]], "class_name": "Activation", "config": {"name": "activation_40", "activation": "relu", "dtype": "float32", "trainable": true}}, {"name": "activation_43", "inbound_nodes": [[["batch_normalization_43", 0, 0, {}]]], "class_name": "Activation", "config": {"name": "activation_43", "activation": "relu", "dtype": "float32", "trainable": true}}, {"name": "activation_48", "inbound_nodes": [[["batch_normalization_48", 0, 0, {}]]], "class_name": "Activation", "config": {"name": "activation_48", "activation": "relu", "dtype": "float32", "trainable": true}}, {"name": "activation_49", "inbound_nodes": [[["batch_normalization_49", 0, 0, {}]]], "class_name": "Activation", "config": {"name": "activation_49", "activation": "relu", "dtype": "float32", "trainable": true}}, {"name": "mixed5", "inbound_nodes": [[["activation_40", 0, 0, {}], ["activation_43", 0, 0, {}], ["activation_48", 0, 0, {}], ["activation_49", 0, 0, {}]]], "class_name": "Concatenate", "config": {"name": "mixed5", "axis": 3, "dtype": "float32", "trainable": true}}, {"name": "conv2d_54", "inbound_nodes": [[["mixed5", 0, 0, {}]]], "class_name": "Conv2D", "config": {"trainable": true, "bias_regularizer": null, "strides": [1, 1], "data_format": "channels_last", "kernel_initializer": {"class_name": "GlorotUniform", "config": {"seed": null}}, "dtype": "float32", "padding": "same", "bias_initializer": {"class_name": "Zeros", "config": {}}, "kernel_constraint": null, "activation": "linear", "filters": 160, "kernel_size": [1, 1], "use_bias": false, "dilation_rate": [1, 1], "bias_constraint": null, "activity_regularizer": null, "name": "conv2d_54", "kernel_regularizer": null}}, {"name": "batch_normalization_54", "inbound_nodes": [[["conv2d_54", 0, 0, {}]]], "class_name": "BatchNormalization", "config": {"beta_regularizer": null, "beta_initializer": {"class_name": "Zeros", "config": {}}, "dtype": "float32", "axis": [3], "gamma_initializer": {"class_name": "Ones", "config": {}}, "center": true, "beta_constraint": null, "scale": false, "gamma_constraint": null, "trainable": true, "moving_mean_initializer": {"class_name": "Zeros", "config": {}}, "moving_variance_initializer": {"class_name": "Ones", "config": {}}, "name": "batch_normalization_54", "momentum": 0.99, "epsilon": 0.001, "gamma_regularizer": null}}, {"name": "activation_54", "inbound_nodes": [[["batch_normalization_54", 0, 0, {}]]], "class_name": "Activation", "config": {"name": "activation_54", "activation": "relu", "dtype": "float32", "trainable": true}}, {"name": "conv2d_55", "inbound_nodes": [[["activation_54", 0, 0, {}]]], "class_name": "Conv2D", "config": {"trainable": true, "bias_regularizer": null, "strides": [1, 1], "data_format": "channels_last", "kernel_initializer": {"class_name": "GlorotUniform", "config": {"seed": null}}, "dtype": "float32", "padding": "same", "bias_initializer": {"class_name": "Zeros", "config": {}}, "kernel_constraint": null, "activation": "linear", "filters": 160, "kernel_size": [7, 1], "use_bias": false, "dilation_rate": [1, 1], "bias_constraint": null, "activity_regularizer": null, "name": "conv2d_55", "kernel_regularizer": null}}, {"name": "batch_normalization_55", "inbound_nodes": [[["conv2d_55", 0, 0, {}]]], "class_name": "BatchNormalization", "config": {"beta_regularizer": null, "beta_initializer": {"class_name": "Zeros", "config": {}}, "dtype": "float32", "axis": [3], "gamma_initializer": {"class_name": "Ones", "config": {}}, "center": true, "beta_constraint": null, "scale": false, "gamma_constraint": null, "trainable": true, "moving_mean_initializer": {"class_name": "Zeros", "config": {}}, "moving_variance_initializer": {"class_name": "Ones", "config": {}}, "name": "batch_normalization_55", "momentum": 0.99, "epsilon": 0.001, "gamma_regularizer": null}}, {"name": "activation_55", "inbound_nodes": [[["batch_normalization_55", 0, 0, {}]]], "class_name": "Activation", "config": {"name": "activation_55", "activation": "relu", "dtype": "float32", "trainable": true}}, {"name": "conv2d_51", "inbound_nodes": [[["mixed5", 0, 0, {}]]], "class_name": "Conv2D", "config": {"trainable": true, "bias_regularizer": null, "strides": [1, 1], "data_format": "channels_last", "kernel_initializer": {"class_name": "GlorotUniform", "config": {"seed": null}}, "dtype": "float32", "padding": "same", "bias_initializer": {"class_name": "Zeros", "config": {}}, "kernel_constraint": null, "activation": "linear", "filters": 160, "kernel_size": [1, 1], "use_bias": false, "dilation_rate": [1, 1], "bias_constraint": null, "activity_regularizer": null, "name": "conv2d_51", "kernel_regularizer": null}}, {"name": "conv2d_56", "inbound_nodes": [[["activation_55", 0, 0, {}]]], "class_name": "Conv2D", "config": {"trainable": true, "bias_regularizer": null, "strides": [1, 1], "data_format": "channels_last", "kernel_initializer": {"class_name": "GlorotUniform", "config": {"seed": null}}, "dtype": "float32", "padding": "same", "bias_initializer": {"class_name": "Zeros", "config": {}}, "kernel_constraint": null, "activation": "linear", "filters": 160, "kernel_size": [1, 7], "use_bias": false, "dilation_rate": [1, 1], "bias_constraint": null, "activity_regularizer": null, "name": "conv2d_56", "kernel_regularizer": null}}, {"name": "batch_normalization_51", "inbound_nodes": [[["conv2d_51", 0, 0, {}]]], "class_name": "BatchNormalization", "config": {"beta_regularizer": null, "beta_initializer": {"class_name": "Zeros", "config": {}}, "dtype": "float32", "axis": [3], "gamma_initializer": {"class_name": "Ones", "config": {}}, "center": true, "beta_constraint": null, "scale": false, "gamma_constraint": null, "trainable": true, "moving_mean_initializer": {"class_name": "Zeros", "config": {}}, "moving_variance_initializer": {"class_name": "Ones", "config": {}}, "name": "batch_normalization_51", "momentum": 0.99, "epsilon": 0.001, "gamma_regularizer": null}}, {"name": "batch_normalization_56", "inbound_nodes": [[["conv2d_56", 0, 0, {}]]], "class_name": "BatchNormalization", "config": {"beta_regularizer": null, "beta_initializer": {"class_name": "Zeros", "config": {}}, "dtype": "float32", "axis": [3], "gamma_initializer": {"class_name": "Ones", "config": {}}, "center": true, "beta_constraint": null, "scale": false, "gamma_constraint": null, "trainable": true, "moving_mean_initializer": {"class_name": "Zeros", "config": {}}, "moving_variance_initializer": {"class_name": "Ones", "config": {}}, "name": "batch_normalization_56", "momentum": 0.99, "epsilon": 0.001, "gamma_regularizer": null}}, {"name": "activation_51", "inbound_nodes": [[["batch_normalization_51", 0, 0, {}]]], "class_name": "Activation", "config": {"name": "activation_51", "activation": "relu", "dtype": "float32", "trainable": true}}, {"name": "activation_56", "inbound_nodes": [[["batch_normalization_56", 0, 0, {}]]], "class_name": "Activation", "config": {"name": "activation_56", "activation": "relu", "dtype": "float32", "trainable": true}}, {"name": "conv2d_52", "inbound_nodes": [[["activation_51", 0, 0, {}]]], "class_name": "Conv2D", "config": {"trainable": true, "bias_regularizer": null, "strides": [1, 1], "data_format": "channels_last", "kernel_initializer": {"class_name": "GlorotUniform", "config": {"seed": null}}, "dtype": "float32", "padding": "same", "bias_initializer": {"class_name": "Zeros", "config": {}}, "kernel_constraint": null, "activation": "linear", "filters": 160, "kernel_size": [1, 7], "use_bias": false, "dilation_rate": [1, 1], "bias_constraint": null, "activity_regularizer": null, "name": "conv2d_52", "kernel_regularizer": null}}, {"name": "conv2d_57", "inbound_nodes": [[["activation_56", 0, 0, {}]]], "class_name": "Conv2D", "config": {"trainable": true, "bias_regularizer": null, "strides": [1, 1], "data_format": "channels_last", "kernel_initializer": {"class_name": "GlorotUniform", "config": {"seed": null}}, "dtype": "float32", "padding": "same", "bias_initializer": {"class_name": "Zeros", "config": {}}, "kernel_constraint": null, "activation": "linear", "filters": 160, "kernel_size": [7, 1], "use_bias": false, "dilation_rate": [1, 1], "bias_constraint": null, "activity_regularizer": null, "name": "conv2d_57", "kernel_regularizer": null}}, {"name": "batch_normalization_52", "inbound_nodes": [[["conv2d_52", 0, 0, {}]]], "class_name": "BatchNormalization", "config": {"beta_regularizer": null, "beta_initializer": {"class_name": "Zeros", "config": {}}, "dtype": "float32", "axis": [3], "gamma_initializer": {"class_name": "Ones", "config": {}}, "center": true, "beta_constraint": null, "scale": false, "gamma_constraint": null, "trainable": true, "moving_mean_initializer": {"class_name": "Zeros", "config": {}}, "moving_variance_initializer": {"class_name": "Ones", "config": {}}, "name": "batch_normalization_52", "momentum": 0.99, "epsilon": 0.001, "gamma_regularizer": null}}, {"name": "batch_normalization_57", "inbound_nodes": [[["conv2d_57", 0, 0, {}]]], "class_name": "BatchNormalization", "config": {"beta_regularizer": null, "beta_initializer": {"class_name": "Zeros", "config": {}}, "dtype": "float32", "axis": [3], "gamma_initializer": {"class_name": "Ones", "config": {}}, "center": true, "beta_constraint": null, "scale": false, "gamma_constraint": null, "trainable": true, "moving_mean_initializer": {"class_name": "Zeros", "config": {}}, "moving_variance_initializer": {"class_name": "Ones", "config": {}}, "name": "batch_normalization_57", "momentum": 0.99, "epsilon": 0.001, "gamma_regularizer": null}}, {"name": "activation_52", "inbound_nodes": [[["batch_normalization_52", 0, 0, {}]]], "class_name": "Activation", "config": {"name": "activation_52", "activation": "relu", "dtype": "float32", "trainable": true}}, {"name": "activation_57", "inbound_nodes": [[["batch_normalization_57", 0, 0, {}]]], "class_name": "Activation", "config": {"name": "activation_57", "activation": "relu", "dtype": "float32", "trainable": true}}, {"name": "average_pooling2d_5", "inbound_nodes": [[["mixed5", 0, 0, {}]]], "class_name": "AveragePooling2D", "config": {"pool_size": [3, 3], "padding": "same", "trainable": true, "data_format": "channels_last", "dtype": "float32", "name": "average_pooling2d_5", "strides": [1, 1]}}, {"name": "conv2d_50", "inbound_nodes": [[["mixed5", 0, 0, {}]]], "class_name": "Conv2D", "config": {"trainable": true, "bias_regularizer": null, "strides": [1, 1], "data_format": "channels_last", "kernel_initializer": {"class_name": "GlorotUniform", "config": {"seed": null}}, "dtype": "float32", "padding": "same", "bias_initializer": {"class_name": "Zeros", "config": {}}, "kernel_constraint": null, "activation": "linear", "filters": 192, "kernel_size": [1, 1], "use_bias": false, "dilation_rate": [1, 1], "bias_constraint": null, "activity_regularizer": null, "name": "conv2d_50", "kernel_regularizer": null}}, {"name": "conv2d_53", "inbound_nodes": [[["activation_52", 0, 0, {}]]], "class_name": "Conv2D", "config": {"trainable": true, "bias_regularizer": null, "strides": [1, 1], "data_format": "channels_last", "kernel_initializer": {"class_name": "GlorotUniform", "config": {"seed": null}}, "dtype": "float32", "padding": "same", "bias_initializer": {"class_name": "Zeros", "config": {}}, "kernel_constraint": null, "activation": "linear", "filters": 192, "kernel_size": [7, 1], "use_bias": false, "dilation_rate": [1, 1], "bias_constraint": null, "activity_regularizer": null, "name": "conv2d_53", "kernel_regularizer": null}}, {"name": "conv2d_58", "inbound_nodes": [[["activation_57", 0, 0, {}]]], "class_name": "Conv2D", "config": {"trainable": true, "bias_regularizer": null, "strides": [1, 1], "data_format": "channels_last", "kernel_initializer": {"class_name": "GlorotUniform", "config": {"seed": null}}, "dtype": "float32", "padding": "same", "bias_initializer": {"class_name": "Zeros", "config": {}}, "kernel_constraint": null, "activation": "linear", "filters": 192, "kernel_size": [1, 7], "use_bias": false, "dilation_rate": [1, 1], "bias_constraint": null, "activity_regularizer": null, "name": "conv2d_58", "kernel_regularizer": null}}, {"name": "conv2d_59", "inbound_nodes": [[["average_pooling2d_5", 0, 0, {}]]], "class_name": "Conv2D", "config": {"trainable": true, "bias_regularizer": null, "strides": [1, 1], "data_format": "channels_last", "kernel_initializer": {"class_name": "GlorotUniform", "config": {"seed": null}}, "dtype": "float32", "padding": "same", "bias_initializer": {"class_name": "Zeros", "config": {}}, "kernel_constraint": null, "activation": "linear", "filters": 192, "kernel_size": [1, 1], "use_bias": false, "dilation_rate": [1, 1], "bias_constraint": null, "activity_regularizer": null, "name": "conv2d_59", "kernel_regularizer": null}}, {"name": "batch_normalization_50", "inbound_nodes": [[["conv2d_50", 0, 0, {}]]], "class_name": "BatchNormalization", "config": {"beta_regularizer": null, "beta_initializer": {"class_name": "Zeros", "config": {}}, "dtype": "float32", "axis": [3], "gamma_initializer": {"class_name": "Ones", "config": {}}, "center": true, "beta_constraint": null, "scale": false, "gamma_constraint": null, "trainable": true, "moving_mean_initializer": {"class_name": "Zeros", "config": {}}, "moving_variance_initializer": {"class_name": "Ones", "config": {}}, "name": "batch_normalization_50", "momentum": 0.99, "epsilon": 0.001, "gamma_regularizer": null}}, {"name": "batch_normalization_53", "inbound_nodes": [[["conv2d_53", 0, 0, {}]]], "class_name": "BatchNormalization", "config": {"beta_regularizer": null, "beta_initializer": {"class_name": "Zeros", "config": {}}, "dtype": "float32", "axis": [3], "gamma_initializer": {"class_name": "Ones", "config": {}}, "center": true, "beta_constraint": null, "scale": false, "gamma_constraint": null, "trainable": true, "moving_mean_initializer": {"class_name": "Zeros", "config": {}}, "moving_variance_initializer": {"class_name": "Ones", "config": {}}, "name": "batch_normalization_53", "momentum": 0.99, "epsilon": 0.001, "gamma_regularizer": null}}, {"name": "batch_normalization_58", "inbound_nodes": [[["conv2d_58", 0, 0, {}]]], "class_name": "BatchNormalization", "config": {"beta_regularizer": null, "beta_initializer": {"class_name": "Zeros", "config": {}}, "dtype": "float32", "axis": [3], "gamma_initializer": {"class_name": "Ones", "config": {}}, "center": true, "beta_constraint": null, "scale": false, "gamma_constraint": null, "trainable": true, "moving_mean_initializer": {"class_name": "Zeros", "config": {}}, "moving_variance_initializer": {"class_name": "Ones", "config": {}}, "name": "batch_normalization_58", "momentum": 0.99, "epsilon": 0.001, "gamma_regularizer": null}}, {"name": "batch_normalization_59", "inbound_nodes": [[["conv2d_59", 0, 0, {}]]], "class_name": "BatchNormalization", "config": {"beta_regularizer": null, "beta_initializer": {"class_name": "Zeros", "config": {}}, "dtype": "float32", "axis": [3], "gamma_initializer": {"class_name": "Ones", "config": {}}, "center": true, "beta_constraint": null, "scale": false, "gamma_constraint": null, "trainable": true, "moving_mean_initializer": {"class_name": "Zeros", "config": {}}, "moving_variance_initializer": {"class_name": "Ones", "config": {}}, "name": "batch_normalization_59", "momentum": 0.99, "epsilon": 0.001, "gamma_regularizer": null}}, {"name": "activation_50", "inbound_nodes": [[["batch_normalization_50", 0, 0, {}]]], "class_name": "Activation", "config": {"name": "activation_50", "activation": "relu", "dtype": "float32", "trainable": true}}, {"name": "activation_53", "inbound_nodes": [[["batch_normalization_53", 0, 0, {}]]], "class_name": "Activation", "config": {"name": "activation_53", "activation": "relu", "dtype": "float32", "trainable": true}}, {"name": "activation_58", "inbound_nodes": [[["batch_normalization_58", 0, 0, {}]]], "class_name": "Activation", "config": {"name": "activation_58", "activation": "relu", "dtype": "float32", "trainable": true}}, {"name": "activation_59", "inbound_nodes": [[["batch_normalization_59", 0, 0, {}]]], "class_name": "Activation", "config": {"name": "activation_59", "activation": "relu", "dtype": "float32", "trainable": true}}, {"name": "mixed6", "inbound_nodes": [[["activation_50", 0, 0, {}], ["activation_53", 0, 0, {}], ["activation_58", 0, 0, {}], ["activation_59", 0, 0, {}]]], "class_name": "Concatenate", "config": {"name": "mixed6", "axis": 3, "dtype": "float32", "trainable": true}}, {"name": "conv2d_64", "inbound_nodes": [[["mixed6", 0, 0, {}]]], "class_name": "Conv2D", "config": {"trainable": true, "bias_regularizer": null, "strides": [1, 1], "data_format": "channels_last", "kernel_initializer": {"class_name": "GlorotUniform", "config": {"seed": null}}, "dtype": "float32", "padding": "same", "bias_initializer": {"class_name": "Zeros", "config": {}}, "kernel_constraint": null, "activation": "linear", "filters": 192, "kernel_size": [1, 1], "use_bias": false, "dilation_rate": [1, 1], "bias_constraint": null, "activity_regularizer": null, "name": "conv2d_64", "kernel_regularizer": null}}, {"name": "batch_normalization_64", "inbound_nodes": [[["conv2d_64", 0, 0, {}]]], "class_name": "BatchNormalization", "config": {"beta_regularizer": null, "beta_initializer": {"class_name": "Zeros", "config": {}}, "dtype": "float32", "axis": [3], "gamma_initializer": {"class_name": "Ones", "config": {}}, "center": true, "beta_constraint": null, "scale": false, "gamma_constraint": null, "trainable": true, "moving_mean_initializer": {"class_name": "Zeros", "config": {}}, "moving_variance_initializer": {"class_name": "Ones", "config": {}}, "name": "batch_normalization_64", "momentum": 0.99, "epsilon": 0.001, "gamma_regularizer": null}}, {"name": "activation_64", "inbound_nodes": [[["batch_normalization_64", 0, 0, {}]]], "class_name": "Activation", "config": {"name": "activation_64", "activation": "relu", "dtype": "float32", "trainable": true}}, {"name": "conv2d_65", "inbound_nodes": [[["activation_64", 0, 0, {}]]], "class_name": "Conv2D", "config": {"trainable": true, "bias_regularizer": null, "strides": [1, 1], "data_format": "channels_last", "kernel_initializer": {"class_name": "GlorotUniform", "config": {"seed": null}}, "dtype": "float32", "padding": "same", "bias_initializer": {"class_name": "Zeros", "config": {}}, "kernel_constraint": null, "activation": "linear", "filters": 192, "kernel_size": [7, 1], "use_bias": false, "dilation_rate": [1, 1], "bias_constraint": null, "activity_regularizer": null, "name": "conv2d_65", "kernel_regularizer": null}}, {"name": "batch_normalization_65", "inbound_nodes": [[["conv2d_65", 0, 0, {}]]], "class_name": "BatchNormalization", "config": {"beta_regularizer": null, "beta_initializer": {"class_name": "Zeros", "config": {}}, "dtype": "float32", "axis": [3], "gamma_initializer": {"class_name": "Ones", "config": {}}, "center": true, "beta_constraint": null, "scale": false, "gamma_constraint": null, "trainable": true, "moving_mean_initializer": {"class_name": "Zeros", "config": {}}, "moving_variance_initializer": {"class_name": "Ones", "config": {}}, "name": "batch_normalization_65", "momentum": 0.99, "epsilon": 0.001, "gamma_regularizer": null}}, {"name": "activation_65", "inbound_nodes": [[["batch_normalization_65", 0, 0, {}]]], "class_name": "Activation", "config": {"name": "activation_65", "activation": "relu", "dtype": "float32", "trainable": true}}, {"name": "conv2d_61", "inbound_nodes": [[["mixed6", 0, 0, {}]]], "class_name": "Conv2D", "config": {"trainable": true, "bias_regularizer": null, "strides": [1, 1], "data_format": "channels_last", "kernel_initializer": {"class_name": "GlorotUniform", "config": {"seed": null}}, "dtype": "float32", "padding": "same", "bias_initializer": {"class_name": "Zeros", "config": {}}, "kernel_constraint": null, "activation": "linear", "filters": 192, "kernel_size": [1, 1], "use_bias": false, "dilation_rate": [1, 1], "bias_constraint": null, "activity_regularizer": null, "name": "conv2d_61", "kernel_regularizer": null}}, {"name": "conv2d_66", "inbound_nodes": [[["activation_65", 0, 0, {}]]], "class_name": "Conv2D", "config": {"trainable": true, "bias_regularizer": null, "strides": [1, 1], "data_format": "channels_last", "kernel_initializer": {"class_name": "GlorotUniform", "config": {"seed": null}}, "dtype": "float32", "padding": "same", "bias_initializer": {"class_name": "Zeros", "config": {}}, "kernel_constraint": null, "activation": "linear", "filters": 192, "kernel_size": [1, 7], "use_bias": false, "dilation_rate": [1, 1], "bias_constraint": null, "activity_regularizer": null, "name": "conv2d_66", "kernel_regularizer": null}}, {"name": "batch_normalization_61", "inbound_nodes": [[["conv2d_61", 0, 0, {}]]], "class_name": "BatchNormalization", "config": {"beta_regularizer": null, "beta_initializer": {"class_name": "Zeros", "config": {}}, "dtype": "float32", "axis": [3], "gamma_initializer": {"class_name": "Ones", "config": {}}, "center": true, "beta_constraint": null, "scale": false, "gamma_constraint": null, "trainable": true, "moving_mean_initializer": {"class_name": "Zeros", "config": {}}, "moving_variance_initializer": {"class_name": "Ones", "config": {}}, "name": "batch_normalization_61", "momentum": 0.99, "epsilon": 0.001, "gamma_regularizer": null}}, {"name": "batch_normalization_66", "inbound_nodes": [[["conv2d_66", 0, 0, {}]]], "class_name": "BatchNormalization", "config": {"beta_regularizer": null, "beta_initializer": {"class_name": "Zeros", "config": {}}, "dtype": "float32", "axis": [3], "gamma_initializer": {"class_name": "Ones", "config": {}}, "center": true, "beta_constraint": null, "scale": false, "gamma_constraint": null, "trainable": true, "moving_mean_initializer": {"class_name": "Zeros", "config": {}}, "moving_variance_initializer": {"class_name": "Ones", "config": {}}, "name": "batch_normalization_66", "momentum": 0.99, "epsilon": 0.001, "gamma_regularizer": null}}, {"name": "activation_61", "inbound_nodes": [[["batch_normalization_61", 0, 0, {}]]], "class_name": "Activation", "config": {"name": "activation_61", "activation": "relu", "dtype": "float32", "trainable": true}}, {"name": "activation_66", "inbound_nodes": [[["batch_normalization_66", 0, 0, {}]]], "class_name": "Activation", "config": {"name": "activation_66", "activation": "relu", "dtype": "float32", "trainable": true}}, {"name": "conv2d_62", "inbound_nodes": [[["activation_61", 0, 0, {}]]], "class_name": "Conv2D", "config": {"trainable": true, "bias_regularizer": null, "strides": [1, 1], "data_format": "channels_last", "kernel_initializer": {"class_name": "GlorotUniform", "config": {"seed": null}}, "dtype": "float32", "padding": "same", "bias_initializer": {"class_name": "Zeros", "config": {}}, "kernel_constraint": null, "activation": "linear", "filters": 192, "kernel_size": [1, 7], "use_bias": false, "dilation_rate": [1, 1], "bias_constraint": null, "activity_regularizer": null, "name": "conv2d_62", "kernel_regularizer": null}}, {"name": "conv2d_67", "inbound_nodes": [[["activation_66", 0, 0, {}]]], "class_name": "Conv2D", "config": {"trainable": true, "bias_regularizer": null, "strides": [1, 1], "data_format": "channels_last", "kernel_initializer": {"class_name": "GlorotUniform", "config": {"seed": null}}, "dtype": "float32", "padding": "same", "bias_initializer": {"class_name": "Zeros", "config": {}}, "kernel_constraint": null, "activation": "linear", "filters": 192, "kernel_size": [7, 1], "use_bias": false, "dilation_rate": [1, 1], "bias_constraint": null, "activity_regularizer": null, "name": "conv2d_67", "kernel_regularizer": null}}, {"name": "batch_normalization_62", "inbound_nodes": [[["conv2d_62", 0, 0, {}]]], "class_name": "BatchNormalization", "config": {"beta_regularizer": null, "beta_initializer": {"class_name": "Zeros", "config": {}}, "dtype": "float32", "axis": [3], "gamma_initializer": {"class_name": "Ones", "config": {}}, "center": true, "beta_constraint": null, "scale": false, "gamma_constraint": null, "trainable": true, "moving_mean_initializer": {"class_name": "Zeros", "config": {}}, "moving_variance_initializer": {"class_name": "Ones", "config": {}}, "name": "batch_normalization_62", "momentum": 0.99, "epsilon": 0.001, "gamma_regularizer": null}}, {"name": "batch_normalization_67", "inbound_nodes": [[["conv2d_67", 0, 0, {}]]], "class_name": "BatchNormalization", "config": {"beta_regularizer": null, "beta_initializer": {"class_name": "Zeros", "config": {}}, "dtype": "float32", "axis": [3], "gamma_initializer": {"class_name": "Ones", "config": {}}, "center": true, "beta_constraint": null, "scale": false, "gamma_constraint": null, "trainable": true, "moving_mean_initializer": {"class_name": "Zeros", "config": {}}, "moving_variance_initializer": {"class_name": "Ones", "config": {}}, "name": "batch_normalization_67", "momentum": 0.99, "epsilon": 0.001, "gamma_regularizer": null}}, {"name": "activation_62", "inbound_nodes": [[["batch_normalization_62", 0, 0, {}]]], "class_name": "Activation", "config": {"name": "activation_62", "activation": "relu", "dtype": "float32", "trainable": true}}, {"name": "activation_67", "inbound_nodes": [[["batch_normalization_67", 0, 0, {}]]], "class_name": "Activation", "config": {"name": "activation_67", "activation": "relu", "dtype": "float32", "trainable": true}}, {"name": "average_pooling2d_6", "inbound_nodes": [[["mixed6", 0, 0, {}]]], "class_name": "AveragePooling2D", "config": {"pool_size": [3, 3], "padding": "same", "trainable": true, "data_format": "channels_last", "dtype": "float32", "name": "average_pooling2d_6", "strides": [1, 1]}}, {"name": "conv2d_60", "inbound_nodes": [[["mixed6", 0, 0, {}]]], "class_name": "Conv2D", "config": {"trainable": true, "bias_regularizer": null, "strides": [1, 1], "data_format": "channels_last", "kernel_initializer": {"class_name": "GlorotUniform", "config": {"seed": null}}, "dtype": "float32", "padding": "same", "bias_initializer": {"class_name": "Zeros", "config": {}}, "kernel_constraint": null, "activation": "linear", "filters": 192, "kernel_size": [1, 1], "use_bias": false, "dilation_rate": [1, 1], "bias_constraint": null, "activity_regularizer": null, "name": "conv2d_60", "kernel_regularizer": null}}, {"name": "conv2d_63", "inbound_nodes": [[["activation_62", 0, 0, {}]]], "class_name": "Conv2D", "config": {"trainable": true, "bias_regularizer": null, "strides": [1, 1], "data_format": "channels_last", "kernel_initializer": {"class_name": "GlorotUniform", "config": {"seed": null}}, "dtype": "float32", "padding": "same", "bias_initializer": {"class_name": "Zeros", "config": {}}, "kernel_constraint": null, "activation": "linear", "filters": 192, "kernel_size": [7, 1], "use_bias": false, "dilation_rate": [1, 1], "bias_constraint": null, "activity_regularizer": null, "name": "conv2d_63", "kernel_regularizer": null}}, {"name": "conv2d_68", "inbound_nodes": [[["activation_67", 0, 0, {}]]], "class_name": "Conv2D", "config": {"trainable": true, "bias_regularizer": null, "strides": [1, 1], "data_format": "channels_last", "kernel_initializer": {"class_name": "GlorotUniform", "config": {"seed": null}}, "dtype": "float32", "padding": "same", "bias_initializer": {"class_name": "Zeros", "config": {}}, "kernel_constraint": null, "activation": "linear", "filters": 192, "kernel_size": [1, 7], "use_bias": false, "dilation_rate": [1, 1], "bias_constraint": null, "activity_regularizer": null, "name": "conv2d_68", "kernel_regularizer": null}}, {"name": "conv2d_69", "inbound_nodes": [[["average_pooling2d_6", 0, 0, {}]]], "class_name": "Conv2D", "config": {"trainable": true, "bias_regularizer": null, "strides": [1, 1], "data_format": "channels_last", "kernel_initializer": {"class_name": "GlorotUniform", "config": {"seed": null}}, "dtype": "float32", "padding": "same", "bias_initializer": {"class_name": "Zeros", "config": {}}, "kernel_constraint": null, "activation": "linear", "filters": 192, "kernel_size": [1, 1], "use_bias": false, "dilation_rate": [1, 1], "bias_constraint": null, "activity_regularizer": null, "name": "conv2d_69", "kernel_regularizer": null}}, {"name": "batch_normalization_60", "inbound_nodes": [[["conv2d_60", 0, 0, {}]]], "class_name": "BatchNormalization", "config": {"beta_regularizer": null, "beta_initializer": {"class_name": "Zeros", "config": {}}, "dtype": "float32", "axis": [3], "gamma_initializer": {"class_name": "Ones", "config": {}}, "center": true, "beta_constraint": null, "scale": false, "gamma_constraint": null, "trainable": true, "moving_mean_initializer": {"class_name": "Zeros", "config": {}}, "moving_variance_initializer": {"class_name": "Ones", "config": {}}, "name": "batch_normalization_60", "momentum": 0.99, "epsilon": 0.001, "gamma_regularizer": null}}, {"name": "batch_normalization_63", "inbound_nodes": [[["conv2d_63", 0, 0, {}]]], "class_name": "BatchNormalization", "config": {"beta_regularizer": null, "beta_initializer": {"class_name": "Zeros", "config": {}}, "dtype": "float32", "axis": [3], "gamma_initializer": {"class_name": "Ones", "config": {}}, "center": true, "beta_constraint": null, "scale": false, "gamma_constraint": null, "trainable": true, "moving_mean_initializer": {"class_name": "Zeros", "config": {}}, "moving_variance_initializer": {"class_name": "Ones", "config": {}}, "name": "batch_normalization_63", "momentum": 0.99, "epsilon": 0.001, "gamma_regularizer": null}}, {"name": "batch_normalization_68", "inbound_nodes": [[["conv2d_68", 0, 0, {}]]], "class_name": "BatchNormalization", "config": {"beta_regularizer": null, "beta_initializer": {"class_name": "Zeros", "config": {}}, "dtype": "float32", "axis": [3], "gamma_initializer": {"class_name": "Ones", "config": {}}, "center": true, "beta_constraint": null, "scale": false, "gamma_constraint": null, "trainable": true, "moving_mean_initializer": {"class_name": "Zeros", "config": {}}, "moving_variance_initializer": {"class_name": "Ones", "config": {}}, "name": "batch_normalization_68", "momentum": 0.99, "epsilon": 0.001, "gamma_regularizer": null}}, {"name": "batch_normalization_69", "inbound_nodes": [[["conv2d_69", 0, 0, {}]]], "class_name": "BatchNormalization", "config": {"beta_regularizer": null, "beta_initializer": {"class_name": "Zeros", "config": {}}, "dtype": "float32", "axis": [3], "gamma_initializer": {"class_name": "Ones", "config": {}}, "center": true, "beta_constraint": null, "scale": false, "gamma_constraint": null, "trainable": true, "moving_mean_initializer": {"class_name": "Zeros", "config": {}}, "moving_variance_initializer": {"class_name": "Ones", "config": {}}, "name": "batch_normalization_69", "momentum": 0.99, "epsilon": 0.001, "gamma_regularizer": null}}, {"name": "activation_60", "inbound_nodes": [[["batch_normalization_60", 0, 0, {}]]], "class_name": "Activation", "config": {"name": "activation_60", "activation": "relu", "dtype": "float32", "trainable": true}}, {"name": "activation_63", "inbound_nodes": [[["batch_normalization_63", 0, 0, {}]]], "class_name": "Activation", "config": {"name": "activation_63", "activation": "relu", "dtype": "float32", "trainable": true}}, {"name": "activation_68", "inbound_nodes": [[["batch_normalization_68", 0, 0, {}]]], "class_name": "Activation", "config": {"name": "activation_68", "activation": "relu", "dtype": "float32", "trainable": true}}, {"name": "activation_69", "inbound_nodes": [[["batch_normalization_69", 0, 0, {}]]], "class_name": "Activation", "config": {"name": "activation_69", "activation": "relu", "dtype": "float32", "trainable": true}}, {"name": "mixed7", "inbound_nodes": [[["activation_60", 0, 0, {}], ["activation_63", 0, 0, {}], ["activation_68", 0, 0, {}], ["activation_69", 0, 0, {}]]], "class_name": "Concatenate", "config": {"name": "mixed7", "axis": 3, "dtype": "float32", "trainable": true}}, {"name": "conv2d_72", "inbound_nodes": [[["mixed7", 0, 0, {}]]], "class_name": "Conv2D", "config": {"trainable": true, "bias_regularizer": null, "strides": [1, 1], "data_format": "channels_last", "kernel_initializer": {"class_name": "GlorotUniform", "config": {"seed": null}}, "dtype": "float32", "padding": "same", "bias_initializer": {"class_name": "Zeros", "config": {}}, "kernel_constraint": null, "activation": "linear", "filters": 192, "kernel_size": [1, 1], "use_bias": false, "dilation_rate": [1, 1], "bias_constraint": null, "activity_regularizer": null, "name": "conv2d_72", "kernel_regularizer": null}}, {"name": "batch_normalization_72", "inbound_nodes": [[["conv2d_72", 0, 0, {}]]], "class_name": "BatchNormalization", "config": {"beta_regularizer": null, "beta_initializer": {"class_name": "Zeros", "config": {}}, "dtype": "float32", "axis": [3], "gamma_initializer": {"class_name": "Ones", "config": {}}, "center": true, "beta_constraint": null, "scale": false, "gamma_constraint": null, "trainable": true, "moving_mean_initializer": {"class_name": "Zeros", "config": {}}, "moving_variance_initializer": {"class_name": "Ones", "config": {}}, "name": "batch_normalization_72", "momentum": 0.99, "epsilon": 0.001, "gamma_regularizer": null}}, {"name": "activation_72", "inbound_nodes": [[["batch_normalization_72", 0, 0, {}]]], "class_name": "Activation", "config": {"name": "activation_72", "activation": "relu", "dtype": "float32", "trainable": true}}, {"name": "conv2d_73", "inbound_nodes": [[["activation_72", 0, 0, {}]]], "class_name": "Conv2D", "config": {"trainable": true, "bias_regularizer": null, "strides": [1, 1], "data_format": "channels_last", "kernel_initializer": {"class_name": "GlorotUniform", "config": {"seed": null}}, "dtype": "float32", "padding": "same", "bias_initializer": {"class_name": "Zeros", "config": {}}, "kernel_constraint": null, "activation": "linear", "filters": 192, "kernel_size": [1, 7], "use_bias": false, "dilation_rate": [1, 1], "bias_constraint": null, "activity_regularizer": null, "name": "conv2d_73", "kernel_regularizer": null}}, {"name": "batch_normalization_73", "inbound_nodes": [[["conv2d_73", 0, 0, {}]]], "class_name": "BatchNormalization", "config": {"beta_regularizer": null, "beta_initializer": {"class_name": "Zeros", "config": {}}, "dtype": "float32", "axis": [3], "gamma_initializer": {"class_name": "Ones", "config": {}}, "center": true, "beta_constraint": null, "scale": false, "gamma_constraint": null, "trainable": true, "moving_mean_initializer": {"class_name": "Zeros", "config": {}}, "moving_variance_initializer": {"class_name": "Ones", "config": {}}, "name": "batch_normalization_73", "momentum": 0.99, "epsilon": 0.001, "gamma_regularizer": null}}, {"name": "activation_73", "inbound_nodes": [[["batch_normalization_73", 0, 0, {}]]], "class_name": "Activation", "config": {"name": "activation_73", "activation": "relu", "dtype": "float32", "trainable": true}}, {"name": "conv2d_70", "inbound_nodes": [[["mixed7", 0, 0, {}]]], "class_name": "Conv2D", "config": {"trainable": true, "bias_regularizer": null, "strides": [1, 1], "data_format": "channels_last", "kernel_initializer": {"class_name": "GlorotUniform", "config": {"seed": null}}, "dtype": "float32", "padding": "same", "bias_initializer": {"class_name": "Zeros", "config": {}}, "kernel_constraint": null, "activation": "linear", "filters": 192, "kernel_size": [1, 1], "use_bias": false, "dilation_rate": [1, 1], "bias_constraint": null, "activity_regularizer": null, "name": "conv2d_70", "kernel_regularizer": null}}, {"name": "conv2d_74", "inbound_nodes": [[["activation_73", 0, 0, {}]]], "class_name": "Conv2D", "config": {"trainable": true, "bias_regularizer": null, "strides": [1, 1], "data_format": "channels_last", "kernel_initializer": {"class_name": "GlorotUniform", "config": {"seed": null}}, "dtype": "float32", "padding": "same", "bias_initializer": {"class_name": "Zeros", "config": {}}, "kernel_constraint": null, "activation": "linear", "filters": 192, "kernel_size": [7, 1], "use_bias": false, "dilation_rate": [1, 1], "bias_constraint": null, "activity_regularizer": null, "name": "conv2d_74", "kernel_regularizer": null}}, {"name": "batch_normalization_70", "inbound_nodes": [[["conv2d_70", 0, 0, {}]]], "class_name": "BatchNormalization", "config": {"beta_regularizer": null, "beta_initializer": {"class_name": "Zeros", "config": {}}, "dtype": "float32", "axis": [3], "gamma_initializer": {"class_name": "Ones", "config": {}}, "center": true, "beta_constraint": null, "scale": false, "gamma_constraint": null, "trainable": true, "moving_mean_initializer": {"class_name": "Zeros", "config": {}}, "moving_variance_initializer": {"class_name": "Ones", "config": {}}, "name": "batch_normalization_70", "momentum": 0.99, "epsilon": 0.001, "gamma_regularizer": null}}, {"name": "batch_normalization_74", "inbound_nodes": [[["conv2d_74", 0, 0, {}]]], "class_name": "BatchNormalization", "config": {"beta_regularizer": null, "beta_initializer": {"class_name": "Zeros", "config": {}}, "dtype": "float32", "axis": [3], "gamma_initializer": {"class_name": "Ones", "config": {}}, "center": true, "beta_constraint": null, "scale": false, "gamma_constraint": null, "trainable": true, "moving_mean_initializer": {"class_name": "Zeros", "config": {}}, "moving_variance_initializer": {"class_name": "Ones", "config": {}}, "name": "batch_normalization_74", "momentum": 0.99, "epsilon": 0.001, "gamma_regularizer": null}}, {"name": "activation_70", "inbound_nodes": [[["batch_normalization_70", 0, 0, {}]]], "class_name": "Activation", "config": {"name": "activation_70", "activation": "relu", "dtype": "float32", "trainable": true}}, {"name": "activation_74", "inbound_nodes": [[["batch_normalization_74", 0, 0, {}]]], "class_name": "Activation", "config": {"name": "activation_74", "activation": "relu", "dtype": "float32", "trainable": true}}, {"name": "conv2d_71", "inbound_nodes": [[["activation_70", 0, 0, {}]]], "class_name": "Conv2D", "config": {"trainable": true, "bias_regularizer": null, "strides": [2, 2], "data_format": "channels_last", "kernel_initializer": {"class_name": "GlorotUniform", "config": {"seed": null}}, "dtype": "float32", "padding": "valid", "bias_initializer": {"class_name": "Zeros", "config": {}}, "kernel_constraint": null, "activation": "linear", "filters": 320, "kernel_size": [3, 3], "use_bias": false, "dilation_rate": [1, 1], "bias_constraint": null, "activity_regularizer": null, "name": "conv2d_71", "kernel_regularizer": null}}, {"name": "conv2d_75", "inbound_nodes": [[["activation_74", 0, 0, {}]]], "class_name": "Conv2D", "config": {"trainable": true, "bias_regularizer": null, "strides": [2, 2], "data_format": "channels_last", "kernel_initializer": {"class_name": "GlorotUniform", "config": {"seed": null}}, "dtype": "float32", "padding": "valid", "bias_initializer": {"class_name": "Zeros", "config": {}}, "kernel_constraint": null, "activation": "linear", "filters": 192, "kernel_size": [3, 3], "use_bias": false, "dilation_rate": [1, 1], "bias_constraint": null, "activity_regularizer": null, "name": "conv2d_75", "kernel_regularizer": null}}, {"name": "batch_normalization_71", "inbound_nodes": [[["conv2d_71", 0, 0, {}]]], "class_name": "BatchNormalization", "config": {"beta_regularizer": null, "beta_initializer": {"class_name": "Zeros", "config": {}}, "dtype": "float32", "axis": [3], "gamma_initializer": {"class_name": "Ones", "config": {}}, "center": true, "beta_constraint": null, "scale": false, "gamma_constraint": null, "trainable": true, "moving_mean_initializer": {"class_name": "Zeros", "config": {}}, "moving_variance_initializer": {"class_name": "Ones", "config": {}}, "name": "batch_normalization_71", "momentum": 0.99, "epsilon": 0.001, "gamma_regularizer": null}}, {"name": "batch_normalization_75", "inbound_nodes": [[["conv2d_75", 0, 0, {}]]], "class_name": "BatchNormalization", "config": {"beta_regularizer": null, "beta_initializer": {"class_name": "Zeros", "config": {}}, "dtype": "float32", "axis": [3], "gamma_initializer": {"class_name": "Ones", "config": {}}, "center": true, "beta_constraint": null, "scale": false, "gamma_constraint": null, "trainable": true, "moving_mean_initializer": {"class_name": "Zeros", "config": {}}, "moving_variance_initializer": {"class_name": "Ones", "config": {}}, "name": "batch_normalization_75", "momentum": 0.99, "epsilon": 0.001, "gamma_regularizer": null}}, {"name": "activation_71", "inbound_nodes": [[["batch_normalization_71", 0, 0, {}]]], "class_name": "Activation", "config": {"name": "activation_71", "activation": "relu", "dtype": "float32", "trainable": true}}, {"name": "activation_75", "inbound_nodes": [[["batch_normalization_75", 0, 0, {}]]], "class_name": "Activation", "config": {"name": "activation_75", "activation": "relu", "dtype": "float32", "trainable": true}}, {"name": "max_pooling2d_3", "inbound_nodes": [[["mixed7", 0, 0, {}]]], "class_name": "MaxPooling2D", "config": {"pool_size": [3, 3], "padding": "valid", "trainable": true, "data_format": "channels_last", "dtype": "float32", "name": "max_pooling2d_3", "strides": [2, 2]}}, {"name": "mixed8", "inbound_nodes": [[["activation_71", 0, 0, {}], ["activation_75", 0, 0, {}], ["max_pooling2d_3", 0, 0, {}]]], "class_name": "Concatenate", "config": {"name": "mixed8", "axis": 3, "dtype": "float32", "trainable": true}}, {"name": "conv2d_80", "inbound_nodes": [[["mixed8", 0, 0, {}]]], "class_name": "Conv2D", "config": {"trainable": true, "bias_regularizer": null, "strides": [1, 1], "data_format": "channels_last", "kernel_initializer": {"class_name": "GlorotUniform", "config": {"seed": null}}, "dtype": "float32", "padding": "same", "bias_initializer": {"class_name": "Zeros", "config": {}}, "kernel_constraint": null, "activation": "linear", "filters": 448, "kernel_size": [1, 1], "use_bias": false, "dilation_rate": [1, 1], "bias_constraint": null, "activity_regularizer": null, "name": "conv2d_80", "kernel_regularizer": null}}, {"name": "batch_normalization_80", "inbound_nodes": [[["conv2d_80", 0, 0, {}]]], "class_name": "BatchNormalization", "config": {"beta_regularizer": null, "beta_initializer": {"class_name": "Zeros", "config": {}}, "dtype": "float32", "axis": [3], "gamma_initializer": {"class_name": "Ones", "config": {}}, "center": true, "beta_constraint": null, "scale": false, "gamma_constraint": null, "trainable": true, "moving_mean_initializer": {"class_name": "Zeros", "config": {}}, "moving_variance_initializer": {"class_name": "Ones", "config": {}}, "name": "batch_normalization_80", "momentum": 0.99, "epsilon": 0.001, "gamma_regularizer": null}}, {"name": "activation_80", "inbound_nodes": [[["batch_normalization_80", 0, 0, {}]]], "class_name": "Activation", "config": {"name": "activation_80", "activation": "relu", "dtype": "float32", "trainable": true}}, {"name": "conv2d_77", "inbound_nodes": [[["mixed8", 0, 0, {}]]], "class_name": "Conv2D", "config": {"trainable": true, "bias_regularizer": null, "strides": [1, 1], "data_format": "channels_last", "kernel_initializer": {"class_name": "GlorotUniform", "config": {"seed": null}}, "dtype": "float32", "padding": "same", "bias_initializer": {"class_name": "Zeros", "config": {}}, "kernel_constraint": null, "activation": "linear", "filters": 384, "kernel_size": [1, 1], "use_bias": false, "dilation_rate": [1, 1], "bias_constraint": null, "activity_regularizer": null, "name": "conv2d_77", "kernel_regularizer": null}}, {"name": "conv2d_81", "inbound_nodes": [[["activation_80", 0, 0, {}]]], "class_name": "Conv2D", "config": {"trainable": true, "bias_regularizer": null, "strides": [1, 1], "data_format": "channels_last", "kernel_initializer": {"class_name": "GlorotUniform", "config": {"seed": null}}, "dtype": "float32", "padding": "same", "bias_initializer": {"class_name": "Zeros", "config": {}}, "kernel_constraint": null, "activation": "linear", "filters": 384, "kernel_size": [3, 3], "use_bias": false, "dilation_rate": [1, 1], "bias_constraint": null, "activity_regularizer": null, "name": "conv2d_81", "kernel_regularizer": null}}, {"name": "batch_normalization_77", "inbound_nodes": [[["conv2d_77", 0, 0, {}]]], "class_name": "BatchNormalization", "config": {"beta_regularizer": null, "beta_initializer": {"class_name": "Zeros", "config": {}}, "dtype": "float32", "axis": [3], "gamma_initializer": {"class_name": "Ones", "config": {}}, "center": true, "beta_constraint": null, "scale": false, "gamma_constraint": null, "trainable": true, "moving_mean_initializer": {"class_name": "Zeros", "config": {}}, "moving_variance_initializer": {"class_name": "Ones", "config": {}}, "name": "batch_normalization_77", "momentum": 0.99, "epsilon": 0.001, "gamma_regularizer": null}}, {"name": "batch_normalization_81", "inbound_nodes": [[["conv2d_81", 0, 0, {}]]], "class_name": "BatchNormalization", "config": {"beta_regularizer": null, "beta_initializer": {"class_name": "Zeros", "config": {}}, "dtype": "float32", "axis": [3], "gamma_initializer": {"class_name": "Ones", "config": {}}, "center": true, "beta_constraint": null, "scale": false, "gamma_constraint": null, "trainable": true, "moving_mean_initializer": {"class_name": "Zeros", "config": {}}, "moving_variance_initializer": {"class_name": "Ones", "config": {}}, "name": "batch_normalization_81", "momentum": 0.99, "epsilon": 0.001, "gamma_regularizer": null}}, {"name": "activation_77", "inbound_nodes": [[["batch_normalization_77", 0, 0, {}]]], "class_name": "Activation", "config": {"name": "activation_77", "activation": "relu", "dtype": "float32", "trainable": true}}, {"name": "activation_81", "inbound_nodes": [[["batch_normalization_81", 0, 0, {}]]], "class_name": "Activation", "config": {"name": "activation_81", "activation": "relu", "dtype": "float32", "trainable": true}}, {"name": "conv2d_78", "inbound_nodes": [[["activation_77", 0, 0, {}]]], "class_name": "Conv2D", "config": {"trainable": true, "bias_regularizer": null, "strides": [1, 1], "data_format": "channels_last", "kernel_initializer": {"class_name": "GlorotUniform", "config": {"seed": null}}, "dtype": "float32", "padding": "same", "bias_initializer": {"class_name": "Zeros", "config": {}}, "kernel_constraint": null, "activation": "linear", "filters": 384, "kernel_size": [1, 3], "use_bias": false, "dilation_rate": [1, 1], "bias_constraint": null, "activity_regularizer": null, "name": "conv2d_78", "kernel_regularizer": null}}, {"name": "conv2d_79", "inbound_nodes": [[["activation_77", 0, 0, {}]]], "class_name": "Conv2D", "config": {"trainable": true, "bias_regularizer": null, "strides": [1, 1], "data_format": "channels_last", "kernel_initializer": {"class_name": "GlorotUniform", "config": {"seed": null}}, "dtype": "float32", "padding": "same", "bias_initializer": {"class_name": "Zeros", "config": {}}, "kernel_constraint": null, "activation": "linear", "filters": 384, "kernel_size": [3, 1], "use_bias": false, "dilation_rate": [1, 1], "bias_constraint": null, "activity_regularizer": null, "name": "conv2d_79", "kernel_regularizer": null}}, {"name": "conv2d_82", "inbound_nodes": [[["activation_81", 0, 0, {}]]], "class_name": "Conv2D", "config": {"trainable": true, "bias_regularizer": null, "strides": [1, 1], "data_format": "channels_last", "kernel_initializer": {"class_name": "GlorotUniform", "config": {"seed": null}}, "dtype": "float32", "padding": "same", "bias_initializer": {"class_name": "Zeros", "config": {}}, "kernel_constraint": null, "activation": "linear", "filters": 384, "kernel_size": [1, 3], "use_bias": false, "dilation_rate": [1, 1], "bias_constraint": null, "activity_regularizer": null, "name": "conv2d_82", "kernel_regularizer": null}}, {"name": "conv2d_83", "inbound_nodes": [[["activation_81", 0, 0, {}]]], "class_name": "Conv2D", "config": {"trainable": true, "bias_regularizer": null, "strides": [1, 1], "data_format": "channels_last", "kernel_initializer": {"class_name": "GlorotUniform", "config": {"seed": null}}, "dtype": "float32", "padding": "same", "bias_initializer": {"class_name": "Zeros", "config": {}}, "kernel_constraint": null, "activation": "linear", "filters": 384, "kernel_size": [3, 1], "use_bias": false, "dilation_rate": [1, 1], "bias_constraint": null, "activity_regularizer": null, "name": "conv2d_83", "kernel_regularizer": null}}, {"name": "average_pooling2d_7", "inbound_nodes": [[["mixed8", 0, 0, {}]]], "class_name": "AveragePooling2D", "config": {"pool_size": [3, 3], "padding": "same", "trainable": true, "data_format": "channels_last", "dtype": "float32", "name": "average_pooling2d_7", "strides": [1, 1]}}, {"name": "conv2d_76", "inbound_nodes": [[["mixed8", 0, 0, {}]]], "class_name": "Conv2D", "config": {"trainable": true, "bias_regularizer": null, "strides": [1, 1], "data_format": "channels_last", "kernel_initializer": {"class_name": "GlorotUniform", "config": {"seed": null}}, "dtype": "float32", "padding": "same", "bias_initializer": {"class_name": "Zeros", "config": {}}, "kernel_constraint": null, "activation": "linear", "filters": 320, "kernel_size": [1, 1], "use_bias": false, "dilation_rate": [1, 1], "bias_constraint": null, "activity_regularizer": null, "name": "conv2d_76", "kernel_regularizer": null}}, {"name": "batch_normalization_78", "inbound_nodes": [[["conv2d_78", 0, 0, {}]]], "class_name": "BatchNormalization", "config": {"beta_regularizer": null, "beta_initializer": {"class_name": "Zeros", "config": {}}, "dtype": "float32", "axis": [3], "gamma_initializer": {"class_name": "Ones", "config": {}}, "center": true, "beta_constraint": null, "scale": false, "gamma_constraint": null, "trainable": true, "moving_mean_initializer": {"class_name": "Zeros", "config": {}}, "moving_variance_initializer": {"class_name": "Ones", "config": {}}, "name": "batch_normalization_78", "momentum": 0.99, "epsilon": 0.001, "gamma_regularizer": null}}, {"name": "batch_normalization_79", "inbound_nodes": [[["conv2d_79", 0, 0, {}]]], "class_name": "BatchNormalization", "config": {"beta_regularizer": null, "beta_initializer": {"class_name": "Zeros", "config": {}}, "dtype": "float32", "axis": [3], "gamma_initializer": {"class_name": "Ones", "config": {}}, "center": true, "beta_constraint": null, "scale": false, "gamma_constraint": null, "trainable": true, "moving_mean_initializer": {"class_name": "Zeros", "config": {}}, "moving_variance_initializer": {"class_name": "Ones", "config": {}}, "name": "batch_normalization_79", "momentum": 0.99, "epsilon": 0.001, "gamma_regularizer": null}}, {"name": "batch_normalization_82", "inbound_nodes": [[["conv2d_82", 0, 0, {}]]], "class_name": "BatchNormalization", "config": {"beta_regularizer": null, "beta_initializer": {"class_name": "Zeros", "config": {}}, "dtype": "float32", "axis": [3], "gamma_initializer": {"class_name": "Ones", "config": {}}, "center": true, "beta_constraint": null, "scale": false, "gamma_constraint": null, "trainable": true, "moving_mean_initializer": {"class_name": "Zeros", "config": {}}, "moving_variance_initializer": {"class_name": "Ones", "config": {}}, "name": "batch_normalization_82", "momentum": 0.99, "epsilon": 0.001, "gamma_regularizer": null}}, {"name": "batch_normalization_83", "inbound_nodes": [[["conv2d_83", 0, 0, {}]]], "class_name": "BatchNormalization", "config": {"beta_regularizer": null, "beta_initializer": {"class_name": "Zeros", "config": {}}, "dtype": "float32", "axis": [3], "gamma_initializer": {"class_name": "Ones", "config": {}}, "center": true, "beta_constraint": null, "scale": false, "gamma_constraint": null, "trainable": true, "moving_mean_initializer": {"class_name": "Zeros", "config": {}}, "moving_variance_initializer": {"class_name": "Ones", "config": {}}, "name": "batch_normalization_83", "momentum": 0.99, "epsilon": 0.001, "gamma_regularizer": null}}, {"name": "conv2d_84", "inbound_nodes": [[["average_pooling2d_7", 0, 0, {}]]], "class_name": "Conv2D", "config": {"trainable": true, "bias_regularizer": null, "strides": [1, 1], "data_format": "channels_last", "kernel_initializer": {"class_name": "GlorotUniform", "config": {"seed": null}}, "dtype": "float32", "padding": "same", "bias_initializer": {"class_name": "Zeros", "config": {}}, "kernel_constraint": null, "activation": "linear", "filters": 192, "kernel_size": [1, 1], "use_bias": false, "dilation_rate": [1, 1], "bias_constraint": null, "activity_regularizer": null, "name": "conv2d_84", "kernel_regularizer": null}}, {"name": "batch_normalization_76", "inbound_nodes": [[["conv2d_76", 0, 0, {}]]], "class_name": "BatchNormalization", "config": {"beta_regularizer": null, "beta_initializer": {"class_name": "Zeros", "config": {}}, "dtype": "float32", "axis": [3], "gamma_initializer": {"class_name": "Ones", "config": {}}, "center": true, "beta_constraint": null, "scale": false, "gamma_constraint": null, "trainable": true, "moving_mean_initializer": {"class_name": "Zeros", "config": {}}, "moving_variance_initializer": {"class_name": "Ones", "config": {}}, "name": "batch_normalization_76", "momentum": 0.99, "epsilon": 0.001, "gamma_regularizer": null}}, {"name": "activation_78", "inbound_nodes": [[["batch_normalization_78", 0, 0, {}]]], "class_name": "Activation", "config": {"name": "activation_78", "activation": "relu", "dtype": "float32", "trainable": true}}, {"name": "activation_79", "inbound_nodes": [[["batch_normalization_79", 0, 0, {}]]], "class_name": "Activation", "config": {"name": "activation_79", "activation": "relu", "dtype": "float32", "trainable": true}}, {"name": "activation_82", "inbound_nodes": [[["batch_normalization_82", 0, 0, {}]]], "class_name": "Activation", "config": {"name": "activation_82", "activation": "relu", "dtype": "float32", "trainable": true}}, {"name": "activation_83", "inbound_nodes": [[["batch_normalization_83", 0, 0, {}]]], "class_name": "Activation", "config": {"name": "activation_83", "activation": "relu", "dtype": "float32", "trainable": true}}, {"name": "batch_normalization_84", "inbound_nodes": [[["conv2d_84", 0, 0, {}]]], "class_name": "BatchNormalization", "config": {"beta_regularizer": null, "beta_initializer": {"class_name": "Zeros", "config": {}}, "dtype": "float32", "axis": [3], "gamma_initializer": {"class_name": "Ones", "config": {}}, "center": true, "beta_constraint": null, "scale": false, "gamma_constraint": null, "trainable": true, "moving_mean_initializer": {"class_name": "Zeros", "config": {}}, "moving_variance_initializer": {"class_name": "Ones", "config": {}}, "name": "batch_normalization_84", "momentum": 0.99, "epsilon": 0.001, "gamma_regularizer": null}}, {"name": "activation_76", "inbound_nodes": [[["batch_normalization_76", 0, 0, {}]]], "class_name": "Activation", "config": {"name": "activation_76", "activation": "relu", "dtype": "float32", "trainable": true}}, {"name": "mixed9_0", "inbound_nodes": [[["activation_78", 0, 0, {}], ["activation_79", 0, 0, {}]]], "class_name": "Concatenate", "config": {"name": "mixed9_0", "axis": 3, "dtype": "float32", "trainable": true}}, {"name": "concatenate", "inbound_nodes": [[["activation_82", 0, 0, {}], ["activation_83", 0, 0, {}]]], "class_name": "Concatenate", "config": {"name": "concatenate", "axis": 3, "dtype": "float32", "trainable": true}}, {"name": "activation_84", "inbound_nodes": [[["batch_normalization_84", 0, 0, {}]]], "class_name": "Activation", "config": {"name": "activation_84", "activation": "relu", "dtype": "float32", "trainable": true}}, {"name": "mixed9", "inbound_nodes": [[["activation_76", 0, 0, {}], ["mixed9_0", 0, 0, {}], ["concatenate", 0, 0, {}], ["activation_84", 0, 0, {}]]], "class_name": "Concatenate", "config": {"name": "mixed9", "axis": 3, "dtype": "float32", "trainable": true}}, {"name": "conv2d_89", "inbound_nodes": [[["mixed9", 0, 0, {}]]], "class_name": "Conv2D", "config": {"trainable": true, "bias_regularizer": null, "strides": [1, 1], "data_format": "channels_last", "kernel_initializer": {"class_name": "GlorotUniform", "config": {"seed": null}}, "dtype": "float32", "padding": "same", "bias_initializer": {"class_name": "Zeros", "config": {}}, "kernel_constraint": null, "activation": "linear", "filters": 448, "kernel_size": [1, 1], "use_bias": false, "dilation_rate": [1, 1], "bias_constraint": null, "activity_regularizer": null, "name": "conv2d_89", "kernel_regularizer": null}}, {"name": "batch_normalization_89", "inbound_nodes": [[["conv2d_89", 0, 0, {}]]], "class_name": "BatchNormalization", "config": {"beta_regularizer": null, "beta_initializer": {"class_name": "Zeros", "config": {}}, "dtype": "float32", "axis": [3], "gamma_initializer": {"class_name": "Ones", "config": {}}, "center": true, "beta_constraint": null, "scale": false, "gamma_constraint": null, "trainable": true, "moving_mean_initializer": {"class_name": "Zeros", "config": {}}, "moving_variance_initializer": {"class_name": "Ones", "config": {}}, "name": "batch_normalization_89", "momentum": 0.99, "epsilon": 0.001, "gamma_regularizer": null}}, {"name": "activation_89", "inbound_nodes": [[["batch_normalization_89", 0, 0, {}]]], "class_name": "Activation", "config": {"name": "activation_89", "activation": "relu", "dtype": "float32", "trainable": true}}, {"name": "conv2d_86", "inbound_nodes": [[["mixed9", 0, 0, {}]]], "class_name": "Conv2D", "config": {"trainable": true, "bias_regularizer": null, "strides": [1, 1], "data_format": "channels_last", "kernel_initializer": {"class_name": "GlorotUniform", "config": {"seed": null}}, "dtype": "float32", "padding": "same", "bias_initializer": {"class_name": "Zeros", "config": {}}, "kernel_constraint": null, "activation": "linear", "filters": 384, "kernel_size": [1, 1], "use_bias": false, "dilation_rate": [1, 1], "bias_constraint": null, "activity_regularizer": null, "name": "conv2d_86", "kernel_regularizer": null}}, {"name": "conv2d_90", "inbound_nodes": [[["activation_89", 0, 0, {}]]], "class_name": "Conv2D", "config": {"trainable": true, "bias_regularizer": null, "strides": [1, 1], "data_format": "channels_last", "kernel_initializer": {"class_name": "GlorotUniform", "config": {"seed": null}}, "dtype": "float32", "padding": "same", "bias_initializer": {"class_name": "Zeros", "config": {}}, "kernel_constraint": null, "activation": "linear", "filters": 384, "kernel_size": [3, 3], "use_bias": false, "dilation_rate": [1, 1], "bias_constraint": null, "activity_regularizer": null, "name": "conv2d_90", "kernel_regularizer": null}}, {"name": "batch_normalization_86", "inbound_nodes": [[["conv2d_86", 0, 0, {}]]], "class_name": "BatchNormalization", "config": {"beta_regularizer": null, "beta_initializer": {"class_name": "Zeros", "config": {}}, "dtype": "float32", "axis": [3], "gamma_initializer": {"class_name": "Ones", "config": {}}, "center": true, "beta_constraint": null, "scale": false, "gamma_constraint": null, "trainable": true, "moving_mean_initializer": {"class_name": "Zeros", "config": {}}, "moving_variance_initializer": {"class_name": "Ones", "config": {}}, "name": "batch_normalization_86", "momentum": 0.99, "epsilon": 0.001, "gamma_regularizer": null}}, {"name": "batch_normalization_90", "inbound_nodes": [[["conv2d_90", 0, 0, {}]]], "class_name": "BatchNormalization", "config": {"beta_regularizer": null, "beta_initializer": {"class_name": "Zeros", "config": {}}, "dtype": "float32", "axis": [3], "gamma_initializer": {"class_name": "Ones", "config": {}}, "center": true, "beta_constraint": null, "scale": false, "gamma_constraint": null, "trainable": true, "moving_mean_initializer": {"class_name": "Zeros", "config": {}}, "moving_variance_initializer": {"class_name": "Ones", "config": {}}, "name": "batch_normalization_90", "momentum": 0.99, "epsilon": 0.001, "gamma_regularizer": null}}, {"name": "activation_86", "inbound_nodes": [[["batch_normalization_86", 0, 0, {}]]], "class_name": "Activation", "config": {"name": "activation_86", "activation": "relu", "dtype": "float32", "trainable": true}}, {"name": "activation_90", "inbound_nodes": [[["batch_normalization_90", 0, 0, {}]]], "class_name": "Activation", "config": {"name": "activation_90", "activation": "relu", "dtype": "float32", "trainable": true}}, {"name": "conv2d_87", "inbound_nodes": [[["activation_86", 0, 0, {}]]], "class_name": "Conv2D", "config": {"trainable": true, "bias_regularizer": null, "strides": [1, 1], "data_format": "channels_last", "kernel_initializer": {"class_name": "GlorotUniform", "config": {"seed": null}}, "dtype": "float32", "padding": "same", "bias_initializer": {"class_name": "Zeros", "config": {}}, "kernel_constraint": null, "activation": "linear", "filters": 384, "kernel_size": [1, 3], "use_bias": false, "dilation_rate": [1, 1], "bias_constraint": null, "activity_regularizer": null, "name": "conv2d_87", "kernel_regularizer": null}}, {"name": "conv2d_88", "inbound_nodes": [[["activation_86", 0, 0, {}]]], "class_name": "Conv2D", "config": {"trainable": true, "bias_regularizer": null, "strides": [1, 1], "data_format": "channels_last", "kernel_initializer": {"class_name": "GlorotUniform", "config": {"seed": null}}, "dtype": "float32", "padding": "same", "bias_initializer": {"class_name": "Zeros", "config": {}}, "kernel_constraint": null, "activation": "linear", "filters": 384, "kernel_size": [3, 1], "use_bias": false, "dilation_rate": [1, 1], "bias_constraint": null, "activity_regularizer": null, "name": "conv2d_88", "kernel_regularizer": null}}, {"name": "conv2d_91", "inbound_nodes": [[["activation_90", 0, 0, {}]]], "class_name": "Conv2D", "config": {"trainable": true, "bias_regularizer": null, "strides": [1, 1], "data_format": "channels_last", "kernel_initializer": {"class_name": "GlorotUniform", "config": {"seed": null}}, "dtype": "float32", "padding": "same", "bias_initializer": {"class_name": "Zeros", "config": {}}, "kernel_constraint": null, "activation": "linear", "filters": 384, "kernel_size": [1, 3], "use_bias": false, "dilation_rate": [1, 1], "bias_constraint": null, "activity_regularizer": null, "name": "conv2d_91", "kernel_regularizer": null}}, {"name": "conv2d_92", "inbound_nodes": [[["activation_90", 0, 0, {}]]], "class_name": "Conv2D", "config": {"trainable": true, "bias_regularizer": null, "strides": [1, 1], "data_format": "channels_last", "kernel_initializer": {"class_name": "GlorotUniform", "config": {"seed": null}}, "dtype": "float32", "padding": "same", "bias_initializer": {"class_name": "Zeros", "config": {}}, "kernel_constraint": null, "activation": "linear", "filters": 384, "kernel_size": [3, 1], "use_bias": false, "dilation_rate": [1, 1], "bias_constraint": null, "activity_regularizer": null, "name": "conv2d_92", "kernel_regularizer": null}}, {"name": "average_pooling2d_8", "inbound_nodes": [[["mixed9", 0, 0, {}]]], "class_name": "AveragePooling2D", "config": {"pool_size": [3, 3], "padding": "same", "trainable": true, "data_format": "channels_last", "dtype": "float32", "name": "average_pooling2d_8", "strides": [1, 1]}}, {"name": "conv2d_85", "inbound_nodes": [[["mixed9", 0, 0, {}]]], "class_name": "Conv2D", "config": {"trainable": true, "bias_regularizer": null, "strides": [1, 1], "data_format": "channels_last", "kernel_initializer": {"class_name": "GlorotUniform", "config": {"seed": null}}, "dtype": "float32", "padding": "same", "bias_initializer": {"class_name": "Zeros", "config": {}}, "kernel_constraint": null, "activation": "linear", "filters": 320, "kernel_size": [1, 1], "use_bias": false, "dilation_rate": [1, 1], "bias_constraint": null, "activity_regularizer": null, "name": "conv2d_85", "kernel_regularizer": null}}, {"name": "batch_normalization_87", "inbound_nodes": [[["conv2d_87", 0, 0, {}]]], "class_name": "BatchNormalization", "config": {"beta_regularizer": null, "beta_initializer": {"class_name": "Zeros", "config": {}}, "dtype": "float32", "axis": [3], "gamma_initializer": {"class_name": "Ones", "config": {}}, "center": true, "beta_constraint": null, "scale": false, "gamma_constraint": null, "trainable": true, "moving_mean_initializer": {"class_name": "Zeros", "config": {}}, "moving_variance_initializer": {"class_name": "Ones", "config": {}}, "name": "batch_normalization_87", "momentum": 0.99, "epsilon": 0.001, "gamma_regularizer": null}}, {"name": "batch_normalization_88", "inbound_nodes": [[["conv2d_88", 0, 0, {}]]], "class_name": "BatchNormalization", "config": {"beta_regularizer": null, "beta_initializer": {"class_name": "Zeros", "config": {}}, "dtype": "float32", "axis": [3], "gamma_initializer": {"class_name": "Ones", "config": {}}, "center": true, "beta_constraint": null, "scale": false, "gamma_constraint": null, "trainable": true, "moving_mean_initializer": {"class_name": "Zeros", "config": {}}, "moving_variance_initializer": {"class_name": "Ones", "config": {}}, "name": "batch_normalization_88", "momentum": 0.99, "epsilon": 0.001, "gamma_regularizer": null}}, {"name": "batch_normalization_91", "inbound_nodes": [[["conv2d_91", 0, 0, {}]]], "class_name": "BatchNormalization", "config": {"beta_regularizer": null, "beta_initializer": {"class_name": "Zeros", "config": {}}, "dtype": "float32", "axis": [3], "gamma_initializer": {"class_name": "Ones", "config": {}}, "center": true, "beta_constraint": null, "scale": false, "gamma_constraint": null, "trainable": true, "moving_mean_initializer": {"class_name": "Zeros", "config": {}}, "moving_variance_initializer": {"class_name": "Ones", "config": {}}, "name": "batch_normalization_91", "momentum": 0.99, "epsilon": 0.001, "gamma_regularizer": null}}, {"name": "batch_normalization_92", "inbound_nodes": [[["conv2d_92", 0, 0, {}]]], "class_name": "BatchNormalization", "config": {"beta_regularizer": null, "beta_initializer": {"class_name": "Zeros", "config": {}}, "dtype": "float32", "axis": [3], "gamma_initializer": {"class_name": "Ones", "config": {}}, "center": true, "beta_constraint": null, "scale": false, "gamma_constraint": null, "trainable": true, "moving_mean_initializer": {"class_name": "Zeros", "config": {}}, "moving_variance_initializer": {"class_name": "Ones", "config": {}}, "name": "batch_normalization_92", "momentum": 0.99, "epsilon": 0.001, "gamma_regularizer": null}}, {"name": "conv2d_93", "inbound_nodes": [[["average_pooling2d_8", 0, 0, {}]]], "class_name": "Conv2D", "config": {"trainable": true, "bias_regularizer": null, "strides": [1, 1], "data_format": "channels_last", "kernel_initializer": {"class_name": "GlorotUniform", "config": {"seed": null}}, "dtype": "float32", "padding": "same", "bias_initializer": {"class_name": "Zeros", "config": {}}, "kernel_constraint": null, "activation": "linear", "filters": 192, "kernel_size": [1, 1], "use_bias": false, "dilation_rate": [1, 1], "bias_constraint": null, "activity_regularizer": null, "name": "conv2d_93", "kernel_regularizer": null}}, {"name": "batch_normalization_85", "inbound_nodes": [[["conv2d_85", 0, 0, {}]]], "class_name": "BatchNormalization", "config": {"beta_regularizer": null, "beta_initializer": {"class_name": "Zeros", "config": {}}, "dtype": "float32", "axis": [3], "gamma_initializer": {"class_name": "Ones", "config": {}}, "center": true, "beta_constraint": null, "scale": false, "gamma_constraint": null, "trainable": true, "moving_mean_initializer": {"class_name": "Zeros", "config": {}}, "moving_variance_initializer": {"class_name": "Ones", "config": {}}, "name": "batch_normalization_85", "momentum": 0.99, "epsilon": 0.001, "gamma_regularizer": null}}, {"name": "activation_87", "inbound_nodes": [[["batch_normalization_87", 0, 0, {}]]], "class_name": "Activation", "config": {"name": "activation_87", "activation": "relu", "dtype": "float32", "trainable": true}}, {"name": "activation_88", "inbound_nodes": [[["batch_normalization_88", 0, 0, {}]]], "class_name": "Activation", "config": {"name": "activation_88", "activation": "relu", "dtype": "float32", "trainable": true}}, {"name": "activation_91", "inbound_nodes": [[["batch_normalization_91", 0, 0, {}]]], "class_name": "Activation", "config": {"name": "activation_91", "activation": "relu", "dtype": "float32", "trainable": true}}, {"name": "activation_92", "inbound_nodes": [[["batch_normalization_92", 0, 0, {}]]], "class_name": "Activation", "config": {"name": "activation_92", "activation": "relu", "dtype": "float32", "trainable": true}}, {"name": "batch_normalization_93", "inbound_nodes": [[["conv2d_93", 0, 0, {}]]], "class_name": "BatchNormalization", "config": {"beta_regularizer": null, "beta_initializer": {"class_name": "Zeros", "config": {}}, "dtype": "float32", "axis": [3], "gamma_initializer": {"class_name": "Ones", "config": {}}, "center": true, "beta_constraint": null, "scale": false, "gamma_constraint": null, "trainable": true, "moving_mean_initializer": {"class_name": "Zeros", "config": {}}, "moving_variance_initializer": {"class_name": "Ones", "config": {}}, "name": "batch_normalization_93", "momentum": 0.99, "epsilon": 0.001, "gamma_regularizer": null}}, {"name": "activation_85", "inbound_nodes": [[["batch_normalization_85", 0, 0, {}]]], "class_name": "Activation", "config": {"name": "activation_85", "activation": "relu", "dtype": "float32", "trainable": true}}, {"name": "mixed9_1", "inbound_nodes": [[["activation_87", 0, 0, {}], ["activation_88", 0, 0, {}]]], "class_name": "Concatenate", "config": {"name": "mixed9_1", "axis": 3, "dtype": "float32", "trainable": true}}, {"name": "concatenate_1", "inbound_nodes": [[["activation_91", 0, 0, {}], ["activation_92", 0, 0, {}]]], "class_name": "Concatenate", "config": {"name": "concatenate_1", "axis": 3, "dtype": "float32", "trainable": true}}, {"name": "activation_93", "inbound_nodes": [[["batch_normalization_93", 0, 0, {}]]], "class_name": "Activation", "config": {"name": "activation_93", "activation": "relu", "dtype": "float32", "trainable": true}}, {"name": "mixed10", "inbound_nodes": [[["activation_85", 0, 0, {}], ["mixed9_1", 0, 0, {}], ["concatenate_1", 0, 0, {}], ["activation_93", 0, 0, {}]]], "class_name": "Concatenate", "config": {"name": "mixed10", "axis": 3, "dtype": "float32", "trainable": true}}], "batch_input_shape": [null, 256, 256, 3], "name": "inception_v3", "input_layers": [["input_1", 0, 0]], "output_layers": [["mixed10", 0, 0]]}}, {"class_name": "Flatten", "config": {"dtype": "float32", "name": "flatten", "trainable": true, "data_format": "channels_last"}}, {"class_name": "Dense", "config": {"bias_regularizer": null, "kernel_regularizer": null, "kernel_initializer": {"class_name": "GlorotUniform", "config": {"seed": null}}, "units": 512, "dtype": "float32", "bias_initializer": {"class_name": "Zeros", "config": {}}, "kernel_constraint": null, "activation": "relu", "trainable": true, "use_bias": true, "bias_constraint": null, "activity_regularizer": null, "name": "dense"}}, {"class_name": "Dense", "config": {"bias_regularizer": null, "kernel_regularizer": null, "kernel_initializer": {"class_name": "GlorotUniform", "config": {"seed": null}}, "units": 20, "dtype": "float32", "bias_initializer": {"class_name": "Zeros", "config": {}}, "kernel_constraint": null, "activation": "softmax", "trainable": true, "use_bias": true, "bias_constraint": null, "activity_regularizer": null, "name": "dense_1"}}], "name": "sequential"}}