{"config": {"name": "sequential", "layers": [{"config": {"name": "inception_resnet_v2", "layers": [{"config": {"name": "input_1", "batch_input_shape": [null, 256, 256, 3], "dtype": "float32", "sparse": false}, "class_name": "InputLayer", "inbound_nodes": [], "name": "input_1"}, {"config": {"bias_regularizer": null, "padding": "valid", "activity_regularizer": null, "kernel_initializer": {"config": {"seed": null}, "class_name": "GlorotUniform"}, "trainable": false, "filters": 32, "name": "conv2d", "data_format": "channels_last", "kernel_regularizer": null, "dilation_rate": [1, 1], "strides": [2, 2], "dtype": "float32", "kernel_size": [3, 3], "bias_initializer": {"config": {}, "class_name": "Zeros"}, "bias_constraint": null, "activation": "linear", "kernel_constraint": null, "use_bias": false}, "class_name": "Conv2D", "inbound_nodes": [[["input_1", 0, 0, {}]]], "name": "conv2d"}, {"config": {"center": true, "momentum": 0.99, "scale": false, "moving_mean_initializer": {"config": {}, "class_name": "Zeros"}, "trainable": false, "gamma_constraint": null, "name": "batch_normalization", "gamma_regularizer": null, "beta_regularizer": null, "gamma_initializer": {"config": {}, "class_name": "Ones"}, "beta_constraint": null, "dtype": "float32", "beta_initializer": {"config": {}, "class_name": "Zeros"}, "moving_variance_initializer": {"config": {}, "class_name": "Ones"}, "epsilon": 0.001, "axis": [3]}, "class_name": "BatchNormalization", "inbound_nodes": [[["conv2d", 0, 0, {}]]], "name": "batch_normalization"}, {"config": {"name": "activation", "activation": "relu", "dtype": "float32", "trainable": false}, "class_name": "Activation", "inbound_nodes": [[["batch_normalization", 0, 0, {}]]], "name": "activation"}, {"config": {"bias_regularizer": null, "padding": "valid", "activity_regularizer": null, "kernel_initializer": {"config": {"seed": null}, "class_name": "GlorotUniform"}, "trainable": false, "filters": 32, "name": "conv2d_1", "data_format": "channels_last", "kernel_regularizer": null, "dilation_rate": [1, 1], "strides": [1, 1], "dtype": "float32", "kernel_size": [3, 3], "bias_initializer": {"config": {}, "class_name": "Zeros"}, "bias_constraint": null, "activation": "linear", "kernel_constraint": null, "use_bias": false}, "class_name": "Conv2D", "inbound_nodes": [[["activation", 0, 0, {}]]], "name": "conv2d_1"}, {"config": {"center": true, "momentum": 0.99, "scale": false, "moving_mean_initializer": {"config": {}, "class_name": "Zeros"}, "trainable": false, "gamma_constraint": null, "name": "batch_normalization_1", "gamma_regularizer": null, "beta_regularizer": null, "gamma_initializer": {"config": {}, "class_name": "Ones"}, "beta_constraint": null, "dtype": "float32", "beta_initializer": {"config": {}, "class_name": "Zeros"}, "moving_variance_initializer": {"config": {}, "class_name": "Ones"}, "epsilon": 0.001, "axis": [3]}, "class_name": "BatchNormalization", "inbound_nodes": [[["conv2d_1", 0, 0, {}]]], "name": "batch_normalization_1"}, {"config": {"name": "activation_1", "activation": "relu", "dtype": "float32", "trainable": false}, "class_name": "Activation", "inbound_nodes": [[["batch_normalization_1", 0, 0, {}]]], "name": "activation_1"}, {"config": {"bias_regularizer": null, "padding": "same", "activity_regularizer": null, "kernel_initializer": {"config": {"seed": null}, "class_name": "GlorotUniform"}, "trainable": false, "filters": 64, "name": "conv2d_2", "data_format": "channels_last", "kernel_regularizer": null, "dilation_rate": [1, 1], "strides": [1, 1], "dtype": "float32", "kernel_size": [3, 3], "bias_initializer": {"config": {}, "class_name": "Zeros"}, "bias_constraint": null, "activation": "linear", "kernel_constraint": null, "use_bias": false}, "class_name": "Conv2D", "inbound_nodes": [[["activation_1", 0, 0, {}]]], "name": "conv2d_2"}, {"config": {"center": true, "momentum": 0.99, "scale": false, "moving_mean_initializer": {"config": {}, "class_name": "Zeros"}, "trainable": false, "gamma_constraint": null, "name": "batch_normalization_2", "gamma_regularizer": null, "beta_regularizer": null, "gamma_initializer": {"config": {}, "class_name": "Ones"}, "beta_constraint": null, "dtype": "float32", "beta_initializer": {"config": {}, "class_name": "Zeros"}, "moving_variance_initializer": {"config": {}, "class_name": "Ones"}, "epsilon": 0.001, "axis": [3]}, "class_name": "BatchNormalization", "inbound_nodes": [[["conv2d_2", 0, 0, {}]]], "name": "batch_normalization_2"}, {"config": {"name": "activation_2", "activation": "relu", "dtype": "float32", "trainable": false}, "class_name": "Activation", "inbound_nodes": [[["batch_normalization_2", 0, 0, {}]]], "name": "activation_2"}, {"config": {"pool_size": [3, 3], "strides": [2, 2], "dtype": "float32", "trainable": true, "name": "max_pooling2d", "data_format": "channels_last", "padding": "valid"}, "class_name": "MaxPooling2D", "inbound_nodes": [[["activation_2", 0, 0, {}]]], "name": "max_pooling2d"}, {"config": {"bias_regularizer": null, "padding": "valid", "activity_regularizer": null, "kernel_initializer": {"config": {"seed": null}, "class_name": "GlorotUniform"}, "trainable": true, "filters": 80, "name": "conv2d_3", "data_format": "channels_last", "kernel_regularizer": null, "dilation_rate": [1, 1], "strides": [1, 1], "dtype": "float32", "kernel_size": [1, 1], "bias_initializer": {"config": {}, "class_name": "Zeros"}, "bias_constraint": null, "activation": "linear", "kernel_constraint": null, "use_bias": false}, "class_name": "Conv2D", "inbound_nodes": [[["max_pooling2d", 0, 0, {}]]], "name": "conv2d_3"}, {"config": {"center": true, "momentum": 0.99, "scale": false, "moving_mean_initializer": {"config": {}, "class_name": "Zeros"}, "trainable": true, "gamma_constraint": null, "name": "batch_normalization_3", "gamma_regularizer": null, "beta_regularizer": null, "gamma_initializer": {"config": {}, "class_name": "Ones"}, "beta_constraint": null, "dtype": "float32", "beta_initializer": {"config": {}, "class_name": "Zeros"}, "moving_variance_initializer": {"config": {}, "class_name": "Ones"}, "epsilon": 0.001, "axis": [3]}, "class_name": "BatchNormalization", "inbound_nodes": [[["conv2d_3", 0, 0, {}]]], "name": "batch_normalization_3"}, {"config": {"name": "activation_3", "activation": "relu", "dtype": "float32", "trainable": true}, "class_name": "Activation", "inbound_nodes": [[["batch_normalization_3", 0, 0, {}]]], "name": "activation_3"}, {"config": {"bias_regularizer": null, "padding": "valid", "activity_regularizer": null, "kernel_initializer": {"config": {"seed": null}, "class_name": "GlorotUniform"}, "trainable": true, "filters": 192, "name": "conv2d_4", "data_format": "channels_last", "kernel_regularizer": null, "dilation_rate": [1, 1], "strides": [1, 1], "dtype": "float32", "kernel_size": [3, 3], "bias_initializer": {"config": {}, "class_name": "Zeros"}, "bias_constraint": null, "activation": "linear", "kernel_constraint": null, "use_bias": false}, "class_name": "Conv2D", "inbound_nodes": [[["activation_3", 0, 0, {}]]], "name": "conv2d_4"}, {"config": {"center": true, "momentum": 0.99, "scale": false, "moving_mean_initializer": {"config": {}, "class_name": "Zeros"}, "trainable": true, "gamma_constraint": null, "name": "batch_normalization_4", "gamma_regularizer": null, "beta_regularizer": null, "gamma_initializer": {"config": {}, "class_name": "Ones"}, "beta_constraint": null, "dtype": "float32", "beta_initializer": {"config": {}, "class_name": "Zeros"}, "moving_variance_initializer": {"config": {}, "class_name": "Ones"}, "epsilon": 0.001, "axis": [3]}, "class_name": "BatchNormalization", "inbound_nodes": [[["conv2d_4", 0, 0, {}]]], "name": "batch_normalization_4"}, {"config": {"name": "activation_4", "activation": "relu", "dtype": "float32", "trainable": true}, "class_name": "Activation", "inbound_nodes": [[["batch_normalization_4", 0, 0, {}]]], "name": "activation_4"}, {"config": {"pool_size": [3, 3], "strides": [2, 2], "dtype": "float32", "trainable": true, "name": "max_pooling2d_1", "data_format": "channels_last", "padding": "valid"}, "class_name": "MaxPooling2D", "inbound_nodes": [[["activation_4", 0, 0, {}]]], "name": "max_pooling2d_1"}, {"config": {"bias_regularizer": null, "padding": "same", "activity_regularizer": null, "kernel_initializer": {"config": {"seed": null}, "class_name": "GlorotUniform"}, "trainable": true, "filters": 64, "name": "conv2d_8", "data_format": "channels_last", "kernel_regularizer": null, "dilation_rate": [1, 1], "strides": [1, 1], "dtype": "float32", "kernel_size": [1, 1], "bias_initializer": {"config": {}, "class_name": "Zeros"}, "bias_constraint": null, "activation": "linear", "kernel_constraint": null, "use_bias": false}, "class_name": "Conv2D", "inbound_nodes": [[["max_pooling2d_1", 0, 0, {}]]], "name": "conv2d_8"}, {"config": {"center": true, "momentum": 0.99, "scale": false, "moving_mean_initializer": {"config": {}, "class_name": "Zeros"}, "trainable": true, "gamma_constraint": null, "name": "batch_normalization_8", "gamma_regularizer": null, "beta_regularizer": null, "gamma_initializer": {"config": {}, "class_name": "Ones"}, "beta_constraint": null, "dtype": "float32", "beta_initializer": {"config": {}, "class_name": "Zeros"}, "moving_variance_initializer": {"config": {}, "class_name": "Ones"}, "epsilon": 0.001, "axis": [3]}, "class_name": "BatchNormalization", "inbound_nodes": [[["conv2d_8", 0, 0, {}]]], "name": "batch_normalization_8"}, {"config": {"name": "activation_8", "activation": "relu", "dtype": "float32", "trainable": true}, "class_name": "Activation", "inbound_nodes": [[["batch_normalization_8", 0, 0, {}]]], "name": "activation_8"}, {"config": {"bias_regularizer": null, "padding": "same", "activity_regularizer": null, "kernel_initializer": {"config": {"seed": null}, "class_name": "GlorotUniform"}, "trainable": true, "filters": 48, "name": "conv2d_6", "data_format": "channels_last", "kernel_regularizer": null, "dilation_rate": [1, 1], "strides": [1, 1], "dtype": "float32", "kernel_size": [1, 1], "bias_initializer": {"config": {}, "class_name": "Zeros"}, "bias_constraint": null, "activation": "linear", "kernel_constraint": null, "use_bias": false}, "class_name": "Conv2D", "inbound_nodes": [[["max_pooling2d_1", 0, 0, {}]]], "name": "conv2d_6"}, {"config": {"bias_regularizer": null, "padding": "same", "activity_regularizer": null, "kernel_initializer": {"config": {"seed": null}, "class_name": "GlorotUniform"}, "trainable": true, "filters": 96, "name": "conv2d_9", "data_format": "channels_last", "kernel_regularizer": null, "dilation_rate": [1, 1], "strides": [1, 1], "dtype": "float32", "kernel_size": [3, 3], "bias_initializer": {"config": {}, "class_name": "Zeros"}, "bias_constraint": null, "activation": "linear", "kernel_constraint": null, "use_bias": false}, "class_name": "Conv2D", "inbound_nodes": [[["activation_8", 0, 0, {}]]], "name": "conv2d_9"}, {"config": {"center": true, "momentum": 0.99, "scale": false, "moving_mean_initializer": {"config": {}, "class_name": "Zeros"}, "trainable": true, "gamma_constraint": null, "name": "batch_normalization_6", "gamma_regularizer": null, "beta_regularizer": null, "gamma_initializer": {"config": {}, "class_name": "Ones"}, "beta_constraint": null, "dtype": "float32", "beta_initializer": {"config": {}, "class_name": "Zeros"}, "moving_variance_initializer": {"config": {}, "class_name": "Ones"}, "epsilon": 0.001, "axis": [3]}, "class_name": "BatchNormalization", "inbound_nodes": [[["conv2d_6", 0, 0, {}]]], "name": "batch_normalization_6"}, {"config": {"center": true, "momentum": 0.99, "scale": false, "moving_mean_initializer": {"config": {}, "class_name": "Zeros"}, "trainable": true, "gamma_constraint": null, "name": "batch_normalization_9", "gamma_regularizer": null, "beta_regularizer": null, "gamma_initializer": {"config": {}, "class_name": "Ones"}, "beta_constraint": null, "dtype": "float32", "beta_initializer": {"config": {}, "class_name": "Zeros"}, "moving_variance_initializer": {"config": {}, "class_name": "Ones"}, "epsilon": 0.001, "axis": [3]}, "class_name": "BatchNormalization", "inbound_nodes": [[["conv2d_9", 0, 0, {}]]], "name": "batch_normalization_9"}, {"config": {"name": "activation_6", "activation": "relu", "dtype": "float32", "trainable": true}, "class_name": "Activation", "inbound_nodes": [[["batch_normalization_6", 0, 0, {}]]], "name": "activation_6"}, {"config": {"name": "activation_9", "activation": "relu", "dtype": "float32", "trainable": true}, "class_name": "Activation", "inbound_nodes": [[["batch_normalization_9", 0, 0, {}]]], "name": "activation_9"}, {"config": {"pool_size": [3, 3], "strides": [1, 1], "dtype": "float32", "trainable": true, "name": "average_pooling2d", "data_format": "channels_last", "padding": "same"}, "class_name": "AveragePooling2D", "inbound_nodes": [[["max_pooling2d_1", 0, 0, {}]]], "name": "average_pooling2d"}, {"config": {"bias_regularizer": null, "padding": "same", "activity_regularizer": null, "kernel_initializer": {"config": {"seed": null}, "class_name": "GlorotUniform"}, "trainable": true, "filters": 96, "name": "conv2d_5", "data_format": "channels_last", "kernel_regularizer": null, "dilation_rate": [1, 1], "strides": [1, 1], "dtype": "float32", "kernel_size": [1, 1], "bias_initializer": {"config": {}, "class_name": "Zeros"}, "bias_constraint": null, "activation": "linear", "kernel_constraint": null, "use_bias": false}, "class_name": "Conv2D", "inbound_nodes": [[["max_pooling2d_1", 0, 0, {}]]], "name": "conv2d_5"}, {"config": {"bias_regularizer": null, "padding": "same", "activity_regularizer": null, "kernel_initializer": {"config": {"seed": null}, "class_name": "GlorotUniform"}, "trainable": true, "filters": 64, "name": "conv2d_7", "data_format": "channels_last", "kernel_regularizer": null, "dilation_rate": [1, 1], "strides": [1, 1], "dtype": "float32", "kernel_size": [5, 5], "bias_initializer": {"config": {}, "class_name": "Zeros"}, "bias_constraint": null, "activation": "linear", "kernel_constraint": null, "use_bias": false}, "class_name": "Conv2D", "inbound_nodes": [[["activation_6", 0, 0, {}]]], "name": "conv2d_7"}, {"config": {"bias_regularizer": null, "padding": "same", "activity_regularizer": null, "kernel_initializer": {"config": {"seed": null}, "class_name": "GlorotUniform"}, "trainable": true, "filters": 96, "name": "conv2d_10", "data_format": "channels_last", "kernel_regularizer": null, "dilation_rate": [1, 1], "strides": [1, 1], "dtype": "float32", "kernel_size": [3, 3], "bias_initializer": {"config": {}, "class_name": "Zeros"}, "bias_constraint": null, "activation": "linear", "kernel_constraint": null, "use_bias": false}, "class_name": "Conv2D", "inbound_nodes": [[["activation_9", 0, 0, {}]]], "name": "conv2d_10"}, {"config": {"bias_regularizer": null, "padding": "same", "activity_regularizer": null, "kernel_initializer": {"config": {"seed": null}, "class_name": "GlorotUniform"}, "trainable": true, "filters": 64, "name": "conv2d_11", "data_format": "channels_last", "kernel_regularizer": null, "dilation_rate": [1, 1], "strides": [1, 1], "dtype": "float32", "kernel_size": [1, 1], "bias_initializer": {"config": {}, "class_name": "Zeros"}, "bias_constraint": null, "activation": "linear", "kernel_constraint": null, "use_bias": false}, "class_name": "Conv2D", "inbound_nodes": [[["average_pooling2d", 0, 0, {}]]], "name": "conv2d_11"}, {"config": {"center": true, "momentum": 0.99, "scale": false, "moving_mean_initializer": {"config": {}, "class_name": "Zeros"}, "trainable": true, "gamma_constraint": null, "name": "batch_normalization_5", "gamma_regularizer": null, "beta_regularizer": null, "gamma_initializer": {"config": {}, "class_name": "Ones"}, "beta_constraint": null, "dtype": "float32", "beta_initializer": {"config": {}, "class_name": "Zeros"}, "moving_variance_initializer": {"config": {}, "class_name": "Ones"}, "epsilon": 0.001, "axis": [3]}, "class_name": "BatchNormalization", "inbound_nodes": [[["conv2d_5", 0, 0, {}]]], "name": "batch_normalization_5"}, {"config": {"center": true, "momentum": 0.99, "scale": false, "moving_mean_initializer": {"config": {}, "class_name": "Zeros"}, "trainable": true, "gamma_constraint": null, "name": "batch_normalization_7", "gamma_regularizer": null, "beta_regularizer": null, "gamma_initializer": {"config": {}, "class_name": "Ones"}, "beta_constraint": null, "dtype": "float32", "beta_initializer": {"config": {}, "class_name": "Zeros"}, "moving_variance_initializer": {"config": {}, "class_name": "Ones"}, "epsilon": 0.001, "axis": [3]}, "class_name": "BatchNormalization", "inbound_nodes": [[["conv2d_7", 0, 0, {}]]], "name": "batch_normalization_7"}, {"config": {"center": true, "momentum": 0.99, "scale": false, "moving_mean_initializer": {"config": {}, "class_name": "Zeros"}, "trainable": true, "gamma_constraint": null, "name": "batch_normalization_10", "gamma_regularizer": null, "beta_regularizer": null, "gamma_initializer": {"config": {}, "class_name": "Ones"}, "beta_constraint": null, "dtype": "float32", "beta_initializer": {"config": {}, "class_name": "Zeros"}, "moving_variance_initializer": {"config": {}, "class_name": "Ones"}, "epsilon": 0.001, "axis": [3]}, "class_name": "BatchNormalization", "inbound_nodes": [[["conv2d_10", 0, 0, {}]]], "name": "batch_normalization_10"}, {"config": {"center": true, "momentum": 0.99, "scale": false, "moving_mean_initializer": {"config": {}, "class_name": "Zeros"}, "trainable": true, "gamma_constraint": null, "name": "batch_normalization_11", "gamma_regularizer": null, "beta_regularizer": null, "gamma_initializer": {"config": {}, "class_name": "Ones"}, "beta_constraint": null, "dtype": "float32", "beta_initializer": {"config": {}, "class_name": "Zeros"}, "moving_variance_initializer": {"config": {}, "class_name": "Ones"}, "epsilon": 0.001, "axis": [3]}, "class_name": "BatchNormalization", "inbound_nodes": [[["conv2d_11", 0, 0, {}]]], "name": "batch_normalization_11"}, {"config": {"name": "activation_5", "activation": "relu", "dtype": "float32", "trainable": true}, "class_name": "Activation", "inbound_nodes": [[["batch_normalization_5", 0, 0, {}]]], "name": "activation_5"}, {"config": {"name": "activation_7", "activation": "relu", "dtype": "float32", "trainable": true}, "class_name": "Activation", "inbound_nodes": [[["batch_normalization_7", 0, 0, {}]]], "name": "activation_7"}, {"config": {"name": "activation_10", "activation": "relu", "dtype": "float32", "trainable": true}, "class_name": "Activation", "inbound_nodes": [[["batch_normalization_10", 0, 0, {}]]], "name": "activation_10"}, {"config": {"name": "activation_11", "activation": "relu", "dtype": "float32", "trainable": true}, "class_name": "Activation", "inbound_nodes": [[["batch_normalization_11", 0, 0, {}]]], "name": "activation_11"}, {"config": {"dtype": "float32", "name": "mixed_5b", "axis": 3, "trainable": true}, "class_name": "Concatenate", "inbound_nodes": [[["activation_5", 0, 0, {}], ["activation_7", 0, 0, {}], ["activation_10", 0, 0, {}], ["activation_11", 0, 0, {}]]], "name": "mixed_5b"}, {"config": {"bias_regularizer": null, "padding": "same", "activity_regularizer": null, "kernel_initializer": {"config": {"seed": null}, "class_name": "GlorotUniform"}, "trainable": true, "filters": 32, "name": "conv2d_15", "data_format": "channels_last", "kernel_regularizer": null, "dilation_rate": [1, 1], "strides": [1, 1], "dtype": "float32", "kernel_size": [1, 1], "bias_initializer": {"config": {}, "class_name": "Zeros"}, "bias_constraint": null, "activation": "linear", "kernel_constraint": null, "use_bias": false}, "class_name": "Conv2D", "inbound_nodes": [[["mixed_5b", 0, 0, {}]]], "name": "conv2d_15"}, {"config": {"center": true, "momentum": 0.99, "scale": false, "moving_mean_initializer": {"config": {}, "class_name": "Zeros"}, "trainable": true, "gamma_constraint": null, "name": "batch_normalization_15", "gamma_regularizer": null, "beta_regularizer": null, "gamma_initializer": {"config": {}, "class_name": "Ones"}, "beta_constraint": null, "dtype": "float32", "beta_initializer": {"config": {}, "class_name": "Zeros"}, "moving_variance_initializer": {"config": {}, "class_name": "Ones"}, "epsilon": 0.001, "axis": [3]}, "class_name": "BatchNormalization", "inbound_nodes": [[["conv2d_15", 0, 0, {}]]], "name": "batch_normalization_15"}, {"config": {"name": "activation_15", "activation": "relu", "dtype": "float32", "trainable": true}, "class_name": "Activation", "inbound_nodes": [[["batch_normalization_15", 0, 0, {}]]], "name": "activation_15"}, {"config": {"bias_regularizer": null, "padding": "same", "activity_regularizer": null, "kernel_initializer": {"config": {"seed": null}, "class_name": "GlorotUniform"}, "trainable": true, "filters": 32, "name": "conv2d_13", "data_format": "channels_last", "kernel_regularizer": null, "dilation_rate": [1, 1], "strides": [1, 1], "dtype": "float32", "kernel_size": [1, 1], "bias_initializer": {"config": {}, "class_name": "Zeros"}, "bias_constraint": null, "activation": "linear", "kernel_constraint": null, "use_bias": false}, "class_name": "Conv2D", "inbound_nodes": [[["mixed_5b", 0, 0, {}]]], "name": "conv2d_13"}, {"config": {"bias_regularizer": null, "padding": "same", "activity_regularizer": null, "kernel_initializer": {"config": {"seed": null}, "class_name": "GlorotUniform"}, "trainable": true, "filters": 48, "name": "conv2d_16", "data_format": "channels_last", "kernel_regularizer": null, "dilation_rate": [1, 1], "strides": [1, 1], "dtype": "float32", "kernel_size": [3, 3], "bias_initializer": {"config": {}, "class_name": "Zeros"}, "bias_constraint": null, "activation": "linear", "kernel_constraint": null, "use_bias": false}, "class_name": "Conv2D", "inbound_nodes": [[["activation_15", 0, 0, {}]]], "name": "conv2d_16"}, {"config": {"center": true, "momentum": 0.99, "scale": false, "moving_mean_initializer": {"config": {}, "class_name": "Zeros"}, "trainable": true, "gamma_constraint": null, "name": "batch_normalization_13", "gamma_regularizer": null, "beta_regularizer": null, "gamma_initializer": {"config": {}, "class_name": "Ones"}, "beta_constraint": null, "dtype": "float32", "beta_initializer": {"config": {}, "class_name": "Zeros"}, "moving_variance_initializer": {"config": {}, "class_name": "Ones"}, "epsilon": 0.001, "axis": [3]}, "class_name": "BatchNormalization", "inbound_nodes": [[["conv2d_13", 0, 0, {}]]], "name": "batch_normalization_13"}, {"config": {"center": true, "momentum": 0.99, "scale": false, "moving_mean_initializer": {"config": {}, "class_name": "Zeros"}, "trainable": true, "gamma_constraint": null, "name": "batch_normalization_16", "gamma_regularizer": null, "beta_regularizer": null, "gamma_initializer": {"config": {}, "class_name": "Ones"}, "beta_constraint": null, "dtype": "float32", "beta_initializer": {"config": {}, "class_name": "Zeros"}, "moving_variance_initializer": {"config": {}, "class_name": "Ones"}, "epsilon": 0.001, "axis": [3]}, "class_name": "BatchNormalization", "inbound_nodes": [[["conv2d_16", 0, 0, {}]]], "name": "batch_normalization_16"}, {"config": {"name": "activation_13", "activation": "relu", "dtype": "float32", "trainable": true}, "class_name": "Activation", "inbound_nodes": [[["batch_normalization_13", 0, 0, {}]]], "name": "activation_13"}, {"config": {"name": "activation_16", "activation": "relu", "dtype": "float32", "trainable": true}, "class_name": "Activation", "inbound_nodes": [[["batch_normalization_16", 0, 0, {}]]], "name": "activation_16"}, {"config": {"bias_regularizer": null, "padding": "same", "activity_regularizer": null, "kernel_initializer": {"config": {"seed": null}, "class_name": "GlorotUniform"}, "trainable": true, "filters": 32, "name": "conv2d_12", "data_format": "channels_last", "kernel_regularizer": null, "dilation_rate": [1, 1], "strides": [1, 1], "dtype": "float32", "kernel_size": [1, 1], "bias_initializer": {"config": {}, "class_name": "Zeros"}, "bias_constraint": null, "activation": "linear", "kernel_constraint": null, "use_bias": false}, "class_name": "Conv2D", "inbound_nodes": [[["mixed_5b", 0, 0, {}]]], "name": "conv2d_12"}, {"config": {"bias_regularizer": null, "padding": "same", "activity_regularizer": null, "kernel_initializer": {"config": {"seed": null}, "class_name": "GlorotUniform"}, "trainable": true, "filters": 32, "name": "conv2d_14", "data_format": "channels_last", "kernel_regularizer": null, "dilation_rate": [1, 1], "strides": [1, 1], "dtype": "float32", "kernel_size": [3, 3], "bias_initializer": {"config": {}, "class_name": "Zeros"}, "bias_constraint": null, "activation": "linear", "kernel_constraint": null, "use_bias": false}, "class_name": "Conv2D", "inbound_nodes": [[["activation_13", 0, 0, {}]]], "name": "conv2d_14"}, {"config": {"bias_regularizer": null, "padding": "same", "activity_regularizer": null, "kernel_initializer": {"config": {"seed": null}, "class_name": "GlorotUniform"}, "trainable": true, "filters": 64, "name": "conv2d_17", "data_format": "channels_last", "kernel_regularizer": null, "dilation_rate": [1, 1], "strides": [1, 1], "dtype": "float32", "kernel_size": [3, 3], "bias_initializer": {"config": {}, "class_name": "Zeros"}, "bias_constraint": null, "activation": "linear", "kernel_constraint": null, "use_bias": false}, "class_name": "Conv2D", "inbound_nodes": [[["activation_16", 0, 0, {}]]], "name": "conv2d_17"}, {"config": {"center": true, "momentum": 0.99, "scale": false, "moving_mean_initializer": {"config": {}, "class_name": "Zeros"}, "trainable": true, "gamma_constraint": null, "name": "batch_normalization_12", "gamma_regularizer": null, "beta_regularizer": null, "gamma_initializer": {"config": {}, "class_name": "Ones"}, "beta_constraint": null, "dtype": "float32", "beta_initializer": {"config": {}, "class_name": "Zeros"}, "moving_variance_initializer": {"config": {}, "class_name": "Ones"}, "epsilon": 0.001, "axis": [3]}, "class_name": "BatchNormalization", "inbound_nodes": [[["conv2d_12", 0, 0, {}]]], "name": "batch_normalization_12"}, {"config": {"center": true, "momentum": 0.99, "scale": false, "moving_mean_initializer": {"config": {}, "class_name": "Zeros"}, "trainable": true, "gamma_constraint": null, "name": "batch_normalization_14", "gamma_regularizer": null, "beta_regularizer": null, "gamma_initializer": {"config": {}, "class_name": "Ones"}, "beta_constraint": null, "dtype": "float32", "beta_initializer": {"config": {}, "class_name": "Zeros"}, "moving_variance_initializer": {"config": {}, "class_name": "Ones"}, "epsilon": 0.001, "axis": [3]}, "class_name": "BatchNormalization", "inbound_nodes": [[["conv2d_14", 0, 0, {}]]], "name": "batch_normalization_14"}, {"config": {"center": true, "momentum": 0.99, "scale": false, "moving_mean_initializer": {"config": {}, "class_name": "Zeros"}, "trainable": true, "gamma_constraint": null, "name": "batch_normalization_17", "gamma_regularizer": null, "beta_regularizer": null, "gamma_initializer": {"config": {}, "class_name": "Ones"}, "beta_constraint": null, "dtype": "float32", "beta_initializer": {"config": {}, "class_name": "Zeros"}, "moving_variance_initializer": {"config": {}, "class_name": "Ones"}, "epsilon": 0.001, "axis": [3]}, "class_name": "BatchNormalization", "inbound_nodes": [[["conv2d_17", 0, 0, {}]]], "name": "batch_normalization_17"}, {"config": {"name": "activation_12", "activation": "relu", "dtype": "float32", "trainable": true}, "class_name": "Activation", "inbound_nodes": [[["batch_normalization_12", 0, 0, {}]]], "name": "activation_12"}, {"config": {"name": "activation_14", "activation": "relu", "dtype": "float32", "trainable": true}, "class_name": "Activation", "inbound_nodes": [[["batch_normalization_14", 0, 0, {}]]], "name": "activation_14"}, {"config": {"name": "activation_17", "activation": "relu", "dtype": "float32", "trainable": true}, "class_name": "Activation", "inbound_nodes": [[["batch_normalization_17", 0, 0, {}]]], "name": "activation_17"}, {"config": {"dtype": "float32", "name": "block35_1_mixed", "axis": 3, "trainable": true}, "class_name": "Concatenate", "inbound_nodes": [[["activation_12", 0, 0, {}], ["activation_14", 0, 0, {}], ["activation_17", 0, 0, {}]]], "name": "block35_1_mixed"}, {"config": {"bias_regularizer": null, "padding": "same", "activity_regularizer": null, "kernel_initializer": {"config": {"seed": null}, "class_name": "GlorotUniform"}, "trainable": true, "filters": 320, "name": "block35_1_conv", "data_format": "channels_last", "kernel_regularizer": null, "dilation_rate": [1, 1], "strides": [1, 1], "dtype": "float32", "kernel_size": [1, 1], "bias_initializer": {"config": {}, "class_name": "Zeros"}, "bias_constraint": null, "activation": "linear", "kernel_constraint": null, "use_bias": true}, "class_name": "Conv2D", "inbound_nodes": [[["block35_1_mixed", 0, 0, {}]]], "name": "block35_1_conv"}, {"config": {"function": ["4wIAAAAAAAAAAgAAAAMAAABTAAAAcxQAAAB8AABkAQAZfAAAZAIAGXwBABQXUykDTukAAAAA6QEA\nAACpACkC2gZpbnB1dHPaBXNjYWxlcgMAAAByAwAAAPpxQzovVXNlcnMva3oxOTkvQXBwRGF0YS9M\nb2NhbC9Qcm9ncmFtcy9QeXRob24vUHl0aG9uMzUvbGliL3NpdGUtcGFja2FnZXMva2VyYXNfYXBw\nbGljYXRpb25zL2luY2VwdGlvbl9yZXNuZXRfdjIucHnaCDxsYW1iZGE+qAAAAPMAAAAA\n", null, null], "function_type": "lambda", "dtype": "float32", "trainable": true, "output_shape": [29, 29, 320], "name": "block35_1", "arguments": {"scale": 0.17}, "output_shape_type": "raw", "output_shape_module": null, "module": "keras_applications.inception_resnet_v2"}, "class_name": "Lambda", "inbound_nodes": [[["mixed_5b", 0, 0, {}], ["block35_1_conv", 0, 0, {}]]], "name": "block35_1"}, {"config": {"name": "block35_1_ac", "activation": "relu", "dtype": "float32", "trainable": true}, "class_name": "Activation", "inbound_nodes": [[["block35_1", 0, 0, {}]]], "name": "block35_1_ac"}, {"config": {"bias_regularizer": null, "padding": "same", "activity_regularizer": null, "kernel_initializer": {"config": {"seed": null}, "class_name": "GlorotUniform"}, "trainable": true, "filters": 32, "name": "conv2d_21", "data_format": "channels_last", "kernel_regularizer": null, "dilation_rate": [1, 1], "strides": [1, 1], "dtype": "float32", "kernel_size": [1, 1], "bias_initializer": {"config": {}, "class_name": "Zeros"}, "bias_constraint": null, "activation": "linear", "kernel_constraint": null, "use_bias": false}, "class_name": "Conv2D", "inbound_nodes": [[["block35_1_ac", 0, 0, {}]]], "name": "conv2d_21"}, {"config": {"center": true, "momentum": 0.99, "scale": false, "moving_mean_initializer": {"config": {}, "class_name": "Zeros"}, "trainable": true, "gamma_constraint": null, "name": "batch_normalization_21", "gamma_regularizer": null, "beta_regularizer": null, "gamma_initializer": {"config": {}, "class_name": "Ones"}, "beta_constraint": null, "dtype": "float32", "beta_initializer": {"config": {}, "class_name": "Zeros"}, "moving_variance_initializer": {"config": {}, "class_name": "Ones"}, "epsilon": 0.001, "axis": [3]}, "class_name": "BatchNormalization", "inbound_nodes": [[["conv2d_21", 0, 0, {}]]], "name": "batch_normalization_21"}, {"config": {"name": "activation_21", "activation": "relu", "dtype": "float32", "trainable": true}, "class_name": "Activation", "inbound_nodes": [[["batch_normalization_21", 0, 0, {}]]], "name": "activation_21"}, {"config": {"bias_regularizer": null, "padding": "same", "activity_regularizer": null, "kernel_initializer": {"config": {"seed": null}, "class_name": "GlorotUniform"}, "trainable": true, "filters": 32, "name": "conv2d_19", "data_format": "channels_last", "kernel_regularizer": null, "dilation_rate": [1, 1], "strides": [1, 1], "dtype": "float32", "kernel_size": [1, 1], "bias_initializer": {"config": {}, "class_name": "Zeros"}, "bias_constraint": null, "activation": "linear", "kernel_constraint": null, "use_bias": false}, "class_name": "Conv2D", "inbound_nodes": [[["block35_1_ac", 0, 0, {}]]], "name": "conv2d_19"}, {"config": {"bias_regularizer": null, "padding": "same", "activity_regularizer": null, "kernel_initializer": {"config": {"seed": null}, "class_name": "GlorotUniform"}, "trainable": true, "filters": 48, "name": "conv2d_22", "data_format": "channels_last", "kernel_regularizer": null, "dilation_rate": [1, 1], "strides": [1, 1], "dtype": "float32", "kernel_size": [3, 3], "bias_initializer": {"config": {}, "class_name": "Zeros"}, "bias_constraint": null, "activation": "linear", "kernel_constraint": null, "use_bias": false}, "class_name": "Conv2D", "inbound_nodes": [[["activation_21", 0, 0, {}]]], "name": "conv2d_22"}, {"config": {"center": true, "momentum": 0.99, "scale": false, "moving_mean_initializer": {"config": {}, "class_name": "Zeros"}, "trainable": true, "gamma_constraint": null, "name": "batch_normalization_19", "gamma_regularizer": null, "beta_regularizer": null, "gamma_initializer": {"config": {}, "class_name": "Ones"}, "beta_constraint": null, "dtype": "float32", "beta_initializer": {"config": {}, "class_name": "Zeros"}, "moving_variance_initializer": {"config": {}, "class_name": "Ones"}, "epsilon": 0.001, "axis": [3]}, "class_name": "BatchNormalization", "inbound_nodes": [[["conv2d_19", 0, 0, {}]]], "name": "batch_normalization_19"}, {"config": {"center": true, "momentum": 0.99, "scale": false, "moving_mean_initializer": {"config": {}, "class_name": "Zeros"}, "trainable": true, "gamma_constraint": null, "name": "batch_normalization_22", "gamma_regularizer": null, "beta_regularizer": null, "gamma_initializer": {"config": {}, "class_name": "Ones"}, "beta_constraint": null, "dtype": "float32", "beta_initializer": {"config": {}, "class_name": "Zeros"}, "moving_variance_initializer": {"config": {}, "class_name": "Ones"}, "epsilon": 0.001, "axis": [3]}, "class_name": "BatchNormalization", "inbound_nodes": [[["conv2d_22", 0, 0, {}]]], "name": "batch_normalization_22"}, {"config": {"name": "activation_19", "activation": "relu", "dtype": "float32", "trainable": true}, "class_name": "Activation", "inbound_nodes": [[["batch_normalization_19", 0, 0, {}]]], "name": "activation_19"}, {"config": {"name": "activation_22", "activation": "relu", "dtype": "float32", "trainable": true}, "class_name": "Activation", "inbound_nodes": [[["batch_normalization_22", 0, 0, {}]]], "name": "activation_22"}, {"config": {"bias_regularizer": null, "padding": "same", "activity_regularizer": null, "kernel_initializer": {"config": {"seed": null}, "class_name": "GlorotUniform"}, "trainable": true, "filters": 32, "name": "conv2d_18", "data_format": "channels_last", "kernel_regularizer": null, "dilation_rate": [1, 1], "strides": [1, 1], "dtype": "float32", "kernel_size": [1, 1], "bias_initializer": {"config": {}, "class_name": "Zeros"}, "bias_constraint": null, "activation": "linear", "kernel_constraint": null, "use_bias": false}, "class_name": "Conv2D", "inbound_nodes": [[["block35_1_ac", 0, 0, {}]]], "name": "conv2d_18"}, {"config": {"bias_regularizer": null, "padding": "same", "activity_regularizer": null, "kernel_initializer": {"config": {"seed": null}, "class_name": "GlorotUniform"}, "trainable": true, "filters": 32, "name": "conv2d_20", "data_format": "channels_last", "kernel_regularizer": null, "dilation_rate": [1, 1], "strides": [1, 1], "dtype": "float32", "kernel_size": [3, 3], "bias_initializer": {"config": {}, "class_name": "Zeros"}, "bias_constraint": null, "activation": "linear", "kernel_constraint": null, "use_bias": false}, "class_name": "Conv2D", "inbound_nodes": [[["activation_19", 0, 0, {}]]], "name": "conv2d_20"}, {"config": {"bias_regularizer": null, "padding": "same", "activity_regularizer": null, "kernel_initializer": {"config": {"seed": null}, "class_name": "GlorotUniform"}, "trainable": true, "filters": 64, "name": "conv2d_23", "data_format": "channels_last", "kernel_regularizer": null, "dilation_rate": [1, 1], "strides": [1, 1], "dtype": "float32", "kernel_size": [3, 3], "bias_initializer": {"config": {}, "class_name": "Zeros"}, "bias_constraint": null, "activation": "linear", "kernel_constraint": null, "use_bias": false}, "class_name": "Conv2D", "inbound_nodes": [[["activation_22", 0, 0, {}]]], "name": "conv2d_23"}, {"config": {"center": true, "momentum": 0.99, "scale": false, "moving_mean_initializer": {"config": {}, "class_name": "Zeros"}, "trainable": true, "gamma_constraint": null, "name": "batch_normalization_18", "gamma_regularizer": null, "beta_regularizer": null, "gamma_initializer": {"config": {}, "class_name": "Ones"}, "beta_constraint": null, "dtype": "float32", "beta_initializer": {"config": {}, "class_name": "Zeros"}, "moving_variance_initializer": {"config": {}, "class_name": "Ones"}, "epsilon": 0.001, "axis": [3]}, "class_name": "BatchNormalization", "inbound_nodes": [[["conv2d_18", 0, 0, {}]]], "name": "batch_normalization_18"}, {"config": {"center": true, "momentum": 0.99, "scale": false, "moving_mean_initializer": {"config": {}, "class_name": "Zeros"}, "trainable": true, "gamma_constraint": null, "name": "batch_normalization_20", "gamma_regularizer": null, "beta_regularizer": null, "gamma_initializer": {"config": {}, "class_name": "Ones"}, "beta_constraint": null, "dtype": "float32", "beta_initializer": {"config": {}, "class_name": "Zeros"}, "moving_variance_initializer": {"config": {}, "class_name": "Ones"}, "epsilon": 0.001, "axis": [3]}, "class_name": "BatchNormalization", "inbound_nodes": [[["conv2d_20", 0, 0, {}]]], "name": "batch_normalization_20"}, {"config": {"center": true, "momentum": 0.99, "scale": false, "moving_mean_initializer": {"config": {}, "class_name": "Zeros"}, "trainable": true, "gamma_constraint": null, "name": "batch_normalization_23", "gamma_regularizer": null, "beta_regularizer": null, "gamma_initializer": {"config": {}, "class_name": "Ones"}, "beta_constraint": null, "dtype": "float32", "beta_initializer": {"config": {}, "class_name": "Zeros"}, "moving_variance_initializer": {"config": {}, "class_name": "Ones"}, "epsilon": 0.001, "axis": [3]}, "class_name": "BatchNormalization", "inbound_nodes": [[["conv2d_23", 0, 0, {}]]], "name": "batch_normalization_23"}, {"config": {"name": "activation_18", "activation": "relu", "dtype": "float32", "trainable": true}, "class_name": "Activation", "inbound_nodes": [[["batch_normalization_18", 0, 0, {}]]], "name": "activation_18"}, {"config": {"name": "activation_20", "activation": "relu", "dtype": "float32", "trainable": true}, "class_name": "Activation", "inbound_nodes": [[["batch_normalization_20", 0, 0, {}]]], "name": "activation_20"}, {"config": {"name": "activation_23", "activation": "relu", "dtype": "float32", "trainable": true}, "class_name": "Activation", "inbound_nodes": [[["batch_normalization_23", 0, 0, {}]]], "name": "activation_23"}, {"config": {"dtype": "float32", "name": "block35_2_mixed", "axis": 3, "trainable": true}, "class_name": "Concatenate", "inbound_nodes": [[["activation_18", 0, 0, {}], ["activation_20", 0, 0, {}], ["activation_23", 0, 0, {}]]], "name": "block35_2_mixed"}, {"config": {"bias_regularizer": null, "padding": "same", "activity_regularizer": null, "kernel_initializer": {"config": {"seed": null}, "class_name": "GlorotUniform"}, "trainable": true, "filters": 320, "name": "block35_2_conv", "data_format": "channels_last", "kernel_regularizer": null, "dilation_rate": [1, 1], "strides": [1, 1], "dtype": "float32", "kernel_size": [1, 1], "bias_initializer": {"config": {}, "class_name": "Zeros"}, "bias_constraint": null, "activation": "linear", "kernel_constraint": null, "use_bias": true}, "class_name": "Conv2D", "inbound_nodes": [[["block35_2_mixed", 0, 0, {}]]], "name": "block35_2_conv"}, {"config": {"function": ["4wIAAAAAAAAAAgAAAAMAAABTAAAAcxQAAAB8AABkAQAZfAAAZAIAGXwBABQXUykDTukAAAAA6QEA\nAACpACkC2gZpbnB1dHPaBXNjYWxlcgMAAAByAwAAAPpxQzovVXNlcnMva3oxOTkvQXBwRGF0YS9M\nb2NhbC9Qcm9ncmFtcy9QeXRob24vUHl0aG9uMzUvbGliL3NpdGUtcGFja2FnZXMva2VyYXNfYXBw\nbGljYXRpb25zL2luY2VwdGlvbl9yZXNuZXRfdjIucHnaCDxsYW1iZGE+qAAAAPMAAAAA\n", null, null], "function_type": "lambda", "dtype": "float32", "trainable": true, "output_shape": [29, 29, 320], "name": "block35_2", "arguments": {"scale": 0.17}, "output_shape_type": "raw", "output_shape_module": null, "module": "keras_applications.inception_resnet_v2"}, "class_name": "Lambda", "inbound_nodes": [[["block35_1_ac", 0, 0, {}], ["block35_2_conv", 0, 0, {}]]], "name": "block35_2"}, {"config": {"name": "block35_2_ac", "activation": "relu", "dtype": "float32", "trainable": true}, "class_name": "Activation", "inbound_nodes": [[["block35_2", 0, 0, {}]]], "name": "block35_2_ac"}, {"config": {"bias_regularizer": null, "padding": "same", "activity_regularizer": null, "kernel_initializer": {"config": {"seed": null}, "class_name": "GlorotUniform"}, "trainable": true, "filters": 32, "name": "conv2d_27", "data_format": "channels_last", "kernel_regularizer": null, "dilation_rate": [1, 1], "strides": [1, 1], "dtype": "float32", "kernel_size": [1, 1], "bias_initializer": {"config": {}, "class_name": "Zeros"}, "bias_constraint": null, "activation": "linear", "kernel_constraint": null, "use_bias": false}, "class_name": "Conv2D", "inbound_nodes": [[["block35_2_ac", 0, 0, {}]]], "name": "conv2d_27"}, {"config": {"center": true, "momentum": 0.99, "scale": false, "moving_mean_initializer": {"config": {}, "class_name": "Zeros"}, "trainable": true, "gamma_constraint": null, "name": "batch_normalization_27", "gamma_regularizer": null, "beta_regularizer": null, "gamma_initializer": {"config": {}, "class_name": "Ones"}, "beta_constraint": null, "dtype": "float32", "beta_initializer": {"config": {}, "class_name": "Zeros"}, "moving_variance_initializer": {"config": {}, "class_name": "Ones"}, "epsilon": 0.001, "axis": [3]}, "class_name": "BatchNormalization", "inbound_nodes": [[["conv2d_27", 0, 0, {}]]], "name": "batch_normalization_27"}, {"config": {"name": "activation_27", "activation": "relu", "dtype": "float32", "trainable": true}, "class_name": "Activation", "inbound_nodes": [[["batch_normalization_27", 0, 0, {}]]], "name": "activation_27"}, {"config": {"bias_regularizer": null, "padding": "same", "activity_regularizer": null, "kernel_initializer": {"config": {"seed": null}, "class_name": "GlorotUniform"}, "trainable": true, "filters": 32, "name": "conv2d_25", "data_format": "channels_last", "kernel_regularizer": null, "dilation_rate": [1, 1], "strides": [1, 1], "dtype": "float32", "kernel_size": [1, 1], "bias_initializer": {"config": {}, "class_name": "Zeros"}, "bias_constraint": null, "activation": "linear", "kernel_constraint": null, "use_bias": false}, "class_name": "Conv2D", "inbound_nodes": [[["block35_2_ac", 0, 0, {}]]], "name": "conv2d_25"}, {"config": {"bias_regularizer": null, "padding": "same", "activity_regularizer": null, "kernel_initializer": {"config": {"seed": null}, "class_name": "GlorotUniform"}, "trainable": true, "filters": 48, "name": "conv2d_28", "data_format": "channels_last", "kernel_regularizer": null, "dilation_rate": [1, 1], "strides": [1, 1], "dtype": "float32", "kernel_size": [3, 3], "bias_initializer": {"config": {}, "class_name": "Zeros"}, "bias_constraint": null, "activation": "linear", "kernel_constraint": null, "use_bias": false}, "class_name": "Conv2D", "inbound_nodes": [[["activation_27", 0, 0, {}]]], "name": "conv2d_28"}, {"config": {"center": true, "momentum": 0.99, "scale": false, "moving_mean_initializer": {"config": {}, "class_name": "Zeros"}, "trainable": true, "gamma_constraint": null, "name": "batch_normalization_25", "gamma_regularizer": null, "beta_regularizer": null, "gamma_initializer": {"config": {}, "class_name": "Ones"}, "beta_constraint": null, "dtype": "float32", "beta_initializer": {"config": {}, "class_name": "Zeros"}, "moving_variance_initializer": {"config": {}, "class_name": "Ones"}, "epsilon": 0.001, "axis": [3]}, "class_name": "BatchNormalization", "inbound_nodes": [[["conv2d_25", 0, 0, {}]]], "name": "batch_normalization_25"}, {"config": {"center": true, "momentum": 0.99, "scale": false, "moving_mean_initializer": {"config": {}, "class_name": "Zeros"}, "trainable": true, "gamma_constraint": null, "name": "batch_normalization_28", "gamma_regularizer": null, "beta_regularizer": null, "gamma_initializer": {"config": {}, "class_name": "Ones"}, "beta_constraint": null, "dtype": "float32", "beta_initializer": {"config": {}, "class_name": "Zeros"}, "moving_variance_initializer": {"config": {}, "class_name": "Ones"}, "epsilon": 0.001, "axis": [3]}, "class_name": "BatchNormalization", "inbound_nodes": [[["conv2d_28", 0, 0, {}]]], "name": "batch_normalization_28"}, {"config": {"name": "activation_25", "activation": "relu", "dtype": "float32", "trainable": true}, "class_name": "Activation", "inbound_nodes": [[["batch_normalization_25", 0, 0, {}]]], "name": "activation_25"}, {"config": {"name": "activation_28", "activation": "relu", "dtype": "float32", "trainable": true}, "class_name": "Activation", "inbound_nodes": [[["batch_normalization_28", 0, 0, {}]]], "name": "activation_28"}, {"config": {"bias_regularizer": null, "padding": "same", "activity_regularizer": null, "kernel_initializer": {"config": {"seed": null}, "class_name": "GlorotUniform"}, "trainable": true, "filters": 32, "name": "conv2d_24", "data_format": "channels_last", "kernel_regularizer": null, "dilation_rate": [1, 1], "strides": [1, 1], "dtype": "float32", "kernel_size": [1, 1], "bias_initializer": {"config": {}, "class_name": "Zeros"}, "bias_constraint": null, "activation": "linear", "kernel_constraint": null, "use_bias": false}, "class_name": "Conv2D", "inbound_nodes": [[["block35_2_ac", 0, 0, {}]]], "name": "conv2d_24"}, {"config": {"bias_regularizer": null, "padding": "same", "activity_regularizer": null, "kernel_initializer": {"config": {"seed": null}, "class_name": "GlorotUniform"}, "trainable": true, "filters": 32, "name": "conv2d_26", "data_format": "channels_last", "kernel_regularizer": null, "dilation_rate": [1, 1], "strides": [1, 1], "dtype": "float32", "kernel_size": [3, 3], "bias_initializer": {"config": {}, "class_name": "Zeros"}, "bias_constraint": null, "activation": "linear", "kernel_constraint": null, "use_bias": false}, "class_name": "Conv2D", "inbound_nodes": [[["activation_25", 0, 0, {}]]], "name": "conv2d_26"}, {"config": {"bias_regularizer": null, "padding": "same", "activity_regularizer": null, "kernel_initializer": {"config": {"seed": null}, "class_name": "GlorotUniform"}, "trainable": true, "filters": 64, "name": "conv2d_29", "data_format": "channels_last", "kernel_regularizer": null, "dilation_rate": [1, 1], "strides": [1, 1], "dtype": "float32", "kernel_size": [3, 3], "bias_initializer": {"config": {}, "class_name": "Zeros"}, "bias_constraint": null, "activation": "linear", "kernel_constraint": null, "use_bias": false}, "class_name": "Conv2D", "inbound_nodes": [[["activation_28", 0, 0, {}]]], "name": "conv2d_29"}, {"config": {"center": true, "momentum": 0.99, "scale": false, "moving_mean_initializer": {"config": {}, "class_name": "Zeros"}, "trainable": true, "gamma_constraint": null, "name": "batch_normalization_24", "gamma_regularizer": null, "beta_regularizer": null, "gamma_initializer": {"config": {}, "class_name": "Ones"}, "beta_constraint": null, "dtype": "float32", "beta_initializer": {"config": {}, "class_name": "Zeros"}, "moving_variance_initializer": {"config": {}, "class_name": "Ones"}, "epsilon": 0.001, "axis": [3]}, "class_name": "BatchNormalization", "inbound_nodes": [[["conv2d_24", 0, 0, {}]]], "name": "batch_normalization_24"}, {"config": {"center": true, "momentum": 0.99, "scale": false, "moving_mean_initializer": {"config": {}, "class_name": "Zeros"}, "trainable": true, "gamma_constraint": null, "name": "batch_normalization_26", "gamma_regularizer": null, "beta_regularizer": null, "gamma_initializer": {"config": {}, "class_name": "Ones"}, "beta_constraint": null, "dtype": "float32", "beta_initializer": {"config": {}, "class_name": "Zeros"}, "moving_variance_initializer": {"config": {}, "class_name": "Ones"}, "epsilon": 0.001, "axis": [3]}, "class_name": "BatchNormalization", "inbound_nodes": [[["conv2d_26", 0, 0, {}]]], "name": "batch_normalization_26"}, {"config": {"center": true, "momentum": 0.99, "scale": false, "moving_mean_initializer": {"config": {}, "class_name": "Zeros"}, "trainable": true, "gamma_constraint": null, "name": "batch_normalization_29", "gamma_regularizer": null, "beta_regularizer": null, "gamma_initializer": {"config": {}, "class_name": "Ones"}, "beta_constraint": null, "dtype": "float32", "beta_initializer": {"config": {}, "class_name": "Zeros"}, "moving_variance_initializer": {"config": {}, "class_name": "Ones"}, "epsilon": 0.001, "axis": [3]}, "class_name": "BatchNormalization", "inbound_nodes": [[["conv2d_29", 0, 0, {}]]], "name": "batch_normalization_29"}, {"config": {"name": "activation_24", "activation": "relu", "dtype": "float32", "trainable": true}, "class_name": "Activation", "inbound_nodes": [[["batch_normalization_24", 0, 0, {}]]], "name": "activation_24"}, {"config": {"name": "activation_26", "activation": "relu", "dtype": "float32", "trainable": true}, "class_name": "Activation", "inbound_nodes": [[["batch_normalization_26", 0, 0, {}]]], "name": "activation_26"}, {"config": {"name": "activation_29", "activation": "relu", "dtype": "float32", "trainable": true}, "class_name": "Activation", "inbound_nodes": [[["batch_normalization_29", 0, 0, {}]]], "name": "activation_29"}, {"config": {"dtype": "float32", "name": "block35_3_mixed", "axis": 3, "trainable": true}, "class_name": "Concatenate", "inbound_nodes": [[["activation_24", 0, 0, {}], ["activation_26", 0, 0, {}], ["activation_29", 0, 0, {}]]], "name": "block35_3_mixed"}, {"config": {"bias_regularizer": null, "padding": "same", "activity_regularizer": null, "kernel_initializer": {"config": {"seed": null}, "class_name": "GlorotUniform"}, "trainable": true, "filters": 320, "name": "block35_3_conv", "data_format": "channels_last", "kernel_regularizer": null, "dilation_rate": [1, 1], "strides": [1, 1], "dtype": "float32", "kernel_size": [1, 1], "bias_initializer": {"config": {}, "class_name": "Zeros"}, "bias_constraint": null, "activation": "linear", "kernel_constraint": null, "use_bias": true}, "class_name": "Conv2D", "inbound_nodes": [[["block35_3_mixed", 0, 0, {}]]], "name": "block35_3_conv"}, {"config": {"function": ["4wIAAAAAAAAAAgAAAAMAAABTAAAAcxQAAAB8AABkAQAZfAAAZAIAGXwBABQXUykDTukAAAAA6QEA\nAACpACkC2gZpbnB1dHPaBXNjYWxlcgMAAAByAwAAAPpxQzovVXNlcnMva3oxOTkvQXBwRGF0YS9M\nb2NhbC9Qcm9ncmFtcy9QeXRob24vUHl0aG9uMzUvbGliL3NpdGUtcGFja2FnZXMva2VyYXNfYXBw\nbGljYXRpb25zL2luY2VwdGlvbl9yZXNuZXRfdjIucHnaCDxsYW1iZGE+qAAAAPMAAAAA\n", null, null], "function_type": "lambda", "dtype": "float32", "trainable": true, "output_shape": [29, 29, 320], "name": "block35_3", "arguments": {"scale": 0.17}, "output_shape_type": "raw", "output_shape_module": null, "module": "keras_applications.inception_resnet_v2"}, "class_name": "Lambda", "inbound_nodes": [[["block35_2_ac", 0, 0, {}], ["block35_3_conv", 0, 0, {}]]], "name": "block35_3"}, {"config": {"name": "block35_3_ac", "activation": "relu", "dtype": "float32", "trainable": true}, "class_name": "Activation", "inbound_nodes": [[["block35_3", 0, 0, {}]]], "name": "block35_3_ac"}, {"config": {"bias_regularizer": null, "padding": "same", "activity_regularizer": null, "kernel_initializer": {"config": {"seed": null}, "class_name": "GlorotUniform"}, "trainable": true, "filters": 32, "name": "conv2d_33", "data_format": "channels_last", "kernel_regularizer": null, "dilation_rate": [1, 1], "strides": [1, 1], "dtype": "float32", "kernel_size": [1, 1], "bias_initializer": {"config": {}, "class_name": "Zeros"}, "bias_constraint": null, "activation": "linear", "kernel_constraint": null, "use_bias": false}, "class_name": "Conv2D", "inbound_nodes": [[["block35_3_ac", 0, 0, {}]]], "name": "conv2d_33"}, {"config": {"center": true, "momentum": 0.99, "scale": false, "moving_mean_initializer": {"config": {}, "class_name": "Zeros"}, "trainable": true, "gamma_constraint": null, "name": "batch_normalization_33", "gamma_regularizer": null, "beta_regularizer": null, "gamma_initializer": {"config": {}, "class_name": "Ones"}, "beta_constraint": null, "dtype": "float32", "beta_initializer": {"config": {}, "class_name": "Zeros"}, "moving_variance_initializer": {"config": {}, "class_name": "Ones"}, "epsilon": 0.001, "axis": [3]}, "class_name": "BatchNormalization", "inbound_nodes": [[["conv2d_33", 0, 0, {}]]], "name": "batch_normalization_33"}, {"config": {"name": "activation_33", "activation": "relu", "dtype": "float32", "trainable": true}, "class_name": "Activation", "inbound_nodes": [[["batch_normalization_33", 0, 0, {}]]], "name": "activation_33"}, {"config": {"bias_regularizer": null, "padding": "same", "activity_regularizer": null, "kernel_initializer": {"config": {"seed": null}, "class_name": "GlorotUniform"}, "trainable": true, "filters": 32, "name": "conv2d_31", "data_format": "channels_last", "kernel_regularizer": null, "dilation_rate": [1, 1], "strides": [1, 1], "dtype": "float32", "kernel_size": [1, 1], "bias_initializer": {"config": {}, "class_name": "Zeros"}, "bias_constraint": null, "activation": "linear", "kernel_constraint": null, "use_bias": false}, "class_name": "Conv2D", "inbound_nodes": [[["block35_3_ac", 0, 0, {}]]], "name": "conv2d_31"}, {"config": {"bias_regularizer": null, "padding": "same", "activity_regularizer": null, "kernel_initializer": {"config": {"seed": null}, "class_name": "GlorotUniform"}, "trainable": true, "filters": 48, "name": "conv2d_34", "data_format": "channels_last", "kernel_regularizer": null, "dilation_rate": [1, 1], "strides": [1, 1], "dtype": "float32", "kernel_size": [3, 3], "bias_initializer": {"config": {}, "class_name": "Zeros"}, "bias_constraint": null, "activation": "linear", "kernel_constraint": null, "use_bias": false}, "class_name": "Conv2D", "inbound_nodes": [[["activation_33", 0, 0, {}]]], "name": "conv2d_34"}, {"config": {"center": true, "momentum": 0.99, "scale": false, "moving_mean_initializer": {"config": {}, "class_name": "Zeros"}, "trainable": true, "gamma_constraint": null, "name": "batch_normalization_31", "gamma_regularizer": null, "beta_regularizer": null, "gamma_initializer": {"config": {}, "class_name": "Ones"}, "beta_constraint": null, "dtype": "float32", "beta_initializer": {"config": {}, "class_name": "Zeros"}, "moving_variance_initializer": {"config": {}, "class_name": "Ones"}, "epsilon": 0.001, "axis": [3]}, "class_name": "BatchNormalization", "inbound_nodes": [[["conv2d_31", 0, 0, {}]]], "name": "batch_normalization_31"}, {"config": {"center": true, "momentum": 0.99, "scale": false, "moving_mean_initializer": {"config": {}, "class_name": "Zeros"}, "trainable": true, "gamma_constraint": null, "name": "batch_normalization_34", "gamma_regularizer": null, "beta_regularizer": null, "gamma_initializer": {"config": {}, "class_name": "Ones"}, "beta_constraint": null, "dtype": "float32", "beta_initializer": {"config": {}, "class_name": "Zeros"}, "moving_variance_initializer": {"config": {}, "class_name": "Ones"}, "epsilon": 0.001, "axis": [3]}, "class_name": "BatchNormalization", "inbound_nodes": [[["conv2d_34", 0, 0, {}]]], "name": "batch_normalization_34"}, {"config": {"name": "activation_31", "activation": "relu", "dtype": "float32", "trainable": true}, "class_name": "Activation", "inbound_nodes": [[["batch_normalization_31", 0, 0, {}]]], "name": "activation_31"}, {"config": {"name": "activation_34", "activation": "relu", "dtype": "float32", "trainable": true}, "class_name": "Activation", "inbound_nodes": [[["batch_normalization_34", 0, 0, {}]]], "name": "activation_34"}, {"config": {"bias_regularizer": null, "padding": "same", "activity_regularizer": null, "kernel_initializer": {"config": {"seed": null}, "class_name": "GlorotUniform"}, "trainable": true, "filters": 32, "name": "conv2d_30", "data_format": "channels_last", "kernel_regularizer": null, "dilation_rate": [1, 1], "strides": [1, 1], "dtype": "float32", "kernel_size": [1, 1], "bias_initializer": {"config": {}, "class_name": "Zeros"}, "bias_constraint": null, "activation": "linear", "kernel_constraint": null, "use_bias": false}, "class_name": "Conv2D", "inbound_nodes": [[["block35_3_ac", 0, 0, {}]]], "name": "conv2d_30"}, {"config": {"bias_regularizer": null, "padding": "same", "activity_regularizer": null, "kernel_initializer": {"config": {"seed": null}, "class_name": "GlorotUniform"}, "trainable": true, "filters": 32, "name": "conv2d_32", "data_format": "channels_last", "kernel_regularizer": null, "dilation_rate": [1, 1], "strides": [1, 1], "dtype": "float32", "kernel_size": [3, 3], "bias_initializer": {"config": {}, "class_name": "Zeros"}, "bias_constraint": null, "activation": "linear", "kernel_constraint": null, "use_bias": false}, "class_name": "Conv2D", "inbound_nodes": [[["activation_31", 0, 0, {}]]], "name": "conv2d_32"}, {"config": {"bias_regularizer": null, "padding": "same", "activity_regularizer": null, "kernel_initializer": {"config": {"seed": null}, "class_name": "GlorotUniform"}, "trainable": true, "filters": 64, "name": "conv2d_35", "data_format": "channels_last", "kernel_regularizer": null, "dilation_rate": [1, 1], "strides": [1, 1], "dtype": "float32", "kernel_size": [3, 3], "bias_initializer": {"config": {}, "class_name": "Zeros"}, "bias_constraint": null, "activation": "linear", "kernel_constraint": null, "use_bias": false}, "class_name": "Conv2D", "inbound_nodes": [[["activation_34", 0, 0, {}]]], "name": "conv2d_35"}, {"config": {"center": true, "momentum": 0.99, "scale": false, "moving_mean_initializer": {"config": {}, "class_name": "Zeros"}, "trainable": true, "gamma_constraint": null, "name": "batch_normalization_30", "gamma_regularizer": null, "beta_regularizer": null, "gamma_initializer": {"config": {}, "class_name": "Ones"}, "beta_constraint": null, "dtype": "float32", "beta_initializer": {"config": {}, "class_name": "Zeros"}, "moving_variance_initializer": {"config": {}, "class_name": "Ones"}, "epsilon": 0.001, "axis": [3]}, "class_name": "BatchNormalization", "inbound_nodes": [[["conv2d_30", 0, 0, {}]]], "name": "batch_normalization_30"}, {"config": {"center": true, "momentum": 0.99, "scale": false, "moving_mean_initializer": {"config": {}, "class_name": "Zeros"}, "trainable": true, "gamma_constraint": null, "name": "batch_normalization_32", "gamma_regularizer": null, "beta_regularizer": null, "gamma_initializer": {"config": {}, "class_name": "Ones"}, "beta_constraint": null, "dtype": "float32", "beta_initializer": {"config": {}, "class_name": "Zeros"}, "moving_variance_initializer": {"config": {}, "class_name": "Ones"}, "epsilon": 0.001, "axis": [3]}, "class_name": "BatchNormalization", "inbound_nodes": [[["conv2d_32", 0, 0, {}]]], "name": "batch_normalization_32"}, {"config": {"center": true, "momentum": 0.99, "scale": false, "moving_mean_initializer": {"config": {}, "class_name": "Zeros"}, "trainable": true, "gamma_constraint": null, "name": "batch_normalization_35", "gamma_regularizer": null, "beta_regularizer": null, "gamma_initializer": {"config": {}, "class_name": "Ones"}, "beta_constraint": null, "dtype": "float32", "beta_initializer": {"config": {}, "class_name": "Zeros"}, "moving_variance_initializer": {"config": {}, "class_name": "Ones"}, "epsilon": 0.001, "axis": [3]}, "class_name": "BatchNormalization", "inbound_nodes": [[["conv2d_35", 0, 0, {}]]], "name": "batch_normalization_35"}, {"config": {"name": "activation_30", "activation": "relu", "dtype": "float32", "trainable": true}, "class_name": "Activation", "inbound_nodes": [[["batch_normalization_30", 0, 0, {}]]], "name": "activation_30"}, {"config": {"name": "activation_32", "activation": "relu", "dtype": "float32", "trainable": true}, "class_name": "Activation", "inbound_nodes": [[["batch_normalization_32", 0, 0, {}]]], "name": "activation_32"}, {"config": {"name": "activation_35", "activation": "relu", "dtype": "float32", "trainable": true}, "class_name": "Activation", "inbound_nodes": [[["batch_normalization_35", 0, 0, {}]]], "name": "activation_35"}, {"config": {"dtype": "float32", "name": "block35_4_mixed", "axis": 3, "trainable": true}, "class_name": "Concatenate", "inbound_nodes": [[["activation_30", 0, 0, {}], ["activation_32", 0, 0, {}], ["activation_35", 0, 0, {}]]], "name": "block35_4_mixed"}, {"config": {"bias_regularizer": null, "padding": "same", "activity_regularizer": null, "kernel_initializer": {"config": {"seed": null}, "class_name": "GlorotUniform"}, "trainable": true, "filters": 320, "name": "block35_4_conv", "data_format": "channels_last", "kernel_regularizer": null, "dilation_rate": [1, 1], "strides": [1, 1], "dtype": "float32", "kernel_size": [1, 1], "bias_initializer": {"config": {}, "class_name": "Zeros"}, "bias_constraint": null, "activation": "linear", "kernel_constraint": null, "use_bias": true}, "class_name": "Conv2D", "inbound_nodes": [[["block35_4_mixed", 0, 0, {}]]], "name": "block35_4_conv"}, {"config": {"function": ["4wIAAAAAAAAAAgAAAAMAAABTAAAAcxQAAAB8AABkAQAZfAAAZAIAGXwBABQXUykDTukAAAAA6QEA\nAACpACkC2gZpbnB1dHPaBXNjYWxlcgMAAAByAwAAAPpxQzovVXNlcnMva3oxOTkvQXBwRGF0YS9M\nb2NhbC9Qcm9ncmFtcy9QeXRob24vUHl0aG9uMzUvbGliL3NpdGUtcGFja2FnZXMva2VyYXNfYXBw\nbGljYXRpb25zL2luY2VwdGlvbl9yZXNuZXRfdjIucHnaCDxsYW1iZGE+qAAAAPMAAAAA\n", null, null], "function_type": "lambda", "dtype": "float32", "trainable": true, "output_shape": [29, 29, 320], "name": "block35_4", "arguments": {"scale": 0.17}, "output_shape_type": "raw", "output_shape_module": null, "module": "keras_applications.inception_resnet_v2"}, "class_name": "Lambda", "inbound_nodes": [[["block35_3_ac", 0, 0, {}], ["block35_4_conv", 0, 0, {}]]], "name": "block35_4"}, {"config": {"name": "block35_4_ac", "activation": "relu", "dtype": "float32", "trainable": true}, "class_name": "Activation", "inbound_nodes": [[["block35_4", 0, 0, {}]]], "name": "block35_4_ac"}, {"config": {"bias_regularizer": null, "padding": "same", "activity_regularizer": null, "kernel_initializer": {"config": {"seed": null}, "class_name": "GlorotUniform"}, "trainable": true, "filters": 32, "name": "conv2d_39", "data_format": "channels_last", "kernel_regularizer": null, "dilation_rate": [1, 1], "strides": [1, 1], "dtype": "float32", "kernel_size": [1, 1], "bias_initializer": {"config": {}, "class_name": "Zeros"}, "bias_constraint": null, "activation": "linear", "kernel_constraint": null, "use_bias": false}, "class_name": "Conv2D", "inbound_nodes": [[["block35_4_ac", 0, 0, {}]]], "name": "conv2d_39"}, {"config": {"center": true, "momentum": 0.99, "scale": false, "moving_mean_initializer": {"config": {}, "class_name": "Zeros"}, "trainable": true, "gamma_constraint": null, "name": "batch_normalization_39", "gamma_regularizer": null, "beta_regularizer": null, "gamma_initializer": {"config": {}, "class_name": "Ones"}, "beta_constraint": null, "dtype": "float32", "beta_initializer": {"config": {}, "class_name": "Zeros"}, "moving_variance_initializer": {"config": {}, "class_name": "Ones"}, "epsilon": 0.001, "axis": [3]}, "class_name": "BatchNormalization", "inbound_nodes": [[["conv2d_39", 0, 0, {}]]], "name": "batch_normalization_39"}, {"config": {"name": "activation_39", "activation": "relu", "dtype": "float32", "trainable": true}, "class_name": "Activation", "inbound_nodes": [[["batch_normalization_39", 0, 0, {}]]], "name": "activation_39"}, {"config": {"bias_regularizer": null, "padding": "same", "activity_regularizer": null, "kernel_initializer": {"config": {"seed": null}, "class_name": "GlorotUniform"}, "trainable": true, "filters": 32, "name": "conv2d_37", "data_format": "channels_last", "kernel_regularizer": null, "dilation_rate": [1, 1], "strides": [1, 1], "dtype": "float32", "kernel_size": [1, 1], "bias_initializer": {"config": {}, "class_name": "Zeros"}, "bias_constraint": null, "activation": "linear", "kernel_constraint": null, "use_bias": false}, "class_name": "Conv2D", "inbound_nodes": [[["block35_4_ac", 0, 0, {}]]], "name": "conv2d_37"}, {"config": {"bias_regularizer": null, "padding": "same", "activity_regularizer": null, "kernel_initializer": {"config": {"seed": null}, "class_name": "GlorotUniform"}, "trainable": true, "filters": 48, "name": "conv2d_40", "data_format": "channels_last", "kernel_regularizer": null, "dilation_rate": [1, 1], "strides": [1, 1], "dtype": "float32", "kernel_size": [3, 3], "bias_initializer": {"config": {}, "class_name": "Zeros"}, "bias_constraint": null, "activation": "linear", "kernel_constraint": null, "use_bias": false}, "class_name": "Conv2D", "inbound_nodes": [[["activation_39", 0, 0, {}]]], "name": "conv2d_40"}, {"config": {"center": true, "momentum": 0.99, "scale": false, "moving_mean_initializer": {"config": {}, "class_name": "Zeros"}, "trainable": true, "gamma_constraint": null, "name": "batch_normalization_37", "gamma_regularizer": null, "beta_regularizer": null, "gamma_initializer": {"config": {}, "class_name": "Ones"}, "beta_constraint": null, "dtype": "float32", "beta_initializer": {"config": {}, "class_name": "Zeros"}, "moving_variance_initializer": {"config": {}, "class_name": "Ones"}, "epsilon": 0.001, "axis": [3]}, "class_name": "BatchNormalization", "inbound_nodes": [[["conv2d_37", 0, 0, {}]]], "name": "batch_normalization_37"}, {"config": {"center": true, "momentum": 0.99, "scale": false, "moving_mean_initializer": {"config": {}, "class_name": "Zeros"}, "trainable": true, "gamma_constraint": null, "name": "batch_normalization_40", "gamma_regularizer": null, "beta_regularizer": null, "gamma_initializer": {"config": {}, "class_name": "Ones"}, "beta_constraint": null, "dtype": "float32", "beta_initializer": {"config": {}, "class_name": "Zeros"}, "moving_variance_initializer": {"config": {}, "class_name": "Ones"}, "epsilon": 0.001, "axis": [3]}, "class_name": "BatchNormalization", "inbound_nodes": [[["conv2d_40", 0, 0, {}]]], "name": "batch_normalization_40"}, {"config": {"name": "activation_37", "activation": "relu", "dtype": "float32", "trainable": true}, "class_name": "Activation", "inbound_nodes": [[["batch_normalization_37", 0, 0, {}]]], "name": "activation_37"}, {"config": {"name": "activation_40", "activation": "relu", "dtype": "float32", "trainable": true}, "class_name": "Activation", "inbound_nodes": [[["batch_normalization_40", 0, 0, {}]]], "name": "activation_40"}, {"config": {"bias_regularizer": null, "padding": "same", "activity_regularizer": null, "kernel_initializer": {"config": {"seed": null}, "class_name": "GlorotUniform"}, "trainable": true, "filters": 32, "name": "conv2d_36", "data_format": "channels_last", "kernel_regularizer": null, "dilation_rate": [1, 1], "strides": [1, 1], "dtype": "float32", "kernel_size": [1, 1], "bias_initializer": {"config": {}, "class_name": "Zeros"}, "bias_constraint": null, "activation": "linear", "kernel_constraint": null, "use_bias": false}, "class_name": "Conv2D", "inbound_nodes": [[["block35_4_ac", 0, 0, {}]]], "name": "conv2d_36"}, {"config": {"bias_regularizer": null, "padding": "same", "activity_regularizer": null, "kernel_initializer": {"config": {"seed": null}, "class_name": "GlorotUniform"}, "trainable": true, "filters": 32, "name": "conv2d_38", "data_format": "channels_last", "kernel_regularizer": null, "dilation_rate": [1, 1], "strides": [1, 1], "dtype": "float32", "kernel_size": [3, 3], "bias_initializer": {"config": {}, "class_name": "Zeros"}, "bias_constraint": null, "activation": "linear", "kernel_constraint": null, "use_bias": false}, "class_name": "Conv2D", "inbound_nodes": [[["activation_37", 0, 0, {}]]], "name": "conv2d_38"}, {"config": {"bias_regularizer": null, "padding": "same", "activity_regularizer": null, "kernel_initializer": {"config": {"seed": null}, "class_name": "GlorotUniform"}, "trainable": true, "filters": 64, "name": "conv2d_41", "data_format": "channels_last", "kernel_regularizer": null, "dilation_rate": [1, 1], "strides": [1, 1], "dtype": "float32", "kernel_size": [3, 3], "bias_initializer": {"config": {}, "class_name": "Zeros"}, "bias_constraint": null, "activation": "linear", "kernel_constraint": null, "use_bias": false}, "class_name": "Conv2D", "inbound_nodes": [[["activation_40", 0, 0, {}]]], "name": "conv2d_41"}, {"config": {"center": true, "momentum": 0.99, "scale": false, "moving_mean_initializer": {"config": {}, "class_name": "Zeros"}, "trainable": true, "gamma_constraint": null, "name": "batch_normalization_36", "gamma_regularizer": null, "beta_regularizer": null, "gamma_initializer": {"config": {}, "class_name": "Ones"}, "beta_constraint": null, "dtype": "float32", "beta_initializer": {"config": {}, "class_name": "Zeros"}, "moving_variance_initializer": {"config": {}, "class_name": "Ones"}, "epsilon": 0.001, "axis": [3]}, "class_name": "BatchNormalization", "inbound_nodes": [[["conv2d_36", 0, 0, {}]]], "name": "batch_normalization_36"}, {"config": {"center": true, "momentum": 0.99, "scale": false, "moving_mean_initializer": {"config": {}, "class_name": "Zeros"}, "trainable": true, "gamma_constraint": null, "name": "batch_normalization_38", "gamma_regularizer": null, "beta_regularizer": null, "gamma_initializer": {"config": {}, "class_name": "Ones"}, "beta_constraint": null, "dtype": "float32", "beta_initializer": {"config": {}, "class_name": "Zeros"}, "moving_variance_initializer": {"config": {}, "class_name": "Ones"}, "epsilon": 0.001, "axis": [3]}, "class_name": "BatchNormalization", "inbound_nodes": [[["conv2d_38", 0, 0, {}]]], "name": "batch_normalization_38"}, {"config": {"center": true, "momentum": 0.99, "scale": false, "moving_mean_initializer": {"config": {}, "class_name": "Zeros"}, "trainable": true, "gamma_constraint": null, "name": "batch_normalization_41", "gamma_regularizer": null, "beta_regularizer": null, "gamma_initializer": {"config": {}, "class_name": "Ones"}, "beta_constraint": null, "dtype": "float32", "beta_initializer": {"config": {}, "class_name": "Zeros"}, "moving_variance_initializer": {"config": {}, "class_name": "Ones"}, "epsilon": 0.001, "axis": [3]}, "class_name": "BatchNormalization", "inbound_nodes": [[["conv2d_41", 0, 0, {}]]], "name": "batch_normalization_41"}, {"config": {"name": "activation_36", "activation": "relu", "dtype": "float32", "trainable": true}, "class_name": "Activation", "inbound_nodes": [[["batch_normalization_36", 0, 0, {}]]], "name": "activation_36"}, {"config": {"name": "activation_38", "activation": "relu", "dtype": "float32", "trainable": true}, "class_name": "Activation", "inbound_nodes": [[["batch_normalization_38", 0, 0, {}]]], "name": "activation_38"}, {"config": {"name": "activation_41", "activation": "relu", "dtype": "float32", "trainable": true}, "class_name": "Activation", "inbound_nodes": [[["batch_normalization_41", 0, 0, {}]]], "name": "activation_41"}, {"config": {"dtype": "float32", "name": "block35_5_mixed", "axis": 3, "trainable": true}, "class_name": "Concatenate", "inbound_nodes": [[["activation_36", 0, 0, {}], ["activation_38", 0, 0, {}], ["activation_41", 0, 0, {}]]], "name": "block35_5_mixed"}, {"config": {"bias_regularizer": null, "padding": "same", "activity_regularizer": null, "kernel_initializer": {"config": {"seed": null}, "class_name": "GlorotUniform"}, "trainable": true, "filters": 320, "name": "block35_5_conv", "data_format": "channels_last", "kernel_regularizer": null, "dilation_rate": [1, 1], "strides": [1, 1], "dtype": "float32", "kernel_size": [1, 1], "bias_initializer": {"config": {}, "class_name": "Zeros"}, "bias_constraint": null, "activation": "linear", "kernel_constraint": null, "use_bias": true}, "class_name": "Conv2D", "inbound_nodes": [[["block35_5_mixed", 0, 0, {}]]], "name": "block35_5_conv"}, {"config": {"function": ["4wIAAAAAAAAAAgAAAAMAAABTAAAAcxQAAAB8AABkAQAZfAAAZAIAGXwBABQXUykDTukAAAAA6QEA\nAACpACkC2gZpbnB1dHPaBXNjYWxlcgMAAAByAwAAAPpxQzovVXNlcnMva3oxOTkvQXBwRGF0YS9M\nb2NhbC9Qcm9ncmFtcy9QeXRob24vUHl0aG9uMzUvbGliL3NpdGUtcGFja2FnZXMva2VyYXNfYXBw\nbGljYXRpb25zL2luY2VwdGlvbl9yZXNuZXRfdjIucHnaCDxsYW1iZGE+qAAAAPMAAAAA\n", null, null], "function_type": "lambda", "dtype": "float32", "trainable": true, "output_shape": [29, 29, 320], "name": "block35_5", "arguments": {"scale": 0.17}, "output_shape_type": "raw", "output_shape_module": null, "module": "keras_applications.inception_resnet_v2"}, "class_name": "Lambda", "inbound_nodes": [[["block35_4_ac", 0, 0, {}], ["block35_5_conv", 0, 0, {}]]], "name": "block35_5"}, {"config": {"name": "block35_5_ac", "activation": "relu", "dtype": "float32", "trainable": true}, "class_name": "Activation", "inbound_nodes": [[["block35_5", 0, 0, {}]]], "name": "block35_5_ac"}, {"config": {"bias_regularizer": null, "padding": "same", "activity_regularizer": null, "kernel_initializer": {"config": {"seed": null}, "class_name": "GlorotUniform"}, "trainable": true, "filters": 32, "name": "conv2d_45", "data_format": "channels_last", "kernel_regularizer": null, "dilation_rate": [1, 1], "strides": [1, 1], "dtype": "float32", "kernel_size": [1, 1], "bias_initializer": {"config": {}, "class_name": "Zeros"}, "bias_constraint": null, "activation": "linear", "kernel_constraint": null, "use_bias": false}, "class_name": "Conv2D", "inbound_nodes": [[["block35_5_ac", 0, 0, {}]]], "name": "conv2d_45"}, {"config": {"center": true, "momentum": 0.99, "scale": false, "moving_mean_initializer": {"config": {}, "class_name": "Zeros"}, "trainable": true, "gamma_constraint": null, "name": "batch_normalization_45", "gamma_regularizer": null, "beta_regularizer": null, "gamma_initializer": {"config": {}, "class_name": "Ones"}, "beta_constraint": null, "dtype": "float32", "beta_initializer": {"config": {}, "class_name": "Zeros"}, "moving_variance_initializer": {"config": {}, "class_name": "Ones"}, "epsilon": 0.001, "axis": [3]}, "class_name": "BatchNormalization", "inbound_nodes": [[["conv2d_45", 0, 0, {}]]], "name": "batch_normalization_45"}, {"config": {"name": "activation_45", "activation": "relu", "dtype": "float32", "trainable": true}, "class_name": "Activation", "inbound_nodes": [[["batch_normalization_45", 0, 0, {}]]], "name": "activation_45"}, {"config": {"bias_regularizer": null, "padding": "same", "activity_regularizer": null, "kernel_initializer": {"config": {"seed": null}, "class_name": "GlorotUniform"}, "trainable": true, "filters": 32, "name": "conv2d_43", "data_format": "channels_last", "kernel_regularizer": null, "dilation_rate": [1, 1], "strides": [1, 1], "dtype": "float32", "kernel_size": [1, 1], "bias_initializer": {"config": {}, "class_name": "Zeros"}, "bias_constraint": null, "activation": "linear", "kernel_constraint": null, "use_bias": false}, "class_name": "Conv2D", "inbound_nodes": [[["block35_5_ac", 0, 0, {}]]], "name": "conv2d_43"}, {"config": {"bias_regularizer": null, "padding": "same", "activity_regularizer": null, "kernel_initializer": {"config": {"seed": null}, "class_name": "GlorotUniform"}, "trainable": true, "filters": 48, "name": "conv2d_46", "data_format": "channels_last", "kernel_regularizer": null, "dilation_rate": [1, 1], "strides": [1, 1], "dtype": "float32", "kernel_size": [3, 3], "bias_initializer": {"config": {}, "class_name": "Zeros"}, "bias_constraint": null, "activation": "linear", "kernel_constraint": null, "use_bias": false}, "class_name": "Conv2D", "inbound_nodes": [[["activation_45", 0, 0, {}]]], "name": "conv2d_46"}, {"config": {"center": true, "momentum": 0.99, "scale": false, "moving_mean_initializer": {"config": {}, "class_name": "Zeros"}, "trainable": true, "gamma_constraint": null, "name": "batch_normalization_43", "gamma_regularizer": null, "beta_regularizer": null, "gamma_initializer": {"config": {}, "class_name": "Ones"}, "beta_constraint": null, "dtype": "float32", "beta_initializer": {"config": {}, "class_name": "Zeros"}, "moving_variance_initializer": {"config": {}, "class_name": "Ones"}, "epsilon": 0.001, "axis": [3]}, "class_name": "BatchNormalization", "inbound_nodes": [[["conv2d_43", 0, 0, {}]]], "name": "batch_normalization_43"}, {"config": {"center": true, "momentum": 0.99, "scale": false, "moving_mean_initializer": {"config": {}, "class_name": "Zeros"}, "trainable": true, "gamma_constraint": null, "name": "batch_normalization_46", "gamma_regularizer": null, "beta_regularizer": null, "gamma_initializer": {"config": {}, "class_name": "Ones"}, "beta_constraint": null, "dtype": "float32", "beta_initializer": {"config": {}, "class_name": "Zeros"}, "moving_variance_initializer": {"config": {}, "class_name": "Ones"}, "epsilon": 0.001, "axis": [3]}, "class_name": "BatchNormalization", "inbound_nodes": [[["conv2d_46", 0, 0, {}]]], "name": "batch_normalization_46"}, {"config": {"name": "activation_43", "activation": "relu", "dtype": "float32", "trainable": true}, "class_name": "Activation", "inbound_nodes": [[["batch_normalization_43", 0, 0, {}]]], "name": "activation_43"}, {"config": {"name": "activation_46", "activation": "relu", "dtype": "float32", "trainable": true}, "class_name": "Activation", "inbound_nodes": [[["batch_normalization_46", 0, 0, {}]]], "name": "activation_46"}, {"config": {"bias_regularizer": null, "padding": "same", "activity_regularizer": null, "kernel_initializer": {"config": {"seed": null}, "class_name": "GlorotUniform"}, "trainable": true, "filters": 32, "name": "conv2d_42", "data_format": "channels_last", "kernel_regularizer": null, "dilation_rate": [1, 1], "strides": [1, 1], "dtype": "float32", "kernel_size": [1, 1], "bias_initializer": {"config": {}, "class_name": "Zeros"}, "bias_constraint": null, "activation": "linear", "kernel_constraint": null, "use_bias": false}, "class_name": "Conv2D", "inbound_nodes": [[["block35_5_ac", 0, 0, {}]]], "name": "conv2d_42"}, {"config": {"bias_regularizer": null, "padding": "same", "activity_regularizer": null, "kernel_initializer": {"config": {"seed": null}, "class_name": "GlorotUniform"}, "trainable": true, "filters": 32, "name": "conv2d_44", "data_format": "channels_last", "kernel_regularizer": null, "dilation_rate": [1, 1], "strides": [1, 1], "dtype": "float32", "kernel_size": [3, 3], "bias_initializer": {"config": {}, "class_name": "Zeros"}, "bias_constraint": null, "activation": "linear", "kernel_constraint": null, "use_bias": false}, "class_name": "Conv2D", "inbound_nodes": [[["activation_43", 0, 0, {}]]], "name": "conv2d_44"}, {"config": {"bias_regularizer": null, "padding": "same", "activity_regularizer": null, "kernel_initializer": {"config": {"seed": null}, "class_name": "GlorotUniform"}, "trainable": true, "filters": 64, "name": "conv2d_47", "data_format": "channels_last", "kernel_regularizer": null, "dilation_rate": [1, 1], "strides": [1, 1], "dtype": "float32", "kernel_size": [3, 3], "bias_initializer": {"config": {}, "class_name": "Zeros"}, "bias_constraint": null, "activation": "linear", "kernel_constraint": null, "use_bias": false}, "class_name": "Conv2D", "inbound_nodes": [[["activation_46", 0, 0, {}]]], "name": "conv2d_47"}, {"config": {"center": true, "momentum": 0.99, "scale": false, "moving_mean_initializer": {"config": {}, "class_name": "Zeros"}, "trainable": true, "gamma_constraint": null, "name": "batch_normalization_42", "gamma_regularizer": null, "beta_regularizer": null, "gamma_initializer": {"config": {}, "class_name": "Ones"}, "beta_constraint": null, "dtype": "float32", "beta_initializer": {"config": {}, "class_name": "Zeros"}, "moving_variance_initializer": {"config": {}, "class_name": "Ones"}, "epsilon": 0.001, "axis": [3]}, "class_name": "BatchNormalization", "inbound_nodes": [[["conv2d_42", 0, 0, {}]]], "name": "batch_normalization_42"}, {"config": {"center": true, "momentum": 0.99, "scale": false, "moving_mean_initializer": {"config": {}, "class_name": "Zeros"}, "trainable": true, "gamma_constraint": null, "name": "batch_normalization_44", "gamma_regularizer": null, "beta_regularizer": null, "gamma_initializer": {"config": {}, "class_name": "Ones"}, "beta_constraint": null, "dtype": "float32", "beta_initializer": {"config": {}, "class_name": "Zeros"}, "moving_variance_initializer": {"config": {}, "class_name": "Ones"}, "epsilon": 0.001, "axis": [3]}, "class_name": "BatchNormalization", "inbound_nodes": [[["conv2d_44", 0, 0, {}]]], "name": "batch_normalization_44"}, {"config": {"center": true, "momentum": 0.99, "scale": false, "moving_mean_initializer": {"config": {}, "class_name": "Zeros"}, "trainable": true, "gamma_constraint": null, "name": "batch_normalization_47", "gamma_regularizer": null, "beta_regularizer": null, "gamma_initializer": {"config": {}, "class_name": "Ones"}, "beta_constraint": null, "dtype": "float32", "beta_initializer": {"config": {}, "class_name": "Zeros"}, "moving_variance_initializer": {"config": {}, "class_name": "Ones"}, "epsilon": 0.001, "axis": [3]}, "class_name": "BatchNormalization", "inbound_nodes": [[["conv2d_47", 0, 0, {}]]], "name": "batch_normalization_47"}, {"config": {"name": "activation_42", "activation": "relu", "dtype": "float32", "trainable": true}, "class_name": "Activation", "inbound_nodes": [[["batch_normalization_42", 0, 0, {}]]], "name": "activation_42"}, {"config": {"name": "activation_44", "activation": "relu", "dtype": "float32", "trainable": true}, "class_name": "Activation", "inbound_nodes": [[["batch_normalization_44", 0, 0, {}]]], "name": "activation_44"}, {"config": {"name": "activation_47", "activation": "relu", "dtype": "float32", "trainable": true}, "class_name": "Activation", "inbound_nodes": [[["batch_normalization_47", 0, 0, {}]]], "name": "activation_47"}, {"config": {"dtype": "float32", "name": "block35_6_mixed", "axis": 3, "trainable": true}, "class_name": "Concatenate", "inbound_nodes": [[["activation_42", 0, 0, {}], ["activation_44", 0, 0, {}], ["activation_47", 0, 0, {}]]], "name": "block35_6_mixed"}, {"config": {"bias_regularizer": null, "padding": "same", "activity_regularizer": null, "kernel_initializer": {"config": {"seed": null}, "class_name": "GlorotUniform"}, "trainable": true, "filters": 320, "name": "block35_6_conv", "data_format": "channels_last", "kernel_regularizer": null, "dilation_rate": [1, 1], "strides": [1, 1], "dtype": "float32", "kernel_size": [1, 1], "bias_initializer": {"config": {}, "class_name": "Zeros"}, "bias_constraint": null, "activation": "linear", "kernel_constraint": null, "use_bias": true}, "class_name": "Conv2D", "inbound_nodes": [[["block35_6_mixed", 0, 0, {}]]], "name": "block35_6_conv"}, {"config": {"function": ["4wIAAAAAAAAAAgAAAAMAAABTAAAAcxQAAAB8AABkAQAZfAAAZAIAGXwBABQXUykDTukAAAAA6QEA\nAACpACkC2gZpbnB1dHPaBXNjYWxlcgMAAAByAwAAAPpxQzovVXNlcnMva3oxOTkvQXBwRGF0YS9M\nb2NhbC9Qcm9ncmFtcy9QeXRob24vUHl0aG9uMzUvbGliL3NpdGUtcGFja2FnZXMva2VyYXNfYXBw\nbGljYXRpb25zL2luY2VwdGlvbl9yZXNuZXRfdjIucHnaCDxsYW1iZGE+qAAAAPMAAAAA\n", null, null], "function_type": "lambda", "dtype": "float32", "trainable": true, "output_shape": [29, 29, 320], "name": "block35_6", "arguments": {"scale": 0.17}, "output_shape_type": "raw", "output_shape_module": null, "module": "keras_applications.inception_resnet_v2"}, "class_name": "Lambda", "inbound_nodes": [[["block35_5_ac", 0, 0, {}], ["block35_6_conv", 0, 0, {}]]], "name": "block35_6"}, {"config": {"name": "block35_6_ac", "activation": "relu", "dtype": "float32", "trainable": true}, "class_name": "Activation", "inbound_nodes": [[["block35_6", 0, 0, {}]]], "name": "block35_6_ac"}, {"config": {"bias_regularizer": null, "padding": "same", "activity_regularizer": null, "kernel_initializer": {"config": {"seed": null}, "class_name": "GlorotUniform"}, "trainable": true, "filters": 32, "name": "conv2d_51", "data_format": "channels_last", "kernel_regularizer": null, "dilation_rate": [1, 1], "strides": [1, 1], "dtype": "float32", "kernel_size": [1, 1], "bias_initializer": {"config": {}, "class_name": "Zeros"}, "bias_constraint": null, "activation": "linear", "kernel_constraint": null, "use_bias": false}, "class_name": "Conv2D", "inbound_nodes": [[["block35_6_ac", 0, 0, {}]]], "name": "conv2d_51"}, {"config": {"center": true, "momentum": 0.99, "scale": false, "moving_mean_initializer": {"config": {}, "class_name": "Zeros"}, "trainable": true, "gamma_constraint": null, "name": "batch_normalization_51", "gamma_regularizer": null, "beta_regularizer": null, "gamma_initializer": {"config": {}, "class_name": "Ones"}, "beta_constraint": null, "dtype": "float32", "beta_initializer": {"config": {}, "class_name": "Zeros"}, "moving_variance_initializer": {"config": {}, "class_name": "Ones"}, "epsilon": 0.001, "axis": [3]}, "class_name": "BatchNormalization", "inbound_nodes": [[["conv2d_51", 0, 0, {}]]], "name": "batch_normalization_51"}, {"config": {"name": "activation_51", "activation": "relu", "dtype": "float32", "trainable": true}, "class_name": "Activation", "inbound_nodes": [[["batch_normalization_51", 0, 0, {}]]], "name": "activation_51"}, {"config": {"bias_regularizer": null, "padding": "same", "activity_regularizer": null, "kernel_initializer": {"config": {"seed": null}, "class_name": "GlorotUniform"}, "trainable": true, "filters": 32, "name": "conv2d_49", "data_format": "channels_last", "kernel_regularizer": null, "dilation_rate": [1, 1], "strides": [1, 1], "dtype": "float32", "kernel_size": [1, 1], "bias_initializer": {"config": {}, "class_name": "Zeros"}, "bias_constraint": null, "activation": "linear", "kernel_constraint": null, "use_bias": false}, "class_name": "Conv2D", "inbound_nodes": [[["block35_6_ac", 0, 0, {}]]], "name": "conv2d_49"}, {"config": {"bias_regularizer": null, "padding": "same", "activity_regularizer": null, "kernel_initializer": {"config": {"seed": null}, "class_name": "GlorotUniform"}, "trainable": true, "filters": 48, "name": "conv2d_52", "data_format": "channels_last", "kernel_regularizer": null, "dilation_rate": [1, 1], "strides": [1, 1], "dtype": "float32", "kernel_size": [3, 3], "bias_initializer": {"config": {}, "class_name": "Zeros"}, "bias_constraint": null, "activation": "linear", "kernel_constraint": null, "use_bias": false}, "class_name": "Conv2D", "inbound_nodes": [[["activation_51", 0, 0, {}]]], "name": "conv2d_52"}, {"config": {"center": true, "momentum": 0.99, "scale": false, "moving_mean_initializer": {"config": {}, "class_name": "Zeros"}, "trainable": true, "gamma_constraint": null, "name": "batch_normalization_49", "gamma_regularizer": null, "beta_regularizer": null, "gamma_initializer": {"config": {}, "class_name": "Ones"}, "beta_constraint": null, "dtype": "float32", "beta_initializer": {"config": {}, "class_name": "Zeros"}, "moving_variance_initializer": {"config": {}, "class_name": "Ones"}, "epsilon": 0.001, "axis": [3]}, "class_name": "BatchNormalization", "inbound_nodes": [[["conv2d_49", 0, 0, {}]]], "name": "batch_normalization_49"}, {"config": {"center": true, "momentum": 0.99, "scale": false, "moving_mean_initializer": {"config": {}, "class_name": "Zeros"}, "trainable": true, "gamma_constraint": null, "name": "batch_normalization_52", "gamma_regularizer": null, "beta_regularizer": null, "gamma_initializer": {"config": {}, "class_name": "Ones"}, "beta_constraint": null, "dtype": "float32", "beta_initializer": {"config": {}, "class_name": "Zeros"}, "moving_variance_initializer": {"config": {}, "class_name": "Ones"}, "epsilon": 0.001, "axis": [3]}, "class_name": "BatchNormalization", "inbound_nodes": [[["conv2d_52", 0, 0, {}]]], "name": "batch_normalization_52"}, {"config": {"name": "activation_49", "activation": "relu", "dtype": "float32", "trainable": true}, "class_name": "Activation", "inbound_nodes": [[["batch_normalization_49", 0, 0, {}]]], "name": "activation_49"}, {"config": {"name": "activation_52", "activation": "relu", "dtype": "float32", "trainable": true}, "class_name": "Activation", "inbound_nodes": [[["batch_normalization_52", 0, 0, {}]]], "name": "activation_52"}, {"config": {"bias_regularizer": null, "padding": "same", "activity_regularizer": null, "kernel_initializer": {"config": {"seed": null}, "class_name": "GlorotUniform"}, "trainable": true, "filters": 32, "name": "conv2d_48", "data_format": "channels_last", "kernel_regularizer": null, "dilation_rate": [1, 1], "strides": [1, 1], "dtype": "float32", "kernel_size": [1, 1], "bias_initializer": {"config": {}, "class_name": "Zeros"}, "bias_constraint": null, "activation": "linear", "kernel_constraint": null, "use_bias": false}, "class_name": "Conv2D", "inbound_nodes": [[["block35_6_ac", 0, 0, {}]]], "name": "conv2d_48"}, {"config": {"bias_regularizer": null, "padding": "same", "activity_regularizer": null, "kernel_initializer": {"config": {"seed": null}, "class_name": "GlorotUniform"}, "trainable": true, "filters": 32, "name": "conv2d_50", "data_format": "channels_last", "kernel_regularizer": null, "dilation_rate": [1, 1], "strides": [1, 1], "dtype": "float32", "kernel_size": [3, 3], "bias_initializer": {"config": {}, "class_name": "Zeros"}, "bias_constraint": null, "activation": "linear", "kernel_constraint": null, "use_bias": false}, "class_name": "Conv2D", "inbound_nodes": [[["activation_49", 0, 0, {}]]], "name": "conv2d_50"}, {"config": {"bias_regularizer": null, "padding": "same", "activity_regularizer": null, "kernel_initializer": {"config": {"seed": null}, "class_name": "GlorotUniform"}, "trainable": true, "filters": 64, "name": "conv2d_53", "data_format": "channels_last", "kernel_regularizer": null, "dilation_rate": [1, 1], "strides": [1, 1], "dtype": "float32", "kernel_size": [3, 3], "bias_initializer": {"config": {}, "class_name": "Zeros"}, "bias_constraint": null, "activation": "linear", "kernel_constraint": null, "use_bias": false}, "class_name": "Conv2D", "inbound_nodes": [[["activation_52", 0, 0, {}]]], "name": "conv2d_53"}, {"config": {"center": true, "momentum": 0.99, "scale": false, "moving_mean_initializer": {"config": {}, "class_name": "Zeros"}, "trainable": true, "gamma_constraint": null, "name": "batch_normalization_48", "gamma_regularizer": null, "beta_regularizer": null, "gamma_initializer": {"config": {}, "class_name": "Ones"}, "beta_constraint": null, "dtype": "float32", "beta_initializer": {"config": {}, "class_name": "Zeros"}, "moving_variance_initializer": {"config": {}, "class_name": "Ones"}, "epsilon": 0.001, "axis": [3]}, "class_name": "BatchNormalization", "inbound_nodes": [[["conv2d_48", 0, 0, {}]]], "name": "batch_normalization_48"}, {"config": {"center": true, "momentum": 0.99, "scale": false, "moving_mean_initializer": {"config": {}, "class_name": "Zeros"}, "trainable": true, "gamma_constraint": null, "name": "batch_normalization_50", "gamma_regularizer": null, "beta_regularizer": null, "gamma_initializer": {"config": {}, "class_name": "Ones"}, "beta_constraint": null, "dtype": "float32", "beta_initializer": {"config": {}, "class_name": "Zeros"}, "moving_variance_initializer": {"config": {}, "class_name": "Ones"}, "epsilon": 0.001, "axis": [3]}, "class_name": "BatchNormalization", "inbound_nodes": [[["conv2d_50", 0, 0, {}]]], "name": "batch_normalization_50"}, {"config": {"center": true, "momentum": 0.99, "scale": false, "moving_mean_initializer": {"config": {}, "class_name": "Zeros"}, "trainable": true, "gamma_constraint": null, "name": "batch_normalization_53", "gamma_regularizer": null, "beta_regularizer": null, "gamma_initializer": {"config": {}, "class_name": "Ones"}, "beta_constraint": null, "dtype": "float32", "beta_initializer": {"config": {}, "class_name": "Zeros"}, "moving_variance_initializer": {"config": {}, "class_name": "Ones"}, "epsilon": 0.001, "axis": [3]}, "class_name": "BatchNormalization", "inbound_nodes": [[["conv2d_53", 0, 0, {}]]], "name": "batch_normalization_53"}, {"config": {"name": "activation_48", "activation": "relu", "dtype": "float32", "trainable": true}, "class_name": "Activation", "inbound_nodes": [[["batch_normalization_48", 0, 0, {}]]], "name": "activation_48"}, {"config": {"name": "activation_50", "activation": "relu", "dtype": "float32", "trainable": true}, "class_name": "Activation", "inbound_nodes": [[["batch_normalization_50", 0, 0, {}]]], "name": "activation_50"}, {"config": {"name": "activation_53", "activation": "relu", "dtype": "float32", "trainable": true}, "class_name": "Activation", "inbound_nodes": [[["batch_normalization_53", 0, 0, {}]]], "name": "activation_53"}, {"config": {"dtype": "float32", "name": "block35_7_mixed", "axis": 3, "trainable": true}, "class_name": "Concatenate", "inbound_nodes": [[["activation_48", 0, 0, {}], ["activation_50", 0, 0, {}], ["activation_53", 0, 0, {}]]], "name": "block35_7_mixed"}, {"config": {"bias_regularizer": null, "padding": "same", "activity_regularizer": null, "kernel_initializer": {"config": {"seed": null}, "class_name": "GlorotUniform"}, "trainable": true, "filters": 320, "name": "block35_7_conv", "data_format": "channels_last", "kernel_regularizer": null, "dilation_rate": [1, 1], "strides": [1, 1], "dtype": "float32", "kernel_size": [1, 1], "bias_initializer": {"config": {}, "class_name": "Zeros"}, "bias_constraint": null, "activation": "linear", "kernel_constraint": null, "use_bias": true}, "class_name": "Conv2D", "inbound_nodes": [[["block35_7_mixed", 0, 0, {}]]], "name": "block35_7_conv"}, {"config": {"function": ["4wIAAAAAAAAAAgAAAAMAAABTAAAAcxQAAAB8AABkAQAZfAAAZAIAGXwBABQXUykDTukAAAAA6QEA\nAACpACkC2gZpbnB1dHPaBXNjYWxlcgMAAAByAwAAAPpxQzovVXNlcnMva3oxOTkvQXBwRGF0YS9M\nb2NhbC9Qcm9ncmFtcy9QeXRob24vUHl0aG9uMzUvbGliL3NpdGUtcGFja2FnZXMva2VyYXNfYXBw\nbGljYXRpb25zL2luY2VwdGlvbl9yZXNuZXRfdjIucHnaCDxsYW1iZGE+qAAAAPMAAAAA\n", null, null], "function_type": "lambda", "dtype": "float32", "trainable": true, "output_shape": [29, 29, 320], "name": "block35_7", "arguments": {"scale": 0.17}, "output_shape_type": "raw", "output_shape_module": null, "module": "keras_applications.inception_resnet_v2"}, "class_name": "Lambda", "inbound_nodes": [[["block35_6_ac", 0, 0, {}], ["block35_7_conv", 0, 0, {}]]], "name": "block35_7"}, {"config": {"name": "block35_7_ac", "activation": "relu", "dtype": "float32", "trainable": true}, "class_name": "Activation", "inbound_nodes": [[["block35_7", 0, 0, {}]]], "name": "block35_7_ac"}, {"config": {"bias_regularizer": null, "padding": "same", "activity_regularizer": null, "kernel_initializer": {"config": {"seed": null}, "class_name": "GlorotUniform"}, "trainable": true, "filters": 32, "name": "conv2d_57", "data_format": "channels_last", "kernel_regularizer": null, "dilation_rate": [1, 1], "strides": [1, 1], "dtype": "float32", "kernel_size": [1, 1], "bias_initializer": {"config": {}, "class_name": "Zeros"}, "bias_constraint": null, "activation": "linear", "kernel_constraint": null, "use_bias": false}, "class_name": "Conv2D", "inbound_nodes": [[["block35_7_ac", 0, 0, {}]]], "name": "conv2d_57"}, {"config": {"center": true, "momentum": 0.99, "scale": false, "moving_mean_initializer": {"config": {}, "class_name": "Zeros"}, "trainable": true, "gamma_constraint": null, "name": "batch_normalization_57", "gamma_regularizer": null, "beta_regularizer": null, "gamma_initializer": {"config": {}, "class_name": "Ones"}, "beta_constraint": null, "dtype": "float32", "beta_initializer": {"config": {}, "class_name": "Zeros"}, "moving_variance_initializer": {"config": {}, "class_name": "Ones"}, "epsilon": 0.001, "axis": [3]}, "class_name": "BatchNormalization", "inbound_nodes": [[["conv2d_57", 0, 0, {}]]], "name": "batch_normalization_57"}, {"config": {"name": "activation_57", "activation": "relu", "dtype": "float32", "trainable": true}, "class_name": "Activation", "inbound_nodes": [[["batch_normalization_57", 0, 0, {}]]], "name": "activation_57"}, {"config": {"bias_regularizer": null, "padding": "same", "activity_regularizer": null, "kernel_initializer": {"config": {"seed": null}, "class_name": "GlorotUniform"}, "trainable": true, "filters": 32, "name": "conv2d_55", "data_format": "channels_last", "kernel_regularizer": null, "dilation_rate": [1, 1], "strides": [1, 1], "dtype": "float32", "kernel_size": [1, 1], "bias_initializer": {"config": {}, "class_name": "Zeros"}, "bias_constraint": null, "activation": "linear", "kernel_constraint": null, "use_bias": false}, "class_name": "Conv2D", "inbound_nodes": [[["block35_7_ac", 0, 0, {}]]], "name": "conv2d_55"}, {"config": {"bias_regularizer": null, "padding": "same", "activity_regularizer": null, "kernel_initializer": {"config": {"seed": null}, "class_name": "GlorotUniform"}, "trainable": true, "filters": 48, "name": "conv2d_58", "data_format": "channels_last", "kernel_regularizer": null, "dilation_rate": [1, 1], "strides": [1, 1], "dtype": "float32", "kernel_size": [3, 3], "bias_initializer": {"config": {}, "class_name": "Zeros"}, "bias_constraint": null, "activation": "linear", "kernel_constraint": null, "use_bias": false}, "class_name": "Conv2D", "inbound_nodes": [[["activation_57", 0, 0, {}]]], "name": "conv2d_58"}, {"config": {"center": true, "momentum": 0.99, "scale": false, "moving_mean_initializer": {"config": {}, "class_name": "Zeros"}, "trainable": true, "gamma_constraint": null, "name": "batch_normalization_55", "gamma_regularizer": null, "beta_regularizer": null, "gamma_initializer": {"config": {}, "class_name": "Ones"}, "beta_constraint": null, "dtype": "float32", "beta_initializer": {"config": {}, "class_name": "Zeros"}, "moving_variance_initializer": {"config": {}, "class_name": "Ones"}, "epsilon": 0.001, "axis": [3]}, "class_name": "BatchNormalization", "inbound_nodes": [[["conv2d_55", 0, 0, {}]]], "name": "batch_normalization_55"}, {"config": {"center": true, "momentum": 0.99, "scale": false, "moving_mean_initializer": {"config": {}, "class_name": "Zeros"}, "trainable": true, "gamma_constraint": null, "name": "batch_normalization_58", "gamma_regularizer": null, "beta_regularizer": null, "gamma_initializer": {"config": {}, "class_name": "Ones"}, "beta_constraint": null, "dtype": "float32", "beta_initializer": {"config": {}, "class_name": "Zeros"}, "moving_variance_initializer": {"config": {}, "class_name": "Ones"}, "epsilon": 0.001, "axis": [3]}, "class_name": "BatchNormalization", "inbound_nodes": [[["conv2d_58", 0, 0, {}]]], "name": "batch_normalization_58"}, {"config": {"name": "activation_55", "activation": "relu", "dtype": "float32", "trainable": true}, "class_name": "Activation", "inbound_nodes": [[["batch_normalization_55", 0, 0, {}]]], "name": "activation_55"}, {"config": {"name": "activation_58", "activation": "relu", "dtype": "float32", "trainable": true}, "class_name": "Activation", "inbound_nodes": [[["batch_normalization_58", 0, 0, {}]]], "name": "activation_58"}, {"config": {"bias_regularizer": null, "padding": "same", "activity_regularizer": null, "kernel_initializer": {"config": {"seed": null}, "class_name": "GlorotUniform"}, "trainable": true, "filters": 32, "name": "conv2d_54", "data_format": "channels_last", "kernel_regularizer": null, "dilation_rate": [1, 1], "strides": [1, 1], "dtype": "float32", "kernel_size": [1, 1], "bias_initializer": {"config": {}, "class_name": "Zeros"}, "bias_constraint": null, "activation": "linear", "kernel_constraint": null, "use_bias": false}, "class_name": "Conv2D", "inbound_nodes": [[["block35_7_ac", 0, 0, {}]]], "name": "conv2d_54"}, {"config": {"bias_regularizer": null, "padding": "same", "activity_regularizer": null, "kernel_initializer": {"config": {"seed": null}, "class_name": "GlorotUniform"}, "trainable": true, "filters": 32, "name": "conv2d_56", "data_format": "channels_last", "kernel_regularizer": null, "dilation_rate": [1, 1], "strides": [1, 1], "dtype": "float32", "kernel_size": [3, 3], "bias_initializer": {"config": {}, "class_name": "Zeros"}, "bias_constraint": null, "activation": "linear", "kernel_constraint": null, "use_bias": false}, "class_name": "Conv2D", "inbound_nodes": [[["activation_55", 0, 0, {}]]], "name": "conv2d_56"}, {"config": {"bias_regularizer": null, "padding": "same", "activity_regularizer": null, "kernel_initializer": {"config": {"seed": null}, "class_name": "GlorotUniform"}, "trainable": true, "filters": 64, "name": "conv2d_59", "data_format": "channels_last", "kernel_regularizer": null, "dilation_rate": [1, 1], "strides": [1, 1], "dtype": "float32", "kernel_size": [3, 3], "bias_initializer": {"config": {}, "class_name": "Zeros"}, "bias_constraint": null, "activation": "linear", "kernel_constraint": null, "use_bias": false}, "class_name": "Conv2D", "inbound_nodes": [[["activation_58", 0, 0, {}]]], "name": "conv2d_59"}, {"config": {"center": true, "momentum": 0.99, "scale": false, "moving_mean_initializer": {"config": {}, "class_name": "Zeros"}, "trainable": true, "gamma_constraint": null, "name": "batch_normalization_54", "gamma_regularizer": null, "beta_regularizer": null, "gamma_initializer": {"config": {}, "class_name": "Ones"}, "beta_constraint": null, "dtype": "float32", "beta_initializer": {"config": {}, "class_name": "Zeros"}, "moving_variance_initializer": {"config": {}, "class_name": "Ones"}, "epsilon": 0.001, "axis": [3]}, "class_name": "BatchNormalization", "inbound_nodes": [[["conv2d_54", 0, 0, {}]]], "name": "batch_normalization_54"}, {"config": {"center": true, "momentum": 0.99, "scale": false, "moving_mean_initializer": {"config": {}, "class_name": "Zeros"}, "trainable": true, "gamma_constraint": null, "name": "batch_normalization_56", "gamma_regularizer": null, "beta_regularizer": null, "gamma_initializer": {"config": {}, "class_name": "Ones"}, "beta_constraint": null, "dtype": "float32", "beta_initializer": {"config": {}, "class_name": "Zeros"}, "moving_variance_initializer": {"config": {}, "class_name": "Ones"}, "epsilon": 0.001, "axis": [3]}, "class_name": "BatchNormalization", "inbound_nodes": [[["conv2d_56", 0, 0, {}]]], "name": "batch_normalization_56"}, {"config": {"center": true, "momentum": 0.99, "scale": false, "moving_mean_initializer": {"config": {}, "class_name": "Zeros"}, "trainable": true, "gamma_constraint": null, "name": "batch_normalization_59", "gamma_regularizer": null, "beta_regularizer": null, "gamma_initializer": {"config": {}, "class_name": "Ones"}, "beta_constraint": null, "dtype": "float32", "beta_initializer": {"config": {}, "class_name": "Zeros"}, "moving_variance_initializer": {"config": {}, "class_name": "Ones"}, "epsilon": 0.001, "axis": [3]}, "class_name": "BatchNormalization", "inbound_nodes": [[["conv2d_59", 0, 0, {}]]], "name": "batch_normalization_59"}, {"config": {"name": "activation_54", "activation": "relu", "dtype": "float32", "trainable": true}, "class_name": "Activation", "inbound_nodes": [[["batch_normalization_54", 0, 0, {}]]], "name": "activation_54"}, {"config": {"name": "activation_56", "activation": "relu", "dtype": "float32", "trainable": true}, "class_name": "Activation", "inbound_nodes": [[["batch_normalization_56", 0, 0, {}]]], "name": "activation_56"}, {"config": {"name": "activation_59", "activation": "relu", "dtype": "float32", "trainable": true}, "class_name": "Activation", "inbound_nodes": [[["batch_normalization_59", 0, 0, {}]]], "name": "activation_59"}, {"config": {"dtype": "float32", "name": "block35_8_mixed", "axis": 3, "trainable": true}, "class_name": "Concatenate", "inbound_nodes": [[["activation_54", 0, 0, {}], ["activation_56", 0, 0, {}], ["activation_59", 0, 0, {}]]], "name": "block35_8_mixed"}, {"config": {"bias_regularizer": null, "padding": "same", "activity_regularizer": null, "kernel_initializer": {"config": {"seed": null}, "class_name": "GlorotUniform"}, "trainable": true, "filters": 320, "name": "block35_8_conv", "data_format": "channels_last", "kernel_regularizer": null, "dilation_rate": [1, 1], "strides": [1, 1], "dtype": "float32", "kernel_size": [1, 1], "bias_initializer": {"config": {}, "class_name": "Zeros"}, "bias_constraint": null, "activation": "linear", "kernel_constraint": null, "use_bias": true}, "class_name": "Conv2D", "inbound_nodes": [[["block35_8_mixed", 0, 0, {}]]], "name": "block35_8_conv"}, {"config": {"function": ["4wIAAAAAAAAAAgAAAAMAAABTAAAAcxQAAAB8AABkAQAZfAAAZAIAGXwBABQXUykDTukAAAAA6QEA\nAACpACkC2gZpbnB1dHPaBXNjYWxlcgMAAAByAwAAAPpxQzovVXNlcnMva3oxOTkvQXBwRGF0YS9M\nb2NhbC9Qcm9ncmFtcy9QeXRob24vUHl0aG9uMzUvbGliL3NpdGUtcGFja2FnZXMva2VyYXNfYXBw\nbGljYXRpb25zL2luY2VwdGlvbl9yZXNuZXRfdjIucHnaCDxsYW1iZGE+qAAAAPMAAAAA\n", null, null], "function_type": "lambda", "dtype": "float32", "trainable": true, "output_shape": [29, 29, 320], "name": "block35_8", "arguments": {"scale": 0.17}, "output_shape_type": "raw", "output_shape_module": null, "module": "keras_applications.inception_resnet_v2"}, "class_name": "Lambda", "inbound_nodes": [[["block35_7_ac", 0, 0, {}], ["block35_8_conv", 0, 0, {}]]], "name": "block35_8"}, {"config": {"name": "block35_8_ac", "activation": "relu", "dtype": "float32", "trainable": true}, "class_name": "Activation", "inbound_nodes": [[["block35_8", 0, 0, {}]]], "name": "block35_8_ac"}, {"config": {"bias_regularizer": null, "padding": "same", "activity_regularizer": null, "kernel_initializer": {"config": {"seed": null}, "class_name": "GlorotUniform"}, "trainable": true, "filters": 32, "name": "conv2d_63", "data_format": "channels_last", "kernel_regularizer": null, "dilation_rate": [1, 1], "strides": [1, 1], "dtype": "float32", "kernel_size": [1, 1], "bias_initializer": {"config": {}, "class_name": "Zeros"}, "bias_constraint": null, "activation": "linear", "kernel_constraint": null, "use_bias": false}, "class_name": "Conv2D", "inbound_nodes": [[["block35_8_ac", 0, 0, {}]]], "name": "conv2d_63"}, {"config": {"center": true, "momentum": 0.99, "scale": false, "moving_mean_initializer": {"config": {}, "class_name": "Zeros"}, "trainable": true, "gamma_constraint": null, "name": "batch_normalization_63", "gamma_regularizer": null, "beta_regularizer": null, "gamma_initializer": {"config": {}, "class_name": "Ones"}, "beta_constraint": null, "dtype": "float32", "beta_initializer": {"config": {}, "class_name": "Zeros"}, "moving_variance_initializer": {"config": {}, "class_name": "Ones"}, "epsilon": 0.001, "axis": [3]}, "class_name": "BatchNormalization", "inbound_nodes": [[["conv2d_63", 0, 0, {}]]], "name": "batch_normalization_63"}, {"config": {"name": "activation_63", "activation": "relu", "dtype": "float32", "trainable": true}, "class_name": "Activation", "inbound_nodes": [[["batch_normalization_63", 0, 0, {}]]], "name": "activation_63"}, {"config": {"bias_regularizer": null, "padding": "same", "activity_regularizer": null, "kernel_initializer": {"config": {"seed": null}, "class_name": "GlorotUniform"}, "trainable": true, "filters": 32, "name": "conv2d_61", "data_format": "channels_last", "kernel_regularizer": null, "dilation_rate": [1, 1], "strides": [1, 1], "dtype": "float32", "kernel_size": [1, 1], "bias_initializer": {"config": {}, "class_name": "Zeros"}, "bias_constraint": null, "activation": "linear", "kernel_constraint": null, "use_bias": false}, "class_name": "Conv2D", "inbound_nodes": [[["block35_8_ac", 0, 0, {}]]], "name": "conv2d_61"}, {"config": {"bias_regularizer": null, "padding": "same", "activity_regularizer": null, "kernel_initializer": {"config": {"seed": null}, "class_name": "GlorotUniform"}, "trainable": true, "filters": 48, "name": "conv2d_64", "data_format": "channels_last", "kernel_regularizer": null, "dilation_rate": [1, 1], "strides": [1, 1], "dtype": "float32", "kernel_size": [3, 3], "bias_initializer": {"config": {}, "class_name": "Zeros"}, "bias_constraint": null, "activation": "linear", "kernel_constraint": null, "use_bias": false}, "class_name": "Conv2D", "inbound_nodes": [[["activation_63", 0, 0, {}]]], "name": "conv2d_64"}, {"config": {"center": true, "momentum": 0.99, "scale": false, "moving_mean_initializer": {"config": {}, "class_name": "Zeros"}, "trainable": true, "gamma_constraint": null, "name": "batch_normalization_61", "gamma_regularizer": null, "beta_regularizer": null, "gamma_initializer": {"config": {}, "class_name": "Ones"}, "beta_constraint": null, "dtype": "float32", "beta_initializer": {"config": {}, "class_name": "Zeros"}, "moving_variance_initializer": {"config": {}, "class_name": "Ones"}, "epsilon": 0.001, "axis": [3]}, "class_name": "BatchNormalization", "inbound_nodes": [[["conv2d_61", 0, 0, {}]]], "name": "batch_normalization_61"}, {"config": {"center": true, "momentum": 0.99, "scale": false, "moving_mean_initializer": {"config": {}, "class_name": "Zeros"}, "trainable": true, "gamma_constraint": null, "name": "batch_normalization_64", "gamma_regularizer": null, "beta_regularizer": null, "gamma_initializer": {"config": {}, "class_name": "Ones"}, "beta_constraint": null, "dtype": "float32", "beta_initializer": {"config": {}, "class_name": "Zeros"}, "moving_variance_initializer": {"config": {}, "class_name": "Ones"}, "epsilon": 0.001, "axis": [3]}, "class_name": "BatchNormalization", "inbound_nodes": [[["conv2d_64", 0, 0, {}]]], "name": "batch_normalization_64"}, {"config": {"name": "activation_61", "activation": "relu", "dtype": "float32", "trainable": true}, "class_name": "Activation", "inbound_nodes": [[["batch_normalization_61", 0, 0, {}]]], "name": "activation_61"}, {"config": {"name": "activation_64", "activation": "relu", "dtype": "float32", "trainable": true}, "class_name": "Activation", "inbound_nodes": [[["batch_normalization_64", 0, 0, {}]]], "name": "activation_64"}, {"config": {"bias_regularizer": null, "padding": "same", "activity_regularizer": null, "kernel_initializer": {"config": {"seed": null}, "class_name": "GlorotUniform"}, "trainable": true, "filters": 32, "name": "conv2d_60", "data_format": "channels_last", "kernel_regularizer": null, "dilation_rate": [1, 1], "strides": [1, 1], "dtype": "float32", "kernel_size": [1, 1], "bias_initializer": {"config": {}, "class_name": "Zeros"}, "bias_constraint": null, "activation": "linear", "kernel_constraint": null, "use_bias": false}, "class_name": "Conv2D", "inbound_nodes": [[["block35_8_ac", 0, 0, {}]]], "name": "conv2d_60"}, {"config": {"bias_regularizer": null, "padding": "same", "activity_regularizer": null, "kernel_initializer": {"config": {"seed": null}, "class_name": "GlorotUniform"}, "trainable": true, "filters": 32, "name": "conv2d_62", "data_format": "channels_last", "kernel_regularizer": null, "dilation_rate": [1, 1], "strides": [1, 1], "dtype": "float32", "kernel_size": [3, 3], "bias_initializer": {"config": {}, "class_name": "Zeros"}, "bias_constraint": null, "activation": "linear", "kernel_constraint": null, "use_bias": false}, "class_name": "Conv2D", "inbound_nodes": [[["activation_61", 0, 0, {}]]], "name": "conv2d_62"}, {"config": {"bias_regularizer": null, "padding": "same", "activity_regularizer": null, "kernel_initializer": {"config": {"seed": null}, "class_name": "GlorotUniform"}, "trainable": true, "filters": 64, "name": "conv2d_65", "data_format": "channels_last", "kernel_regularizer": null, "dilation_rate": [1, 1], "strides": [1, 1], "dtype": "float32", "kernel_size": [3, 3], "bias_initializer": {"config": {}, "class_name": "Zeros"}, "bias_constraint": null, "activation": "linear", "kernel_constraint": null, "use_bias": false}, "class_name": "Conv2D", "inbound_nodes": [[["activation_64", 0, 0, {}]]], "name": "conv2d_65"}, {"config": {"center": true, "momentum": 0.99, "scale": false, "moving_mean_initializer": {"config": {}, "class_name": "Zeros"}, "trainable": true, "gamma_constraint": null, "name": "batch_normalization_60", "gamma_regularizer": null, "beta_regularizer": null, "gamma_initializer": {"config": {}, "class_name": "Ones"}, "beta_constraint": null, "dtype": "float32", "beta_initializer": {"config": {}, "class_name": "Zeros"}, "moving_variance_initializer": {"config": {}, "class_name": "Ones"}, "epsilon": 0.001, "axis": [3]}, "class_name": "BatchNormalization", "inbound_nodes": [[["conv2d_60", 0, 0, {}]]], "name": "batch_normalization_60"}, {"config": {"center": true, "momentum": 0.99, "scale": false, "moving_mean_initializer": {"config": {}, "class_name": "Zeros"}, "trainable": true, "gamma_constraint": null, "name": "batch_normalization_62", "gamma_regularizer": null, "beta_regularizer": null, "gamma_initializer": {"config": {}, "class_name": "Ones"}, "beta_constraint": null, "dtype": "float32", "beta_initializer": {"config": {}, "class_name": "Zeros"}, "moving_variance_initializer": {"config": {}, "class_name": "Ones"}, "epsilon": 0.001, "axis": [3]}, "class_name": "BatchNormalization", "inbound_nodes": [[["conv2d_62", 0, 0, {}]]], "name": "batch_normalization_62"}, {"config": {"center": true, "momentum": 0.99, "scale": false, "moving_mean_initializer": {"config": {}, "class_name": "Zeros"}, "trainable": true, "gamma_constraint": null, "name": "batch_normalization_65", "gamma_regularizer": null, "beta_regularizer": null, "gamma_initializer": {"config": {}, "class_name": "Ones"}, "beta_constraint": null, "dtype": "float32", "beta_initializer": {"config": {}, "class_name": "Zeros"}, "moving_variance_initializer": {"config": {}, "class_name": "Ones"}, "epsilon": 0.001, "axis": [3]}, "class_name": "BatchNormalization", "inbound_nodes": [[["conv2d_65", 0, 0, {}]]], "name": "batch_normalization_65"}, {"config": {"name": "activation_60", "activation": "relu", "dtype": "float32", "trainable": true}, "class_name": "Activation", "inbound_nodes": [[["batch_normalization_60", 0, 0, {}]]], "name": "activation_60"}, {"config": {"name": "activation_62", "activation": "relu", "dtype": "float32", "trainable": true}, "class_name": "Activation", "inbound_nodes": [[["batch_normalization_62", 0, 0, {}]]], "name": "activation_62"}, {"config": {"name": "activation_65", "activation": "relu", "dtype": "float32", "trainable": true}, "class_name": "Activation", "inbound_nodes": [[["batch_normalization_65", 0, 0, {}]]], "name": "activation_65"}, {"config": {"dtype": "float32", "name": "block35_9_mixed", "axis": 3, "trainable": true}, "class_name": "Concatenate", "inbound_nodes": [[["activation_60", 0, 0, {}], ["activation_62", 0, 0, {}], ["activation_65", 0, 0, {}]]], "name": "block35_9_mixed"}, {"config": {"bias_regularizer": null, "padding": "same", "activity_regularizer": null, "kernel_initializer": {"config": {"seed": null}, "class_name": "GlorotUniform"}, "trainable": true, "filters": 320, "name": "block35_9_conv", "data_format": "channels_last", "kernel_regularizer": null, "dilation_rate": [1, 1], "strides": [1, 1], "dtype": "float32", "kernel_size": [1, 1], "bias_initializer": {"config": {}, "class_name": "Zeros"}, "bias_constraint": null, "activation": "linear", "kernel_constraint": null, "use_bias": true}, "class_name": "Conv2D", "inbound_nodes": [[["block35_9_mixed", 0, 0, {}]]], "name": "block35_9_conv"}, {"config": {"function": ["4wIAAAAAAAAAAgAAAAMAAABTAAAAcxQAAAB8AABkAQAZfAAAZAIAGXwBABQXUykDTukAAAAA6QEA\nAACpACkC2gZpbnB1dHPaBXNjYWxlcgMAAAByAwAAAPpxQzovVXNlcnMva3oxOTkvQXBwRGF0YS9M\nb2NhbC9Qcm9ncmFtcy9QeXRob24vUHl0aG9uMzUvbGliL3NpdGUtcGFja2FnZXMva2VyYXNfYXBw\nbGljYXRpb25zL2luY2VwdGlvbl9yZXNuZXRfdjIucHnaCDxsYW1iZGE+qAAAAPMAAAAA\n", null, null], "function_type": "lambda", "dtype": "float32", "trainable": true, "output_shape": [29, 29, 320], "name": "block35_9", "arguments": {"scale": 0.17}, "output_shape_type": "raw", "output_shape_module": null, "module": "keras_applications.inception_resnet_v2"}, "class_name": "Lambda", "inbound_nodes": [[["block35_8_ac", 0, 0, {}], ["block35_9_conv", 0, 0, {}]]], "name": "block35_9"}, {"config": {"name": "block35_9_ac", "activation": "relu", "dtype": "float32", "trainable": true}, "class_name": "Activation", "inbound_nodes": [[["block35_9", 0, 0, {}]]], "name": "block35_9_ac"}, {"config": {"bias_regularizer": null, "padding": "same", "activity_regularizer": null, "kernel_initializer": {"config": {"seed": null}, "class_name": "GlorotUniform"}, "trainable": true, "filters": 32, "name": "conv2d_69", "data_format": "channels_last", "kernel_regularizer": null, "dilation_rate": [1, 1], "strides": [1, 1], "dtype": "float32", "kernel_size": [1, 1], "bias_initializer": {"config": {}, "class_name": "Zeros"}, "bias_constraint": null, "activation": "linear", "kernel_constraint": null, "use_bias": false}, "class_name": "Conv2D", "inbound_nodes": [[["block35_9_ac", 0, 0, {}]]], "name": "conv2d_69"}, {"config": {"center": true, "momentum": 0.99, "scale": false, "moving_mean_initializer": {"config": {}, "class_name": "Zeros"}, "trainable": true, "gamma_constraint": null, "name": "batch_normalization_69", "gamma_regularizer": null, "beta_regularizer": null, "gamma_initializer": {"config": {}, "class_name": "Ones"}, "beta_constraint": null, "dtype": "float32", "beta_initializer": {"config": {}, "class_name": "Zeros"}, "moving_variance_initializer": {"config": {}, "class_name": "Ones"}, "epsilon": 0.001, "axis": [3]}, "class_name": "BatchNormalization", "inbound_nodes": [[["conv2d_69", 0, 0, {}]]], "name": "batch_normalization_69"}, {"config": {"name": "activation_69", "activation": "relu", "dtype": "float32", "trainable": true}, "class_name": "Activation", "inbound_nodes": [[["batch_normalization_69", 0, 0, {}]]], "name": "activation_69"}, {"config": {"bias_regularizer": null, "padding": "same", "activity_regularizer": null, "kernel_initializer": {"config": {"seed": null}, "class_name": "GlorotUniform"}, "trainable": true, "filters": 32, "name": "conv2d_67", "data_format": "channels_last", "kernel_regularizer": null, "dilation_rate": [1, 1], "strides": [1, 1], "dtype": "float32", "kernel_size": [1, 1], "bias_initializer": {"config": {}, "class_name": "Zeros"}, "bias_constraint": null, "activation": "linear", "kernel_constraint": null, "use_bias": false}, "class_name": "Conv2D", "inbound_nodes": [[["block35_9_ac", 0, 0, {}]]], "name": "conv2d_67"}, {"config": {"bias_regularizer": null, "padding": "same", "activity_regularizer": null, "kernel_initializer": {"config": {"seed": null}, "class_name": "GlorotUniform"}, "trainable": true, "filters": 48, "name": "conv2d_70", "data_format": "channels_last", "kernel_regularizer": null, "dilation_rate": [1, 1], "strides": [1, 1], "dtype": "float32", "kernel_size": [3, 3], "bias_initializer": {"config": {}, "class_name": "Zeros"}, "bias_constraint": null, "activation": "linear", "kernel_constraint": null, "use_bias": false}, "class_name": "Conv2D", "inbound_nodes": [[["activation_69", 0, 0, {}]]], "name": "conv2d_70"}, {"config": {"center": true, "momentum": 0.99, "scale": false, "moving_mean_initializer": {"config": {}, "class_name": "Zeros"}, "trainable": true, "gamma_constraint": null, "name": "batch_normalization_67", "gamma_regularizer": null, "beta_regularizer": null, "gamma_initializer": {"config": {}, "class_name": "Ones"}, "beta_constraint": null, "dtype": "float32", "beta_initializer": {"config": {}, "class_name": "Zeros"}, "moving_variance_initializer": {"config": {}, "class_name": "Ones"}, "epsilon": 0.001, "axis": [3]}, "class_name": "BatchNormalization", "inbound_nodes": [[["conv2d_67", 0, 0, {}]]], "name": "batch_normalization_67"}, {"config": {"center": true, "momentum": 0.99, "scale": false, "moving_mean_initializer": {"config": {}, "class_name": "Zeros"}, "trainable": true, "gamma_constraint": null, "name": "batch_normalization_70", "gamma_regularizer": null, "beta_regularizer": null, "gamma_initializer": {"config": {}, "class_name": "Ones"}, "beta_constraint": null, "dtype": "float32", "beta_initializer": {"config": {}, "class_name": "Zeros"}, "moving_variance_initializer": {"config": {}, "class_name": "Ones"}, "epsilon": 0.001, "axis": [3]}, "class_name": "BatchNormalization", "inbound_nodes": [[["conv2d_70", 0, 0, {}]]], "name": "batch_normalization_70"}, {"config": {"name": "activation_67", "activation": "relu", "dtype": "float32", "trainable": true}, "class_name": "Activation", "inbound_nodes": [[["batch_normalization_67", 0, 0, {}]]], "name": "activation_67"}, {"config": {"name": "activation_70", "activation": "relu", "dtype": "float32", "trainable": true}, "class_name": "Activation", "inbound_nodes": [[["batch_normalization_70", 0, 0, {}]]], "name": "activation_70"}, {"config": {"bias_regularizer": null, "padding": "same", "activity_regularizer": null, "kernel_initializer": {"config": {"seed": null}, "class_name": "GlorotUniform"}, "trainable": true, "filters": 32, "name": "conv2d_66", "data_format": "channels_last", "kernel_regularizer": null, "dilation_rate": [1, 1], "strides": [1, 1], "dtype": "float32", "kernel_size": [1, 1], "bias_initializer": {"config": {}, "class_name": "Zeros"}, "bias_constraint": null, "activation": "linear", "kernel_constraint": null, "use_bias": false}, "class_name": "Conv2D", "inbound_nodes": [[["block35_9_ac", 0, 0, {}]]], "name": "conv2d_66"}, {"config": {"bias_regularizer": null, "padding": "same", "activity_regularizer": null, "kernel_initializer": {"config": {"seed": null}, "class_name": "GlorotUniform"}, "trainable": true, "filters": 32, "name": "conv2d_68", "data_format": "channels_last", "kernel_regularizer": null, "dilation_rate": [1, 1], "strides": [1, 1], "dtype": "float32", "kernel_size": [3, 3], "bias_initializer": {"config": {}, "class_name": "Zeros"}, "bias_constraint": null, "activation": "linear", "kernel_constraint": null, "use_bias": false}, "class_name": "Conv2D", "inbound_nodes": [[["activation_67", 0, 0, {}]]], "name": "conv2d_68"}, {"config": {"bias_regularizer": null, "padding": "same", "activity_regularizer": null, "kernel_initializer": {"config": {"seed": null}, "class_name": "GlorotUniform"}, "trainable": true, "filters": 64, "name": "conv2d_71", "data_format": "channels_last", "kernel_regularizer": null, "dilation_rate": [1, 1], "strides": [1, 1], "dtype": "float32", "kernel_size": [3, 3], "bias_initializer": {"config": {}, "class_name": "Zeros"}, "bias_constraint": null, "activation": "linear", "kernel_constraint": null, "use_bias": false}, "class_name": "Conv2D", "inbound_nodes": [[["activation_70", 0, 0, {}]]], "name": "conv2d_71"}, {"config": {"center": true, "momentum": 0.99, "scale": false, "moving_mean_initializer": {"config": {}, "class_name": "Zeros"}, "trainable": true, "gamma_constraint": null, "name": "batch_normalization_66", "gamma_regularizer": null, "beta_regularizer": null, "gamma_initializer": {"config": {}, "class_name": "Ones"}, "beta_constraint": null, "dtype": "float32", "beta_initializer": {"config": {}, "class_name": "Zeros"}, "moving_variance_initializer": {"config": {}, "class_name": "Ones"}, "epsilon": 0.001, "axis": [3]}, "class_name": "BatchNormalization", "inbound_nodes": [[["conv2d_66", 0, 0, {}]]], "name": "batch_normalization_66"}, {"config": {"center": true, "momentum": 0.99, "scale": false, "moving_mean_initializer": {"config": {}, "class_name": "Zeros"}, "trainable": true, "gamma_constraint": null, "name": "batch_normalization_68", "gamma_regularizer": null, "beta_regularizer": null, "gamma_initializer": {"config": {}, "class_name": "Ones"}, "beta_constraint": null, "dtype": "float32", "beta_initializer": {"config": {}, "class_name": "Zeros"}, "moving_variance_initializer": {"config": {}, "class_name": "Ones"}, "epsilon": 0.001, "axis": [3]}, "class_name": "BatchNormalization", "inbound_nodes": [[["conv2d_68", 0, 0, {}]]], "name": "batch_normalization_68"}, {"config": {"center": true, "momentum": 0.99, "scale": false, "moving_mean_initializer": {"config": {}, "class_name": "Zeros"}, "trainable": true, "gamma_constraint": null, "name": "batch_normalization_71", "gamma_regularizer": null, "beta_regularizer": null, "gamma_initializer": {"config": {}, "class_name": "Ones"}, "beta_constraint": null, "dtype": "float32", "beta_initializer": {"config": {}, "class_name": "Zeros"}, "moving_variance_initializer": {"config": {}, "class_name": "Ones"}, "epsilon": 0.001, "axis": [3]}, "class_name": "BatchNormalization", "inbound_nodes": [[["conv2d_71", 0, 0, {}]]], "name": "batch_normalization_71"}, {"config": {"name": "activation_66", "activation": "relu", "dtype": "float32", "trainable": true}, "class_name": "Activation", "inbound_nodes": [[["batch_normalization_66", 0, 0, {}]]], "name": "activation_66"}, {"config": {"name": "activation_68", "activation": "relu", "dtype": "float32", "trainable": true}, "class_name": "Activation", "inbound_nodes": [[["batch_normalization_68", 0, 0, {}]]], "name": "activation_68"}, {"config": {"name": "activation_71", "activation": "relu", "dtype": "float32", "trainable": true}, "class_name": "Activation", "inbound_nodes": [[["batch_normalization_71", 0, 0, {}]]], "name": "activation_71"}, {"config": {"dtype": "float32", "name": "block35_10_mixed", "axis": 3, "trainable": true}, "class_name": "Concatenate", "inbound_nodes": [[["activation_66", 0, 0, {}], ["activation_68", 0, 0, {}], ["activation_71", 0, 0, {}]]], "name": "block35_10_mixed"}, {"config": {"bias_regularizer": null, "padding": "same", "activity_regularizer": null, "kernel_initializer": {"config": {"seed": null}, "class_name": "GlorotUniform"}, "trainable": true, "filters": 320, "name": "block35_10_conv", "data_format": "channels_last", "kernel_regularizer": null, "dilation_rate": [1, 1], "strides": [1, 1], "dtype": "float32", "kernel_size": [1, 1], "bias_initializer": {"config": {}, "class_name": "Zeros"}, "bias_constraint": null, "activation": "linear", "kernel_constraint": null, "use_bias": true}, "class_name": "Conv2D", "inbound_nodes": [[["block35_10_mixed", 0, 0, {}]]], "name": "block35_10_conv"}, {"config": {"function": ["4wIAAAAAAAAAAgAAAAMAAABTAAAAcxQAAAB8AABkAQAZfAAAZAIAGXwBABQXUykDTukAAAAA6QEA\nAACpACkC2gZpbnB1dHPaBXNjYWxlcgMAAAByAwAAAPpxQzovVXNlcnMva3oxOTkvQXBwRGF0YS9M\nb2NhbC9Qcm9ncmFtcy9QeXRob24vUHl0aG9uMzUvbGliL3NpdGUtcGFja2FnZXMva2VyYXNfYXBw\nbGljYXRpb25zL2luY2VwdGlvbl9yZXNuZXRfdjIucHnaCDxsYW1iZGE+qAAAAPMAAAAA\n", null, null], "function_type": "lambda", "dtype": "float32", "trainable": true, "output_shape": [29, 29, 320], "name": "block35_10", "arguments": {"scale": 0.17}, "output_shape_type": "raw", "output_shape_module": null, "module": "keras_applications.inception_resnet_v2"}, "class_name": "Lambda", "inbound_nodes": [[["block35_9_ac", 0, 0, {}], ["block35_10_conv", 0, 0, {}]]], "name": "block35_10"}, {"config": {"name": "block35_10_ac", "activation": "relu", "dtype": "float32", "trainable": true}, "class_name": "Activation", "inbound_nodes": [[["block35_10", 0, 0, {}]]], "name": "block35_10_ac"}, {"config": {"bias_regularizer": null, "padding": "same", "activity_regularizer": null, "kernel_initializer": {"config": {"seed": null}, "class_name": "GlorotUniform"}, "trainable": true, "filters": 256, "name": "conv2d_73", "data_format": "channels_last", "kernel_regularizer": null, "dilation_rate": [1, 1], "strides": [1, 1], "dtype": "float32", "kernel_size": [1, 1], "bias_initializer": {"config": {}, "class_name": "Zeros"}, "bias_constraint": null, "activation": "linear", "kernel_constraint": null, "use_bias": false}, "class_name": "Conv2D", "inbound_nodes": [[["block35_10_ac", 0, 0, {}]]], "name": "conv2d_73"}, {"config": {"center": true, "momentum": 0.99, "scale": false, "moving_mean_initializer": {"config": {}, "class_name": "Zeros"}, "trainable": true, "gamma_constraint": null, "name": "batch_normalization_73", "gamma_regularizer": null, "beta_regularizer": null, "gamma_initializer": {"config": {}, "class_name": "Ones"}, "beta_constraint": null, "dtype": "float32", "beta_initializer": {"config": {}, "class_name": "Zeros"}, "moving_variance_initializer": {"config": {}, "class_name": "Ones"}, "epsilon": 0.001, "axis": [3]}, "class_name": "BatchNormalization", "inbound_nodes": [[["conv2d_73", 0, 0, {}]]], "name": "batch_normalization_73"}, {"config": {"name": "activation_73", "activation": "relu", "dtype": "float32", "trainable": true}, "class_name": "Activation", "inbound_nodes": [[["batch_normalization_73", 0, 0, {}]]], "name": "activation_73"}, {"config": {"bias_regularizer": null, "padding": "same", "activity_regularizer": null, "kernel_initializer": {"config": {"seed": null}, "class_name": "GlorotUniform"}, "trainable": true, "filters": 256, "name": "conv2d_74", "data_format": "channels_last", "kernel_regularizer": null, "dilation_rate": [1, 1], "strides": [1, 1], "dtype": "float32", "kernel_size": [3, 3], "bias_initializer": {"config": {}, "class_name": "Zeros"}, "bias_constraint": null, "activation": "linear", "kernel_constraint": null, "use_bias": false}, "class_name": "Conv2D", "inbound_nodes": [[["activation_73", 0, 0, {}]]], "name": "conv2d_74"}, {"config": {"center": true, "momentum": 0.99, "scale": false, "moving_mean_initializer": {"config": {}, "class_name": "Zeros"}, "trainable": true, "gamma_constraint": null, "name": "batch_normalization_74", "gamma_regularizer": null, "beta_regularizer": null, "gamma_initializer": {"config": {}, "class_name": "Ones"}, "beta_constraint": null, "dtype": "float32", "beta_initializer": {"config": {}, "class_name": "Zeros"}, "moving_variance_initializer": {"config": {}, "class_name": "Ones"}, "epsilon": 0.001, "axis": [3]}, "class_name": "BatchNormalization", "inbound_nodes": [[["conv2d_74", 0, 0, {}]]], "name": "batch_normalization_74"}, {"config": {"name": "activation_74", "activation": "relu", "dtype": "float32", "trainable": true}, "class_name": "Activation", "inbound_nodes": [[["batch_normalization_74", 0, 0, {}]]], "name": "activation_74"}, {"config": {"bias_regularizer": null, "padding": "valid", "activity_regularizer": null, "kernel_initializer": {"config": {"seed": null}, "class_name": "GlorotUniform"}, "trainable": true, "filters": 384, "name": "conv2d_72", "data_format": "channels_last", "kernel_regularizer": null, "dilation_rate": [1, 1], "strides": [2, 2], "dtype": "float32", "kernel_size": [3, 3], "bias_initializer": {"config": {}, "class_name": "Zeros"}, "bias_constraint": null, "activation": "linear", "kernel_constraint": null, "use_bias": false}, "class_name": "Conv2D", "inbound_nodes": [[["block35_10_ac", 0, 0, {}]]], "name": "conv2d_72"}, {"config": {"bias_regularizer": null, "padding": "valid", "activity_regularizer": null, "kernel_initializer": {"config": {"seed": null}, "class_name": "GlorotUniform"}, "trainable": true, "filters": 384, "name": "conv2d_75", "data_format": "channels_last", "kernel_regularizer": null, "dilation_rate": [1, 1], "strides": [2, 2], "dtype": "float32", "kernel_size": [3, 3], "bias_initializer": {"config": {}, "class_name": "Zeros"}, "bias_constraint": null, "activation": "linear", "kernel_constraint": null, "use_bias": false}, "class_name": "Conv2D", "inbound_nodes": [[["activation_74", 0, 0, {}]]], "name": "conv2d_75"}, {"config": {"center": true, "momentum": 0.99, "scale": false, "moving_mean_initializer": {"config": {}, "class_name": "Zeros"}, "trainable": true, "gamma_constraint": null, "name": "batch_normalization_72", "gamma_regularizer": null, "beta_regularizer": null, "gamma_initializer": {"config": {}, "class_name": "Ones"}, "beta_constraint": null, "dtype": "float32", "beta_initializer": {"config": {}, "class_name": "Zeros"}, "moving_variance_initializer": {"config": {}, "class_name": "Ones"}, "epsilon": 0.001, "axis": [3]}, "class_name": "BatchNormalization", "inbound_nodes": [[["conv2d_72", 0, 0, {}]]], "name": "batch_normalization_72"}, {"config": {"center": true, "momentum": 0.99, "scale": false, "moving_mean_initializer": {"config": {}, "class_name": "Zeros"}, "trainable": true, "gamma_constraint": null, "name": "batch_normalization_75", "gamma_regularizer": null, "beta_regularizer": null, "gamma_initializer": {"config": {}, "class_name": "Ones"}, "beta_constraint": null, "dtype": "float32", "beta_initializer": {"config": {}, "class_name": "Zeros"}, "moving_variance_initializer": {"config": {}, "class_name": "Ones"}, "epsilon": 0.001, "axis": [3]}, "class_name": "BatchNormalization", "inbound_nodes": [[["conv2d_75", 0, 0, {}]]], "name": "batch_normalization_75"}, {"config": {"name": "activation_72", "activation": "relu", "dtype": "float32", "trainable": true}, "class_name": "Activation", "inbound_nodes": [[["batch_normalization_72", 0, 0, {}]]], "name": "activation_72"}, {"config": {"name": "activation_75", "activation": "relu", "dtype": "float32", "trainable": true}, "class_name": "Activation", "inbound_nodes": [[["batch_normalization_75", 0, 0, {}]]], "name": "activation_75"}, {"config": {"pool_size": [3, 3], "strides": [2, 2], "dtype": "float32", "trainable": true, "name": "max_pooling2d_2", "data_format": "channels_last", "padding": "valid"}, "class_name": "MaxPooling2D", "inbound_nodes": [[["block35_10_ac", 0, 0, {}]]], "name": "max_pooling2d_2"}, {"config": {"dtype": "float32", "name": "mixed_6a", "axis": 3, "trainable": true}, "class_name": "Concatenate", "inbound_nodes": [[["activation_72", 0, 0, {}], ["activation_75", 0, 0, {}], ["max_pooling2d_2", 0, 0, {}]]], "name": "mixed_6a"}, {"config": {"bias_regularizer": null, "padding": "same", "activity_regularizer": null, "kernel_initializer": {"config": {"seed": null}, "class_name": "GlorotUniform"}, "trainable": true, "filters": 128, "name": "conv2d_77", "data_format": "channels_last", "kernel_regularizer": null, "dilation_rate": [1, 1], "strides": [1, 1], "dtype": "float32", "kernel_size": [1, 1], "bias_initializer": {"config": {}, "class_name": "Zeros"}, "bias_constraint": null, "activation": "linear", "kernel_constraint": null, "use_bias": false}, "class_name": "Conv2D", "inbound_nodes": [[["mixed_6a", 0, 0, {}]]], "name": "conv2d_77"}, {"config": {"center": true, "momentum": 0.99, "scale": false, "moving_mean_initializer": {"config": {}, "class_name": "Zeros"}, "trainable": true, "gamma_constraint": null, "name": "batch_normalization_77", "gamma_regularizer": null, "beta_regularizer": null, "gamma_initializer": {"config": {}, "class_name": "Ones"}, "beta_constraint": null, "dtype": "float32", "beta_initializer": {"config": {}, "class_name": "Zeros"}, "moving_variance_initializer": {"config": {}, "class_name": "Ones"}, "epsilon": 0.001, "axis": [3]}, "class_name": "BatchNormalization", "inbound_nodes": [[["conv2d_77", 0, 0, {}]]], "name": "batch_normalization_77"}, {"config": {"name": "activation_77", "activation": "relu", "dtype": "float32", "trainable": true}, "class_name": "Activation", "inbound_nodes": [[["batch_normalization_77", 0, 0, {}]]], "name": "activation_77"}, {"config": {"bias_regularizer": null, "padding": "same", "activity_regularizer": null, "kernel_initializer": {"config": {"seed": null}, "class_name": "GlorotUniform"}, "trainable": true, "filters": 160, "name": "conv2d_78", "data_format": "channels_last", "kernel_regularizer": null, "dilation_rate": [1, 1], "strides": [1, 1], "dtype": "float32", "kernel_size": [1, 7], "bias_initializer": {"config": {}, "class_name": "Zeros"}, "bias_constraint": null, "activation": "linear", "kernel_constraint": null, "use_bias": false}, "class_name": "Conv2D", "inbound_nodes": [[["activation_77", 0, 0, {}]]], "name": "conv2d_78"}, {"config": {"center": true, "momentum": 0.99, "scale": false, "moving_mean_initializer": {"config": {}, "class_name": "Zeros"}, "trainable": true, "gamma_constraint": null, "name": "batch_normalization_78", "gamma_regularizer": null, "beta_regularizer": null, "gamma_initializer": {"config": {}, "class_name": "Ones"}, "beta_constraint": null, "dtype": "float32", "beta_initializer": {"config": {}, "class_name": "Zeros"}, "moving_variance_initializer": {"config": {}, "class_name": "Ones"}, "epsilon": 0.001, "axis": [3]}, "class_name": "BatchNormalization", "inbound_nodes": [[["conv2d_78", 0, 0, {}]]], "name": "batch_normalization_78"}, {"config": {"name": "activation_78", "activation": "relu", "dtype": "float32", "trainable": true}, "class_name": "Activation", "inbound_nodes": [[["batch_normalization_78", 0, 0, {}]]], "name": "activation_78"}, {"config": {"bias_regularizer": null, "padding": "same", "activity_regularizer": null, "kernel_initializer": {"config": {"seed": null}, "class_name": "GlorotUniform"}, "trainable": true, "filters": 192, "name": "conv2d_76", "data_format": "channels_last", "kernel_regularizer": null, "dilation_rate": [1, 1], "strides": [1, 1], "dtype": "float32", "kernel_size": [1, 1], "bias_initializer": {"config": {}, "class_name": "Zeros"}, "bias_constraint": null, "activation": "linear", "kernel_constraint": null, "use_bias": false}, "class_name": "Conv2D", "inbound_nodes": [[["mixed_6a", 0, 0, {}]]], "name": "conv2d_76"}, {"config": {"bias_regularizer": null, "padding": "same", "activity_regularizer": null, "kernel_initializer": {"config": {"seed": null}, "class_name": "GlorotUniform"}, "trainable": true, "filters": 192, "name": "conv2d_79", "data_format": "channels_last", "kernel_regularizer": null, "dilation_rate": [1, 1], "strides": [1, 1], "dtype": "float32", "kernel_size": [7, 1], "bias_initializer": {"config": {}, "class_name": "Zeros"}, "bias_constraint": null, "activation": "linear", "kernel_constraint": null, "use_bias": false}, "class_name": "Conv2D", "inbound_nodes": [[["activation_78", 0, 0, {}]]], "name": "conv2d_79"}, {"config": {"center": true, "momentum": 0.99, "scale": false, "moving_mean_initializer": {"config": {}, "class_name": "Zeros"}, "trainable": true, "gamma_constraint": null, "name": "batch_normalization_76", "gamma_regularizer": null, "beta_regularizer": null, "gamma_initializer": {"config": {}, "class_name": "Ones"}, "beta_constraint": null, "dtype": "float32", "beta_initializer": {"config": {}, "class_name": "Zeros"}, "moving_variance_initializer": {"config": {}, "class_name": "Ones"}, "epsilon": 0.001, "axis": [3]}, "class_name": "BatchNormalization", "inbound_nodes": [[["conv2d_76", 0, 0, {}]]], "name": "batch_normalization_76"}, {"config": {"center": true, "momentum": 0.99, "scale": false, "moving_mean_initializer": {"config": {}, "class_name": "Zeros"}, "trainable": true, "gamma_constraint": null, "name": "batch_normalization_79", "gamma_regularizer": null, "beta_regularizer": null, "gamma_initializer": {"config": {}, "class_name": "Ones"}, "beta_constraint": null, "dtype": "float32", "beta_initializer": {"config": {}, "class_name": "Zeros"}, "moving_variance_initializer": {"config": {}, "class_name": "Ones"}, "epsilon": 0.001, "axis": [3]}, "class_name": "BatchNormalization", "inbound_nodes": [[["conv2d_79", 0, 0, {}]]], "name": "batch_normalization_79"}, {"config": {"name": "activation_76", "activation": "relu", "dtype": "float32", "trainable": true}, "class_name": "Activation", "inbound_nodes": [[["batch_normalization_76", 0, 0, {}]]], "name": "activation_76"}, {"config": {"name": "activation_79", "activation": "relu", "dtype": "float32", "trainable": true}, "class_name": "Activation", "inbound_nodes": [[["batch_normalization_79", 0, 0, {}]]], "name": "activation_79"}, {"config": {"dtype": "float32", "name": "block17_1_mixed", "axis": 3, "trainable": true}, "class_name": "Concatenate", "inbound_nodes": [[["activation_76", 0, 0, {}], ["activation_79", 0, 0, {}]]], "name": "block17_1_mixed"}, {"config": {"bias_regularizer": null, "padding": "same", "activity_regularizer": null, "kernel_initializer": {"config": {"seed": null}, "class_name": "GlorotUniform"}, "trainable": true, "filters": 1088, "name": "block17_1_conv", "data_format": "channels_last", "kernel_regularizer": null, "dilation_rate": [1, 1], "strides": [1, 1], "dtype": "float32", "kernel_size": [1, 1], "bias_initializer": {"config": {}, "class_name": "Zeros"}, "bias_constraint": null, "activation": "linear", "kernel_constraint": null, "use_bias": true}, "class_name": "Conv2D", "inbound_nodes": [[["block17_1_mixed", 0, 0, {}]]], "name": "block17_1_conv"}, {"config": {"function": ["4wIAAAAAAAAAAgAAAAMAAABTAAAAcxQAAAB8AABkAQAZfAAAZAIAGXwBABQXUykDTukAAAAA6QEA\nAACpACkC2gZpbnB1dHPaBXNjYWxlcgMAAAByAwAAAPpxQzovVXNlcnMva3oxOTkvQXBwRGF0YS9M\nb2NhbC9Qcm9ncmFtcy9QeXRob24vUHl0aG9uMzUvbGliL3NpdGUtcGFja2FnZXMva2VyYXNfYXBw\nbGljYXRpb25zL2luY2VwdGlvbl9yZXNuZXRfdjIucHnaCDxsYW1iZGE+qAAAAPMAAAAA\n", null, null], "function_type": "lambda", "dtype": "float32", "trainable": true, "output_shape": [14, 14, 1088], "name": "block17_1", "arguments": {"scale": 0.1}, "output_shape_type": "raw", "output_shape_module": null, "module": "keras_applications.inception_resnet_v2"}, "class_name": "Lambda", "inbound_nodes": [[["mixed_6a", 0, 0, {}], ["block17_1_conv", 0, 0, {}]]], "name": "block17_1"}, {"config": {"name": "block17_1_ac", "activation": "relu", "dtype": "float32", "trainable": true}, "class_name": "Activation", "inbound_nodes": [[["block17_1", 0, 0, {}]]], "name": "block17_1_ac"}, {"config": {"bias_regularizer": null, "padding": "same", "activity_regularizer": null, "kernel_initializer": {"config": {"seed": null}, "class_name": "GlorotUniform"}, "trainable": true, "filters": 128, "name": "conv2d_81", "data_format": "channels_last", "kernel_regularizer": null, "dilation_rate": [1, 1], "strides": [1, 1], "dtype": "float32", "kernel_size": [1, 1], "bias_initializer": {"config": {}, "class_name": "Zeros"}, "bias_constraint": null, "activation": "linear", "kernel_constraint": null, "use_bias": false}, "class_name": "Conv2D", "inbound_nodes": [[["block17_1_ac", 0, 0, {}]]], "name": "conv2d_81"}, {"config": {"center": true, "momentum": 0.99, "scale": false, "moving_mean_initializer": {"config": {}, "class_name": "Zeros"}, "trainable": true, "gamma_constraint": null, "name": "batch_normalization_81", "gamma_regularizer": null, "beta_regularizer": null, "gamma_initializer": {"config": {}, "class_name": "Ones"}, "beta_constraint": null, "dtype": "float32", "beta_initializer": {"config": {}, "class_name": "Zeros"}, "moving_variance_initializer": {"config": {}, "class_name": "Ones"}, "epsilon": 0.001, "axis": [3]}, "class_name": "BatchNormalization", "inbound_nodes": [[["conv2d_81", 0, 0, {}]]], "name": "batch_normalization_81"}, {"config": {"name": "activation_81", "activation": "relu", "dtype": "float32", "trainable": true}, "class_name": "Activation", "inbound_nodes": [[["batch_normalization_81", 0, 0, {}]]], "name": "activation_81"}, {"config": {"bias_regularizer": null, "padding": "same", "activity_regularizer": null, "kernel_initializer": {"config": {"seed": null}, "class_name": "GlorotUniform"}, "trainable": true, "filters": 160, "name": "conv2d_82", "data_format": "channels_last", "kernel_regularizer": null, "dilation_rate": [1, 1], "strides": [1, 1], "dtype": "float32", "kernel_size": [1, 7], "bias_initializer": {"config": {}, "class_name": "Zeros"}, "bias_constraint": null, "activation": "linear", "kernel_constraint": null, "use_bias": false}, "class_name": "Conv2D", "inbound_nodes": [[["activation_81", 0, 0, {}]]], "name": "conv2d_82"}, {"config": {"center": true, "momentum": 0.99, "scale": false, "moving_mean_initializer": {"config": {}, "class_name": "Zeros"}, "trainable": true, "gamma_constraint": null, "name": "batch_normalization_82", "gamma_regularizer": null, "beta_regularizer": null, "gamma_initializer": {"config": {}, "class_name": "Ones"}, "beta_constraint": null, "dtype": "float32", "beta_initializer": {"config": {}, "class_name": "Zeros"}, "moving_variance_initializer": {"config": {}, "class_name": "Ones"}, "epsilon": 0.001, "axis": [3]}, "class_name": "BatchNormalization", "inbound_nodes": [[["conv2d_82", 0, 0, {}]]], "name": "batch_normalization_82"}, {"config": {"name": "activation_82", "activation": "relu", "dtype": "float32", "trainable": true}, "class_name": "Activation", "inbound_nodes": [[["batch_normalization_82", 0, 0, {}]]], "name": "activation_82"}, {"config": {"bias_regularizer": null, "padding": "same", "activity_regularizer": null, "kernel_initializer": {"config": {"seed": null}, "class_name": "GlorotUniform"}, "trainable": true, "filters": 192, "name": "conv2d_80", "data_format": "channels_last", "kernel_regularizer": null, "dilation_rate": [1, 1], "strides": [1, 1], "dtype": "float32", "kernel_size": [1, 1], "bias_initializer": {"config": {}, "class_name": "Zeros"}, "bias_constraint": null, "activation": "linear", "kernel_constraint": null, "use_bias": false}, "class_name": "Conv2D", "inbound_nodes": [[["block17_1_ac", 0, 0, {}]]], "name": "conv2d_80"}, {"config": {"bias_regularizer": null, "padding": "same", "activity_regularizer": null, "kernel_initializer": {"config": {"seed": null}, "class_name": "GlorotUniform"}, "trainable": true, "filters": 192, "name": "conv2d_83", "data_format": "channels_last", "kernel_regularizer": null, "dilation_rate": [1, 1], "strides": [1, 1], "dtype": "float32", "kernel_size": [7, 1], "bias_initializer": {"config": {}, "class_name": "Zeros"}, "bias_constraint": null, "activation": "linear", "kernel_constraint": null, "use_bias": false}, "class_name": "Conv2D", "inbound_nodes": [[["activation_82", 0, 0, {}]]], "name": "conv2d_83"}, {"config": {"center": true, "momentum": 0.99, "scale": false, "moving_mean_initializer": {"config": {}, "class_name": "Zeros"}, "trainable": true, "gamma_constraint": null, "name": "batch_normalization_80", "gamma_regularizer": null, "beta_regularizer": null, "gamma_initializer": {"config": {}, "class_name": "Ones"}, "beta_constraint": null, "dtype": "float32", "beta_initializer": {"config": {}, "class_name": "Zeros"}, "moving_variance_initializer": {"config": {}, "class_name": "Ones"}, "epsilon": 0.001, "axis": [3]}, "class_name": "BatchNormalization", "inbound_nodes": [[["conv2d_80", 0, 0, {}]]], "name": "batch_normalization_80"}, {"config": {"center": true, "momentum": 0.99, "scale": false, "moving_mean_initializer": {"config": {}, "class_name": "Zeros"}, "trainable": true, "gamma_constraint": null, "name": "batch_normalization_83", "gamma_regularizer": null, "beta_regularizer": null, "gamma_initializer": {"config": {}, "class_name": "Ones"}, "beta_constraint": null, "dtype": "float32", "beta_initializer": {"config": {}, "class_name": "Zeros"}, "moving_variance_initializer": {"config": {}, "class_name": "Ones"}, "epsilon": 0.001, "axis": [3]}, "class_name": "BatchNormalization", "inbound_nodes": [[["conv2d_83", 0, 0, {}]]], "name": "batch_normalization_83"}, {"config": {"name": "activation_80", "activation": "relu", "dtype": "float32", "trainable": true}, "class_name": "Activation", "inbound_nodes": [[["batch_normalization_80", 0, 0, {}]]], "name": "activation_80"}, {"config": {"name": "activation_83", "activation": "relu", "dtype": "float32", "trainable": true}, "class_name": "Activation", "inbound_nodes": [[["batch_normalization_83", 0, 0, {}]]], "name": "activation_83"}, {"config": {"dtype": "float32", "name": "block17_2_mixed", "axis": 3, "trainable": true}, "class_name": "Concatenate", "inbound_nodes": [[["activation_80", 0, 0, {}], ["activation_83", 0, 0, {}]]], "name": "block17_2_mixed"}, {"config": {"bias_regularizer": null, "padding": "same", "activity_regularizer": null, "kernel_initializer": {"config": {"seed": null}, "class_name": "GlorotUniform"}, "trainable": true, "filters": 1088, "name": "block17_2_conv", "data_format": "channels_last", "kernel_regularizer": null, "dilation_rate": [1, 1], "strides": [1, 1], "dtype": "float32", "kernel_size": [1, 1], "bias_initializer": {"config": {}, "class_name": "Zeros"}, "bias_constraint": null, "activation": "linear", "kernel_constraint": null, "use_bias": true}, "class_name": "Conv2D", "inbound_nodes": [[["block17_2_mixed", 0, 0, {}]]], "name": "block17_2_conv"}, {"config": {"function": ["4wIAAAAAAAAAAgAAAAMAAABTAAAAcxQAAAB8AABkAQAZfAAAZAIAGXwBABQXUykDTukAAAAA6QEA\nAACpACkC2gZpbnB1dHPaBXNjYWxlcgMAAAByAwAAAPpxQzovVXNlcnMva3oxOTkvQXBwRGF0YS9M\nb2NhbC9Qcm9ncmFtcy9QeXRob24vUHl0aG9uMzUvbGliL3NpdGUtcGFja2FnZXMva2VyYXNfYXBw\nbGljYXRpb25zL2luY2VwdGlvbl9yZXNuZXRfdjIucHnaCDxsYW1iZGE+qAAAAPMAAAAA\n", null, null], "function_type": "lambda", "dtype": "float32", "trainable": true, "output_shape": [14, 14, 1088], "name": "block17_2", "arguments": {"scale": 0.1}, "output_shape_type": "raw", "output_shape_module": null, "module": "keras_applications.inception_resnet_v2"}, "class_name": "Lambda", "inbound_nodes": [[["block17_1_ac", 0, 0, {}], ["block17_2_conv", 0, 0, {}]]], "name": "block17_2"}, {"config": {"name": "block17_2_ac", "activation": "relu", "dtype": "float32", "trainable": true}, "class_name": "Activation", "inbound_nodes": [[["block17_2", 0, 0, {}]]], "name": "block17_2_ac"}, {"config": {"bias_regularizer": null, "padding": "same", "activity_regularizer": null, "kernel_initializer": {"config": {"seed": null}, "class_name": "GlorotUniform"}, "trainable": true, "filters": 128, "name": "conv2d_85", "data_format": "channels_last", "kernel_regularizer": null, "dilation_rate": [1, 1], "strides": [1, 1], "dtype": "float32", "kernel_size": [1, 1], "bias_initializer": {"config": {}, "class_name": "Zeros"}, "bias_constraint": null, "activation": "linear", "kernel_constraint": null, "use_bias": false}, "class_name": "Conv2D", "inbound_nodes": [[["block17_2_ac", 0, 0, {}]]], "name": "conv2d_85"}, {"config": {"center": true, "momentum": 0.99, "scale": false, "moving_mean_initializer": {"config": {}, "class_name": "Zeros"}, "trainable": true, "gamma_constraint": null, "name": "batch_normalization_85", "gamma_regularizer": null, "beta_regularizer": null, "gamma_initializer": {"config": {}, "class_name": "Ones"}, "beta_constraint": null, "dtype": "float32", "beta_initializer": {"config": {}, "class_name": "Zeros"}, "moving_variance_initializer": {"config": {}, "class_name": "Ones"}, "epsilon": 0.001, "axis": [3]}, "class_name": "BatchNormalization", "inbound_nodes": [[["conv2d_85", 0, 0, {}]]], "name": "batch_normalization_85"}, {"config": {"name": "activation_85", "activation": "relu", "dtype": "float32", "trainable": true}, "class_name": "Activation", "inbound_nodes": [[["batch_normalization_85", 0, 0, {}]]], "name": "activation_85"}, {"config": {"bias_regularizer": null, "padding": "same", "activity_regularizer": null, "kernel_initializer": {"config": {"seed": null}, "class_name": "GlorotUniform"}, "trainable": true, "filters": 160, "name": "conv2d_86", "data_format": "channels_last", "kernel_regularizer": null, "dilation_rate": [1, 1], "strides": [1, 1], "dtype": "float32", "kernel_size": [1, 7], "bias_initializer": {"config": {}, "class_name": "Zeros"}, "bias_constraint": null, "activation": "linear", "kernel_constraint": null, "use_bias": false}, "class_name": "Conv2D", "inbound_nodes": [[["activation_85", 0, 0, {}]]], "name": "conv2d_86"}, {"config": {"center": true, "momentum": 0.99, "scale": false, "moving_mean_initializer": {"config": {}, "class_name": "Zeros"}, "trainable": true, "gamma_constraint": null, "name": "batch_normalization_86", "gamma_regularizer": null, "beta_regularizer": null, "gamma_initializer": {"config": {}, "class_name": "Ones"}, "beta_constraint": null, "dtype": "float32", "beta_initializer": {"config": {}, "class_name": "Zeros"}, "moving_variance_initializer": {"config": {}, "class_name": "Ones"}, "epsilon": 0.001, "axis": [3]}, "class_name": "BatchNormalization", "inbound_nodes": [[["conv2d_86…
ze": [1, 1], "bias_initializer": {"config": {}, "class_name": "Zeros"}, "bias_constraint": null, "activation": "linear", "kernel_constraint": null, "use_bias": true}, "class_name": "Conv2D", "inbound_nodes": [[["block8_4_mixed", 0, 0, {}]]], "name": "block8_4_conv"}, {"config": {"function": ["4wIAAAAAAAAAAgAAAAMAAABTAAAAcxQAAAB8AABkAQAZfAAAZAIAGXwBABQXUykDTukAAAAA6QEA\nAACpACkC2gZpbnB1dHPaBXNjYWxlcgMAAAByAwAAAPpxQzovVXNlcnMva3oxOTkvQXBwRGF0YS9M\nb2NhbC9Qcm9ncmFtcy9QeXRob24vUHl0aG9uMzUvbGliL3NpdGUtcGFja2FnZXMva2VyYXNfYXBw\nbGljYXRpb25zL2luY2VwdGlvbl9yZXNuZXRfdjIucHnaCDxsYW1iZGE+qAAAAPMAAAAA\n", null, null], "function_type": "lambda", "dtype": "float32", "trainable": true, "output_shape": [6, 6, 2080], "name": "block8_4", "arguments": {"scale": 0.2}, "output_shape_type": "raw", "output_shape_module": null, "module": "keras_applications.inception_resnet_v2"}, "class_name": "Lambda", "inbound_nodes": [[["block8_3_ac", 0, 0, {}], ["block8_4_conv", 0, 0, {}]]], "name": "block8_4"}, {"config": {"name": "block8_4_ac", "activation": "relu", "dtype": "float32", "trainable": true}, "class_name": "Activation", "inbound_nodes": [[["block8_4", 0, 0, {}]]], "name": "block8_4_ac"}, {"config": {"bias_regularizer": null, "padding": "same", "activity_regularizer": null, "kernel_initializer": {"config": {"seed": null}, "class_name": "GlorotUniform"}, "trainable": true, "filters": 192, "name": "conv2d_180", "data_format": "channels_last", "kernel_regularizer": null, "dilation_rate": [1, 1], "strides": [1, 1], "dtype": "float32", "kernel_size": [1, 1], "bias_initializer": {"config": {}, "class_name": "Zeros"}, "bias_constraint": null, "activation": "linear", "kernel_constraint": null, "use_bias": false}, "class_name": "Conv2D", "inbound_nodes": [[["block8_4_ac", 0, 0, {}]]], "name": "conv2d_180"}, {"config": {"center": true, "momentum": 0.99, "scale": false, "moving_mean_initializer": {"config": {}, "class_name": "Zeros"}, "trainable": true, "gamma_constraint": null, "name": "batch_normalization_180", "gamma_regularizer": null, "beta_regularizer": null, "gamma_initializer": {"config": {}, "class_name": "Ones"}, "beta_constraint": null, "dtype": "float32", "beta_initializer": {"config": {}, "class_name": "Zeros"}, "moving_variance_initializer": {"config": {}, "class_name": "Ones"}, "epsilon": 0.001, "axis": [3]}, "class_name": "BatchNormalization", "inbound_nodes": [[["conv2d_180", 0, 0, {}]]], "name": "batch_normalization_180"}, {"config": {"name": "activation_180", "activation": "relu", "dtype": "float32", "trainable": true}, "class_name": "Activation", "inbound_nodes": [[["batch_normalization_180", 0, 0, {}]]], "name": "activation_180"}, {"config": {"bias_regularizer": null, "padding": "same", "activity_regularizer": null, "kernel_initializer": {"config": {"seed": null}, "class_name": "GlorotUniform"}, "trainable": true, "filters": 224, "name": "conv2d_181", "data_format": "channels_last", "kernel_regularizer": null, "dilation_rate": [1, 1], "strides": [1, 1], "dtype": "float32", "kernel_size": [1, 3], "bias_initializer": {"config": {}, "class_name": "Zeros"}, "bias_constraint": null, "activation": "linear", "kernel_constraint": null, "use_bias": false}, "class_name": "Conv2D", "inbound_nodes": [[["activation_180", 0, 0, {}]]], "name": "conv2d_181"}, {"config": {"center": true, "momentum": 0.99, "scale": false, "moving_mean_initializer": {"config": {}, "class_name": "Zeros"}, "trainable": true, "gamma_constraint": null, "name": "batch_normalization_181", "gamma_regularizer": null, "beta_regularizer": null, "gamma_initializer": {"config": {}, "class_name": "Ones"}, "beta_constraint": null, "dtype": "float32", "beta_initializer": {"config": {}, "class_name": "Zeros"}, "moving_variance_initializer": {"config": {}, "class_name": "Ones"}, "epsilon": 0.001, "axis": [3]}, "class_name": "BatchNormalization", "inbound_nodes": [[["conv2d_181", 0, 0, {}]]], "name": "batch_normalization_181"}, {"config": {"name": "activation_181", "activation": "relu", "dtype": "float32", "trainable": true}, "class_name": "Activation", "inbound_nodes": [[["batch_normalization_181", 0, 0, {}]]], "name": "activation_181"}, {"config": {"bias_regularizer": null, "padding": "same", "activity_regularizer": null, "kernel_initializer": {"config": {"seed": null}, "class_name": "GlorotUniform"}, "trainable": true, "filters": 192, "name": "conv2d_179", "data_format": "channels_last", "kernel_regularizer": null, "dilation_rate": [1, 1], "strides": [1, 1], "dtype": "float32", "kernel_size": [1, 1], "bias_initializer": {"config": {}, "class_name": "Zeros"}, "bias_constraint": null, "activation": "linear", "kernel_constraint": null, "use_bias": false}, "class_name": "Conv2D", "inbound_nodes": [[["block8_4_ac", 0, 0, {}]]], "name": "conv2d_179"}, {"config": {"bias_regularizer": null, "padding": "same", "activity_regularizer": null, "kernel_initializer": {"config": {"seed": null}, "class_name": "GlorotUniform"}, "trainable": true, "filters": 256, "name": "conv2d_182", "data_format": "channels_last", "kernel_regularizer": null, "dilation_rate": [1, 1], "strides": [1, 1], "dtype": "float32", "kernel_size": [3, 1], "bias_initializer": {"config": {}, "class_name": "Zeros"}, "bias_constraint": null, "activation": "linear", "kernel_constraint": null, "use_bias": false}, "class_name": "Conv2D", "inbound_nodes": [[["activation_181", 0, 0, {}]]], "name": "conv2d_182"}, {"config": {"center": true, "momentum": 0.99, "scale": false, "moving_mean_initializer": {"config": {}, "class_name": "Zeros"}, "trainable": true, "gamma_constraint": null, "name": "batch_normalization_179", "gamma_regularizer": null, "beta_regularizer": null, "gamma_initializer": {"config": {}, "class_name": "Ones"}, "beta_constraint": null, "dtype": "float32", "beta_initializer": {"config": {}, "class_name": "Zeros"}, "moving_variance_initializer": {"config": {}, "class_name": "Ones"}, "epsilon": 0.001, "axis": [3]}, "class_name": "BatchNormalization", "inbound_nodes": [[["conv2d_179", 0, 0, {}]]], "name": "batch_normalization_179"}, {"config": {"center": true, "momentum": 0.99, "scale": false, "moving_mean_initializer": {"config": {}, "class_name": "Zeros"}, "trainable": true, "gamma_constraint": null, "name": "batch_normalization_182", "gamma_regularizer": null, "beta_regularizer": null, "gamma_initializer": {"config": {}, "class_name": "Ones"}, "beta_constraint": null, "dtype": "float32", "beta_initializer": {"config": {}, "class_name": "Zeros"}, "moving_variance_initializer": {"config": {}, "class_name": "Ones"}, "epsilon": 0.001, "axis": [3]}, "class_name": "BatchNormalization", "inbound_nodes": [[["conv2d_182", 0, 0, {}]]], "name": "batch_normalization_182"}, {"config": {"name": "activation_179", "activation": "relu", "dtype": "float32", "trainable": true}, "class_name": "Activation", "inbound_nodes": [[["batch_normalization_179", 0, 0, {}]]], "name": "activation_179"}, {"config": {"name": "activation_182", "activation": "relu", "dtype": "float32", "trainable": true}, "class_name": "Activation", "inbound_nodes": [[["batch_normalization_182", 0, 0, {}]]], "name": "activation_182"}, {"config": {"dtype": "float32", "name": "block8_5_mixed", "axis": 3, "trainable": true}, "class_name": "Concatenate", "inbound_nodes": [[["activation_179", 0, 0, {}], ["activation_182", 0, 0, {}]]], "name": "block8_5_mixed"}, {"config": {"bias_regularizer": null, "padding": "same", "activity_regularizer": null, "kernel_initializer": {"config": {"seed": null}, "class_name": "GlorotUniform"}, "trainable": true, "filters": 2080, "name": "block8_5_conv", "data_format": "channels_last", "kernel_regularizer": null, "dilation_rate": [1, 1], "strides": [1, 1], "dtype": "float32", "kernel_size": [1, 1], "bias_initializer": {"config": {}, "class_name": "Zeros"}, "bias_constraint": null, "activation": "linear", "kernel_constraint": null, "use_bias": true}, "class_name": "Conv2D", "inbound_nodes": [[["block8_5_mixed", 0, 0, {}]]], "name": "block8_5_conv"}, {"config": {"function": ["4wIAAAAAAAAAAgAAAAMAAABTAAAAcxQAAAB8AABkAQAZfAAAZAIAGXwBABQXUykDTukAAAAA6QEA\nAACpACkC2gZpbnB1dHPaBXNjYWxlcgMAAAByAwAAAPpxQzovVXNlcnMva3oxOTkvQXBwRGF0YS9M\nb2NhbC9Qcm9ncmFtcy9QeXRob24vUHl0aG9uMzUvbGliL3NpdGUtcGFja2FnZXMva2VyYXNfYXBw\nbGljYXRpb25zL2luY2VwdGlvbl9yZXNuZXRfdjIucHnaCDxsYW1iZGE+qAAAAPMAAAAA\n", null, null], "function_type": "lambda", "dtype": "float32", "trainable": true, "output_shape": [6, 6, 2080], "name": "block8_5", "arguments": {"scale": 0.2}, "output_shape_type": "raw", "output_shape_module": null, "module": "keras_applications.inception_resnet_v2"}, "class_name": "Lambda", "inbound_nodes": [[["block8_4_ac", 0, 0, {}], ["block8_5_conv", 0, 0, {}]]], "name": "block8_5"}, {"config": {"name": "block8_5_ac", "activation": "relu", "dtype": "float32", "trainable": true}, "class_name": "Activation", "inbound_nodes": [[["block8_5", 0, 0, {}]]], "name": "block8_5_ac"}, {"config": {"bias_regularizer": null, "padding": "same", "activity_regularizer": null, "kernel_initializer": {"config": {"seed": null}, "class_name": "GlorotUniform"}, "trainable": true, "filters": 192, "name": "conv2d_184", "data_format": "channels_last", "kernel_regularizer": null, "dilation_rate": [1, 1], "strides": [1, 1], "dtype": "float32", "kernel_size": [1, 1], "bias_initializer": {"config": {}, "class_name": "Zeros"}, "bias_constraint": null, "activation": "linear", "kernel_constraint": null, "use_bias": false}, "class_name": "Conv2D", "inbound_nodes": [[["block8_5_ac", 0, 0, {}]]], "name": "conv2d_184"}, {"config": {"center": true, "momentum": 0.99, "scale": false, "moving_mean_initializer": {"config": {}, "class_name": "Zeros"}, "trainable": true, "gamma_constraint": null, "name": "batch_normalization_184", "gamma_regularizer": null, "beta_regularizer": null, "gamma_initializer": {"config": {}, "class_name": "Ones"}, "beta_constraint": null, "dtype": "float32", "beta_initializer": {"config": {}, "class_name": "Zeros"}, "moving_variance_initializer": {"config": {}, "class_name": "Ones"}, "epsilon": 0.001, "axis": [3]}, "class_name": "BatchNormalization", "inbound_nodes": [[["conv2d_184", 0, 0, {}]]], "name": "batch_normalization_184"}, {"config": {"name": "activation_184", "activation": "relu", "dtype": "float32", "trainable": true}, "class_name": "Activation", "inbound_nodes": [[["batch_normalization_184", 0, 0, {}]]], "name": "activation_184"}, {"config": {"bias_regularizer": null, "padding": "same", "activity_regularizer": null, "kernel_initializer": {"config": {"seed": null}, "class_name": "GlorotUniform"}, "trainable": true, "filters": 224, "name": "conv2d_185", "data_format": "channels_last", "kernel_regularizer": null, "dilation_rate": [1, 1], "strides": [1, 1], "dtype": "float32", "kernel_size": [1, 3], "bias_initializer": {"config": {}, "class_name": "Zeros"}, "bias_constraint": null, "activation": "linear", "kernel_constraint": null, "use_bias": false}, "class_name": "Conv2D", "inbound_nodes": [[["activation_184", 0, 0, {}]]], "name": "conv2d_185"}, {"config": {"center": true, "momentum": 0.99, "scale": false, "moving_mean_initializer": {"config": {}, "class_name": "Zeros"}, "trainable": true, "gamma_constraint": null, "name": "batch_normalization_185", "gamma_regularizer": null, "beta_regularizer": null, "gamma_initializer": {"config": {}, "class_name": "Ones"}, "beta_constraint": null, "dtype": "float32", "beta_initializer": {"config": {}, "class_name": "Zeros"}, "moving_variance_initializer": {"config": {}, "class_name": "Ones"}, "epsilon": 0.001, "axis": [3]}, "class_name": "BatchNormalization", "inbound_nodes": [[["conv2d_185", 0, 0, {}]]], "name": "batch_normalization_185"}, {"config": {"name": "activation_185", "activation": "relu", "dtype": "float32", "trainable": true}, "class_name": "Activation", "inbound_nodes": [[["batch_normalization_185", 0, 0, {}]]], "name": "activation_185"}, {"config": {"bias_regularizer": null, "padding": "same", "activity_regularizer": null, "kernel_initializer": {"config": {"seed": null}, "class_name": "GlorotUniform"}, "trainable": true, "filters": 192, "name": "conv2d_183", "data_format": "channels_last", "kernel_regularizer": null, "dilation_rate": [1, 1], "strides": [1, 1], "dtype": "float32", "kernel_size": [1, 1], "bias_initializer": {"config": {}, "class_name": "Zeros"}, "bias_constraint": null, "activation": "linear", "kernel_constraint": null, "use_bias": false}, "class_name": "Conv2D", "inbound_nodes": [[["block8_5_ac", 0, 0, {}]]], "name": "conv2d_183"}, {"config": {"bias_regularizer": null, "padding": "same", "activity_regularizer": null, "kernel_initializer": {"config": {"seed": null}, "class_name": "GlorotUniform"}, "trainable": true, "filters": 256, "name": "conv2d_186", "data_format": "channels_last", "kernel_regularizer": null, "dilation_rate": [1, 1], "strides": [1, 1], "dtype": "float32", "kernel_size": [3, 1], "bias_initializer": {"config": {}, "class_name": "Zeros"}, "bias_constraint": null, "activation": "linear", "kernel_constraint": null, "use_bias": false}, "class_name": "Conv2D", "inbound_nodes": [[["activation_185", 0, 0, {}]]], "name": "conv2d_186"}, {"config": {"center": true, "momentum": 0.99, "scale": false, "moving_mean_initializer": {"config": {}, "class_name": "Zeros"}, "trainable": true, "gamma_constraint": null, "name": "batch_normalization_183", "gamma_regularizer": null, "beta_regularizer": null, "gamma_initializer": {"config": {}, "class_name": "Ones"}, "beta_constraint": null, "dtype": "float32", "beta_initializer": {"config": {}, "class_name": "Zeros"}, "moving_variance_initializer": {"config": {}, "class_name": "Ones"}, "epsilon": 0.001, "axis": [3]}, "class_name": "BatchNormalization", "inbound_nodes": [[["conv2d_183", 0, 0, {}]]], "name": "batch_normalization_183"}, {"config": {"center": true, "momentum": 0.99, "scale": false, "moving_mean_initializer": {"config": {}, "class_name": "Zeros"}, "trainable": true, "gamma_constraint": null, "name": "batch_normalization_186", "gamma_regularizer": null, "beta_regularizer": null, "gamma_initializer": {"config": {}, "class_name": "Ones"}, "beta_constraint": null, "dtype": "float32", "beta_initializer": {"config": {}, "class_name": "Zeros"}, "moving_variance_initializer": {"config": {}, "class_name": "Ones"}, "epsilon": 0.001, "axis": [3]}, "class_name": "BatchNormalization", "inbound_nodes": [[["conv2d_186", 0, 0, {}]]], "name": "batch_normalization_186"}, {"config": {"name": "activation_183", "activation": "relu", "dtype": "float32", "trainable": true}, "class_name": "Activation", "inbound_nodes": [[["batch_normalization_183", 0, 0, {}]]], "name": "activation_183"}, {"config": {"name": "activation_186", "activation": "relu", "dtype": "float32", "trainable": true}, "class_name": "Activation", "inbound_nodes": [[["batch_normalization_186", 0, 0, {}]]], "name": "activation_186"}, {"config": {"dtype": "float32", "name": "block8_6_mixed", "axis": 3, "trainable": true}, "class_name": "Concatenate", "inbound_nodes": [[["activation_183", 0, 0, {}], ["activation_186", 0, 0, {}]]], "name": "block8_6_mixed"}, {"config": {"bias_regularizer": null, "padding": "same", "activity_regularizer": null, "kernel_initializer": {"config": {"seed": null}, "class_name": "GlorotUniform"}, "trainable": true, "filters": 2080, "name": "block8_6_conv", "data_format": "channels_last", "kernel_regularizer": null, "dilation_rate": [1, 1], "strides": [1, 1], "dtype": "float32", "kernel_size": [1, 1], "bias_initializer": {"config": {}, "class_name": "Zeros"}, "bias_constraint": null, "activation": "linear", "kernel_constraint": null, "use_bias": true}, "class_name": "Conv2D", "inbound_nodes": [[["block8_6_mixed", 0, 0, {}]]], "name": "block8_6_conv"}, {"config": {"function": ["4wIAAAAAAAAAAgAAAAMAAABTAAAAcxQAAAB8AABkAQAZfAAAZAIAGXwBABQXUykDTukAAAAA6QEA\nAACpACkC2gZpbnB1dHPaBXNjYWxlcgMAAAByAwAAAPpxQzovVXNlcnMva3oxOTkvQXBwRGF0YS9M\nb2NhbC9Qcm9ncmFtcy9QeXRob24vUHl0aG9uMzUvbGliL3NpdGUtcGFja2FnZXMva2VyYXNfYXBw\nbGljYXRpb25zL2luY2VwdGlvbl9yZXNuZXRfdjIucHnaCDxsYW1iZGE+qAAAAPMAAAAA\n", null, null], "function_type": "lambda", "dtype": "float32", "trainable": true, "output_shape": [6, 6, 2080], "name": "block8_6", "arguments": {"scale": 0.2}, "output_shape_type": "raw", "output_shape_module": null, "module": "keras_applications.inception_resnet_v2"}, "class_name": "Lambda", "inbound_nodes": [[["block8_5_ac", 0, 0, {}], ["block8_6_conv", 0, 0, {}]]], "name": "block8_6"}, {"config": {"name": "block8_6_ac", "activation": "relu", "dtype": "float32", "trainable": true}, "class_name": "Activation", "inbound_nodes": [[["block8_6", 0, 0, {}]]], "name": "block8_6_ac"}, {"config": {"bias_regularizer": null, "padding": "same", "activity_regularizer": null, "kernel_initializer": {"config": {"seed": null}, "class_name": "GlorotUniform"}, "trainable": true, "filters": 192, "name": "conv2d_188", "data_format": "channels_last", "kernel_regularizer": null, "dilation_rate": [1, 1], "strides": [1, 1], "dtype": "float32", "kernel_size": [1, 1], "bias_initializer": {"config": {}, "class_name": "Zeros"}, "bias_constraint": null, "activation": "linear", "kernel_constraint": null, "use_bias": false}, "class_name": "Conv2D", "inbound_nodes": [[["block8_6_ac", 0, 0, {}]]], "name": "conv2d_188"}, {"config": {"center": true, "momentum": 0.99, "scale": false, "moving_mean_initializer": {"config": {}, "class_name": "Zeros"}, "trainable": true, "gamma_constraint": null, "name": "batch_normalization_188", "gamma_regularizer": null, "beta_regularizer": null, "gamma_initializer": {"config": {}, "class_name": "Ones"}, "beta_constraint": null, "dtype": "float32", "beta_initializer": {"config": {}, "class_name": "Zeros"}, "moving_variance_initializer": {"config": {}, "class_name": "Ones"}, "epsilon": 0.001, "axis": [3]}, "class_name": "BatchNormalization", "inbound_nodes": [[["conv2d_188", 0, 0, {}]]], "name": "batch_normalization_188"}, {"config": {"name": "activation_188", "activation": "relu", "dtype": "float32", "trainable": true}, "class_name": "Activation", "inbound_nodes": [[["batch_normalization_188", 0, 0, {}]]], "name": "activation_188"}, {"config": {"bias_regularizer": null, "padding": "same", "activity_regularizer": null, "kernel_initializer": {"config": {"seed": null}, "class_name": "GlorotUniform"}, "trainable": true, "filters": 224, "name": "conv2d_189", "data_format": "channels_last", "kernel_regularizer": null, "dilation_rate": [1, 1], "strides": [1, 1], "dtype": "float32", "kernel_size": [1, 3], "bias_initializer": {"config": {}, "class_name": "Zeros"}, "bias_constraint": null, "activation": "linear", "kernel_constraint": null, "use_bias": false}, "class_name": "Conv2D", "inbound_nodes": [[["activation_188", 0, 0, {}]]], "name": "conv2d_189"}, {"config": {"center": true, "momentum": 0.99, "scale": false, "moving_mean_initializer": {"config": {}, "class_name": "Zeros"}, "trainable": true, "gamma_constraint": null, "name": "batch_normalization_189", "gamma_regularizer": null, "beta_regularizer": null, "gamma_initializer": {"config": {}, "class_name": "Ones"}, "beta_constraint": null, "dtype": "float32", "beta_initializer": {"config": {}, "class_name": "Zeros"}, "moving_variance_initializer": {"config": {}, "class_name": "Ones"}, "epsilon": 0.001, "axis": [3]}, "class_name": "BatchNormalization", "inbound_nodes": [[["conv2d_189", 0, 0, {}]]], "name": "batch_normalization_189"}, {"config": {"name": "activation_189", "activation": "relu", "dtype": "float32", "trainable": true}, "class_name": "Activation", "inbound_nodes": [[["batch_normalization_189", 0, 0, {}]]], "name": "activation_189"}, {"config": {"bias_regularizer": null, "padding": "same", "activity_regularizer": null, "kernel_initializer": {"config": {"seed": null}, "class_name": "GlorotUniform"}, "trainable": true, "filters": 192, "name": "conv2d_187", "data_format": "channels_last", "kernel_regularizer": null, "dilation_rate": [1, 1], "strides": [1, 1], "dtype": "float32", "kernel_size": [1, 1], "bias_initializer": {"config": {}, "class_name": "Zeros"}, "bias_constraint": null, "activation": "linear", "kernel_constraint": null, "use_bias": false}, "class_name": "Conv2D", "inbound_nodes": [[["block8_6_ac", 0, 0, {}]]], "name": "conv2d_187"}, {"config": {"bias_regularizer": null, "padding": "same", "activity_regularizer": null, "kernel_initializer": {"config": {"seed": null}, "class_name": "GlorotUniform"}, "trainable": true, "filters": 256, "name": "conv2d_190", "data_format": "channels_last", "kernel_regularizer": null, "dilation_rate": [1, 1], "strides": [1, 1], "dtype": "float32", "kernel_size": [3, 1], "bias_initializer": {"config": {}, "class_name": "Zeros"}, "bias_constraint": null, "activation": "linear", "kernel_constraint": null, "use_bias": false}, "class_name": "Conv2D", "inbound_nodes": [[["activation_189", 0, 0, {}]]], "name": "conv2d_190"}, {"config": {"center": true, "momentum": 0.99, "scale": false, "moving_mean_initializer": {"config": {}, "class_name": "Zeros"}, "trainable": true, "gamma_constraint": null, "name": "batch_normalization_187", "gamma_regularizer": null, "beta_regularizer": null, "gamma_initializer": {"config": {}, "class_name": "Ones"}, "beta_constraint": null, "dtype": "float32", "beta_initializer": {"config": {}, "class_name": "Zeros"}, "moving_variance_initializer": {"config": {}, "class_name": "Ones"}, "epsilon": 0.001, "axis": [3]}, "class_name": "BatchNormalization", "inbound_nodes": [[["conv2d_187", 0, 0, {}]]], "name": "batch_normalization_187"}, {"config": {"center": true, "momentum": 0.99, "scale": false, "moving_mean_initializer": {"config": {}, "class_name": "Zeros"}, "trainable": true, "gamma_constraint": null, "name": "batch_normalization_190", "gamma_regularizer": null, "beta_regularizer": null, "gamma_initializer": {"config": {}, "class_name": "Ones"}, "beta_constraint": null, "dtype": "float32", "beta_initializer": {"config": {}, "class_name": "Zeros"}, "moving_variance_initializer": {"config": {}, "class_name": "Ones"}, "epsilon": 0.001, "axis": [3]}, "class_name": "BatchNormalization", "inbound_nodes": [[["conv2d_190", 0, 0, {}]]], "name": "batch_normalization_190"}, {"config": {"name": "activation_187", "activation": "relu", "dtype": "float32", "trainable": true}, "class_name": "Activation", "inbound_nodes": [[["batch_normalization_187", 0, 0, {}]]], "name": "activation_187"}, {"config": {"name": "activation_190", "activation": "relu", "dtype": "float32", "trainable": true}, "class_name": "Activation", "inbound_nodes": [[["batch_normalization_190", 0, 0, {}]]], "name": "activation_190"}, {"config": {"dtype": "float32", "name": "block8_7_mixed", "axis": 3, "trainable": true}, "class_name": "Concatenate", "inbound_nodes": [[["activation_187", 0, 0, {}], ["activation_190", 0, 0, {}]]], "name": "block8_7_mixed"}, {"config": {"bias_regularizer": null, "padding": "same", "activity_regularizer": null, "kernel_initializer": {"config": {"seed": null}, "class_name": "GlorotUniform"}, "trainable": true, "filters": 2080, "name": "block8_7_conv", "data_format": "channels_last", "kernel_regularizer": null, "dilation_rate": [1, 1], "strides": [1, 1], "dtype": "float32", "kernel_size": [1, 1], "bias_initializer": {"config": {}, "class_name": "Zeros"}, "bias_constraint": null, "activation": "linear", "kernel_constraint": null, "use_bias": true}, "class_name": "Conv2D", "inbound_nodes": [[["block8_7_mixed", 0, 0, {}]]], "name": "block8_7_conv"}, {"config": {"function": ["4wIAAAAAAAAAAgAAAAMAAABTAAAAcxQAAAB8AABkAQAZfAAAZAIAGXwBABQXUykDTukAAAAA6QEA\nAACpACkC2gZpbnB1dHPaBXNjYWxlcgMAAAByAwAAAPpxQzovVXNlcnMva3oxOTkvQXBwRGF0YS9M\nb2NhbC9Qcm9ncmFtcy9QeXRob24vUHl0aG9uMzUvbGliL3NpdGUtcGFja2FnZXMva2VyYXNfYXBw\nbGljYXRpb25zL2luY2VwdGlvbl9yZXNuZXRfdjIucHnaCDxsYW1iZGE+qAAAAPMAAAAA\n", null, null], "function_type": "lambda", "dtype": "float32", "trainable": true, "output_shape": [6, 6, 2080], "name": "block8_7", "arguments": {"scale": 0.2}, "output_shape_type": "raw", "output_shape_module": null, "module": "keras_applications.inception_resnet_v2"}, "class_name": "Lambda", "inbound_nodes": [[["block8_6_ac", 0, 0, {}], ["block8_7_conv", 0, 0, {}]]], "name": "block8_7"}, {"config": {"name": "block8_7_ac", "activation": "relu", "dtype": "float32", "trainable": true}, "class_name": "Activation", "inbound_nodes": [[["block8_7", 0, 0, {}]]], "name": "block8_7_ac"}, {"config": {"bias_regularizer": null, "padding": "same", "activity_regularizer": null, "kernel_initializer": {"config": {"seed": null}, "class_name": "GlorotUniform"}, "trainable": true, "filters": 192, "name": "conv2d_192", "data_format": "channels_last", "kernel_regularizer": null, "dilation_rate": [1, 1], "strides": [1, 1], "dtype": "float32", "kernel_size": [1, 1], "bias_initializer": {"config": {}, "class_name": "Zeros"}, "bias_constraint": null, "activation": "linear", "kernel_constraint": null, "use_bias": false}, "class_name": "Conv2D", "inbound_nodes": [[["block8_7_ac", 0, 0, {}]]], "name": "conv2d_192"}, {"config": {"center": true, "momentum": 0.99, "scale": false, "moving_mean_initializer": {"config": {}, "class_name": "Zeros"}, "trainable": true, "gamma_constraint": null, "name": "batch_normalization_192", "gamma_regularizer": null, "beta_regularizer": null, "gamma_initializer": {"config": {}, "class_name": "Ones"}, "beta_constraint": null, "dtype": "float32", "beta_initializer": {"config": {}, "class_name": "Zeros"}, "moving_variance_initializer": {"config": {}, "class_name": "Ones"}, "epsilon": 0.001, "axis": [3]}, "class_name": "BatchNormalization", "inbound_nodes": [[["conv2d_192", 0, 0, {}]]], "name": "batch_normalization_192"}, {"config": {"name": "activation_192", "activation": "relu", "dtype": "float32", "trainable": true}, "class_name": "Activation", "inbound_nodes": [[["batch_normalization_192", 0, 0, {}]]], "name": "activation_192"}, {"config": {"bias_regularizer": null, "padding": "same", "activity_regularizer": null, "kernel_initializer": {"config": {"seed": null}, "class_name": "GlorotUniform"}, "trainable": true, "filters": 224, "name": "conv2d_193", "data_format": "channels_last", "kernel_regularizer": null, "dilation_rate": [1, 1], "strides": [1, 1], "dtype": "float32", "kernel_size": [1, 3], "bias_initializer": {"config": {}, "class_name": "Zeros"}, "bias_constraint": null, "activation": "linear", "kernel_constraint": null, "use_bias": false}, "class_name": "Conv2D", "inbound_nodes": [[["activation_192", 0, 0, {}]]], "name": "conv2d_193"}, {"config": {"center": true, "momentum": 0.99, "scale": false, "moving_mean_initializer": {"config": {}, "class_name": "Zeros"}, "trainable": true, "gamma_constraint": null, "name": "batch_normalization_193", "gamma_regularizer": null, "beta_regularizer": null, "gamma_initializer": {"config": {}, "class_name": "Ones"}, "beta_constraint": null, "dtype": "float32", "beta_initializer": {"config": {}, "class_name": "Zeros"}, "moving_variance_initializer": {"config": {}, "class_name": "Ones"}, "epsilon": 0.001, "axis": [3]}, "class_name": "BatchNormalization", "inbound_nodes": [[["conv2d_193", 0, 0, {}]]], "name": "batch_normalization_193"}, {"config": {"name": "activation_193", "activation": "relu", "dtype": "float32", "trainable": true}, "class_name": "Activation", "inbound_nodes": [[["batch_normalization_193", 0, 0, {}]]], "name": "activation_193"}, {"config": {"bias_regularizer": null, "padding": "same", "activity_regularizer": null, "kernel_initializer": {"config": {"seed": null}, "class_name": "GlorotUniform"}, "trainable": true, "filters": 192, "name": "conv2d_191", "data_format": "channels_last", "kernel_regularizer": null, "dilation_rate": [1, 1], "strides": [1, 1], "dtype": "float32", "kernel_size": [1, 1], "bias_initializer": {"config": {}, "class_name": "Zeros"}, "bias_constraint": null, "activation": "linear", "kernel_constraint": null, "use_bias": false}, "class_name": "Conv2D", "inbound_nodes": [[["block8_7_ac", 0, 0, {}]]], "name": "conv2d_191"}, {"config": {"bias_regularizer": null, "padding": "same", "activity_regularizer": null, "kernel_initializer": {"config": {"seed": null}, "class_name": "GlorotUniform"}, "trainable": true, "filters": 256, "name": "conv2d_194", "data_format": "channels_last", "kernel_regularizer": null, "dilation_rate": [1, 1], "strides": [1, 1], "dtype": "float32", "kernel_size": [3, 1], "bias_initializer": {"config": {}, "class_name": "Zeros"}, "bias_constraint": null, "activation": "linear", "kernel_constraint": null, "use_bias": false}, "class_name": "Conv2D", "inbound_nodes": [[["activation_193", 0, 0, {}]]], "name": "conv2d_194"}, {"config": {"center": true, "momentum": 0.99, "scale": false, "moving_mean_initializer": {"config": {}, "class_name": "Zeros"}, "trainable": true, "gamma_constraint": null, "name": "batch_normalization_191", "gamma_regularizer": null, "beta_regularizer": null, "gamma_initializer": {"config": {}, "class_name": "Ones"}, "beta_constraint": null, "dtype": "float32", "beta_initializer": {"config": {}, "class_name": "Zeros"}, "moving_variance_initializer": {"config": {}, "class_name": "Ones"}, "epsilon": 0.001, "axis": [3]}, "class_name": "BatchNormalization", "inbound_nodes": [[["conv2d_191", 0, 0, {}]]], "name": "batch_normalization_191"}, {"config": {"center": true, "momentum": 0.99, "scale": false, "moving_mean_initializer": {"config": {}, "class_name": "Zeros"}, "trainable": true, "gamma_constraint": null, "name": "batch_normalization_194", "gamma_regularizer": null, "beta_regularizer": null, "gamma_initializer": {"config": {}, "class_name": "Ones"}, "beta_constraint": null, "dtype": "float32", "beta_initializer": {"config": {}, "class_name": "Zeros"}, "moving_variance_initializer": {"config": {}, "class_name": "Ones"}, "epsilon": 0.001, "axis": [3]}, "class_name": "BatchNormalization", "inbound_nodes": [[["conv2d_194", 0, 0, {}]]], "name": "batch_normalization_194"}, {"config": {"name": "activation_191", "activation": "relu", "dtype": "float32", "trainable": true}, "class_name": "Activation", "inbound_nodes": [[["batch_normalization_191", 0, 0, {}]]], "name": "activation_191"}, {"config": {"name": "activation_194", "activation": "relu", "dtype": "float32", "trainable": true}, "class_name": "Activation", "inbound_nodes": [[["batch_normalization_194", 0, 0, {}]]], "name": "activation_194"}, {"config": {"dtype": "float32", "name": "block8_8_mixed", "axis": 3, "trainable": true}, "class_name": "Concatenate", "inbound_nodes": [[["activation_191", 0, 0, {}], ["activation_194", 0, 0, {}]]], "name": "block8_8_mixed"}, {"config": {"bias_regularizer": null, "padding": "same", "activity_regularizer": null, "kernel_initializer": {"config": {"seed": null}, "class_name": "GlorotUniform"}, "trainable": true, "filters": 2080, "name": "block8_8_conv", "data_format": "channels_last", "kernel_regularizer": null, "dilation_rate": [1, 1], "strides": [1, 1], "dtype": "float32", "kernel_size": [1, 1], "bias_initializer": {"config": {}, "class_name": "Zeros"}, "bias_constraint": null, "activation": "linear", "kernel_constraint": null, "use_bias": true}, "class_name": "Conv2D", "inbound_nodes": [[["block8_8_mixed", 0, 0, {}]]], "name": "block8_8_conv"}, {"config": {"function": ["4wIAAAAAAAAAAgAAAAMAAABTAAAAcxQAAAB8AABkAQAZfAAAZAIAGXwBABQXUykDTukAAAAA6QEA\nAACpACkC2gZpbnB1dHPaBXNjYWxlcgMAAAByAwAAAPpxQzovVXNlcnMva3oxOTkvQXBwRGF0YS9M\nb2NhbC9Qcm9ncmFtcy9QeXRob24vUHl0aG9uMzUvbGliL3NpdGUtcGFja2FnZXMva2VyYXNfYXBw\nbGljYXRpb25zL2luY2VwdGlvbl9yZXNuZXRfdjIucHnaCDxsYW1iZGE+qAAAAPMAAAAA\n", null, null], "function_type": "lambda", "dtype": "float32", "trainable": true, "output_shape": [6, 6, 2080], "name": "block8_8", "arguments": {"scale": 0.2}, "output_shape_type": "raw", "output_shape_module": null, "module": "keras_applications.inception_resnet_v2"}, "class_name": "Lambda", "inbound_nodes": [[["block8_7_ac", 0, 0, {}], ["block8_8_conv", 0, 0, {}]]], "name": "block8_8"}, {"config": {"name": "block8_8_ac", "activation": "relu", "dtype": "float32", "trainable": true}, "class_name": "Activation", "inbound_nodes": [[["block8_8", 0, 0, {}]]], "name": "block8_8_ac"}, {"config": {"bias_regularizer": null, "padding": "same", "activity_regularizer": null, "kernel_initializer": {"config": {"seed": null}, "class_name": "GlorotUniform"}, "trainable": true, "filters": 192, "name": "conv2d_196", "data_format": "channels_last", "kernel_regularizer": null, "dilation_rate": [1, 1], "strides": [1, 1], "dtype": "float32", "kernel_size": [1, 1], "bias_initializer": {"config": {}, "class_name": "Zeros"}, "bias_constraint": null, "activation": "linear", "kernel_constraint": null, "use_bias": false}, "class_name": "Conv2D", "inbound_nodes": [[["block8_8_ac", 0, 0, {}]]], "name": "conv2d_196"}, {"config": {"center": true, "momentum": 0.99, "scale": false, "moving_mean_initializer": {"config": {}, "class_name": "Zeros"}, "trainable": true, "gamma_constraint": null, "name": "batch_normalization_196", "gamma_regularizer": null, "beta_regularizer": null, "gamma_initializer": {"config": {}, "class_name": "Ones"}, "beta_constraint": null, "dtype": "float32", "beta_initializer": {"config": {}, "class_name": "Zeros"}, "moving_variance_initializer": {"config": {}, "class_name": "Ones"}, "epsilon": 0.001, "axis": [3]}, "class_name": "BatchNormalization", "inbound_nodes": [[["conv2d_196", 0, 0, {}]]], "name": "batch_normalization_196"}, {"config": {"name": "activation_196", "activation": "relu", "dtype": "float32", "trainable": true}, "class_name": "Activation", "inbound_nodes": [[["batch_normalization_196", 0, 0, {}]]], "name": "activation_196"}, {"config": {"bias_regularizer": null, "padding": "same", "activity_regularizer": null, "kernel_initializer": {"config": {"seed": null}, "class_name": "GlorotUniform"}, "trainable": true, "filters": 224, "name": "conv2d_197", "data_format": "channels_last", "kernel_regularizer": null, "dilation_rate": [1, 1], "strides": [1, 1], "dtype": "float32", "kernel_size": [1, 3], "bias_initializer": {"config": {}, "class_name": "Zeros"}, "bias_constraint": null, "activation": "linear", "kernel_constraint": null, "use_bias": false}, "class_name": "Conv2D", "inbound_nodes": [[["activation_196", 0, 0, {}]]], "name": "conv2d_197"}, {"config": {"center": true, "momentum": 0.99, "scale": false, "moving_mean_initializer": {"config": {}, "class_name": "Zeros"}, "trainable": true, "gamma_constraint": null, "name": "batch_normalization_197", "gamma_regularizer": null, "beta_regularizer": null, "gamma_initializer": {"config": {}, "class_name": "Ones"}, "beta_constraint": null, "dtype": "float32", "beta_initializer": {"config": {}, "class_name": "Zeros"}, "moving_variance_initializer": {"config": {}, "class_name": "Ones"}, "epsilon": 0.001, "axis": [3]}, "class_name": "BatchNormalization", "inbound_nodes": [[["conv2d_197", 0, 0, {}]]], "name": "batch_normalization_197"}, {"config": {"name": "activation_197", "activation": "relu", "dtype": "float32", "trainable": true}, "class_name": "Activation", "inbound_nodes": [[["batch_normalization_197", 0, 0, {}]]], "name": "activation_197"}, {"config": {"bias_regularizer": null, "padding": "same", "activity_regularizer": null, "kernel_initializer": {"config": {"seed": null}, "class_name": "GlorotUniform"}, "trainable": true, "filters": 192, "name": "conv2d_195", "data_format": "channels_last", "kernel_regularizer": null, "dilation_rate": [1, 1], "strides": [1, 1], "dtype": "float32", "kernel_size": [1, 1], "bias_initializer": {"config": {}, "class_name": "Zeros"}, "bias_constraint": null, "activation": "linear", "kernel_constraint": null, "use_bias": false}, "class_name": "Conv2D", "inbound_nodes": [[["block8_8_ac", 0, 0, {}]]], "name": "conv2d_195"}, {"config": {"bias_regularizer": null, "padding": "same", "activity_regularizer": null, "kernel_initializer": {"config": {"seed": null}, "class_name": "GlorotUniform"}, "trainable": true, "filters": 256, "name": "conv2d_198", "data_format": "channels_last", "kernel_regularizer": null, "dilation_rate": [1, 1], "strides": [1, 1], "dtype": "float32", "kernel_size": [3, 1], "bias_initializer": {"config": {}, "class_name": "Zeros"}, "bias_constraint": null, "activation": "linear", "kernel_constraint": null, "use_bias": false}, "class_name": "Conv2D", "inbound_nodes": [[["activation_197", 0, 0, {}]]], "name": "conv2d_198"}, {"config": {"center": true, "momentum": 0.99, "scale": false, "moving_mean_initializer": {"config": {}, "class_name": "Zeros"}, "trainable": true, "gamma_constraint": null, "name": "batch_normalization_195", "gamma_regularizer": null, "beta_regularizer": null, "gamma_initializer": {"config": {}, "class_name": "Ones"}, "beta_constraint": null, "dtype": "float32", "beta_initializer": {"config": {}, "class_name": "Zeros"}, "moving_variance_initializer": {"config": {}, "class_name": "Ones"}, "epsilon": 0.001, "axis": [3]}, "class_name": "BatchNormalization", "inbound_nodes": [[["conv2d_195", 0, 0, {}]]], "name": "batch_normalization_195"}, {"config": {"center": true, "momentum": 0.99, "scale": false, "moving_mean_initializer": {"config": {}, "class_name": "Zeros"}, "trainable": true, "gamma_constraint": null, "name": "batch_normalization_198", "gamma_regularizer": null, "beta_regularizer": null, "gamma_initializer": {"config": {}, "class_name": "Ones"}, "beta_constraint": null, "dtype": "float32", "beta_initializer": {"config": {}, "class_name": "Zeros"}, "moving_variance_initializer": {"config": {}, "class_name": "Ones"}, "epsilon": 0.001, "axis": [3]}, "class_name": "BatchNormalization", "inbound_nodes": [[["conv2d_198", 0, 0, {}]]], "name": "batch_normalization_198"}, {"config": {"name": "activation_195", "activation": "relu", "dtype": "float32", "trainable": true}, "class_name": "Activation", "inbound_nodes": [[["batch_normalization_195", 0, 0, {}]]], "name": "activation_195"}, {"config": {"name": "activation_198", "activation": "relu", "dtype": "float32", "trainable": true}, "class_name": "Activation", "inbound_nodes": [[["batch_normalization_198", 0, 0, {}]]], "name": "activation_198"}, {"config": {"dtype": "float32", "name": "block8_9_mixed", "axis": 3, "trainable": true}, "class_name": "Concatenate", "inbound_nodes": [[["activation_195", 0, 0, {}], ["activation_198", 0, 0, {}]]], "name": "block8_9_mixed"}, {"config": {"bias_regularizer": null, "padding": "same", "activity_regularizer": null, "kernel_initializer": {"config": {"seed": null}, "class_name": "GlorotUniform"}, "trainable": true, "filters": 2080, "name": "block8_9_conv", "data_format": "channels_last", "kernel_regularizer": null, "dilation_rate": [1, 1], "strides": [1, 1], "dtype": "float32", "kernel_size": [1, 1], "bias_initializer": {"config": {}, "class_name": "Zeros"}, "bias_constraint": null, "activation": "linear", "kernel_constraint": null, "use_bias": true}, "class_name": "Conv2D", "inbound_nodes": [[["block8_9_mixed", 0, 0, {}]]], "name": "block8_9_conv"}, {"config": {"function": ["4wIAAAAAAAAAAgAAAAMAAABTAAAAcxQAAAB8AABkAQAZfAAAZAIAGXwBABQXUykDTukAAAAA6QEA\nAACpACkC2gZpbnB1dHPaBXNjYWxlcgMAAAByAwAAAPpxQzovVXNlcnMva3oxOTkvQXBwRGF0YS9M\nb2NhbC9Qcm9ncmFtcy9QeXRob24vUHl0aG9uMzUvbGliL3NpdGUtcGFja2FnZXMva2VyYXNfYXBw\nbGljYXRpb25zL2luY2VwdGlvbl9yZXNuZXRfdjIucHnaCDxsYW1iZGE+qAAAAPMAAAAA\n", null, null], "function_type": "lambda", "dtype": "float32", "trainable": true, "output_shape": [6, 6, 2080], "name": "block8_9", "arguments": {"scale": 0.2}, "output_shape_type": "raw", "output_shape_module": null, "module": "keras_applications.inception_resnet_v2"}, "class_name": "Lambda", "inbound_nodes": [[["block8_8_ac", 0, 0, {}], ["block8_9_conv", 0, 0, {}]]], "name": "block8_9"}, {"config": {"name": "block8_9_ac", "activation": "relu", "dtype": "float32", "trainable": true}, "class_name": "Activation", "inbound_nodes": [[["block8_9", 0, 0, {}]]], "name": "block8_9_ac"}, {"config": {"bias_regularizer": null, "padding": "same", "activity_regularizer": null, "kernel_initializer": {"config": {"seed": null}, "class_name": "GlorotUniform"}, "trainable": true, "filters": 192, "name": "conv2d_200", "data_format": "channels_last", "kernel_regularizer": null, "dilation_rate": [1, 1], "strides": [1, 1], "dtype": "float32", "kernel_size": [1, 1], "bias_initializer": {"config": {}, "class_name": "Zeros"}, "bias_constraint": null, "activation": "linear", "kernel_constraint": null, "use_bias": false}, "class_name": "Conv2D", "inbound_nodes": [[["block8_9_ac", 0, 0, {}]]], "name": "conv2d_200"}, {"config": {"center": true, "momentum": 0.99, "scale": false, "moving_mean_initializer": {"config": {}, "class_name": "Zeros"}, "trainable": true, "gamma_constraint": null, "name": "batch_normalization_200", "gamma_regularizer": null, "beta_regularizer": null, "gamma_initializer": {"config": {}, "class_name": "Ones"}, "beta_constraint": null, "dtype": "float32", "beta_initializer": {"config": {}, "class_name": "Zeros"}, "moving_variance_initializer": {"config": {}, "class_name": "Ones"}, "epsilon": 0.001, "axis": [3]}, "class_name": "BatchNormalization", "inbound_nodes": [[["conv2d_200", 0, 0, {}]]], "name": "batch_normalization_200"}, {"config": {"name": "activation_200", "activation": "relu", "dtype": "float32", "trainable": true}, "class_name": "Activation", "inbound_nodes": [[["batch_normalization_200", 0, 0, {}]]], "name": "activation_200"}, {"config": {"bias_regularizer": null, "padding": "same", "activity_regularizer": null, "kernel_initializer": {"config": {"seed": null}, "class_name": "GlorotUniform"}, "trainable": true, "filters": 224, "name": "conv2d_201", "data_format": "channels_last", "kernel_regularizer": null, "dilation_rate": [1, 1], "strides": [1, 1], "dtype": "float32", "kernel_size": [1, 3], "bias_initializer": {"config": {}, "class_name": "Zeros"}, "bias_constraint": null, "activation": "linear", "kernel_constraint": null, "use_bias": false}, "class_name": "Conv2D", "inbound_nodes": [[["activation_200", 0, 0, {}]]], "name": "conv2d_201"}, {"config": {"center": true, "momentum": 0.99, "scale": false, "moving_mean_initializer": {"config": {}, "class_name": "Zeros"}, "trainable": true, "gamma_constraint": null, "name": "batch_normalization_201", "gamma_regularizer": null, "beta_regularizer": null, "gamma_initializer": {"config": {}, "class_name": "Ones"}, "beta_constraint": null, "dtype": "float32", "beta_initializer": {"config": {}, "class_name": "Zeros"}, "moving_variance_initializer": {"config": {}, "class_name": "Ones"}, "epsilon": 0.001, "axis": [3]}, "class_name": "BatchNormalization", "inbound_nodes": [[["conv2d_201", 0, 0, {}]]], "name": "batch_normalization_201"}, {"config": {"name": "activation_201", "activation": "relu", "dtype": "float32", "trainable": true}, "class_name": "Activation", "inbound_nodes": [[["batch_normalization_201", 0, 0, {}]]], "name": "activation_201"}, {"config": {"bias_regularizer": null, "padding": "same", "activity_regularizer": null, "kernel_initializer": {"config": {"seed": null}, "class_name": "GlorotUniform"}, "trainable": true, "filters": 192, "name": "conv2d_199", "data_format": "channels_last", "kernel_regularizer": null, "dilation_rate": [1, 1], "strides": [1, 1], "dtype": "float32", "kernel_size": [1, 1], "bias_initializer": {"config": {}, "class_name": "Zeros"}, "bias_constraint": null, "activation": "linear", "kernel_constraint": null, "use_bias": false}, "class_name": "Conv2D", "inbound_nodes": [[["block8_9_ac", 0, 0, {}]]], "name": "conv2d_199"}, {"config": {"bias_regularizer": null, "padding": "same", "activity_regularizer": null, "kernel_initializer": {"config": {"seed": null}, "class_name": "GlorotUniform"}, "trainable": true, "filters": 256, "name": "conv2d_202", "data_format": "channels_last", "kernel_regularizer": null, "dilation_rate": [1, 1], "strides": [1, 1], "dtype": "float32", "kernel_size": [3, 1], "bias_initializer": {"config": {}, "class_name": "Zeros"}, "bias_constraint": null, "activation": "linear", "kernel_constraint": null, "use_bias": false}, "class_name": "Conv2D", "inbound_nodes": [[["activation_201", 0, 0, {}]]], "name": "conv2d_202"}, {"config": {"center": true, "momentum": 0.99, "scale": false, "moving_mean_initializer": {"config": {}, "class_name": "Zeros"}, "trainable": true, "gamma_constraint": null, "name": "batch_normalization_199", "gamma_regularizer": null, "beta_regularizer": null, "gamma_initializer": {"config": {}, "class_name": "Ones"}, "beta_constraint": null, "dtype": "float32", "beta_initializer": {"config": {}, "class_name": "Zeros"}, "moving_variance_initializer": {"config": {}, "class_name": "Ones"}, "epsilon": 0.001, "axis": [3]}, "class_name": "BatchNormalization", "inbound_nodes": [[["conv2d_199", 0, 0, {}]]], "name": "batch_normalization_199"}, {"config": {"center": true, "momentum": 0.99, "scale": false, "moving_mean_initializer": {"config": {}, "class_name": "Zeros"}, "trainable": true, "gamma_constraint": null, "name": "batch_normalization_202", "gamma_regularizer": null, "beta_regularizer": null, "gamma_initializer": {"config": {}, "class_name": "Ones"}, "beta_constraint": null, "dtype": "float32", "beta_initializer": {"config": {}, "class_name": "Zeros"}, "moving_variance_initializer": {"config": {}, "class_name": "Ones"}, "epsilon": 0.001, "axis": [3]}, "class_name": "BatchNormalization", "inbound_nodes": [[["conv2d_202", 0, 0, {}]]], "name": "batch_normalization_202"}, {"config": {"name": "activation_199", "activation": "relu", "dtype": "float32", "trainable": true}, "class_name": "Activation", "inbound_nodes": [[["batch_normalization_199", 0, 0, {}]]], "name": "activation_199"}, {"config": {"name": "activation_202", "activation": "relu", "dtype": "float32", "trainable": true}, "class_name": "Activation", "inbound_nodes": [[["batch_normalization_202", 0, 0, {}]]], "name": "activation_202"}, {"config": {"dtype": "float32", "name": "block8_10_mixed", "axis": 3, "trainable": true}, "class_name": "Concatenate", "inbound_nodes": [[["activation_199", 0, 0, {}], ["activation_202", 0, 0, {}]]], "name": "block8_10_mixed"}, {"config": {"bias_regularizer": null, "padding": "same", "activity_regularizer": null, "kernel_initializer": {"config": {"seed": null}, "class_name": "GlorotUniform"}, "trainable": true, "filters": 2080, "name": "block8_10_conv", "data_format": "channels_last", "kernel_regularizer": null, "dilation_rate": [1, 1], "strides": [1, 1], "dtype": "float32", "kernel_size": [1, 1], "bias_initializer": {"config": {}, "class_name": "Zeros"}, "bias_constraint": null, "activation": "linear", "kernel_constraint": null, "use_bias": true}, "class_name": "Conv2D", "inbound_nodes": [[["block8_10_mixed", 0, 0, {}]]], "name": "block8_10_conv"}, {"config": {"function": ["4wIAAAAAAAAAAgAAAAMAAABTAAAAcxQAAAB8AABkAQAZfAAAZAIAGXwBABQXUykDTukAAAAA6QEA\nAACpACkC2gZpbnB1dHPaBXNjYWxlcgMAAAByAwAAAPpxQzovVXNlcnMva3oxOTkvQXBwRGF0YS9M\nb2NhbC9Qcm9ncmFtcy9QeXRob24vUHl0aG9uMzUvbGliL3NpdGUtcGFja2FnZXMva2VyYXNfYXBw\nbGljYXRpb25zL2luY2VwdGlvbl9yZXNuZXRfdjIucHnaCDxsYW1iZGE+qAAAAPMAAAAA\n", null, null], "function_type": "lambda", "dtype": "float32", "trainable": true, "output_shape": [6, 6, 2080], "name": "block8_10", "arguments": {"scale": 1.0}, "output_shape_type": "raw", "output_shape_module": null, "module": "keras_applications.inception_resnet_v2"}, "class_name": "Lambda", "inbound_nodes": [[["block8_9_ac", 0, 0, {}], ["block8_10_conv", 0, 0, {}]]], "name": "block8_10"}, {"config": {"bias_regularizer": null, "padding": "same", "activity_regularizer": null, "kernel_initializer": {"config": {"seed": null}, "class_name": "GlorotUniform"}, "trainable": true, "filters": 1536, "name": "conv_7b", "data_format": "channels_last", "kernel_regularizer": null, "dilation_rate": [1, 1], "strides": [1, 1], "dtype": "float32", "kernel_size": [1, 1], "bias_initializer": {"config": {}, "class_name": "Zeros"}, "bias_constraint": null, "activation": "linear", "kernel_constraint": null, "use_bias": false}, "class_name": "Conv2D", "inbound_nodes": [[["block8_10", 0, 0, {}]]], "name": "conv_7b"}, {"config": {"center": true, "momentum": 0.99, "scale": false, "moving_mean_initializer": {"config": {}, "class_name": "Zeros"}, "trainable": true, "gamma_constraint": null, "name": "conv_7b_bn", "gamma_regularizer": null, "beta_regularizer": null, "gamma_initializer": {"config": {}, "class_name": "Ones"}, "beta_constraint": null, "dtype": "float32", "beta_initializer": {"config": {}, "class_name": "Zeros"}, "moving_variance_initializer": {"config": {}, "class_name": "Ones"}, "epsilon": 0.001, "axis": [3]}, "class_name": "BatchNormalization", "inbound_nodes": [[["conv_7b", 0, 0, {}]]], "name": "conv_7b_bn"}, {"config": {"name": "conv_7b_ac", "activation": "relu", "dtype": "float32", "trainable": true}, "class_name": "Activation", "inbound_nodes": [[["conv_7b_bn", 0, 0, {}]]], "name": "conv_7b_ac"}], "output_layers": [["conv_7b_ac", 0, 0]], "input_layers": [["input_1", 0, 0]], "batch_input_shape": [null, 256, 256, 3]}, "class_name": "Model"}, {"config": {"rate": 0.3, "name": "dropout", "dtype": "float32", "trainable": true, "noise_shape": null, "seed": null}, "class_name": "Dropout"}, {"config": {"name": "flatten", "data_format": "channels_last", "dtype": "float32", "trainable": true}, "class_name": "Flatten"}, {"config": {"bias_regularizer": null, "activity_regularizer": null, "kernel_initializer": {"config": {"seed": null}, "class_name": "GlorotUniform"}, "trainable": true, "name": "dense", "bias_initializer": {"config": {}, "class_name": "Zeros"}, "kernel_regularizer": null, "units": 512, "dtype": "float32", "bias_constraint": null, "activation": "relu", "kernel_constraint": null, "use_bias": true}, "class_name": "Dense"}, {"config": {"bias_regularizer": null, "activity_regularizer": null, "kernel_initializer": {"config": {"seed": null}, "class_name": "GlorotUniform"}, "trainable": true, "name": "dense_1", "bias_initializer": {"config": {}, "class_name": "Zeros"}, "kernel_regularizer": null, "units": 20, "dtype": "float32", "bias_constraint": null, "activation": "softmax", "kernel_constraint": null, "use_bias": true}, "class_name": "Dense"}]}, "class_name": "Sequential", "keras_version": "2.2.4-tf", "backend": "tensorflow"}