{"config": {"name": "sequential_2", "layers": [{"config": {"name": "inception_resnet_v2", "layers": [{"config": {"name": "input_3", "batch_input_shape": [null, 256, 256, 3], "dtype": "float32", "sparse": false}, "class_name": "InputLayer", "inbound_nodes": [], "name": "input_3"}, {"config": {"bias_regularizer": null, "padding": "valid", "activity_regularizer": null, "kernel_initializer": {"config": {"seed": null}, "class_name": "GlorotUniform"}, "trainable": false, "filters": 32, "name": "conv2d_297", "data_format": "channels_last", "kernel_regularizer": null, "dilation_rate": [1, 1], "strides": [2, 2], "dtype": "float32", "kernel_size": [3, 3], "bias_initializer": {"config": {}, "class_name": "Zeros"}, "bias_constraint": null, "activation": "linear", "kernel_constraint": null, "use_bias": false}, "class_name": "Conv2D", "inbound_nodes": [[["input_3", 0, 0, {}]]], "name": "conv2d_297"}, {"config": {"center": true, "momentum": 0.99, "scale": false, "moving_mean_initializer": {"config": {}, "class_name": "Zeros"}, "trainable": false, "gamma_constraint": null, "name": "batch_normalization_297", "gamma_regularizer": null, "beta_regularizer": null, "gamma_initializer": {"config": {}, "class_name": "Ones"}, "beta_constraint": null, "dtype": "float32", "beta_initializer": {"config": {}, "class_name": "Zeros"}, "moving_variance_initializer": {"config": {}, "class_name": "Ones"}, "epsilon": 0.001, "axis": [3]}, "class_name": "BatchNormalization", "inbound_nodes": [[["conv2d_297", 0, 0, {}]]], "name": "batch_normalization_297"}, {"config": {"name": "activation_297", "activation": "relu", "dtype": "float32", "trainable": false}, "class_name": "Activation", "inbound_nodes": [[["batch_normalization_297", 0, 0, {}]]], "name": "activation_297"}, {"config": {"bias_regularizer": null, "padding": "valid", "activity_regularizer": null, "kernel_initializer": {"config": {"seed": null}, "class_name": "GlorotUniform"}, "trainable": false, "filters": 32, "name": "conv2d_298", "data_format": "channels_last", "kernel_regularizer": null, "dilation_rate": [1, 1], "strides": [1, 1], "dtype": "float32", "kernel_size": [3, 3], "bias_initializer": {"config": {}, "class_name": "Zeros"}, "bias_constraint": null, "activation": "linear", "kernel_constraint": null, "use_bias": false}, "class_name": "Conv2D", "inbound_nodes": [[["activation_297", 0, 0, {}]]], "name": "conv2d_298"}, {"config": {"center": true, "momentum": 0.99, "scale": false, "moving_mean_initializer": {"config": {}, "class_name": "Zeros"}, "trainable": false, "gamma_constraint": null, "name": "batch_normalization_298", "gamma_regularizer": null, "beta_regularizer": null, "gamma_initializer": {"config": {}, "class_name": "Ones"}, "beta_constraint": null, "dtype": "float32", "beta_initializer": {"config": {}, "class_name": "Zeros"}, "moving_variance_initializer": {"config": {}, "class_name": "Ones"}, "epsilon": 0.001, "axis": [3]}, "class_name": "BatchNormalization", "inbound_nodes": [[["conv2d_298", 0, 0, {}]]], "name": "batch_normalization_298"}, {"config": {"name": "activation_298", "activation": "relu", "dtype": "float32", "trainable": false}, "class_name": "Activation", "inbound_nodes": [[["batch_normalization_298", 0, 0, {}]]], "name": "activation_298"}, {"config": {"bias_regularizer": null, "padding": "same", "activity_regularizer": null, "kernel_initializer": {"config": {"seed": null}, "class_name": "GlorotUniform"}, "trainable": false, "filters": 64, "name": "conv2d_299", "data_format": "channels_last", "kernel_regularizer": null, "dilation_rate": [1, 1], "strides": [1, 1], "dtype": "float32", "kernel_size": [3, 3], "bias_initializer": {"config": {}, "class_name": "Zeros"}, "bias_constraint": null, "activation": "linear", "kernel_constraint": null, "use_bias": false}, "class_name": "Conv2D", "inbound_nodes": [[["activation_298", 0, 0, {}]]], "name": "conv2d_299"}, {"config": {"center": true, "momentum": 0.99, "scale": false, "moving_mean_initializer": {"config": {}, "class_name": "Zeros"}, "trainable": false, "gamma_constraint": null, "name": "batch_normalization_299", "gamma_regularizer": null, "beta_regularizer": null, "gamma_initializer": {"config": {}, "class_name": "Ones"}, "beta_constraint": null, "dtype": "float32", "beta_initializer": {"config": {}, "class_name": "Zeros"}, "moving_variance_initializer": {"config": {}, "class_name": "Ones"}, "epsilon": 0.001, "axis": [3]}, "class_name": "BatchNormalization", "inbound_nodes": [[["conv2d_299", 0, 0, {}]]], "name": "batch_normalization_299"}, {"config": {"name": "activation_299", "activation": "relu", "dtype": "float32", "trainable": false}, "class_name": "Activation", "inbound_nodes": [[["batch_normalization_299", 0, 0, {}]]], "name": "activation_299"}, {"config": {"pool_size": [3, 3], "strides": [2, 2], "dtype": "float32", "trainable": true, "name": "max_pooling2d_8", "data_format": "channels_last", "padding": "valid"}, "class_name": "MaxPooling2D", "inbound_nodes": [[["activation_299", 0, 0, {}]]], "name": "max_pooling2d_8"}, {"config": {"bias_regularizer": null, "padding": "valid", "activity_regularizer": null, "kernel_initializer": {"config": {"seed": null}, "class_name": "GlorotUniform"}, "trainable": true, "filters": 80, "name": "conv2d_300", "data_format": "channels_last", "kernel_regularizer": null, "dilation_rate": [1, 1], "strides": [1, 1], "dtype": "float32", "kernel_size": [1, 1], "bias_initializer": {"config": {}, "class_name": "Zeros"}, "bias_constraint": null, "activation": "linear", "kernel_constraint": null, "use_bias": false}, "class_name": "Conv2D", "inbound_nodes": [[["max_pooling2d_8", 0, 0, {}]]], "name": "conv2d_300"}, {"config": {"center": true, "momentum": 0.99, "scale": false, "moving_mean_initializer": {"config": {}, "class_name": "Zeros"}, "trainable": true, "gamma_constraint": null, "name": "batch_normalization_300", "gamma_regularizer": null, "beta_regularizer": null, "gamma_initializer": {"config": {}, "class_name": "Ones"}, "beta_constraint": null, "dtype": "float32", "beta_initializer": {"config": {}, "class_name": "Zeros"}, "moving_variance_initializer": {"config": {}, "class_name": "Ones"}, "epsilon": 0.001, "axis": [3]}, "class_name": "BatchNormalization", "inbound_nodes": [[["conv2d_300", 0, 0, {}]]], "name": "batch_normalization_300"}, {"config": {"name": "activation_300", "activation": "relu", "dtype": "float32", "trainable": true}, "class_name": "Activation", "inbound_nodes": [[["batch_normalization_300", 0, 0, {}]]], "name": "activation_300"}, {"config": {"bias_regularizer": null, "padding": "valid", "activity_regularizer": null, "kernel_initializer": {"config": {"seed": null}, "class_name": "GlorotUniform"}, "trainable": true, "filters": 192, "name": "conv2d_301", "data_format": "channels_last", "kernel_regularizer": null, "dilation_rate": [1, 1], "strides": [1, 1], "dtype": "float32", "kernel_size": [3, 3], "bias_initializer": {"config": {}, "class_name": "Zeros"}, "bias_constraint": null, "activation": "linear", "kernel_constraint": null, "use_bias": false}, "class_name": "Conv2D", "inbound_nodes": [[["activation_300", 0, 0, {}]]], "name": "conv2d_301"}, {"config": {"center": true, "momentum": 0.99, "scale": false, "moving_mean_initializer": {"config": {}, "class_name": "Zeros"}, "trainable": true, "gamma_constraint": null, "name": "batch_normalization_301", "gamma_regularizer": null, "beta_regularizer": null, "gamma_initializer": {"config": {}, "class_name": "Ones"}, "beta_constraint": null, "dtype": "float32", "beta_initializer": {"config": {}, "class_name": "Zeros"}, "moving_variance_initializer": {"config": {}, "class_name": "Ones"}, "epsilon": 0.001, "axis": [3]}, "class_name": "BatchNormalization", "inbound_nodes": [[["conv2d_301", 0, 0, {}]]], "name": "batch_normalization_301"}, {"config": {"name": "activation_301", "activation": "relu", "dtype": "float32", "trainable": true}, "class_name": "Activation", "inbound_nodes": [[["batch_normalization_301", 0, 0, {}]]], "name": "activation_301"}, {"config": {"pool_size": [3, 3], "strides": [2, 2], "dtype": "float32", "trainable": true, "name": "max_pooling2d_9", "data_format": "channels_last", "padding": "valid"}, "class_name": "MaxPooling2D", "inbound_nodes": [[["activation_301", 0, 0, {}]]], "name": "max_pooling2d_9"}, {"config": {"bias_regularizer": null, "padding": "same", "activity_regularizer": null, "kernel_initializer": {"config": {"seed": null}, "class_name": "GlorotUniform"}, "trainable": true, "filters": 64, "name": "conv2d_305", "data_format": "channels_last", "kernel_regularizer": null, "dilation_rate": [1, 1], "strides": [1, 1], "dtype": "float32", "kernel_size": [1, 1], "bias_initializer": {"config": {}, "class_name": "Zeros"}, "bias_constraint": null, "activation": "linear", "kernel_constraint": null, "use_bias": false}, "class_name": "Conv2D", "inbound_nodes": [[["max_pooling2d_9", 0, 0, {}]]], "name": "conv2d_305"}, {"config": {"center": true, "momentum": 0.99, "scale": false, "moving_mean_initializer": {"config": {}, "class_name": "Zeros"}, "trainable": true, "gamma_constraint": null, "name": "batch_normalization_305", "gamma_regularizer": null, "beta_regularizer": null, "gamma_initializer": {"config": {}, "class_name": "Ones"}, "beta_constraint": null, "dtype": "float32", "beta_initializer": {"config": {}, "class_name": "Zeros"}, "moving_variance_initializer": {"config": {}, "class_name": "Ones"}, "epsilon": 0.001, "axis": [3]}, "class_name": "BatchNormalization", "inbound_nodes": [[["conv2d_305", 0, 0, {}]]], "name": "batch_normalization_305"}, {"config": {"name": "activation_305", "activation": "relu", "dtype": "float32", "trainable": true}, "class_name": "Activation", "inbound_nodes": [[["batch_normalization_305", 0, 0, {}]]], "name": "activation_305"}, {"config": {"bias_regularizer": null, "padding": "same", "activity_regularizer": null, "kernel_initializer": {"config": {"seed": null}, "class_name": "GlorotUniform"}, "trainable": true, "filters": 48, "name": "conv2d_303", "data_format": "channels_last", "kernel_regularizer": null, "dilation_rate": [1, 1], "strides": [1, 1], "dtype": "float32", "kernel_size": [1, 1], "bias_initializer": {"config": {}, "class_name": "Zeros"}, "bias_constraint": null, "activation": "linear", "kernel_constraint": null, "use_bias": false}, "class_name": "Conv2D", "inbound_nodes": [[["max_pooling2d_9", 0, 0, {}]]], "name": "conv2d_303"}, {"config": {"bias_regularizer": null, "padding": "same", "activity_regularizer": null, "kernel_initializer": {"config": {"seed": null}, "class_name": "GlorotUniform"}, "trainable": true, "filters": 96, "name": "conv2d_306", "data_format": "channels_last", "kernel_regularizer": null, "dilation_rate": [1, 1], "strides": [1, 1], "dtype": "float32", "kernel_size": [3, 3], "bias_initializer": {"config": {}, "class_name": "Zeros"}, "bias_constraint": null, "activation": "linear", "kernel_constraint": null, "use_bias": false}, "class_name": "Conv2D", "inbound_nodes": [[["activation_305", 0, 0, {}]]], "name": "conv2d_306"}, {"config": {"center": true, "momentum": 0.99, "scale": false, "moving_mean_initializer": {"config": {}, "class_name": "Zeros"}, "trainable": true, "gamma_constraint": null, "name": "batch_normalization_303", "gamma_regularizer": null, "beta_regularizer": null, "gamma_initializer": {"config": {}, "class_name": "Ones"}, "beta_constraint": null, "dtype": "float32", "beta_initializer": {"config": {}, "class_name": "Zeros"}, "moving_variance_initializer": {"config": {}, "class_name": "Ones"}, "epsilon": 0.001, "axis": [3]}, "class_name": "BatchNormalization", "inbound_nodes": [[["conv2d_303", 0, 0, {}]]], "name": "batch_normalization_303"}, {"config": {"center": true, "momentum": 0.99, "scale": false, "moving_mean_initializer": {"config": {}, "class_name": "Zeros"}, "trainable": true, "gamma_constraint": null, "name": "batch_normalization_306", "gamma_regularizer": null, "beta_regularizer": null, "gamma_initializer": {"config": {}, "class_name": "Ones"}, "beta_constraint": null, "dtype": "float32", "beta_initializer": {"config": {}, "class_name": "Zeros"}, "moving_variance_initializer": {"config": {}, "class_name": "Ones"}, "epsilon": 0.001, "axis": [3]}, "class_name": "BatchNormalization", "inbound_nodes": [[["conv2d_306", 0, 0, {}]]], "name": "batch_normalization_306"}, {"config": {"name": "activation_303", "activation": "relu", "dtype": "float32", "trainable": true}, "class_name": "Activation", "inbound_nodes": [[["batch_normalization_303", 0, 0, {}]]], "name": "activation_303"}, {"config": {"name": "activation_306", "activation": "relu", "dtype": "float32", "trainable": true}, "class_name": "Activation", "inbound_nodes": [[["batch_normalization_306", 0, 0, {}]]], "name": "activation_306"}, {"config": {"pool_size": [3, 3], "strides": [1, 1], "dtype": "float32", "trainable": true, "name": "average_pooling2d_10", "data_format": "channels_last", "padding": "same"}, "class_name": "AveragePooling2D", "inbound_nodes": [[["max_pooling2d_9", 0, 0, {}]]], "name": "average_pooling2d_10"}, {"config": {"bias_regularizer": null, "padding": "same", "activity_regularizer": null, "kernel_initializer": {"config": {"seed": null}, "class_name": "GlorotUniform"}, "trainable": true, "filters": 96, "name": "conv2d_302", "data_format": "channels_last", "kernel_regularizer": null, "dilation_rate": [1, 1], "strides": [1, 1], "dtype": "float32", "kernel_size": [1, 1], "bias_initializer": {"config": {}, "class_name": "Zeros"}, "bias_constraint": null, "activation": "linear", "kernel_constraint": null, "use_bias": false}, "class_name": "Conv2D", "inbound_nodes": [[["max_pooling2d_9", 0, 0, {}]]], "name": "conv2d_302"}, {"config": {"bias_regularizer": null, "padding": "same", "activity_regularizer": null, "kernel_initializer": {"config": {"seed": null}, "class_name": "GlorotUniform"}, "trainable": true, "filters": 64, "name": "conv2d_304", "data_format": "channels_last", "kernel_regularizer": null, "dilation_rate": [1, 1], "strides": [1, 1], "dtype": "float32", "kernel_size": [5, 5], "bias_initializer": {"config": {}, "class_name": "Zeros"}, "bias_constraint": null, "activation": "linear", "kernel_constraint": null, "use_bias": false}, "class_name": "Conv2D", "inbound_nodes": [[["activation_303", 0, 0, {}]]], "name": "conv2d_304"}, {"config": {"bias_regularizer": null, "padding": "same", "activity_regularizer": null, "kernel_initializer": {"config": {"seed": null}, "class_name": "GlorotUniform"}, "trainable": true, "filters": 96, "name": "conv2d_307", "data_format": "channels_last", "kernel_regularizer": null, "dilation_rate": [1, 1], "strides": [1, 1], "dtype": "float32", "kernel_size": [3, 3], "bias_initializer": {"config": {}, "class_name": "Zeros"}, "bias_constraint": null, "activation": "linear", "kernel_constraint": null, "use_bias": false}, "class_name": "Conv2D", "inbound_nodes": [[["activation_306", 0, 0, {}]]], "name": "conv2d_307"}, {"config": {"bias_regularizer": null, "padding": "same", "activity_regularizer": null, "kernel_initializer": {"config": {"seed": null}, "class_name": "GlorotUniform"}, "trainable": true, "filters": 64, "name": "conv2d_308", "data_format": "channels_last", "kernel_regularizer": null, "dilation_rate": [1, 1], "strides": [1, 1], "dtype": "float32", "kernel_size": [1, 1], "bias_initializer": {"config": {}, "class_name": "Zeros"}, "bias_constraint": null, "activation": "linear", "kernel_constraint": null, "use_bias": false}, "class_name": "Conv2D", "inbound_nodes": [[["average_pooling2d_10", 0, 0, {}]]], "name": "conv2d_308"}, {"config": {"center": true, "momentum": 0.99, "scale": false, "moving_mean_initializer": {"config": {}, "class_name": "Zeros"}, "trainable": true, "gamma_constraint": null, "name": "batch_normalization_302", "gamma_regularizer": null, "beta_regularizer": null, "gamma_initializer": {"config": {}, "class_name": "Ones"}, "beta_constraint": null, "dtype": "float32", "beta_initializer": {"config": {}, "class_name": "Zeros"}, "moving_variance_initializer": {"config": {}, "class_name": "Ones"}, "epsilon": 0.001, "axis": [3]}, "class_name": "BatchNormalization", "inbound_nodes": [[["conv2d_302", 0, 0, {}]]], "name": "batch_normalization_302"}, {"config": {"center": true, "momentum": 0.99, "scale": false, "moving_mean_initializer": {"config": {}, "class_name": "Zeros"}, "trainable": true, "gamma_constraint": null, "name": "batch_normalization_304", "gamma_regularizer": null, "beta_regularizer": null, "gamma_initializer": {"config": {}, "class_name": "Ones"}, "beta_constraint": null, "dtype": "float32", "beta_initializer": {"config": {}, "class_name": "Zeros"}, "moving_variance_initializer": {"config": {}, "class_name": "Ones"}, "epsilon": 0.001, "axis": [3]}, "class_name": "BatchNormalization", "inbound_nodes": [[["conv2d_304", 0, 0, {}]]], "name": "batch_normalization_304"}, {"config": {"center": true, "momentum": 0.99, "scale": false, "moving_mean_initializer": {"config": {}, "class_name": "Zeros"}, "trainable": true, "gamma_constraint": null, "name": "batch_normalization_307", "gamma_regularizer": null, "beta_regularizer": null, "gamma_initializer": {"config": {}, "class_name": "Ones"}, "beta_constraint": null, "dtype": "float32", "beta_initializer": {"config": {}, "class_name": "Zeros"}, "moving_variance_initializer": {"config": {}, "class_name": "Ones"}, "epsilon": 0.001, "axis": [3]}, "class_name": "BatchNormalization", "inbound_nodes": [[["conv2d_307", 0, 0, {}]]], "name": "batch_normalization_307"}, {"config": {"center": true, "momentum": 0.99, "scale": false, "moving_mean_initializer": {"config": {}, "class_name": "Zeros"}, "trainable": true, "gamma_constraint": null, "name": "batch_normalization_308", "gamma_regularizer": null, "beta_regularizer": null, "gamma_initializer": {"config": {}, "class_name": "Ones"}, "beta_constraint": null, "dtype": "float32", "beta_initializer": {"config": {}, "class_name": "Zeros"}, "moving_variance_initializer": {"config": {}, "class_name": "Ones"}, "epsilon": 0.001, "axis": [3]}, "class_name": "BatchNormalization", "inbound_nodes": [[["conv2d_308", 0, 0, {}]]], "name": "batch_normalization_308"}, {"config": {"name": "activation_302", "activation": "relu", "dtype": "float32", "trainable": true}, "class_name": "Activation", "inbound_nodes": [[["batch_normalization_302", 0, 0, {}]]], "name": "activation_302"}, {"config": {"name": "activation_304", "activation": "relu", "dtype": "float32", "trainable": true}, "class_name": "Activation", "inbound_nodes": [[["batch_normalization_304", 0, 0, {}]]], "name": "activation_304"}, {"config": {"name": "activation_307", "activation": "relu", "dtype": "float32", "trainable": true}, "class_name": "Activation", "inbound_nodes": [[["batch_normalization_307", 0, 0, {}]]], "name": "activation_307"}, {"config": {"name": "activation_308", "activation": "relu", "dtype": "float32", "trainable": true}, "class_name": "Activation", "inbound_nodes": [[["batch_normalization_308", 0, 0, {}]]], "name": "activation_308"}, {"config": {"dtype": "float32", "name": "mixed_5b", "axis": 3, "trainable": true}, "class_name": "Concatenate", "inbound_nodes": [[["activation_302", 0, 0, {}], ["activation_304", 0, 0, {}], ["activation_307", 0, 0, {}], ["activation_308", 0, 0, {}]]], "name": "mixed_5b"}, {"config": {"bias_regularizer": null, "padding": "same", "activity_regularizer": null, "kernel_initializer": {"config": {"seed": null}, "class_name": "GlorotUniform"}, "trainable": true, "filters": 32, "name": "conv2d_312", "data_format": "channels_last", "kernel_regularizer": null, "dilation_rate": [1, 1], "strides": [1, 1], "dtype": "float32", "kernel_size": [1, 1], "bias_initializer": {"config": {}, "class_name": "Zeros"}, "bias_constraint": null, "activation": "linear", "kernel_constraint": null, "use_bias": false}, "class_name": "Conv2D", "inbound_nodes": [[["mixed_5b", 0, 0, {}]]], "name": "conv2d_312"}, {"config": {"center": true, "momentum": 0.99, "scale": false, "moving_mean_initializer": {"config": {}, "class_name": "Zeros"}, "trainable": true, "gamma_constraint": null, "name": "batch_normalization_312", "gamma_regularizer": null, "beta_regularizer": null, "gamma_initializer": {"config": {}, "class_name": "Ones"}, "beta_constraint": null, "dtype": "float32", "beta_initializer": {"config": {}, "class_name": "Zeros"}, "moving_variance_initializer": {"config": {}, "class_name": "Ones"}, "epsilon": 0.001, "axis": [3]}, "class_name": "BatchNormalization", "inbound_nodes": [[["conv2d_312", 0, 0, {}]]], "name": "batch_normalization_312"}, {"config": {"name": "activation_312", "activation": "relu", "dtype": "float32", "trainable": true}, "class_name": "Activation", "inbound_nodes": [[["batch_normalization_312", 0, 0, {}]]], "name": "activation_312"}, {"config": {"bias_regularizer": null, "padding": "same", "activity_regularizer": null, "kernel_initializer": {"config": {"seed": null}, "class_name": "GlorotUniform"}, "trainable": true, "filters": 32, "name": "conv2d_310", "data_format": "channels_last", "kernel_regularizer": null, "dilation_rate": [1, 1], "strides": [1, 1], "dtype": "float32", "kernel_size": [1, 1], "bias_initializer": {"config": {}, "class_name": "Zeros"}, "bias_constraint": null, "activation": "linear", "kernel_constraint": null, "use_bias": false}, "class_name": "Conv2D", "inbound_nodes": [[["mixed_5b", 0, 0, {}]]], "name": "conv2d_310"}, {"config": {"bias_regularizer": null, "padding": "same", "activity_regularizer": null, "kernel_initializer": {"config": {"seed": null}, "class_name": "GlorotUniform"}, "trainable": true, "filters": 48, "name": "conv2d_313", "data_format": "channels_last", "kernel_regularizer": null, "dilation_rate": [1, 1], "strides": [1, 1], "dtype": "float32", "kernel_size": [3, 3], "bias_initializer": {"config": {}, "class_name": "Zeros"}, "bias_constraint": null, "activation": "linear", "kernel_constraint": null, "use_bias": false}, "class_name": "Conv2D", "inbound_nodes": [[["activation_312", 0, 0, {}]]], "name": "conv2d_313"}, {"config": {"center": true, "momentum": 0.99, "scale": false, "moving_mean_initializer": {"config": {}, "class_name": "Zeros"}, "trainable": true, "gamma_constraint": null, "name": "batch_normalization_310", "gamma_regularizer": null, "beta_regularizer": null, "gamma_initializer": {"config": {}, "class_name": "Ones"}, "beta_constraint": null, "dtype": "float32", "beta_initializer": {"config": {}, "class_name": "Zeros"}, "moving_variance_initializer": {"config": {}, "class_name": "Ones"}, "epsilon": 0.001, "axis": [3]}, "class_name": "BatchNormalization", "inbound_nodes": [[["conv2d_310", 0, 0, {}]]], "name": "batch_normalization_310"}, {"config": {"center": true, "momentum": 0.99, "scale": false, "moving_mean_initializer": {"config": {}, "class_name": "Zeros"}, "trainable": true, "gamma_constraint": null, "name": "batch_normalization_313", "gamma_regularizer": null, "beta_regularizer": null, "gamma_initializer": {"config": {}, "class_name": "Ones"}, "beta_constraint": null, "dtype": "float32", "beta_initializer": {"config": {}, "class_name": "Zeros"}, "moving_variance_initializer": {"config": {}, "class_name": "Ones"}, "epsilon": 0.001, "axis": [3]}, "class_name": "BatchNormalization", "inbound_nodes": [[["conv2d_313", 0, 0, {}]]], "name": "batch_normalization_313"}, {"config": {"name": "activation_310", "activation": "relu", "dtype": "float32", "trainable": true}, "class_name": "Activation", "inbound_nodes": [[["batch_normalization_310", 0, 0, {}]]], "name": "activation_310"}, {"config": {"name": "activation_313", "activation": "relu", "dtype": "float32", "trainable": true}, "class_name": "Activation", "inbound_nodes": [[["batch_normalization_313", 0, 0, {}]]], "name": "activation_313"}, {"config": {"bias_regularizer": null, "padding": "same", "activity_regularizer": null, "kernel_initializer": {"config": {"seed": null}, "class_name": "GlorotUniform"}, "trainable": true, "filters": 32, "name": "conv2d_309", "data_format": "channels_last", "kernel_regularizer": null, "dilation_rate": [1, 1], "strides": [1, 1], "dtype": "float32", "kernel_size": [1, 1], "bias_initializer": {"config": {}, "class_name": "Zeros"}, "bias_constraint": null, "activation": "linear", "kernel_constraint": null, "use_bias": false}, "class_name": "Conv2D", "inbound_nodes": [[["mixed_5b", 0, 0, {}]]], "name": "conv2d_309"}, {"config": {"bias_regularizer": null, "padding": "same", "activity_regularizer": null, "kernel_initializer": {"config": {"seed": null}, "class_name": "GlorotUniform"}, "trainable": true, "filters": 32, "name": "conv2d_311", "data_format": "channels_last", "kernel_regularizer": null, "dilation_rate": [1, 1], "strides": [1, 1], "dtype": "float32", "kernel_size": [3, 3], "bias_initializer": {"config": {}, "class_name": "Zeros"}, "bias_constraint": null, "activation": "linear", "kernel_constraint": null, "use_bias": false}, "class_name": "Conv2D", "inbound_nodes": [[["activation_310", 0, 0, {}]]], "name": "conv2d_311"}, {"config": {"bias_regularizer": null, "padding": "same", "activity_regularizer": null, "kernel_initializer": {"config": {"seed": null}, "class_name": "GlorotUniform"}, "trainable": true, "filters": 64, "name": "conv2d_314", "data_format": "channels_last", "kernel_regularizer": null, "dilation_rate": [1, 1], "strides": [1, 1], "dtype": "float32", "kernel_size": [3, 3], "bias_initializer": {"config": {}, "class_name": "Zeros"}, "bias_constraint": null, "activation": "linear", "kernel_constraint": null, "use_bias": false}, "class_name": "Conv2D", "inbound_nodes": [[["activation_313", 0, 0, {}]]], "name": "conv2d_314"}, {"config": {"center": true, "momentum": 0.99, "scale": false, "moving_mean_initializer": {"config": {}, "class_name": "Zeros"}, "trainable": true, "gamma_constraint": null, "name": "batch_normalization_309", "gamma_regularizer": null, "beta_regularizer": null, "gamma_initializer": {"config": {}, "class_name": "Ones"}, "beta_constraint": null, "dtype": "float32", "beta_initializer": {"config": {}, "class_name": "Zeros"}, "moving_variance_initializer": {"config": {}, "class_name": "Ones"}, "epsilon": 0.001, "axis": [3]}, "class_name": "BatchNormalization", "inbound_nodes": [[["conv2d_309", 0, 0, {}]]], "name": "batch_normalization_309"}, {"config": {"center": true, "momentum": 0.99, "scale": false, "moving_mean_initializer": {"config": {}, "class_name": "Zeros"}, "trainable": true, "gamma_constraint": null, "name": "batch_normalization_311", "gamma_regularizer": null, "beta_regularizer": null, "gamma_initializer": {"config": {}, "class_name": "Ones"}, "beta_constraint": null, "dtype": "float32", "beta_initializer": {"config": {}, "class_name": "Zeros"}, "moving_variance_initializer": {"config": {}, "class_name": "Ones"}, "epsilon": 0.001, "axis": [3]}, "class_name": "BatchNormalization", "inbound_nodes": [[["conv2d_311", 0, 0, {}]]], "name": "batch_normalization_311"}, {"config": {"center": true, "momentum": 0.99, "scale": false, "moving_mean_initializer": {"config": {}, "class_name": "Zeros"}, "trainable": true, "gamma_constraint": null, "name": "batch_normalization_314", "gamma_regularizer": null, "beta_regularizer": null, "gamma_initializer": {"config": {}, "class_name": "Ones"}, "beta_constraint": null, "dtype": "float32", "beta_initializer": {"config": {}, "class_name": "Zeros"}, "moving_variance_initializer": {"config": {}, "class_name": "Ones"}, "epsilon": 0.001, "axis": [3]}, "class_name": "BatchNormalization", "inbound_nodes": [[["conv2d_314", 0, 0, {}]]], "name": "batch_normalization_314"}, {"config": {"name": "activation_309", "activation": "relu", "dtype": "float32", "trainable": true}, "class_name": "Activation", "inbound_nodes": [[["batch_normalization_309", 0, 0, {}]]], "name": "activation_309"}, {"config": {"name": "activation_311", "activation": "relu", "dtype": "float32", "trainable": true}, "class_name": "Activation", "inbound_nodes": [[["batch_normalization_311", 0, 0, {}]]], "name": "activation_311"}, {"config": {"name": "activation_314", "activation": "relu", "dtype": "float32", "trainable": true}, "class_name": "Activation", "inbound_nodes": [[["batch_normalization_314", 0, 0, {}]]], "name": "activation_314"}, {"config": {"dtype": "float32", "name": "block35_1_mixed", "axis": 3, "trainable": true}, "class_name": "Concatenate", "inbound_nodes": [[["activation_309", 0, 0, {}], ["activation_311", 0, 0, {}], ["activation_314", 0, 0, {}]]], "name": "block35_1_mixed"}, {"config": {"bias_regularizer": null, "padding": "same", "activity_regularizer": null, "kernel_initializer": {"config": {"seed": null}, "class_name": "GlorotUniform"}, "trainable": true, "filters": 320, "name": "block35_1_conv", "data_format": "channels_last", "kernel_regularizer": null, "dilation_rate": [1, 1], "strides": [1, 1], "dtype": "float32", "kernel_size": [1, 1], "bias_initializer": {"config": {}, "class_name": "Zeros"}, "bias_constraint": null, "activation": "linear", "kernel_constraint": null, "use_bias": true}, "class_name": "Conv2D", "inbound_nodes": [[["block35_1_mixed", 0, 0, {}]]], "name": "block35_1_conv"}, {"config": {"function": ["4wIAAAAAAAAAAgAAAAMAAABTAAAAcxQAAAB8AABkAQAZfAAAZAIAGXwBABQXUykDTukAAAAA6QEA\nAACpACkC2gZpbnB1dHPaBXNjYWxlcgMAAAByAwAAAPpxQzovVXNlcnMva3oxOTkvQXBwRGF0YS9M\nb2NhbC9Qcm9ncmFtcy9QeXRob24vUHl0aG9uMzUvbGliL3NpdGUtcGFja2FnZXMva2VyYXNfYXBw\nbGljYXRpb25zL2luY2VwdGlvbl9yZXNuZXRfdjIucHnaCDxsYW1iZGE+qAAAAPMAAAAA\n", null, null], "function_type": "lambda", "dtype": "float32", "trainable": true, "output_shape": [29, 29, 320], "name": "block35_1", "arguments": {"scale": 0.17}, "output_shape_type": "raw", "output_shape_module": null, "module": "keras_applications.inception_resnet_v2"}, "class_name": "Lambda", "inbound_nodes": [[["mixed_5b", 0, 0, {}], ["block35_1_conv", 0, 0, {}]]], "name": "block35_1"}, {"config": {"name": "block35_1_ac", "activation": "relu", "dtype": "float32", "trainable": true}, "class_name": "Activation", "inbound_nodes": [[["block35_1", 0, 0, {}]]], "name": "block35_1_ac"}, {"config": {"bias_regularizer": null, "padding": "same", "activity_regularizer": null, "kernel_initializer": {"config": {"seed": null}, "class_name": "GlorotUniform"}, "trainable": true, "filters": 32, "name": "conv2d_318", "data_format": "channels_last", "kernel_regularizer": null, "dilation_rate": [1, 1], "strides": [1, 1], "dtype": "float32", "kernel_size": [1, 1], "bias_initializer": {"config": {}, "class_name": "Zeros"}, "bias_constraint": null, "activation": "linear", "kernel_constraint": null, "use_bias": false}, "class_name": "Conv2D", "inbound_nodes": [[["block35_1_ac", 0, 0, {}]]], "name": "conv2d_318"}, {"config": {"center": true, "momentum": 0.99, "scale": false, "moving_mean_initializer": {"config": {}, "class_name": "Zeros"}, "trainable": true, "gamma_constraint": null, "name": "batch_normalization_318", "gamma_regularizer": null, "beta_regularizer": null, "gamma_initializer": {"config": {}, "class_name": "Ones"}, "beta_constraint": null, "dtype": "float32", "beta_initializer": {"config": {}, "class_name": "Zeros"}, "moving_variance_initializer": {"config": {}, "class_name": "Ones"}, "epsilon": 0.001, "axis": [3]}, "class_name": "BatchNormalization", "inbound_nodes": [[["conv2d_318", 0, 0, {}]]], "name": "batch_normalization_318"}, {"config": {"name": "activation_318", "activation": "relu", "dtype": "float32", "trainable": true}, "class_name": "Activation", "inbound_nodes": [[["batch_normalization_318", 0, 0, {}]]], "name": "activation_318"}, {"config": {"bias_regularizer": null, "padding": "same", "activity_regularizer": null, "kernel_initializer": {"config": {"seed": null}, "class_name": "GlorotUniform"}, "trainable": true, "filters": 32, "name": "conv2d_316", "data_format": "channels_last", "kernel_regularizer": null, "dilation_rate": [1, 1], "strides": [1, 1], "dtype": "float32", "kernel_size": [1, 1], "bias_initializer": {"config": {}, "class_name": "Zeros"}, "bias_constraint": null, "activation": "linear", "kernel_constraint": null, "use_bias": false}, "class_name": "Conv2D", "inbound_nodes": [[["block35_1_ac", 0, 0, {}]]], "name": "conv2d_316"}, {"config": {"bias_regularizer": null, "padding": "same", "activity_regularizer": null, "kernel_initializer": {"config": {"seed": null}, "class_name": "GlorotUniform"}, "trainable": true, "filters": 48, "name": "conv2d_319", "data_format": "channels_last", "kernel_regularizer": null, "dilation_rate": [1, 1], "strides": [1, 1], "dtype": "float32", "kernel_size": [3, 3], "bias_initializer": {"config": {}, "class_name": "Zeros"}, "bias_constraint": null, "activation": "linear", "kernel_constraint": null, "use_bias": false}, "class_name": "Conv2D", "inbound_nodes": [[["activation_318", 0, 0, {}]]], "name": "conv2d_319"}, {"config": {"center": true, "momentum": 0.99, "scale": false, "moving_mean_initializer": {"config": {}, "class_name": "Zeros"}, "trainable": true, "gamma_constraint": null, "name": "batch_normalization_316", "gamma_regularizer": null, "beta_regularizer": null, "gamma_initializer": {"config": {}, "class_name": "Ones"}, "beta_constraint": null, "dtype": "float32", "beta_initializer": {"config": {}, "class_name": "Zeros"}, "moving_variance_initializer": {"config": {}, "class_name": "Ones"}, "epsilon": 0.001, "axis": [3]}, "class_name": "BatchNormalization", "inbound_nodes": [[["conv2d_316", 0, 0, {}]]], "name": "batch_normalization_316"}, {"config": {"center": true, "momentum": 0.99, "scale": false, "moving_mean_initializer": {"config": {}, "class_name": "Zeros"}, "trainable": true, "gamma_constraint": null, "name": "batch_normalization_319", "gamma_regularizer": null, "beta_regularizer": null, "gamma_initializer": {"config": {}, "class_name": "Ones"}, "beta_constraint": null, "dtype": "float32", "beta_initializer": {"config": {}, "class_name": "Zeros"}, "moving_variance_initializer": {"config": {}, "class_name": "Ones"}, "epsilon": 0.001, "axis": [3]}, "class_name": "BatchNormalization", "inbound_nodes": [[["conv2d_319", 0, 0, {}]]], "name": "batch_normalization_319"}, {"config": {"name": "activation_316", "activation": "relu", "dtype": "float32", "trainable": true}, "class_name": "Activation", "inbound_nodes": [[["batch_normalization_316", 0, 0, {}]]], "name": "activation_316"}, {"config": {"name": "activation_319", "activation": "relu", "dtype": "float32", "trainable": true}, "class_name": "Activation", "inbound_nodes": [[["batch_normalization_319", 0, 0, {}]]], "name": "activation_319"}, {"config": {"bias_regularizer": null, "padding": "same", "activity_regularizer": null, "kernel_initializer": {"config": {"seed": null}, "class_name": "GlorotUniform"}, "trainable": true, "filters": 32, "name": "conv2d_315", "data_format": "channels_last", "kernel_regularizer": null, "dilation_rate": [1, 1], "strides": [1, 1], "dtype": "float32", "kernel_size": [1, 1], "bias_initializer": {"config": {}, "class_name": "Zeros"}, "bias_constraint": null, "activation": "linear", "kernel_constraint": null, "use_bias": false}, "class_name": "Conv2D", "inbound_nodes": [[["block35_1_ac", 0, 0, {}]]], "name": "conv2d_315"}, {"config": {"bias_regularizer": null, "padding": "same", "activity_regularizer": null, "kernel_initializer": {"config": {"seed": null}, "class_name": "GlorotUniform"}, "trainable": true, "filters": 32, "name": "conv2d_317", "data_format": "channels_last", "kernel_regularizer": null, "dilation_rate": [1, 1], "strides": [1, 1], "dtype": "float32", "kernel_size": [3, 3], "bias_initializer": {"config": {}, "class_name": "Zeros"}, "bias_constraint": null, "activation": "linear", "kernel_constraint": null, "use_bias": false}, "class_name": "Conv2D", "inbound_nodes": [[["activation_316", 0, 0, {}]]], "name": "conv2d_317"}, {"config": {"bias_regularizer": null, "padding": "same", "activity_regularizer": null, "kernel_initializer": {"config": {"seed": null}, "class_name": "GlorotUniform"}, "trainable": true, "filters": 64, "name": "conv2d_320", "data_format": "channels_last", "kernel_regularizer": null, "dilation_rate": [1, 1], "strides": [1, 1], "dtype": "float32", "kernel_size": [3, 3], "bias_initializer": {"config": {}, "class_name": "Zeros"}, "bias_constraint": null, "activation": "linear", "kernel_constraint": null, "use_bias": false}, "class_name": "Conv2D", "inbound_nodes": [[["activation_319", 0, 0, {}]]], "name": "conv2d_320"}, {"config": {"center": true, "momentum": 0.99, "scale": false, "moving_mean_initializer": {"config": {}, "class_name": "Zeros"}, "trainable": true, "gamma_constraint": null, "name": "batch_normalization_315", "gamma_regularizer": null, "beta_regularizer": null, "gamma_initializer": {"config": {}, "class_name": "Ones"}, "beta_constraint": null, "dtype": "float32", "beta_initializer": {"config": {}, "class_name": "Zeros"}, "moving_variance_initializer": {"config": {}, "class_name": "Ones"}, "epsilon": 0.001, "axis": [3]}, "class_name": "BatchNormalization", "inbound_nodes": [[["conv2d_315", 0, 0, {}]]], "name": "batch_normalization_315"}, {"config": {"center": true, "momentum": 0.99, "scale": false, "moving_mean_initializer": {"config": {}, "class_name": "Zeros"}, "trainable": true, "gamma_constraint": null, "name": "batch_normalization_317", "gamma_regularizer": null, "beta_regularizer": null, "gamma_initializer": {"config": {}, "class_name": "Ones"}, "beta_constraint": null, "dtype": "float32", "beta_initializer": {"config": {}, "class_name": "Zeros"}, "moving_variance_initializer": {"config": {}, "class_name": "Ones"}, "epsilon": 0.001, "axis": [3]}, "class_name": "BatchNormalization", "inbound_nodes": [[["conv2d_317", 0, 0, {}]]], "name": "batch_normalization_317"}, {"config": {"center": true, "momentum": 0.99, "scale": false, "moving_mean_initializer": {"config": {}, "class_name": "Zeros"}, "trainable": true, "gamma_constraint": null, "name": "batch_normalization_320", "gamma_regularizer": null, "beta_regularizer": null, "gamma_initializer": {"config": {}, "class_name": "Ones"}, "beta_constraint": null, "dtype": "float32", "beta_initializer": {"config": {}, "class_name": "Zeros"}, "moving_variance_initializer": {"config": {}, "class_name": "Ones"}, "epsilon": 0.001, "axis": [3]}, "class_name": "BatchNormalization", "inbound_nodes": [[["conv2d_320", 0, 0, {}]]], "name": "batch_normalization_320"}, {"config": {"name": "activation_315", "activation": "relu", "dtype": "float32", "trainable": true}, "class_name": "Activation", "inbound_nodes": [[["batch_normalization_315", 0, 0, {}]]], "name": "activation_315"}, {"config": {"name": "activation_317", "activation": "relu", "dtype": "float32", "trainable": true}, "class_name": "Activation", "inbound_nodes": [[["batch_normalization_317", 0, 0, {}]]], "name": "activation_317"}, {"config": {"name": "activation_320", "activation": "relu", "dtype": "float32", "trainable": true}, "class_name": "Activation", "inbound_nodes": [[["batch_normalization_320", 0, 0, {}]]], "name": "activation_320"}, {"config": {"dtype": "float32", "name": "block35_2_mixed", "axis": 3, "trainable": true}, "class_name": "Concatenate", "inbound_nodes": [[["activation_315", 0, 0, {}], ["activation_317", 0, 0, {}], ["activation_320", 0, 0, {}]]], "name": "block35_2_mixed"}, {"config": {"bias_regularizer": null, "padding": "same", "activity_regularizer": null, "kernel_initializer": {"config": {"seed": null}, "class_name": "GlorotUniform"}, "trainable": true, "filters": 320, "name": "block35_2_conv", "data_format": "channels_last", "kernel_regularizer": null, "dilation_rate": [1, 1], "strides": [1, 1], "dtype": "float32", "kernel_size": [1, 1], "bias_initializer": {"config": {}, "class_name": "Zeros"}, "bias_constraint": null, "activation": "linear", "kernel_constraint": null, "use_bias": true}, "class_name": "Conv2D", "inbound_nodes": [[["block35_2_mixed", 0, 0, {}]]], "name": "block35_2_conv"}, {"config": {"function": ["4wIAAAAAAAAAAgAAAAMAAABTAAAAcxQAAAB8AABkAQAZfAAAZAIAGXwBABQXUykDTukAAAAA6QEA\nAACpACkC2gZpbnB1dHPaBXNjYWxlcgMAAAByAwAAAPpxQzovVXNlcnMva3oxOTkvQXBwRGF0YS9M\nb2NhbC9Qcm9ncmFtcy9QeXRob24vUHl0aG9uMzUvbGliL3NpdGUtcGFja2FnZXMva2VyYXNfYXBw\nbGljYXRpb25zL2luY2VwdGlvbl9yZXNuZXRfdjIucHnaCDxsYW1iZGE+qAAAAPMAAAAA\n", null, null], "function_type": "lambda", "dtype": "float32", "trainable": true, "output_shape": [29, 29, 320], "name": "block35_2", "arguments": {"scale": 0.17}, "output_shape_type": "raw", "output_shape_module": null, "module": "keras_applications.inception_resnet_v2"}, "class_name": "Lambda", "inbound_nodes": [[["block35_1_ac", 0, 0, {}], ["block35_2_conv", 0, 0, {}]]], "name": "block35_2"}, {"config": {"name": "block35_2_ac", "activation": "relu", "dtype": "float32", "trainable": true}, "class_name": "Activation", "inbound_nodes": [[["block35_2", 0, 0, {}]]], "name": "block35_2_ac"}, {"config": {"bias_regularizer": null, "padding": "same", "activity_regularizer": null, "kernel_initializer": {"config": {"seed": null}, "class_name": "GlorotUniform"}, "trainable": true, "filters": 32, "name": "conv2d_324", "data_format": "channels_last", "kernel_regularizer": null, "dilation_rate": [1, 1], "strides": [1, 1], "dtype": "float32", "kernel_size": [1, 1], "bias_initializer": {"config": {}, "class_name": "Zeros"}, "bias_constraint": null, "activation": "linear", "kernel_constraint": null, "use_bias": false}, "class_name": "Conv2D", "inbound_nodes": [[["block35_2_ac", 0, 0, {}]]], "name": "conv2d_324"}, {"config": {"center": true, "momentum": 0.99, "scale": false, "moving_mean_initializer": {"config": {}, "class_name": "Zeros"}, "trainable": true, "gamma_constraint": null, "name": "batch_normalization_324", "gamma_regularizer": null, "beta_regularizer": null, "gamma_initializer": {"config": {}, "class_name": "Ones"}, "beta_constraint": null, "dtype": "float32", "beta_initializer": {"config": {}, "class_name": "Zeros"}, "moving_variance_initializer": {"config": {}, "class_name": "Ones"}, "epsilon": 0.001, "axis": [3]}, "class_name": "BatchNormalization", "inbound_nodes": [[["conv2d_324", 0, 0, {}]]], "name": "batch_normalization_324"}, {"config": {"name": "activation_324", "activation": "relu", "dtype": "float32", "trainable": true}, "class_name": "Activation", "inbound_nodes": [[["batch_normalization_324", 0, 0, {}]]], "name": "activation_324"}, {"config": {"bias_regularizer": null, "padding": "same", "activity_regularizer": null, "kernel_initializer": {"config": {"seed": null}, "class_name": "GlorotUniform"}, "trainable": true, "filters": 32, "name": "conv2d_322", "data_format": "channels_last", "kernel_regularizer": null, "dilation_rate": [1, 1], "strides": [1, 1], "dtype": "float32", "kernel_size": [1, 1], "bias_initializer": {"config": {}, "class_name": "Zeros"}, "bias_constraint": null, "activation": "linear", "kernel_constraint": null, "use_bias": false}, "class_name": "Conv2D", "inbound_nodes": [[["block35_2_ac", 0, 0, {}]]], "name": "conv2d_322"}, {"config": {"bias_regularizer": null, "padding": "same", "activity_regularizer": null, "kernel_initializer": {"config": {"seed": null}, "class_name": "GlorotUniform"}, "trainable": true, "filters": 48, "name": "conv2d_325", "data_format": "channels_last", "kernel_regularizer": null, "dilation_rate": [1, 1], "strides": [1, 1], "dtype": "float32", "kernel_size": [3, 3], "bias_initializer": {"config": {}, "class_name": "Zeros"}, "bias_constraint": null, "activation": "linear", "kernel_constraint": null, "use_bias": false}, "class_name": "Conv2D", "inbound_nodes": [[["activation_324", 0, 0, {}]]], "name": "conv2d_325"}, {"config": {"center": true, "momentum": 0.99, "scale": false, "moving_mean_initializer": {"config": {}, "class_name": "Zeros"}, "trainable": true, "gamma_constraint": null, "name": "batch_normalization_322", "gamma_regularizer": null, "beta_regularizer": null, "gamma_initializer": {"config": {}, "class_name": "Ones"}, "beta_constraint": null, "dtype": "float32", "beta_initializer": {"config": {}, "class_name": "Zeros"}, "moving_variance_initializer": {"config": {}, "class_name": "Ones"}, "epsilon": 0.001, "axis": [3]}, "class_name": "BatchNormalization", "inbound_nodes": [[["conv2d_322", 0, 0, {}]]], "name": "batch_normalization_322"}, {"config": {"center": true, "momentum": 0.99, "scale": false, "moving_mean_initializer": {"config": {}, "class_name": "Zeros"}, "trainable": true, "gamma_constraint": null, "name": "batch_normalization_325", "gamma_regularizer": null, "beta_regularizer": null, "gamma_initializer": {"config": {}, "class_name": "Ones"}, "beta_constraint": null, "dtype": "float32", "beta_initializer": {"config": {}, "class_name": "Zeros"}, "moving_variance_initializer": {"config": {}, "class_name": "Ones"}, "epsilon": 0.001, "axis": [3]}, "class_name": "BatchNormalization", "inbound_nodes": [[["conv2d_325", 0, 0, {}]]], "name": "batch_normalization_325"}, {"config": {"name": "activation_322", "activation": "relu", "dtype": "float32", "trainable": true}, "class_name": "Activation", "inbound_nodes": [[["batch_normalization_322", 0, 0, {}]]], "name": "activation_322"}, {"config": {"name": "activation_325", "activation": "relu", "dtype": "float32", "trainable": true}, "class_name": "Activation", "inbound_nodes": [[["batch_normalization_325", 0, 0, {}]]], "name": "activation_325"}, {"config": {"bias_regularizer": null, "padding": "same", "activity_regularizer": null, "kernel_initializer": {"config": {"seed": null}, "class_name": "GlorotUniform"}, "trainable": true, "filters": 32, "name": "conv2d_321", "data_format": "channels_last", "kernel_regularizer": null, "dilation_rate": [1, 1], "strides": [1, 1], "dtype": "float32", "kernel_size": [1, 1], "bias_initializer": {"config": {}, "class_name": "Zeros"}, "bias_constraint": null, "activation": "linear", "kernel_constraint": null, "use_bias": false}, "class_name": "Conv2D", "inbound_nodes": [[["block35_2_ac", 0, 0, {}]]], "name": "conv2d_321"}, {"config": {"bias_regularizer": null, "padding": "same", "activity_regularizer": null, "kernel_initializer": {"config": {"seed": null}, "class_name": "GlorotUniform"}, "trainable": true, "filters": 32, "name": "conv2d_323", "data_format": "channels_last", "kernel_regularizer": null, "dilation_rate": [1, 1], "strides": [1, 1], "dtype": "float32", "kernel_size": [3, 3], "bias_initializer": {"config": {}, "class_name": "Zeros"}, "bias_constraint": null, "activation": "linear", "kernel_constraint": null, "use_bias": false}, "class_name": "Conv2D", "inbound_nodes": [[["activation_322", 0, 0, {}]]], "name": "conv2d_323"}, {"config": {"bias_regularizer": null, "padding": "same", "activity_regularizer": null, "kernel_initializer": {"config": {"seed": null}, "class_name": "GlorotUniform"}, "trainable": true, "filters": 64, "name": "conv2d_326", "data_format": "channels_last", "kernel_regularizer": null, "dilation_rate": [1, 1], "strides": [1, 1], "dtype": "float32", "kernel_size": [3, 3], "bias_initializer": {"config": {}, "class_name": "Zeros"}, "bias_constraint": null, "activation": "linear", "kernel_constraint": null, "use_bias": false}, "class_name": "Conv2D", "inbound_nodes": [[["activation_325", 0, 0, {}]]], "name": "conv2d_326"}, {"config": {"center": true, "momentum": 0.99, "scale": false, "moving_mean_initializer": {"config": {}, "class_name": "Zeros"}, "trainable": true, "gamma_constraint": null, "name": "batch_normalization_321", "gamma_regularizer": null, "beta_regularizer": null, "gamma_initializer": {"config": {}, "class_name": "Ones"}, "beta_constraint": null, "dtype": "float32", "beta_initializer": {"config": {}, "class_name": "Zeros"}, "moving_variance_initializer": {"config": {}, "class_name": "Ones"}, "epsilon": 0.001, "axis": [3]}, "class_name": "BatchNormalization", "inbound_nodes": [[["conv2d_321", 0, 0, {}]]], "name": "batch_normalization_321"}, {"config": {"center": true, "momentum": 0.99, "scale": false, "moving_mean_initializer": {"config": {}, "class_name": "Zeros"}, "trainable": true, "gamma_constraint": null, "name": "batch_normalization_323", "gamma_regularizer": null, "beta_regularizer": null, "gamma_initializer": {"config": {}, "class_name": "Ones"}, "beta_constraint": null, "dtype": "float32", "beta_initializer": {"config": {}, "class_name": "Zeros"}, "moving_variance_initializer": {"config": {}, "class_name": "Ones"}, "epsilon": 0.001, "axis": [3]}, "class_name": "BatchNormalization", "inbound_nodes": [[["conv2d_323", 0, 0, {}]]], "name": "batch_normalization_323"}, {"config": {"center": true, "momentum": 0.99, "scale": false, "moving_mean_initializer": {"config": {}, "class_name": "Zeros"}, "trainable": true, "gamma_constraint": null, "name": "batch_normalization_326", "gamma_regularizer": null, "beta_regularizer": null, "gamma_initializer": {"config": {}, "class_name": "Ones"}, "beta_constraint": null, "dtype": "float32", "beta_initializer": {"config": {}, "class_name": "Zeros"}, "moving_variance_initializer": {"config": {}, "class_name": "Ones"}, "epsilon": 0.001, "axis": [3]}, "class_name": "BatchNormalization", "inbound_nodes": [[["conv2d_326", 0, 0, {}]]], "name": "batch_normalization_326"}, {"config": {"name": "activation_321", "activation": "relu", "dtype": "float32", "trainable": true}, "class_name": "Activation", "inbound_nodes": [[["batch_normalization_321", 0, 0, {}]]], "name": "activation_321"}, {"config": {"name": "activation_323", "activation": "relu", "dtype": "float32", "trainable": true}, "class_name": "Activation", "inbound_nodes": [[["batch_normalization_323", 0, 0, {}]]], "name": "activation_323"}, {"config": {"name": "activation_326", "activation": "relu", "dtype": "float32", "trainable": true}, "class_name": "Activation", "inbound_nodes": [[["batch_normalization_326", 0, 0, {}]]], "name": "activation_326"}, {"config": {"dtype": "float32", "name": "block35_3_mixed", "axis": 3, "trainable": true}, "class_name": "Concatenate", "inbound_nodes": [[["activation_321", 0, 0, {}], ["activation_323", 0, 0, {}], ["activation_326", 0, 0, {}]]], "name": "block35_3_mixed"}, {"config": {"bias_regularizer": null, "padding": "same", "activity_regularizer": null, "kernel_initializer": {"config": {"seed": null}, "class_name": "GlorotUniform"}, "trainable": true, "filters": 320, "name": "block35_3_conv", "data_format": "channels_last", "kernel_regularizer": null, "dilation_rate": [1, 1], "strides": [1, 1], "dtype": "float32", "kernel_size": [1, 1], "bias_initializer": {"config": {}, "class_name": "Zeros"}, "bias_constraint": null, "activation": "linear", "kernel_constraint": null, "use_bias": true}, "class_name": "Conv2D", "inbound_nodes": [[["block35_3_mixed", 0, 0, {}]]], "name": "block35_3_conv"}, {"config": {"function": ["4wIAAAAAAAAAAgAAAAMAAABTAAAAcxQAAAB8AABkAQAZfAAAZAIAGXwBABQXUykDTukAAAAA6QEA\nAACpACkC2gZpbnB1dHPaBXNjYWxlcgMAAAByAwAAAPpxQzovVXNlcnMva3oxOTkvQXBwRGF0YS9M\nb2NhbC9Qcm9ncmFtcy9QeXRob24vUHl0aG9uMzUvbGliL3NpdGUtcGFja2FnZXMva2VyYXNfYXBw\nbGljYXRpb25zL2luY2VwdGlvbl9yZXNuZXRfdjIucHnaCDxsYW1iZGE+qAAAAPMAAAAA\n", null, null], "function_type": "lambda", "dtype": "float32", "trainable": true, "output_shape": [29, 29, 320], "name": "block35_3", "arguments": {"scale": 0.17}, "output_shape_type": "raw", "output_shape_module": null, "module": "keras_applications.inception_resnet_v2"}, "class_name": "Lambda", "inbound_nodes": [[["block35_2_ac", 0, 0, {}], ["block35_3_conv", 0, 0, {}]]], "name": "block35_3"}, {"config": {"name": "block35_3_ac", "activation": "relu", "dtype": "float32", "trainable": true}, "class_name": "Activation", "inbound_nodes": [[["block35_3", 0, 0, {}]]], "name": "block35_3_ac"}, {"config": {"bias_regularizer": null, "padding": "same", "activity_regularizer": null, "kernel_initializer": {"config": {"seed": null}, "class_name": "GlorotUniform"}, "trainable": true, "filters": 32, "name": "conv2d_330", "data_format": "channels_last", "kernel_regularizer": null, "dilation_rate": [1, 1], "strides": [1, 1], "dtype": "float32", "kernel_size": [1, 1], "bias_initializer": {"config": {}, "class_name": "Zeros"}, "bias_constraint": null, "activation": "linear", "kernel_constraint": null, "use_bias": false}, "class_name": "Conv2D", "inbound_nodes": [[["block35_3_ac", 0, 0, {}]]], "name": "conv2d_330"}, {"config": {"center": true, "momentum": 0.99, "scale": false, "moving_mean_initializer": {"config": {}, "class_name": "Zeros"}, "trainable": true, "gamma_constraint": null, "name": "batch_normalization_330", "gamma_regularizer": null, "beta_regularizer": null, "gamma_initializer": {"config": {}, "class_name": "Ones"}, "beta_constraint": null, "dtype": "float32", "beta_initializer": {"config": {}, "class_name": "Zeros"}, "moving_variance_initializer": {"config": {}, "class_name": "Ones"}, "epsilon": 0.001, "axis": [3]}, "class_name": "BatchNormalization", "inbound_nodes": [[["conv2d_330", 0, 0, {}]]], "name": "batch_normalization_330"}, {"config": {"name": "activation_330", "activation": "relu", "dtype": "float32", "trainable": true}, "class_name": "Activation", "inbound_nodes": [[["batch_normalization_330", 0, 0, {}]]], "name": "activation_330"}, {"config": {"bias_regularizer": null, "padding": "same", "activity_regularizer": null, "kernel_initializer": {"config": {"seed": null}, "class_name": "GlorotUniform"}, "trainable": true, "filters": 32, "name": "conv2d_328", "data_format": "channels_last", "kernel_regularizer": null, "dilation_rate": [1, 1], "strides": [1, 1], "dtype": "float32", "kernel_size": [1, 1], "bias_initializer": {"config": {}, "class_name": "Zeros"}, "bias_constraint": null, "activation": "linear", "kernel_constraint": null, "use_bias": false}, "class_name": "Conv2D", "inbound_nodes": [[["block35_3_ac", 0, 0, {}]]], "name": "conv2d_328"}, {"config": {"bias_regularizer": null, "padding": "same", "activity_regularizer": null, "kernel_initializer": {"config": {"seed": null}, "class_name": "GlorotUniform"}, "trainable": true, "filters": 48, "name": "conv2d_331", "data_format": "channels_last", "kernel_regularizer": null, "dilation_rate": [1, 1], "strides": [1, 1], "dtype": "float32", "kernel_size": [3, 3], "bias_initializer": {"config": {}, "class_name": "Zeros"}, "bias_constraint": null, "activation": "linear", "kernel_constraint": null, "use_bias": false}, "class_name": "Conv2D", "inbound_nodes": [[["activation_330", 0, 0, {}]]], "name": "conv2d_331"}, {"config": {"center": true, "momentum": 0.99, "scale": false, "moving_mean_initializer": {"config": {}, "class_name": "Zeros"}, "trainable": true, "gamma_constraint": null, "name": "batch_normalization_328", "gamma_regularizer": null, "beta_regularizer": null, "gamma_initializer": {"config": {}, "class_name": "Ones"}, "beta_constraint": null, "dtype": "float32", "beta_initializer": {"config": {}, "class_name": "Zeros"}, "moving_variance_initializer": {"config": {}, "class_name": "Ones"}, "epsilon": 0.001, "axis": [3]}, "class_name": "BatchNormalization", "inbound_nodes": [[["conv2d_328", 0, 0, {}]]], "name": "batch_normalization_328"}, {"config": {"center": true, "momentum": 0.99, "scale": false, "moving_mean_initializer": {"config": {}, "class_name": "Zeros"}, "trainable": true, "gamma_constraint": null, "name": "batch_normalization_331", "gamma_regularizer": null, "beta_regularizer": null, "gamma_initializer": {"config": {}, "class_name": "Ones"}, "beta_constraint": null, "dtype": "float32", "beta_initializer": {"config": {}, "class_name": "Zeros"}, "moving_variance_initializer": {"config": {}, "class_name": "Ones"}, "epsilon": 0.001, "axis": [3]}, "class_name": "BatchNormalization", "inbound_nodes": [[["conv2d_331", 0, 0, {}]]], "name": "batch_normalization_331"}, {"config": {"name": "activation_328", "activation": "relu", "dtype": "float32", "trainable": true}, "class_name": "Activation", "inbound_nodes": [[["batch_normalization_328", 0, 0, {}]]], "name": "activation_328"}, {"config": {"name": "activation_331", "activation": "relu", "dtype": "float32", "trainable": true}, "class_name": "Activation", "inbound_nodes": [[["batch_normalization_331", 0, 0, {}]]], "name": "activation_331"}, {"config": {"bias_regularizer": null, "padding": "same", "activity_regularizer": null, "kernel_initializer": {"config": {"seed": null}, "class_name": "GlorotUniform"}, "trainable": true, "filters": 32, "name": "conv2d_327", "data_format": "channels_last", "kernel_regularizer": null, "dilation_rate": [1, 1], "strides": [1, 1], "dtype": "float32", "kernel_size": [1, 1], "bias_initializer": {"config": {}, "class_name": "Zeros"}, "bias_constraint": null, "activation": "linear", "kernel_constraint": null, "use_bias": false}, "class_name": "Conv2D", "inbound_nodes": [[["block35_3_ac", 0, 0, {}]]], "name": "conv2d_327"}, {"config": {"bias_regularizer": null, "padding": "same", "activity_regularizer": null, "kernel_initializer": {"config": {"seed": null}, "class_name": "GlorotUniform"}, "trainable": true, "filters": 32, "name": "conv2d_329", "data_format": "channels_last", "kernel_regularizer": null, "dilation_rate": [1, 1], "strides": [1, 1], "dtype": "float32", "kernel_size": [3, 3], "bias_initializer": {"config": {}, "class_name": "Zeros"}, "bias_constraint": null, "activation": "linear", "kernel_constraint": null, "use_bias": false}, "class_name": "Conv2D", "inbound_nodes": [[["activation_328", 0, 0, {}]]], "name": "conv2d_329"}, {"config": {"bias_regularizer": null, "padding": "same", "activity_regularizer": null, "kernel_initializer": {"config": {"seed": null}, "class_name": "GlorotUniform"}, "trainable": true, "filters": 64, "name": "conv2d_332", "data_format": "channels_last", "kernel_regularizer": null, "dilation_rate": [1, 1], "strides": [1, 1], "dtype": "float32", "kernel_size": [3, 3], "bias_initializer": {"config": {}, "class_name": "Zeros"}, "bias_constraint": null, "activation": "linear", "kernel_constraint": null, "use_bias": false}, "class_name": "Conv2D", "inbound_nodes": [[["activation_331", 0, 0, {}]]], "name": "conv2d_332"}, {"config": {"center": true, "momentum": 0.99, "scale": false, "moving_mean_initializer": {"config": {}, "class_name": "Zeros"}, "trainable": true, "gamma_constraint": null, "name": "batch_normalization_327", "gamma_regularizer": null, "beta_regularizer": null, "gamma_initializer": {"config": {}, "class_name": "Ones"}, "beta_constraint": null, "dtype": "float32", "beta_initializer": {"config": {}, "class_name": "Zeros"}, "moving_variance_initializer": {"config": {}, "class_name": "Ones"}, "epsilon": 0.001, "axis": [3]}, "class_name": "BatchNormalization", "inbound_nodes": [[["conv2d_327", 0, 0, {}]]], "name": "batch_normalization_327"}, {"config": {"center": true, "momentum": 0.99, "scale": false, "moving_mean_initializer": {"config": {}, "class_name": "Zeros"}, "trainable": true, "gamma_constraint": null, "name": "batch_normalization_329", "gamma_regularizer": null, "beta_regularizer": null, "gamma_initializer": {"config": {}, "class_name": "Ones"}, "beta_constraint": null, "dtype": "float32", "beta_initializer": {"config": {}, "class_name": "Zeros"}, "moving_variance_initializer": {"config": {}, "class_name": "Ones"}, "epsilon": 0.001, "axis": [3]}, "class_name": "BatchNormalization", "inbound_nodes": [[["conv2d_329", 0, 0, {}]]], "name": "batch_normalization_329"}, {"config": {"center": true, "momentum": 0.99, "scale": false, "moving_mean_initializer": {"config": {}, "class_name": "Zeros"}, "trainable": true, "gamma_constraint": null, "name": "batch_normalization_332", "gamma_regularizer": null, "beta_regularizer": null, "gamma_initializer": {"config": {}, "class_name": "Ones"}, "beta_constraint": null, "dtype": "float32", "beta_initializer": {"config": {}, "class_name": "Zeros"}, "moving_variance_initializer": {"config": {}, "class_name": "Ones"}, "epsilon": 0.001, "axis": [3]}, "class_name": "BatchNormalization", "inbound_nodes": [[["conv2d_332", 0, 0, {}]]], "name": "batch_normalization_332"}, {"config": {"name": "activation_327", "activation": "relu", "dtype": "float32", "trainable": true}, "class_name": "Activation", "inbound_nodes": [[["batch_normalization_327", 0, 0, {}]]], "name": "activation_327"}, {"config": {"name": "activation_329", "activation": "relu", "dtype": "float32", "trainable": true}, "class_name": "Activation", "inbound_nodes": [[["batch_normalization_329", 0, 0, {}]]], "name": "activation_329"}, {"config": {"name": "activation_332", "activation": "relu", "dtype": "float32", "trainable": true}, "class_name": "Activation", "inbound_nodes": [[["batch_normalization_332", 0, 0, {}]]], "name": "activation_332"}, {"config": {"dtype": "float32", "name": "block35_4_mixed", "axis": 3, "trainable": true}, "class_name": "Concatenate", "inbound_nodes": [[["activation_327", 0, 0, {}], ["activation_329", 0, 0, {}], ["activation_332", 0, 0, {}]]], "name": "block35_4_mixed"}, {"config": {"bias_regularizer": null, "padding": "same", "activity_regularizer": null, "kernel_initializer": {"config": {"seed": null}, "class_name": "GlorotUniform"}, "trainable": true, "filters": 320, "name": "block35_4_conv", "data_format": "channels_last", "kernel_regularizer": null, "dilation_rate": [1, 1], "strides": [1, 1], "dtype": "float32", "kernel_size": [1, 1], "bias_initializer": {"config": {}, "class_name": "Zeros"}, "bias_constraint": null, "activation": "linear", "kernel_constraint": null, "use_bias": true}, "class_name": "Conv2D", "inbound_nodes": [[["block35_4_mixed", 0, 0, {}]]], "name": "block35_4_conv"}, {"config": {"function": ["4wIAAAAAAAAAAgAAAAMAAABTAAAAcxQAAAB8AABkAQAZfAAAZAIAGXwBABQXUykDTukAAAAA6QEA\nAACpACkC2gZpbnB1dHPaBXNjYWxlcgMAAAByAwAAAPpxQzovVXNlcnMva3oxOTkvQXBwRGF0YS9M\nb2NhbC9Qcm9ncmFtcy9QeXRob24vUHl0aG9uMzUvbGliL3NpdGUtcGFja2FnZXMva2VyYXNfYXBw\nbGljYXRpb25zL2luY2VwdGlvbl9yZXNuZXRfdjIucHnaCDxsYW1iZGE+qAAAAPMAAAAA\n", null, null], "function_type": "lambda", "dtype": "float32", "trainable": true, "output_shape": [29, 29, 320], "name": "block35_4", "arguments": {"scale": 0.17}, "output_shape_type": "raw", "output_shape_module": null, "module": "keras_applications.inception_resnet_v2"}, "class_name": "Lambda", "inbound_nodes": [[["block35_3_ac", 0, 0, {}], ["block35_4_conv", 0, 0, {}]]], "name": "block35_4"}, {"config": {"name": "block35_4_ac", "activation": "relu", "dtype": "float32", "trainable": true}, "class_name": "Activation", "inbound_nodes": [[["block35_4", 0, 0, {}]]], "name": "block35_4_ac"}, {"config": {"bias_regularizer": null, "padding": "same", "activity_regularizer": null, "kernel_initializer": {"config": {"seed": null}, "class_name": "GlorotUniform"}, "trainable": true, "filters": 32, "name": "conv2d_336", "data_format": "channels_last", "kernel_regularizer": null, "dilation_rate": [1, 1], "strides": [1, 1], "dtype": "float32", "kernel_size": [1, 1], "bias_initializer": {"config": {}, "class_name": "Zeros"}, "bias_constraint": null, "activation": "linear", "kernel_constraint": null, "use_bias": false}, "class_name": "Conv2D", "inbound_nodes": [[["block35_4_ac", 0, 0, {}]]], "name": "conv2d_336"}, {"config": {"center": true, "momentum": 0.99, "scale": false, "moving_mean_initializer": {"config": {}, "class_name": "Zeros"}, "trainable": true, "gamma_constraint": null, "name": "batch_normalization_336", "gamma_regularizer": null, "beta_regularizer": null, "gamma_initializer": {"config": {}, "class_name": "Ones"}, "beta_constraint": null, "dtype": "float32", "beta_initializer": {"config": {}, "class_name": "Zeros"}, "moving_variance_initializer": {"config": {}, "class_name": "Ones"}, "epsilon": 0.001, "axis": [3]}, "class_name": "BatchNormalization", "inbound_nodes": [[["conv2d_336", 0, 0, {}]]], "name": "batch_normalization_336"}, {"config": {"name": "activation_336", "activation": "relu", "dtype": "float32", "trainable": true}, "class_name": "Activation", "inbound_nodes": [[["batch_normalization_336", 0, 0, {}]]], "name": "activation_336"}, {"config": {"bias_regularizer": null, "padding": "same", "activity_regularizer": null, "kernel_initializer": {"config": {"seed": null}, "class_name": "GlorotUniform"}, "trainable": true, "filters": 32, "name": "conv2d_334", "data_format": "channels_last", "kernel_regularizer": null, "dilation_rate": [1, 1], "strides": [1, 1], "dtype": "float32", "kernel_size": [1, 1], "bias_initializer": {"config": {}, "class_name": "Zeros"}, "bias_constraint": null, "activation": "linear", "kernel_constraint": null, "use_bias": false}, "class_name": "Conv2D", "inbound_nodes": [[["block35_4_ac", 0, 0, {}]]], "name": "conv2d_334"}, {"config": {"bias_regularizer": null, "padding": "same", "activity_regularizer": null, "kernel_initializer": {"config": {"seed": null}, "class_name": "GlorotUniform"}, "trainable": true, "filters": 48, "name": "conv2d_337", "data_format": "channels_last", "kernel_regularizer": null, "dilation_rate": [1, 1], "strides": [1, 1], "dtype": "float32", "kernel_size": [3, 3], "bias_initializer": {"config": {}, "class_name": "Zeros"}, "bias_constraint": null, "activation": "linear", "kernel_constraint": null, "use_bias": false}, "class_name": "Conv2D", "inbound_nodes": [[["activation_336", 0, 0, {}]]], "name": "conv2d_337"}, {"config": {"center": true, "momentum": 0.99, "scale": false, "moving_mean_initializer": {"config": {}, "class_name": "Zeros"}, "trainable": true, "gamma_constraint": null, "name": "batch_normalization_334", "gamma_regularizer": null, "beta_regularizer": null, "gamma_initializer": {"config": {}, "class_name": "Ones"}, "beta_constraint": null, "dtype": "float32", "beta_initializer": {"config": {}, "class_name": "Zeros"}, "moving_variance_initializer": {"config": {}, "class_name": "Ones"}, "epsilon": 0.001, "axis": [3]}, "class_name": "BatchNormalization", "inbound_nodes": [[["conv2d_334", 0, 0, {}]]], "name": "batch_normalization_334"}, {"config": {"center": true, "momentum": 0.99, "scale": false, "moving_mean_initializer": {"config": {}, "class_name": "Zeros"}, "trainable": true, "gamma_constraint": null, "name": "batch_normalization_337", "gamma_regularizer": null, "beta_regularizer": null, "gamma_initializer": {"config": {}, "class_name": "Ones"}, "beta_constraint": null, "dtype": "float32", "beta_initializer": {"config": {}, "class_name": "Zeros"}, "moving_variance_initializer": {"config": {}, "class_name": "Ones"}, "epsilon": 0.001, "axis": [3]}, "class_name": "BatchNormalization", "inbound_nodes": [[["conv2d_337", 0, 0, {}]]], "name": "batch_normalization_337"}, {"config": {"name": "activation_334", "activation": "relu", "dtype": "float32", "trainable": true}, "class_name": "Activation", "inbound_nodes": [[["batch_normalization_334", 0, 0, {}]]], "name": "activation_334"}, {"config": {"name": "activation_337", "activation": "relu", "dtype": "float32", "trainable": true}, "class_name": "Activation", "inbound_nodes": [[["batch_normalization_337", 0, 0, {}]]], "name": "activation_337"}, {"config": {"bias_regularizer": null, "padding": "same", "activity_regularizer": null, "kernel_initializer": {"config": {"seed": null}, "class_name": "GlorotUniform"}, "trainable": true, "filters": 32, "name": "conv2d_333", "data_format": "channels_last", "kernel_regularizer": null, "dilation_rate": [1, 1], "strides": [1, 1], "dtype": "float32", "kernel_size": [1, 1], "bias_initializer": {"config": {}, "class_name": "Zeros"}, "bias_constraint": null, "activation": "linear", "kernel_constraint": null, "use_bias": false}, "class_name": "Conv2D", "inbound_nodes": [[["block35_4_ac", 0, 0, {}]]], "name": "conv2d_333"}, {"config": {"bias_regularizer": null, "padding": "same", "activity_regularizer": null, "kernel_initializer": {"config": {"seed": null}, "class_name": "GlorotUniform"}, "trainable": true, "filters": 32, "name": "conv2d_335", "data_format": "channels_last", "kernel_regularizer": null, "dilation_rate": [1, 1], "strides": [1, 1], "dtype": "float32", "kernel_size": [3, 3], "bias_initializer": {"config": {}, "class_name": "Zeros"}, "bias_constraint": null, "activation": "linear", "kernel_constraint": null, "use_bias": false}, "class_name": "Conv2D", "inbound_nodes": [[["activation_334", 0, 0, {}]]], "name": "conv2d_335"}, {"config": {"bias_regularizer": null, "padding": "same", "activity_regularizer": null, "kernel_initializer": {"config": {"seed": null}, "class_name": "GlorotUniform"}, "trainable": true, "filters": 64, "name": "conv2d_338", "data_format": "channels_last", "kernel_regularizer": null, "dilation_rate": [1, 1], "strides": [1, 1], "dtype": "float32", "kernel_size": [3, 3], "bias_initializer": {"config": {}, "class_name": "Zeros"}, "bias_constraint": null, "activation": "linear", "kernel_constraint": null, "use_bias": false}, "class_name": "Conv2D", "inbound_nodes": [[["activation_337", 0, 0, {}]]], "name": "conv2d_338"}, {"config": {"center": true, "momentum": 0.99, "scale": false, "moving_mean_initializer": {"config": {}, "class_name": "Zeros"}, "trainable": true, "gamma_constraint": null, "name": "batch_normalization_333", "gamma_regularizer": null, "beta_regularizer": null, "gamma_initializer": {"config": {}, "class_name": "Ones"}, "beta_constraint": null, "dtype": "float32", "beta_initializer": {"config": {}, "class_name": "Zeros"}, "moving_variance_initializer": {"config": {}, "class_name": "Ones"}, "epsilon": 0.001, "axis": [3]}, "class_name": "BatchNormalization", "inbound_nodes": [[["conv2d_333", 0, 0, {}]]], "name": "batch_normalization_333"}, {"config": {"center": true, "momentum": 0.99, "scale": false, "moving_mean_initializer": {"config": {}, "class_name": "Zeros"}, "trainable": true, "gamma_constraint": null, "name": "batch_normalization_335", "gamma_regularizer": null, "beta_regularizer": null, "gamma_initializer": {"config": {}, "class_name": "Ones"}, "beta_constraint": null, "dtype": "float32", "beta_initializer": {"config": {}, "class_name": "Zeros"}, "moving_variance_initializer": {"config": {}, "class_name": "Ones"}, "epsilon": 0.001, "axis": [3]}, "class_name": "BatchNormalization", "inbound_nodes": [[["conv2d_335", 0, 0, {}]]], "name": "batch_normalization_335"}, {"config": {"center": true, "momentum": 0.99, "scale": false, "moving_mean_initializer": {"config": {}, "class_name": "Zeros"}, "trainable": true, "gamma_constraint": null, "name": "batch_normalization_338", "gamma_regularizer": null, "beta_regularizer": null, "gamma_initializer": {"config": {}, "class_name": "Ones"}, "beta_constraint": null, "dtype": "float32", "beta_initializer": {"config": {}, "class_name": "Zeros"}, "moving_variance_initializer": {"config": {}, "class_name": "Ones"}, "epsilon": 0.001, "axis": [3]}, "class_name": "BatchNormalization", "inbound_nodes": [[["conv2d_338", 0, 0, {}]]], "name": "batch_normalization_338"}, {"config": {"name": "activation_333", "activation": "relu", "dtype": "float32", "trainable": true}, "class_name": "Activation", "inbound_nodes": [[["batch_normalization_333", 0, 0, {}]]], "name": "activation_333"}, {"config": {"name": "activation_335", "activation": "relu", "dtype": "float32", "trainable": true}, "class_name": "Activation", "inbound_nodes": [[["batch_normalization_335", 0, 0, {}]]], "name": "activation_335"}, {"config": {"name": "activation_338", "activation": "relu", "dtype": "float32", "trainable": true}, "class_name": "Activation", "inbound_nodes": [[["batch_normalization_338", 0, 0, {}]]], "name": "activation_338"}, {"config": {"dtype": "float32", "name": "block35_5_mixed", "axis": 3, "trainable": true}, "class_name": "Concatenate", "inbound_nodes": [[["activation_333", 0, 0, {}], ["activation_335", 0, 0, {}], ["activation_338", 0, 0, {}]]], "name": "block35_5_mixed"}, {"config": {"bias_regularizer": null, "padding": "same", "activity_regularizer": null, "kernel_initializer": {"config": {"seed": null}, "class_name": "GlorotUniform"}, "trainable": true, "filters": 320, "name": "block35_5_conv", "data_format": "channels_last", "kernel_regularizer": null, "dilation_rate": [1, 1], "strides": [1, 1], "dtype": "float32", "kernel_size": [1, 1], "bias_initializer": {"config": {}, "class_name": "Zeros"}, "bias_constraint": null, "activation": "linear", "kernel_constraint": null, "use_bias": true}, "class_name": "Conv2D", "inbound_nodes": [[["block35_5_mixed", 0, 0, {}]]], "name": "block35_5_conv"}, {"config": {"function": ["4wIAAAAAAAAAAgAAAAMAAABTAAAAcxQAAAB8AABkAQAZfAAAZAIAGXwBABQXUykDTukAAAAA6QEA\nAACpACkC2gZpbnB1dHPaBXNjYWxlcgMAAAByAwAAAPpxQzovVXNlcnMva3oxOTkvQXBwRGF0YS9M\nb2NhbC9Qcm9ncmFtcy9QeXRob24vUHl0aG9uMzUvbGliL3NpdGUtcGFja2FnZXMva2VyYXNfYXBw\nbGljYXRpb25zL2luY2VwdGlvbl9yZXNuZXRfdjIucHnaCDxsYW1iZGE+qAAAAPMAAAAA\n", null, null], "function_type": "lambda", "dtype": "float32", "trainable": true, "output_shape": [29, 29, 320], "name": "block35_5", "arguments": {"scale": 0.17}, "output_shape_type": "raw", "output_shape_module": null, "module": "keras_applications.inception_resnet_v2"}, "class_name": "Lambda", "inbound_nodes": [[["block35_4_ac", 0, 0, {}], ["block35_5_conv", 0, 0, {}]]], "name": "block35_5"}, {"config": {"name": "block35_5_ac", "activation": "relu", "dtype": "float32", "trainable": true}, "class_name": "Activation", "inbound_nodes": [[["block35_5", 0, 0, {}]]], "name": "block35_5_ac"}, {"config": {"bias_regularizer": null, "padding": "same", "activity_regularizer": null, "kernel_initializer": {"config": {"seed": null}, "class_name": "GlorotUniform"}, "trainable": true, "filters": 32, "name": "conv2d_342", "data_format": "channels_last", "kernel_regularizer": null, "dilation_rate": [1, 1], "strides": [1, 1], "dtype": "float32", "kernel_size": [1, 1], "bias_initializer": {"config": {}, "class_name": "Zeros"}, "bias_constraint": null, "activation": "linear", "kernel_constraint": null, "use_bias": false}, "class_name": "Conv2D", "inbound_nodes": [[["block35_5_ac", 0, 0, {}]]], "name": "conv2d_342"}, {"config": {"center": true, "momentum": 0.99, "scale": false, "moving_mean_initializer": {"config": {}, "class_name": "Zeros"}, "trainable": true, "gamma_constraint": null, "name": "batch_normalization_342", "gamma_regularizer": null, "beta_regularizer": null, "gamma_initializer": {"config": {}, "class_name": "Ones"}, "beta_constraint": null, "dtype": "float32", "beta_initializer": {"config": {}, "class_name": "Zeros"}, "moving_variance_initializer": {"config": {}, "class_name": "Ones"}, "epsilon": 0.001, "axis": [3]}, "class_name": "BatchNormalization", "inbound_nodes": [[["conv2d_342", 0, 0, {}]]], "name": "batch_normalization_342"}, {"config": {"name": "activation_342", "activation": "relu", "dtype": "float32", "trainable": true}, "class_name": "Activation", "inbound_nodes": [[["batch_normalization_342", 0, 0, {}]]], "name": "activation_342"}, {"config": {"bias_regularizer": null, "padding": "same", "activity_regularizer": null, "kernel_initializer": {"config": {"seed": null}, "class_name": "GlorotUniform"}, "trainable": true, "filters": 32, "name": "conv2d_340", "data_format": "channels_last", "kernel_regularizer": null, "dilation_rate": [1, 1], "strides": [1, 1], "dtype": "float32", "kernel_size": [1, 1], "bias_initializer": {"config": {}, "class_name": "Zeros"}, "bias_constraint": null, "activation": "linear", "kernel_constraint": null, "use_bias": false}, "class_name": "Conv2D", "inbound_nodes": [[["block35_5_ac", 0, 0, {}]]], "name": "conv2d_340"}, {"config": {"bias_regularizer": null, "padding": "same", "activity_regularizer": null, "kernel_initializer": {"config": {"seed": null}, "class_name": "GlorotUniform"}, "trainable": true, "filters": 48, "name": "conv2d_343", "data_format": "channels_last", "kernel_regularizer": null, "dilation_rate": [1, 1], "strides": [1, 1], "dtype": "float32", "kernel_size": [3, 3], "bias_initializer": {"config": {}, "class_name": "Zeros"}, "bias_constraint": null, "activation": "linear", "kernel_constraint": null, "use_bias": false}, "class_name": "Conv2D", "inbound_nodes": [[["activation_342", 0, 0, {}]]], "name": "conv2d_343"}, {"config": {"center": true, "momentum": 0.99, "scale": false, "moving_mean_initializer": {"config": {}, "class_name": "Zeros"}, "trainable": true, "gamma_constraint": null, "name": "batch_normalization_340", "gamma_regularizer": null, "beta_regularizer": null, "gamma_initializer": {"config": {}, "class_name": "Ones"}, "beta_constraint": null, "dtype": "float32", "beta_initializer": {"config": {}, "class_name": "Zeros"}, "moving_variance_initializer": {"config": {}, "class_name": "Ones"}, "epsilon": 0.001, "axis": [3]}, "class_name": "BatchNormalization", "inbound_nodes": [[["conv2d_340", 0, 0, {}]]], "name": "batch_normalization_340"}, {"config": {"center": true, "momentum": 0.99, "scale": false, "moving_mean_initializer": {"config": {}, "class_name": "Zeros"}, "trainable": true, "gamma_constraint": null, "name": "batch_normalization_343", "gamma_regularizer": null, "beta_regularizer": null, "gamma_initializer": {"config": {}, "class_name": "Ones"}, "beta_constraint": null, "dtype": "float32", "beta_initializer": {"config": {}, "class_name": "Zeros"}, "moving_variance_initializer": {"config": {}, "class_name": "Ones"}, "epsilon": 0.001, "axis": [3]}, "class_name": "BatchNormalization", "inbound_nodes": [[["conv2d_343", 0, 0, {}]]], "name": "batch_normalization_343"}, {"config": {"name": "activation_340", "activation": "relu", "dtype": "float32", "trainable": true}, "class_name": "Activation", "inbound_nodes": [[["batch_normalization_340", 0, 0, {}]]], "name": "activation_340"}, {"config": {"name": "activation_343", "activation": "relu", "dtype": "float32", "trainable": true}, "class_name": "Activation", "inbound_nodes": [[["batch_normalization_343", 0, 0, {}]]], "name": "activation_343"}, {"config": {"bias_regularizer": null, "padding": "same", "activity_regularizer": null, "kernel_initializer": {"config": {"seed": null}, "class_name": "GlorotUniform"}, "trainable": true, "filters": 32, "name": "conv2d_339", "data_format": "channels_last", "kernel_regularizer": null, "dilation_rate": [1, 1], "strides": [1, 1], "dtype": "float32", "kernel_size": [1, 1], "bias_initializer": {"config": {}, "class_name": "Zeros"}, "bias_constraint": null, "activation": "linear", "kernel_constraint": null, "use_bias": false}, "class_name": "Conv2D", "inbound_nodes": [[["block35_5_ac", 0, 0, {}]]], "name": "conv2d_339"}, {"config": {"bias_regularizer": null, "padding": "same", "activity_regularizer": null, "kernel_initializer": {"config": {"seed": null}, "class_name": "GlorotUniform"}, "trainable": true, "filters": 32, "name": "conv2d_341", "data_format": "channels_last", "kernel_regularizer": null, "dilation_rate": [1, 1], "strides": [1, 1], "dtype": "float32", "kernel_size": [3, 3], "bias_initializer": {"config": {}, "class_name": "Zeros"}, "bias_constraint": null, "activation": "linear", "kernel_constraint": null, "use_bias": false}, "class_name": "Conv2D", "inbound_nodes": [[["activation_340", 0, 0, {}]]], "name": "conv2d_341"}, {"config": {"bias_regularizer": null, "padding": "same", "activity_regularizer": null, "kernel_initializer": {"config": {"seed": null}, "class_name": "GlorotUniform"}, "trainable": true, "filters": 64, "name": "conv2d_344", "data_format": "channels_last", "kernel_regularizer": null, "dilation_rate": [1, 1], "strides": [1, 1], "dtype": "float32", "kernel_size": [3, 3], "bias_initializer": {"config": {}, "class_name": "Zeros"}, "bias_constraint": null, "activation": "linear", "kernel_constraint": null, "use_bias": false}, "class_name": "Conv2D", "inbound_nodes": [[["activation_343", 0, 0, {}]]], "name": "conv2d_344"}, {"config": {"center": true, "momentum": 0.99, "scale": false, "moving_mean_initializer": {"config": {}, "class_name": "Zeros"}, "trainable": true, "gamma_constraint": null, "name": "batch_normalization_339", "gamma_regularizer": null, "beta_regularizer": null, "gamma_initializer": {"config": {}, "class_name": "Ones"}, "beta_constraint": null, "dtype": "float32", "beta_initializer": {"config": {}, "class_name": "Zeros"}, "moving_variance_initializer": {"config": {}, "class_name": "Ones"}, "epsilon": 0.001, "axis": [3]}, "class_name": "BatchNormalization", "inbound_nodes": [[["conv2d_339", 0, 0, {}]]], "name": "batch_normalization_339"}, {"config": {"center": true, "momentum": 0.99, "scale": false, "moving_mean_initializer": {"config": {}, "class_name": "Zeros"}, "trainable": true, "gamma_constraint": null, "name": "batch_normalization_341", "gamma_regularizer": null, "beta_regularizer": null, "gamma_initializer": {"config": {}, "class_name": "Ones"}, "beta_constraint": null, "dtype": "float32", "beta_initializer": {"config": {}, "class_name": "Zeros"}, "moving_variance_initializer": {"config": {}, "class_name": "Ones"}, "epsilon": 0.001, "axis": [3]}, "class_name": "BatchNormalization", "inbound_nodes": [[["conv2d_341", 0, 0, {}]]], "name": "batch_normalization_341"}, {"config": {"center": true, "momentum": 0.99, "scale": false, "moving_mean_initializer": {"config": {}, "class_name": "Zeros"}, "trainable": true, "gamma_constraint": null, "name": "batch_normalization_344", "gamma_regularizer": null, "beta_regularizer": null, "gamma_initializer": {"config": {}, "class_name": "Ones"}, "beta_constraint": null, "dtype": "float32", "beta_initializer": {"config": {}, "class_name": "Zeros"}, "moving_variance_initializer": {"config": {}, "class_name": "Ones"}, "epsilon": 0.001, "axis": [3]}, "class_name": "BatchNormalization", "inbound_nodes": [[["conv2d_344", 0, 0, {}]]], "name": "batch_normalization_344"}, {"config": {"name": "activation_339", "activation": "relu", "dtype": "float32", "trainable": true}, "class_name": "Activation", "inbound_nodes": [[["batch_normalization_339", 0, 0, {}]]], "name": "activation_339"}, {"config": {"name": "activation_341", "activation": "relu", "dtype": "float32", "trainable": true}, "class_name": "Activation", "inbound_nodes": [[["batch_normalization_341", 0, 0, {}]]], "name": "activation_341"}, {"config": {"name": "activation_344", "activation": "relu", "dtype": "float32", "trainable": true}, "class_name": "Activation", "inbound_nodes": [[["batch_normalization_344", 0, 0, {}]]], "name": "activation_344"}, {"config": {"dtype": "float32", "name": "block35_6_mixed", "axis": 3, "trainable": true}, "class_name": "Concatenate", "inbound_nodes": [[["activation_339", 0, 0, {}], ["activation_341", 0, 0, {}], ["activation_344", 0, 0, {}]]], "name": "block35_6_mixed"}, {"config": {"bias_regularizer": null, "padding": "same", "activity_regularizer": null, "kernel_initializer": {"config": {"seed": null}, "class_name": "GlorotUniform"}, "trainable": true, "filters": 320, "name": "block35_6_conv", "data_format": "channels_last", "kernel_regularizer": null, "dilation_rate": [1, 1], "strides": [1, 1], "dtype": "float32", "kernel_size": [1, 1], "bias_initializer": {"config": {}, "class_name": "Zeros"}, "bias_constraint": null, "activation": "linear", "kernel_constraint": null, "use_bias": true}, "class_name": "Conv2D", "inbound_nodes": [[["block35_6_mixed", 0, 0, {}]]], "name": "block35_6_conv"}, {"config": {"function": ["4wIAAAAAAAAAAgAAAAMAAABTAAAAcxQAAAB8AABkAQAZfAAAZAIAGXwBABQXUykDTukAAAAA6QEA\nAACpACkC2gZpbnB1dHPaBXNjYWxlcgMAAAByAwAAAPpxQzovVXNlcnMva3oxOTkvQXBwRGF0YS9M\nb2NhbC9Qcm9ncmFtcy9QeXRob24vUHl0aG9uMzUvbGliL3NpdGUtcGFja2FnZXMva2VyYXNfYXBw\nbGljYXRpb25zL2luY2VwdGlvbl9yZXNuZXRfdjIucHnaCDxsYW1iZGE+qAAAAPMAAAAA\n", null, null], "function_type": "lambda", "dtype": "float32", "trainable": true, "output_shape": [29, 29, 320], "name": "block35_6", "arguments": {"scale": 0.17}, "output_shape_type": "raw", "output_shape_module": null, "module": "keras_applications.inception_resnet_v2"}, "class_name": "Lambda", "inbound_nodes": [[["block35_5_ac", 0, 0, {}], ["block35_6_conv", 0, 0, {}]]], "name": "block35_6"}, {"config": {"name": "block35_6_ac", "activation": "relu", "dtype": "float32", "trainable": true}, "class_name": "Activation", "inbound_nodes": [[["block35_6", 0, 0, {}]]], "name": "block35_6_ac"}, {"config": {"bias_regularizer": null, "padding": "same", "activity_regularizer": null, "kernel_initializer": {"config": {"seed": null}, "class_name": "GlorotUniform"}, "trainable": true, "filters": 32, "name": "conv2d_348", "data_format": "channels_last", "kernel_regularizer": null, "dilation_rate": [1, 1], "strides": [1, 1], "dtype": "float32", "kernel_size": [1, 1], "bias_initializer": {"config": {}, "class_name": "Zeros"}, "bias_constraint": null, "activation": "linear", "kernel_constraint": null, "use_bias": false}, "class_name": "Conv2D", "inbound_nodes": [[["block35_6_ac", 0, 0, {}]]], "name": "conv2d_348"}, {"config": {"center": true, "momentum": 0.99, "scale": false, "moving_mean_initializer": {"config": {}, "class_name": "Zeros"}, "trainable": true, "gamma_constraint": null, "name": "batch_normalization_348", "gamma_regularizer": null, "beta_regularizer": null, "gamma_initializer": {"config": {}, "class_name": "Ones"}, "beta_constraint": null, "dtype": "float32", "beta_initializer": {"config": {}, "class_name": "Zeros"}, "moving_variance_initializer": {"config": {}, "class_name": "Ones"}, "epsilon": 0.001, "axis": [3]}, "class_name": "BatchNormalization", "inbound_nodes": [[["conv2d_348", 0, 0, {}]]], "name": "batch_normalization_348"}, {"config": {"name": "activation_348", "activation": "relu", "dtype": "float32", "trainable": true}, "class_name": "Activation", "inbound_nodes": [[["batch_normalization_348", 0, 0, {}]]], "name": "activation_348"}, {"config": {"bias_regularizer": null, "padding": "same", "activity_regularizer": null, "kernel_initializer": {"config": {"seed": null}, "class_name": "GlorotUniform"}, "trainable": true, "filters": 32, "name": "conv2d_346", "data_format": "channels_last", "kernel_regularizer": null, "dilation_rate": [1, 1], "strides": [1, 1], "dtype": "float32", "kernel_size": [1, 1], "bias_initializer": {"config": {}, "class_name": "Zeros"}, "bias_constraint": null, "activation": "linear", "kernel_constraint": null, "use_bias": false}, "class_name": "Conv2D", "inbound_nodes": [[["block35_6_ac", 0, 0, {}]]], "name": "conv2d_346"}, {"config": {"bias_regularizer": null, "padding": "same", "activity_regularizer": null, "kernel_initializer": {"config": {"seed": null}, "class_name": "GlorotUniform"}, "trainable": true, "filters": 48, "name": "conv2d_349", "data_format": "channels_last", "kernel_regularizer": null, "dilation_rate": [1, 1], "strides": [1, 1], "dtype": "float32", "kernel_size": [3, 3], "bias_initializer": {"config": {}, "class_name": "Zeros"}, "bias_constraint": null, "activation": "linear", "kernel_constraint": null, "use_bias": false}, "class_name": "Conv2D", "inbound_nodes": [[["activation_348", 0, 0, {}]]], "name": "conv2d_349"}, {"config": {"center": true, "momentum": 0.99, "scale": false, "moving_mean_initializer": {"config": {}, "class_name": "Zeros"}, "trainable": true, "gamma_constraint": null, "name": "batch_normalization_346", "gamma_regularizer": null, "beta_regularizer": null, "gamma_initializer": {"config": {}, "class_name": "Ones"}, "beta_constraint": null, "dtype": "float32", "beta_initializer": {"config": {}, "class_name": "Zeros"}, "moving_variance_initializer": {"config": {}, "class_name": "Ones"}, "epsilon": 0.001, "axis": [3]}, "class_name": "BatchNormalization", "inbound_nodes": [[["conv2d_346", 0, 0, {}]]], "name": "batch_normalization_346"}, {"config": {"center": true, "momentum": 0.99, "scale": false, "moving_mean_initializer": {"config": {}, "class_name": "Zeros"}, "trainable": true, "gamma_constraint": null, "name": "batch_normalization_349", "gamma_regularizer": null, "beta_regularizer": null, "gamma_initializer": {"config": {}, "class_name": "Ones"}, "beta_constraint": null, "dtype": "float32", "beta_initializer": {"config": {}, "class_name": "Zeros"}, "moving_variance_initializer": {"config": {}, "class_name": "Ones"}, "epsilon": 0.001, "axis": [3]}, "class_name": "BatchNormalization", "inbound_nodes": [[["conv2d_349", 0, 0, {}]]], "name": "batch_normalization_349"}, {"config": {"name": "activation_346", "activation": "relu", "dtype": "float32", "trainable": true}, "class_name": "Activation", "inbound_nodes": [[["batch_normalization_346", 0, 0, {}]]], "name": "activation_346"}, {"config": {"name": "activation_349", "activation": "relu", "dtype": "float32", "trainable": true}, "class_name": "Activation", "inbound_nodes": [[["batch_normalization_349", 0, 0, {}]]], "name": "activation_349"}, {"config": {"bias_regularizer": null, "padding": "same", "activity_regularizer": null, "kernel_initializer": {"config": {"seed": null}, "class_name": "GlorotUniform"}, "trainable": true, "filters": 32, "name": "conv2d_345", "data_format": "channels_last", "kernel_regularizer": null, "dilation_rate": [1, 1], "strides": [1, 1], "dtype": "float32", "kernel_size": [1, 1], "bias_initializer": {"config": {}, "class_name": "Zeros"}, "bias_constraint": null, "activation": "linear", "kernel_constraint": null, "use_bias": false}, "class_name": "Conv2D", "inbound_nodes": [[["block35_6_ac", 0, 0, {}]]], "name": "conv2d_345"}, {"config": {"bias_regularizer": null, "padding": "same", "activity_regularizer": null, "kernel_initializer": {"config": {"seed": null}, "class_name": "GlorotUniform"}, "trainable": true, "filters": 32, "name": "conv2d_347", "data_format": "channels_last", "kernel_regularizer": null, "dilation_rate": [1, 1], "strides": [1, 1], "dtype": "float32", "kernel_size": [3, 3], "bias_initializer": {"config": {}, "class_name": "Zeros"}, "bias_constraint": null, "activation": "linear", "kernel_constraint": null, "use_bias": false}, "class_name": "Conv2D", "inbound_nodes": [[["activation_346", 0, 0, {}]]], "name": "conv2d_347"}, {"config": {"bias_regularizer": null, "padding": "same", "activity_regularizer": null, "kernel_initializer": {"config": {"seed": null}, "class_name": "GlorotUniform"}, "trainable": true, "filters": 64, "name": "conv2d_350", "data_format": "channels_last", "kernel_regularizer": null, "dilation_rate": [1, 1], "strides": [1, 1], "dtype": "float32", "kernel_size": [3, 3], "bias_initializer": {"config": {}, "class_name": "Zeros"}, "bias_constraint": null, "activation": "linear", "kernel_constraint": null, "use_bias": false}, "class_name": "Conv2D", "inbound_nodes": [[["activation_349", 0, 0, {}]]], "name": "conv2d_350"}, {"config": {"center": true, "momentum": 0.99, "scale": false, "moving_mean_initializer": {"config": {}, "class_name": "Zeros"}, "trainable": true, "gamma_constraint": null, "name": "batch_normalization_345", "gamma_regularizer": null, "beta_regularizer": null, "gamma_initializer": {"config": {}, "class_name": "Ones"}, "beta_constraint": null, "dtype": "float32", "beta_initializer": {"config": {}, "class_name": "Zeros"}, "moving_variance_initializer": {"config": {}, "class_name": "Ones"}, "epsilon": 0.001, "axis": [3]}, "class_name": "BatchNormalization", "inbound_nodes": [[["conv2d_345", 0, 0, {}]]], "name": "batch_normalization_345"}, {"config": {"center": true, "momentum": 0.99, "scale": false, "moving_mean_initializer": {"config": {}, "class_name": "Zeros"}, "trainable": true, "gamma_constraint": null, "name": "batch_normalization_347", "gamma_regularizer": null, "beta_regularizer": null, "gamma_initializer": {"config": {}, "class_name": "Ones"}, "beta_constraint": null, "dtype": "float32", "beta_initializer": {"config": {}, "class_name": "Zeros"}, "moving_variance_initializer": {"config": {}, "class_name": "Ones"}, "epsilon": 0.001, "axis": [3]}, "class_name": "BatchNormalization", "inbound_nodes": [[["conv2d_347", 0, 0, {}]]], "name": "batch_normalization_347"}, {"config": {"center": true, "momentum": 0.99, "scale": false, "moving_mean_initializer": {"config": {}, "class_name": "Zeros"}, "trainable": true, "gamma_constraint": null, "name": "batch_normalization_350", "gamma_regularizer": null, "beta_regularizer": null, "gamma_initializer": {"config": {}, "class_name": "Ones"}, "beta_constraint": null, "dtype": "float32", "beta_initializer": {"config": {}, "class_name": "Zeros"}, "moving_variance_initializer": {"config": {}, "class_name": "Ones"}, "epsilon": 0.001, "axis": [3]}, "class_name": "BatchNormalization", "inbound_nodes": [[["conv2d_350", 0, 0, {}]]], "name": "batch_normalization_350"}, {"config": {"name": "activation_345", "activation": "relu", "dtype": "float32", "trainable": true}, "class_name": "Activation", "inbound_nodes": [[["batch_normalization_345", 0, 0, {}]]], "name": "activation_345"}, {"config": {"name": "activation_347", "activation": "relu", "dtype": "float32", "trainable": true}, "class_name": "Activation", "inbound_nodes": [[["batch_normalization_347", 0, 0, {}]]], "name": "activation_347"}, {"config": {"name": "activation_350", "activation": "relu", "dtype": "float32", "trainable": true}, "class_name": "Activation", "inbound_nodes": [[["batch_normalization_350", 0, 0, {}]]], "name": "activation_350"}, {"config": {"dtype": "float32", "name": "block35_7_mixed", "axis": 3, "trainable": true}, "class_name": "Concatenate", "inbound_nodes": [[["activation_345", 0, 0, {}], ["activation_347", 0, 0, {}], ["activation_350", 0, 0, {}]]], "name": "block35_7_mixed"}, {"config": {"bias_regularizer": null, "padding": "same", "activity_regularizer": null, "kernel_initializer": {"config": {"seed": null}, "class_name": "GlorotUniform"}, "trainable": true, "filters": 320, "name": "block35_7_conv", "data_format": "channels_last", "kernel_regularizer": null, "dilation_rate": [1, 1], "strides": [1, 1], "dtype": "float32", "kernel_size": [1, 1], "bias_initializer": {"config": {}, "class_name": "Zeros"}, "bias_constraint": null, "activation": "linear", "kernel_constraint": null, "use_bias": true}, "class_name": "Conv2D", "inbound_nodes": [[["block35_7_mixed", 0, 0, {}]]], "name": "block35_7_conv"}, {"config": {"function": ["4wIAAAAAAAAAAgAAAAMAAABTAAAAcxQAAAB8AABkAQAZfAAAZAIAGXwBABQXUykDTukAAAAA6QEA\nAACpACkC2gZpbnB1dHPaBXNjYWxlcgMAAAByAwAAAPpxQzovVXNlcnMva3oxOTkvQXBwRGF0YS9M\nb2NhbC9Qcm9ncmFtcy9QeXRob24vUHl0aG9uMzUvbGliL3NpdGUtcGFja2FnZXMva2VyYXNfYXBw\nbGljYXRpb25zL2luY2VwdGlvbl9yZXNuZXRfdjIucHnaCDxsYW1iZGE+qAAAAPMAAAAA\n", null, null], "function_type": "lambda", "dtype": "float32", "trainable": true, "output_shape": [29, 29, 320], "name": "block35_7", "arguments": {"scale": 0.17}, "output_shape_type": "raw", "output_shape_module": null, "module": "keras_applications.inception_resnet_v2"}, "class_name": "Lambda", "inbound_nodes": [[["block35_6_ac", 0, 0, {}], ["block35_7_conv", 0, 0, {}]]], "name": "block35_7"}, {"config": {"name": "block35_7_ac", "activation": "relu", "dtype": "float32", "trainable": true}, "class_name": "Activation", "inbound_nodes": [[["block35_7", 0, 0, {}]]], "name": "block35_7_ac"}, {"config": {"bias_regularizer": null, "padding": "same", "activity_regularizer": null, "kernel_initializer": {"config": {"seed": null}, "class_name": "GlorotUniform"}, "trainable": true, "filters": 32, "name": "conv2d_354", "data_format": "channels_last", "kernel_regularizer": null, "dilation_rate": [1, 1], "strides": [1, 1], "dtype": "float32", "kernel_size": [1, 1], "bias_initializer": {"config": {}, "class_name": "Zeros"}, "bias_constraint": null, "activation": "linear", "kernel_constraint": null, "use_bias": false}, "class_name": "Conv2D", "inbound_nodes": [[["block35_7_ac", 0, 0, {}]]], "name": "conv2d_354"}, {"config": {"center": true, "momentum": 0.99, "scale": false, "moving_mean_initializer": {"config": {}, "class_name": "Zeros"}, "trainable": true, "gamma_constraint": null, "name": "batch_normalization_354", "gamma_regularizer": null, "beta_regularizer": null, "gamma_initializer": {"config": {}, "class_name": "Ones"}, "beta_constraint": null, "dtype": "float32", "beta_initializer": {"config": {}, "class_name": "Zeros"}, "moving_variance_initializer": {"config": {}, "class_name": "Ones"}, "epsilon": 0.001, "axis": [3]}, "class_name": "BatchNormalization", "inbound_nodes": [[["conv2d_354", 0, 0, {}]]], "name": "batch_normalization_354"}, {"config": {"name": "activation_354", "activation": "relu", "dtype": "float32", "trainable": true}, "class_name": "Activation", "inbound_nodes": [[["batch_normalization_354", 0, 0, {}]]], "name": "activation_354"}, {"config": {"bias_regularizer": null, "padding": "same", "activity_regularizer": null, "kernel_initializer": {"config": {"seed": null}, "class_name": "GlorotUniform"}, "trainable": true, "filters": 32, "name": "conv2d_352", "data_format": "channels_last", "kernel_regularizer": null, "dilation_rate": [1, 1], "strides": [1, 1], "dtype": "float32", "kernel_size": [1, 1], "bias_initializer": {"config": {}, "class_name": "Zeros"}, "bias_constraint": null, "activation": "linear", "kernel_constraint": null, "use_bias": false}, "class_name": "Conv2D", "inbound_nodes": [[["block35_7_ac", 0, 0, {}]]], "name": "conv2d_352"}, {"config": {"bias_regularizer": null, "padding": "same", "activity_regularizer": null, "kernel_initializer": {"config": {"seed": null}, "class_name": "GlorotUniform"}, "trainable": true, "filters": 48, "name": "conv2d_355", "data_format": "channels_last", "kernel_regularizer": null, "dilation_rate": [1, 1], "strides": [1, 1], "dtype": "float32", "kernel_size": [3, 3], "bias_initializer": {"config": {}, "class_name": "Zeros"}, "bias_constraint": null, "activation": "linear", "kernel_constraint": null, "use_bias": false}, "class_name": "Conv2D", "inbound_nodes": [[["activation_354", 0, 0, {}]]], "name": "conv2d_355"}, {"config": {"center": true, "momentum": 0.99, "scale": false, "moving_mean_initializer": {"config": {}, "class_name": "Zeros"}, "trainable": true, "gamma_constraint": null, "name": "batch_normalization_352", "gamma_regularizer": null, "beta_regularizer": null, "gamma_initializer": {"config": {}, "class_name": "Ones"}, "beta_constraint": null, "dtype": "float32", "beta_initializer": {"config": {}, "class_name": "Zeros"}, "moving_variance_initializer": {"config": {}, "class_name": "Ones"}, "epsilon": 0.001, "axis": [3]}, "class_name": "BatchNormalization", "inbound_nodes": [[["conv2d_352", 0, 0, {}]]], "name": "batch_normalization_352"}, {"config": {"center": true, "momentum": 0.99, "scale": false, "moving_mean_initializer": {"config": {}, "class_name": "Zeros"}, "trainable": true, "gamma_constraint": null, "name": "batch_normalization_355", "gamma_regularizer": null, "beta_regularizer": null, "gamma_initializer": {"config": {}, "class_name": "Ones"}, "beta_constraint": null, "dtype": "float32", "beta_initializer": {"config": {}, "class_name": "Zeros"}, "moving_variance_initializer": {"config": {}, "class_name": "Ones"}, "epsilon": 0.001, "axis": [3]}, "class_name": "BatchNormalization", "inbound_nodes": [[["conv2d_355", 0, 0, {}]]], "name": "batch_normalization_355"}, {"config": {"name": "activation_352", "activation": "relu", "dtype": "float32", "trainable": true}, "class_name": "Activation", "inbound_nodes": [[["batch_normalization_352", 0, 0, {}]]], "name": "activation_352"}, {"config": {"name": "activation_355", "activation": "relu", "dtype": "float32", "trainable": true}, "class_name": "Activation", "inbound_nodes": [[["batch_normalization_355", 0, 0, {}]]], "name": "activation_355"}, {"config": {"bias_regularizer": null, "padding": "same", "activity_regularizer": null, "kernel_initializer": {"config": {"seed": null}, "class_name": "GlorotUniform"}, "trainable": true, "filters": 32, "name": "conv2d_351", "data_format": "channels_last", "kernel_regularizer": null, "dilation_rate": [1, 1], "strides": [1, 1], "dtype": "float32", "kernel_size": [1, 1], "bias_initializer": {"config": {}, "class_name": "Zeros"}, "bias_constraint": null, "activation": "linear", "kernel_constraint": null, "use_bias": false}, "class_name": "Conv2D", "inbound_nodes": [[["block35_7_ac", 0, 0, {}]]], "name": "conv2d_351"}, {"config": {"bias_regularizer": null, "padding": "same", "activity_regularizer": null, "kernel_initializer": {"config": {"seed": null}, "class_name": "GlorotUniform"}, "trainable": true, "filters": 32, "name": "conv2d_353", "data_format": "channels_last", "kernel_regularizer": null, "dilation_rate": [1, 1], "strides": [1, 1], "dtype": "float32", "kernel_size": [3, 3], "bias_initializer": {"config": {}, "class_name": "Zeros"}, "bias_constraint": null, "activation": "linear", "kernel_constraint": null, "use_bias": false}, "class_name": "Conv2D", "inbound_nodes": [[["activation_352", 0, 0, {}]]], "name": "conv2d_353"}, {"config": {"bias_regularizer": null, "padding": "same", "activity_regularizer": null, "kernel_initializer": {"config": {"seed": null}, "class_name": "GlorotUniform"}, "trainable": true, "filters": 64, "name": "conv2d_356", "data_format": "channels_last", "kernel_regularizer": null, "dilation_rate": [1, 1], "strides": [1, 1], "dtype": "float32", "kernel_size": [3, 3], "bias_initializer": {"config": {}, "class_name": "Zeros"}, "bias_constraint": null, "activation": "linear", "kernel_constraint": null, "use_bias": false}, "class_name": "Conv2D", "inbound_nodes": [[["activation_355", 0, 0, {}]]], "name": "conv2d_356"}, {"config": {"center": true, "momentum": 0.99, "scale": false, "moving_mean_initializer": {"config": {}, "class_name": "Zeros"}, "trainable": true, "gamma_constraint": null, "name": "batch_normalization_351", "gamma_regularizer": null, "beta_regularizer": null, "gamma_initializer": {"config": {}, "class_name": "Ones"}, "beta_constraint": null, "dtype": "float32", "beta_initializer": {"config": {}, "class_name": "Zeros"}, "moving_variance_initializer": {"config": {}, "class_name": "Ones"}, "epsilon": 0.001, "axis": [3]}, "class_name": "BatchNormalization", "inbound_nodes": [[["conv2d_351", 0, 0, {}]]], "name": "batch_normalization_351"}, {"config": {"center": true, "momentum": 0.99, "scale": false, "moving_mean_initializer": {"config": {}, "class_name": "Zeros"}, "trainable": true, "gamma_constraint": null, "name": "batch_normalization_353", "gamma_regularizer": null, "beta_regularizer": null, "gamma_initializer": {"config": {}, "class_name": "Ones"}, "beta_constraint": null, "dtype": "float32", "beta_initializer": {"config": {}, "class_name": "Zeros"}, "moving_variance_initializer": {"config": {}, "class_name": "Ones"}, "epsilon": 0.001, "axis": [3]}, "class_name": "BatchNormalization", "inbound_nodes": [[["conv2d_353", 0, 0, {}]]], "name": "batch_normalization_353"}, {"config": {"center": true, "momentum": 0.99, "scale": false, "moving_mean_initializer": {"config": {}, "class_name": "Zeros"}, "trainable": true, "gamma_constraint": null, "name": "batch_normalization_356", "gamma_regularizer": null, "beta_regularizer": null, "gamma_initializer": {"config": {}, "class_name": "Ones"}, "beta_constraint": null, "dtype": "float32", "beta_initializer": {"config": {}, "class_name": "Zeros"}, "moving_variance_initializer": {"config": {}, "class_name": "Ones"}, "epsilon": 0.001, "axis": [3]}, "class_name": "BatchNormalization", "inbound_nodes": [[["conv2d_356", 0, 0, {}]]], "name": "batch_normalization_356"}, {"config": {"name": "activation_351", "activation": "relu", "dtype": "float32", "trainable": true}, "class_name": "Activation", "inbound_nodes": [[["batch_normalization_351", 0, 0, {}]]], "name": "activation_351"}, {"config": {"name": "activation_353", "activation": "relu", "dtype": "float32", "trainable": true}, "class_name": "Activation", "inbound_nodes": [[["batch_normalization_353", 0, 0, {}]]], "name": "activation_353"}, {"config": {"name": "activation_356", "activation": "relu", "dtype": "float32", "trainable": true}, "class_name": "Activation", "inbound_nodes": [[["batch_normalization_356", 0, 0, {}]]], "name": "activation_356"}, {"config": {"dtype": "float32", "name": "block35_8_mixed", "axis": 3, "trainable": true}, "class_name": "Concatenate", "inbound_nodes": [[["activation_351", 0, 0, {}], ["activation_353", 0, 0, {}], ["activation_356", 0, 0, {}]]], "name": "block35_8_mixed"}, {"config": {"bias_regularizer": null, "padding": "same", "activity_regularizer": null, "kernel_initializer": {"config": {"seed": null}, "class_name": "GlorotUniform"}, "trainable": true, "filters": 320, "name": "block35_8_conv", "data_format": "channels_last", "kernel_regularizer": null, "dilation_rate": [1, 1], "strides": [1, 1], "dtype": "float32", "kernel_size": [1, 1], "bias_initializer": {"config": {}, "class_name": "Zeros"}, "bias_constraint": null, "activation": "linear", "kernel_constraint": null, "use_bias": true}, "class_name": "Conv2D", "inbound_nodes": [[["block35_8_mixed", 0, 0, {}]]], "name": "block35_8_conv"}, {"config": {"function": ["4wIAAAAAAAAAAgAAAAMAAABTAAAAcxQAAAB8AABkAQAZfAAAZAIAGXwBABQXUykDTukAAAAA6QEA\nAACpACkC2gZpbnB1dHPaBXNjYWxlcgMAAAByAwAAAPpxQzovVXNlcnMva3oxOTkvQXBwRGF0YS9M\nb2NhbC9Qcm9ncmFtcy9QeXRob24vUHl0aG9uMzUvbGliL3NpdGUtcGFja2FnZXMva2VyYXNfYXBw\nbGljYXRpb25zL2luY2VwdGlvbl9yZXNuZXRfdjIucHnaCDxsYW1iZGE+qAAAAPMAAAAA\n", null, null], "function_type": "lambda", "dtype": "float32", "trainable": true, "output_shape": [29, 29, 320], "name": "block35_8", "arguments": {"scale": 0.17}, "output_shape_type": "raw", "output_shape_module": null, "module": "keras_applications.inception_resnet_v2"}, "class_name": "Lambda", "inbound_nodes": [[["block35_7_ac", 0, 0, {}], ["block35_8_conv", 0, 0, {}]]], "name": "block35_8"}, {"config": {"name": "block35_8_ac", "activation": "relu", "dtype": "float32", "trainable": true}, "class_name": "Activation", "inbound_nodes": [[["block35_8", 0, 0, {}]]], "name": "block35_8_ac"}, {"config": {"bias_regularizer": null, "padding": "same", "activity_regularizer": null, "kernel_initializer": {"config": {"seed": null}, "class_name": "GlorotUniform"}, "trainable": true, "filters": 32, "name": "conv2d_360", "data_format": "channels_last", "kernel_regularizer": null, "dilation_rate": [1, 1], "strides": [1, 1], "dtype": "float32", "kernel_size": [1, 1], "bias_initializer": {"config": {}, "class_name": "Zeros"}, "bias_constraint": null, "activation": "linear", "kernel_constraint": null, "use_bias": false}, "class_name": "Conv2D", "inbound_nodes": [[["block35_8_ac", 0, 0, {}]]], "name": "conv2d_360"}, {"config": {"center": true, "momentum": 0.99, "scale": false, "moving_mean_initializer": {"config": {}, "class_name": "Zeros"}, "trainable": true, "gamma_constraint": null, "name": "batch_normalization_360", "gamma_regularizer": null, "beta_regularizer": null, "gamma_initializer": {"config": {}, "class_name": "Ones"}, "beta_constraint": null, "dtype": "float32", "beta_initializer": {"config": {}, "class_name": "Zeros"}, "moving_variance_initializer": {"config": {}, "class_name": "Ones"}, "epsilon": 0.001, "axis": [3]}, "class_name": "BatchNormalization", "inbound_nodes": [[["conv2d_360", 0, 0, {}]]], "name": "batch_normalization_360"}, {"config": {"name": "activation_360", "activation": "relu", "dtype": "float32", "trainable": true}, "class_name": "Activation", "inbound_nodes": [[["batch_normalization_360", 0, 0, {}]]], "name": "activation_360"}, {"config": {"bias_regularizer": null, "padding": "same", "activity_regularizer": null, "kernel_initializer": {"config": {"seed": null}, "class_name": "GlorotUniform"}, "trainable": true, "filters": 32, "name": "conv2d_358", "data_format": "channels_last", "kernel_regularizer": null, "dilation_rate": [1, 1], "strides": [1, 1], "dtype": "float32", "kernel_size": [1, 1], "bias_initializer": {"config": {}, "class_name": "Zeros"}, "bias_constraint": null, "activation": "linear", "kernel_constraint": null, "use_bias": false}, "class_name": "Conv2D", "inbound_nodes": [[["block35_8_ac", 0, 0, {}]]], "name": "conv2d_358"}, {"config": {"bias_regularizer": null, "padding": "same", "activity_regularizer": null, "kernel_initializer": {"config": {"seed": null}, "class_name": "GlorotUniform"}, "trainable": true, "filters": 48, "name": "conv2d_361", "data_format": "channels_last", "kernel_regularizer": null, "dilation_rate": [1, 1], "strides": [1, 1], "dtype": "float32", "kernel_size": [3, 3], "bias_initializer": {"config": {}, "class_name": "Zeros"}, "bias_constraint": null, "activation": "linear", "kernel_constraint": null, "use_bias": false}, "class_name": "Conv2D", "inbound_nodes": [[["activation_360", 0, 0, {}]]], "name": "conv2d_361"}, {"config": {"center": true, "momentum": 0.99, "scale": false, "moving_mean_initializer": {"config": {}, "class_name": "Zeros"}, "trainable": true, "gamma_constraint": null, "name": "batch_normalization_358", "gamma_regularizer": null, "beta_regularizer": null, "gamma_initializer": {"config": {}, "class_name": "Ones"}, "beta_constraint": null, "dtype": "float32", "beta_initializer": {"config": {}, "class_name": "Zeros"}, "moving_variance_initializer": {"config": {}, "class_name": "Ones"}, "epsilon": 0.001, "axis": [3]}, "class_name": "BatchNormalization", "inbound_nodes": [[["conv2d_358", 0, 0, {}]]], "name": "batch_normalization_358"}, {"config": {"center": true, "momentum": 0.99, "scale": false, "moving_mean_initializer": {"config": {}, "class_name": "Zeros"}, "trainable": true, "gamma_constraint": null, "name": "batch_normalization_361", "gamma_regularizer": null, "beta_regularizer": null, "gamma_initializer": {"config": {}, "class_name": "Ones"}, "beta_constraint": null, "dtype": "float32", "beta_initializer": {"config": {}, "class_name": "Zeros"}, "moving_variance_initializer": {"config": {}, "class_name": "Ones"}, "epsilon": 0.001, "axis": [3]}, "class_name": "BatchNormalization", "inbound_nodes": [[["conv2d_361", 0, 0, {}]]], "name": "batch_normalization_361"}, {"config": {"name": "activation_358", "activation": "relu", "dtype": "float32", "trainable": true}, "class_name": "Activation", "inbound_nodes": [[["batch_normalization_358", 0, 0, {}]]], "name": "activation_358"}, {"config": {"name": "activation_361", "activation": "relu", "dtype": "float32", "trainable": true}, "class_name": "Activation", "inbound_nodes": [[["batch_normalization_361", 0, 0, {}]]], "name": "activation_361"}, {"config": {"bias_regularizer": null, "padding": "same", "activity_regularizer": null, "kernel_initializer": {"config": {"seed": null}, "class_name": "GlorotUniform"}, "trainable": true, "filters": 32, "name": "conv2d_357", "data_format": "channels_last", "kernel_regularizer": null, "dilation_rate": [1, 1], "strides": [1, 1], "dtype": "float32", "kernel_size": [1, 1], "bias_initializer": {"config": {}, "class_name": "Zeros"}, "bias_constraint": null, "activation": "linear", "kernel_constraint": null, "use_bias": false}, "class_name": "Conv2D", "inbound_nodes": [[["block35_8_ac", 0, 0, {}]]], "name": "conv2d_357"}, {"config": {"bias_regularizer": null, "padding": "same", "activity_regularizer": null, "kernel_initializer": {"config": {"seed": null}, "class_name": "GlorotUniform"}, "trainable": true, "filters": 32, "name": "conv2d_359", "data_format": "channels_last", "kernel_regularizer": null, "dilation_rate": [1, 1], "strides": [1, 1], "dtype": "float32", "kernel_size": [3, 3], "bias_initializer": {"config": {}, "class_name": "Zeros"}, "bias_constraint": null, "activation": "linear", "kernel_constraint": null, "use_bias": false}, "class_name": "Conv2D", "inbound_nodes": [[["activation_358", 0, 0, {}]]], "name": "conv2d_359"}, {"config": {"bias_regularizer": null, "padding": "same", "activity_regularizer": null, "kernel_initializer": {"config": {"seed": null}, "class_name": "GlorotUniform"}, "trainable": true, "filters": 64, "name": "conv2d_362", "data_format": "channels_last", "kernel_regularizer": null, "dilation_rate": [1, 1], "strides": [1, 1], "dtype": "float32", "kernel_size": [3, 3], "bias_initializer": {"config": {}, "class_name": "Zeros"}, "bias_constraint": null, "activation": "linear", "kernel_constraint": null, "use_bias": false}, "class_name": "Conv2D", "inbound_nodes": [[["activation_361", 0, 0, {}]]], "name": "conv2d_362"}, {"config": {"center": true, "momentum": 0.99, "scale": false, "moving_mean_initializer": {"config": {}, "class_name": "Zeros"}, "trainable": true, "gamma_constraint": null, "name": "batch_normalization_357", "gamma_regularizer": null, "beta_regularizer": null, "gamma_initializer": {"config": {}, "class_name": "Ones"}, "beta_constraint": null, "dtype": "float32", "beta_initializer": {"config": {}, "class_name": "Zeros"}, "moving_variance_initializer": {"config": {}, "class_name": "Ones"}, "epsilon": 0.001, "axis": [3]}, "class_name": "BatchNormalization", "inbound_nodes": [[["conv2d_357", 0, 0, {}]]], "name": "batch_normalization_357"}, {"config": {"center": true, "momentum": 0.99, "scale": false, "moving_mean_initializer": {"config": {}, "class_name": "Zeros"}, "trainable": true, "gamma_constraint": null, "name": "batch_normalization_359", "gamma_regularizer": null, "beta_regularizer": null, "gamma_initializer": {"config": {}, "class_name": "Ones"}, "beta_constraint": null, "dtype": "float32", "beta_initializer": {"config": {}, "class_name": "Zeros"}, "moving_variance_initializer": {"config": {}, "class_name": "Ones"}, "epsilon": 0.001, "axis": [3]}, "class_name": "BatchNormalization", "inbound_nodes": [[["conv2d_359", 0, 0, {}]]], "name": "batch_normalization_359"}, {"config": {"center": true, "momentum": 0.99, "scale": false, "moving_mean_initializer": {"config": {}, "class_name": "Zeros"}, "trainable": true, "gamma_constraint": null, "name": "batch_normalization_362", "gamma_regularizer": null, "beta_regularizer": null, "gamma_initializer": {"config": {}, "class_name": "Ones"}, "beta_constraint": null, "dtype": "float32", "beta_initializer": {"config": {}, "class_name": "Zeros"}, "moving_variance_initializer": {"config": {}, "class_name": "Ones"}, "epsilon": 0.001, "axis": [3]}, "class_name": "BatchNormalization", "inbound_nodes": [[["conv2d_362", 0, 0, {}]]], "name": "batch_normalization_362"}, {"config": {"name": "activation_357", "activation": "relu", "dtype": "float32", "trainable": true}, "class_name": "Activation", "inbound_nodes": [[["batch_normalization_357", 0, 0, {}]]], "name": "activation_357"}, {"config": {"name": "activation_359", "activation": "relu", "dtype": "float32", "trainable": true}, "class_name": "Activation", "inbound_nodes": [[["batch_normalization_359", 0, 0, {}]]], "name": "activation_359"}, {"config": {"name": "activation_362", "activation": "relu", "dtype": "float32", "trainable": true}, "class_name": "Activation", "inbound_nodes": [[["batch_normalization_362", 0, 0, {}]]], "name": "activation_362"}, {"config": {"dtype": "float32", "name": "block35_9_mixed", "axis": 3, "trainable": true}, "class_name": "Concatenate", "inbound_nodes": [[["activation_357", 0, 0, {}], ["activation_359", 0, 0, {}], ["activation_362", 0, 0, {}]]], "name": "block35_9_mixed"}, {"config": {"bias_regularizer": null, "padding": "same", "activity_regularizer": null, "kernel_initializer": {"config": {"seed": null}, "class_name": "GlorotUniform"}, "trainable": true, "filters": 320, "name": "block35_9_conv", "data_format": "channels_last", "kernel_regularizer": null, "dilation_rate": [1, 1], "strides": [1, 1], "dtype": "float32", "kernel_size": [1, 1], "bias_initializer": {"config": {}, "class_name": "Zeros"}, "bias_constraint": null, "activation": "linear", "kernel_constraint": null, "use_bias": true}, "class_name": "Conv2D", "inbound_nodes": [[["block35_9_mixed", 0, 0, {}]]], "name": "block35_9_conv"}, {"config": {"function": ["4wIAAAAAAAAAAgAAAAMAAABTAAAAcxQAAAB8AABkAQAZfAAAZAIAGXwBABQXUykDTukAAAAA6QEA\nAACpACkC2gZpbnB1dHPaBXNjYWxlcgMAAAByAwAAAPpxQzovVXNlcnMva3oxOTkvQXBwRGF0YS9M\nb2NhbC9Qcm9ncmFtcy9QeXRob24vUHl0aG9uMzUvbGliL3NpdGUtcGFja2FnZXMva2VyYXNfYXBw\nbGljYXRpb25zL2luY2VwdGlvbl9yZXNuZXRfdjIucHnaCDxsYW1iZGE+qAAAAPMAAAAA\n", null, null], "function_type": "lambda", "dtype": "float32", "trainable": true, "output_shape": [29, 29, 320], "name": "block35_9", "arguments": {"scale": 0.17}, "output_shape_type": "raw", "output_shape_module": null, "module": "keras_applications.inception_resnet_v2"}, "class_name": "Lambda", "inbound_nodes": [[["block35_8_ac", 0, 0, {}], ["block35_9_conv", 0, 0, {}]]], "name": "block35_9"}, {"config": {"name": "block35_9_ac", "activation": "relu", "dtype": "float32", "trainable": true}, "class_name": "Activation", "inbound_nodes": [[["block35_9", 0, 0, {}]]], "name": "block35_9_ac"}, {"config": {"bias_regularizer": null, "padding": "same", "activity_regularizer": null, "kernel_initializer": {"config": {"seed": null}, "class_name": "GlorotUniform"}, "trainable": true, "filters": 32, "name": "conv2d_366", "data_format": "channels_last", "kernel_regularizer": null, "dilation_rate": [1, 1], "strides": [1, 1], "dtype": "float32", "kernel_size": [1, 1], "bias_initializer": {"config": {}, "class_name": "Zeros"}, "bias_constraint": null, "activation": "linear", "kernel_constraint": null, "use_bias": false}, "class_name": "Conv2D", "inbound_nodes": [[["block35_9_ac", 0, 0, {}]]], "name": "conv2d_366"}, {"config": {"center": true, "momentum": 0.99, "scale": false, "moving_mean_initializer": {"config": {}, "class_name": "Zeros"}, "trainable": true, "gamma_constraint": null, "name": "batch_normalization_366", "gamma_regularizer": null, "beta_regularizer": null, "gamma_initializer": {"config": {}, "class_name": "Ones"}, "beta_constraint": null, "dtype": "float32", "beta_initializer": {"config": {}, "class_name": "Zeros"}, "moving_variance_initializer": {"config": {}, "class_name": "Ones"}, "epsilon": 0.001, "axis": [3]}, "class_name": "BatchNormalization", "inbound_nodes": [[["conv2d_366", 0, 0, {}]]], "name": "batch_normalization_366"}, {"config": {"name": "activation_366", "activation": "relu", "dtype": "float32", "trainable": true}, "class_name": "Activation", "inbound_nodes": [[["batch_normalization_366", 0, 0, {}]]], "name": "activation_366"}, {"config": {"bias_regularizer": null, "padding": "same", "activity_regularizer": null, "kernel_initializer": {"config": {"seed": null}, "class_name": "GlorotUniform"}, "trainable": true, "filters": 32, "name": "conv2d_364", "data_format": "channels_last", "kernel_regularizer": null, "dilation_rate": [1, 1], "strides": [1, 1], "dtype": "float32", "kernel_size": [1, 1], "bias_initializer": {"config": {}, "class_name": "Zeros"}, "bias_constraint": null, "activation": "linear", "kernel_constraint": null, "use_bias": false}, "class_name": "Conv2D", "inbound_nodes": [[["block35_9_ac", 0, 0, {}]]], "name": "conv2d_364"}, {"config": {"bias_regularizer": null, "padding": "same", "activity_regularizer": null, "kernel_initializer": {"config": {"seed": null}, "class_name": "GlorotUniform"}, "trainable": true, "filters": 48, "name": "conv2d_367", "data_format": "channels_last", "kernel_regularizer": null, "dilation_rate": [1, 1], "strides": [1, 1], "dtype": "float32", "kernel_size": [3, 3], "bias_initializer": {"config": {}, "class_name": "Zeros"}, "bias_constraint": null, "activation": "linear", "kernel_constraint": null, "use_bias": false}, "class_name": "Conv2D", "inbound_nodes": [[["activation_366", 0, 0, {}]]], "name": "conv2d_367"}, {"config": {"center": true, "momentum": 0.99, "scale": false, "moving_mean_initializer": {"config": {}, "class_name": "Zeros"}, "trainable": true, "gamma_constraint": null, "name": "batch_normalization_364", "gamma_regularizer": null, "beta_regularizer": null, "gamma_initializer": {"config": {}, "class_name": "Ones"}, "beta_constraint": null, "dtype": "float32", "beta_initializer": {"config": {}, "class_name": "Zeros"}, "moving_variance_initializer": {"config": {}, "class_name": "Ones"}, "epsilon": 0.001, "axis": [3]}, "class_name": "BatchNormalization", "inbound_nodes": [[["conv2d_364", 0, 0, {}]]], "name": "batch_normalization_364"}, {"config": {"center": true, "momentum": 0.99, "scale": false, "moving_mean_initializer": {"config": {}, "class_name": "Zeros"}, "trainable": true, "gamma_constraint": null, "name": "batch_normalization_367", "gamma_regularizer": null, "beta_regularizer": null, "gamma_initializer": {"config": {}, "class_name": "Ones"}, "beta_constraint": null, "dtype": "float32", "beta_initializer": {"config": {}, "class_name": "Zeros"}, "moving_variance_initializer": {"config": {}, "class_name": "Ones"}, "epsilon": 0.001, "axis": [3]}, "class_name": "BatchNormalization", "inbound_nodes": [[["conv2d_367", 0, 0, {}]]], "name": "batch_normalization_367"}, {"config": {"name": "activation_364", "activation": "relu", "dtype": "float32", "trainable": true}, "class_name": "Activation", "inbound_nodes": [[["batch_normalization_364", 0, 0, {}]]], "name": "activation_364"}, {"config": {"name": "activation_367", "activation": "relu", "dtype": "float32", "trainable": true}, "class_name": "Activation", "inbound_nodes": [[["batch_normalization_367", 0, 0, {}]]], "name": "activation_367"}, {"config": {"bias_regularizer": null, "padding": "same", "activity_regularizer": null, "kernel_initializer": {"config": {"seed": null}, "class_name": "GlorotUniform"}, "trainable": true, "filters": 32, "name": "conv2d_363", "data_format": "channels_last", "kernel_regularizer": null, "dilation_rate": [1, 1], "strides": [1, 1], "dtype": "float32", "kernel_size": [1, 1], "bias_initializer": {"config": {}, "class_name": "Zeros"}, "bias_constraint": null, "activation": "linear", "kernel_constraint": null, "use_bias": false}, "class_name": "Conv2D", "inbound_nodes": [[["block35_9_ac", 0, 0, {}]]], "name": "conv2d_363"}, {"config": {"bias_regularizer": null, "padding": "same", "activity_regularizer": null, "kernel_initializer": {"config": {"seed": null}, "class_name": "GlorotUniform"}, "trainable": true, "filters": 32, "name": "conv2d_365", "data_format": "channels_last", "kernel_regularizer": null, "dilation_rate": [1, 1], "strides": [1, 1], "dtype": "float32", "kernel_size": [3, 3], "bias_initializer": {"config": {}, "class_name": "Zeros"}, "bias_constraint": null, "activation": "linear", "kernel_constraint": null, "use_bias": false}, "class_name": "Conv2D", "inbound_nodes": [[["activation_364", 0, 0, {}]]], "name": "conv2d_365"}, {"config": {"bias_regularizer": null, "padding": "same", "activity_regularizer": null, "kernel_initializer": {"config": {"seed": null}, "class_name": "GlorotUniform"}, "trainable": true, "filters": 64, "name": "conv2d_368", "data_format": "channels_last", "kernel_regularizer": null, "dilation_rate": [1, 1], "strides": [1, 1], "dtype": "float32", "kernel_size": [3, 3], "bias_initializer": {"config": {}, "class_name": "Zeros"}, "bias_constraint": null, "activation": "linear", "kernel_constraint": null, "use_bias": false}, "class_name": "Conv2D", "inbound_nodes": [[["activation_367", 0, 0, {}]]], "name": "conv2d_368"}, {"config": {"center": true, "momentum": 0.99, "scale": false, "moving_mean_initializer": {"config": {}, "class_name": "Zeros"}, "trainable": true, "gamma_constraint": null, "name": "batch_normalization_363", "gamma_regularizer": null, "beta_regularizer": null, "gamma_initializer": {"config": {}, "class_name": "Ones"}, "beta_constraint": null, "dtype": "float32", "beta_initializer": {"config": {}, "class_name": "Zeros"}, "moving_variance_initializer": {"config": {}, "class_name": "Ones"}, "epsilon": 0.001, "axis": [3]}, "class_name": "BatchNormalization", "inbound_nodes": [[["conv2d_363", 0, 0, {}]]], "name": "batch_normalization_363"}, {"config": {"center": true, "momentum": 0.99, "scale": false, "moving_mean_initializer": {"config": {}, "class_name": "Zeros"}, "trainable": true, "gamma_constraint": null, "name": "batch_normalization_365", "gamma_regularizer": null, "beta_regularizer": null, "gamma_initializer": {"config": {}, "class_name": "Ones"}, "beta_constraint": null, "dtype": "float32", "beta_initializer": {"config": {}, "class_name": "Zeros"}, "moving_variance_initializer": {"config": {}, "class_name": "Ones"}, "epsilon": 0.001, "axis": [3]}, "class_name": "BatchNormalization", "inbound_nodes": [[["conv2d_365", 0, 0, {}]]], "name": "batch_normalization_365"}, {"config": {"center": true, "momentum": 0.99, "scale": false, "moving_mean_initializer": {"config": {}, "class_name": "Zeros"}, "trainable": true, "gamma_constraint": null, "name": "batch_normalization_368", "gamma_regularizer": null, "beta_regularizer": null, "gamma_initializer": {"config": {}, "class_name": "Ones"}, "beta_constraint": null, "dtype": "float32", "beta_initializer": {"config": {}, "class_name": "Zeros"}, "moving_variance_initializer": {"config": {}, "class_name": "Ones"}, "epsilon": 0.001, "axis": [3]}, "class_name": "BatchNormalization", "inbound_nodes": [[["conv2d_368", 0, 0, {}]]], "name": "batch_normalization_368"}, {"config": {"name": "activation_363", "activation": "relu", "dtype": "float32", "trainable": true}, "class_name": "Activation", "inbound_nodes": [[["batch_normalization_363", 0, 0, {}]]], "name": "activation_363"}, {"config": {"name": "activation_365", "activation": "relu", "dtype": "float32", "trainable": true}, "class_name": "Activation", "inbound_nodes": [[["batch_normalization_365", 0, 0, {}]]], "name": "activation_365"}, {"config": {"name": "activation_368", "activation": "relu", "dtype": "float32", "trainable": true}, "class_name": "Activation", "inbound_nodes": [[["batch_normalization_368", 0, 0, {}]]], "name": "activation_368"}, {"config": {"dtype": "float32", "name": "block35_10_mixed", "axis": 3, "trainable": true}, "class_name": "Concatenate", "inbound_nodes": [[["activation_363", 0, 0, {}], ["activation_365", 0, 0, {}], ["activation_368", 0, 0, {}]]], "name": "block35_10_mixed"}, {"config": {"bias_regularizer": null, "padding": "same", "activity_regularizer": null, "kernel_initializer": {"config": {"seed": null}, "class_name": "GlorotUniform"}, "trainable": true, "filters": 320, "name": "block35_10_conv", "data_format": "channels_last", "kernel_regularizer": null, "dilation_rate": [1, 1], "strides": [1, 1], "dtype": "float32", "kernel_size": [1, 1], "bias_initializer": {"config": {}, "class_name": "Zeros"}, "bias_constraint": null, "activation": "linear", "kernel_constraint": null, "use_bias": true}, "class_name": "Conv2D", "inbound_nodes": [[["block35_10_mixed", 0, 0, {}]]], "name": "block35_10_conv"}, {"config": {"function": ["4wIAAAAAAAAAAgAAAAMAAABTAAAAcxQAAAB8AABkAQAZfAAAZAIAGXwBABQXUykDTukAAAAA6QEA\nAACpACkC2gZpbnB1dHPaBXNjYWxlcgMAAAByAwAAAPpxQzovVXNlcnMva3oxOTkvQXBwRGF0YS9M\nb2NhbC9Qcm9ncmFtcy9QeXRob24vUHl0aG9uMzUvbGliL3NpdGUtcGFja2FnZXMva2VyYXNfYXBw\nbGljYXRpb25zL2luY2VwdGlvbl9yZXNuZXRfdjIucHnaCDxsYW1iZGE+qAAAAPMAAAAA\n", null, null], "function_type": "lambda", "dtype": "float32", "trainable": true, "output_shape": [29, 29, 320], "name": "block35_10", "arguments": {"scale": 0.17}, "output_shape_type": "raw", "output_shape_module": null, "module": "keras_applications.inception_resnet_v2"}, "class_name": "Lambda", "inbound_nodes": [[["block35_9_ac", 0, 0, {}], ["block35_10_conv", 0, 0, {}]]], "name": "block35_10"}, {"config": {"name": "block35_10_ac", "activation": "relu", "dtype": "float32", "trainable": true}, "class_name": "Activation", "inbound_nodes": [[["block35_10", 0, 0, {}]]], "name": "block35_10_ac"}, {"config": {"bias_regularizer": null, "padding": "same", "activity_regularizer": null, "kernel_initializer": {"config": {"seed": null}, "class_name": "GlorotUniform"}, "trainable": true, "filters": 256, "name": "conv2d_370", "data_format": "channels_last", "kernel_regularizer": null, "dilation_rate": [1, 1], "strides": [1, 1], "dtype": "float32", "kernel_size": [1, 1], "bias_initializer": {"config": {}, "class_name": "Zeros"}, "bias_constraint": null, "activation": "linear", "kernel_constraint": null, "use_bias": false}, "class_name": "Conv2D", "inbound_nodes": [[["block35_10_ac", 0, 0, {}]]], "name": "conv2d_370"}, {"config": {"center": true, "momentum": 0.99, "scale": false, "moving_mean_initializer": {"config": {}, "class_name": "Zeros"}, "trainable": true, "gamma_constraint": null, "name": "batch_normalization_370", "gamma_regularizer": null, "beta_regularizer": null, "gamma_initializer": {"config": {}, "class_name": "Ones"}, "beta_constraint": null, "dtype": "float32", "beta_initializer": {"config": {}, "class_name": "Zeros"}, "moving_variance_initializer": {"config": {}, "class_name": "Ones"}, "epsilon": 0.001, "axis": [3]}, "class_name": "BatchNormalization", "inbound_nodes": [[["conv2d_370", 0, 0, {}]]], "name": "batch_normalization_370"}, {"config": {"name": "activation_370", "activation": "relu", "dtype": "float32", "trainable": true}, "class_name": "Activation", "inbound_nodes": [[["batch_normalization_370", 0, 0, {}]]], "name": "activation_370"}, {"config": {"bias_regularizer": null, "padding": "same", "activity_regularizer": null, "kernel_initializer": {"config": {"seed": null}, "class_name": "GlorotUniform"}, "trainable": true, "filters": 256, "name": "conv2d_371", "data_format": "channels_last", "kernel_regularizer": null, "dilation_rate": [1, 1], "strides": [1, 1], "dtype": "float32", "kernel_size": [3, 3], "bias_initializer": {"config": {}, "class_name": "Zeros"}, "bias_constraint": null, "activation": "linear", "kernel_constraint": null, "use_bias": false}, "class_name": "Conv2D", "inbound_nodes": [[["activation_370", 0, 0, {}]]], "name": "conv2d_371"}, {"config": {"center": true, "momentum": 0.99, "scale": false, "moving_mean_initializer": {"config": {}, "class_name": "Zeros"}, "trainable": true, "gamma_constraint": null, "name": "batch_normalization_371", "gamma_regularizer": null, "beta_regularizer": null, "gamma_initializer": {"config": {}, "class_name": "Ones"}, "beta_constraint": null, "dtype": "float32", "beta_initializer": {"config": {}, "class_name": "Zeros"}, "moving_variance_initializer": {"config": {}, "class_name": "Ones"}, "epsilon": 0.001, "axis": [3]}, "class_name": "BatchNormalization", "inbound_nodes": [[["conv2d_371", 0, 0, {}]]], "name": "batch_normalization_371"}, {"config": {"name": "activation_371", "activation": "relu", "dtype": "float32", "trainable": true}, "class_name": "Activation", "inbound_nodes": [[["batch_normalization_371", 0, 0, {}]]], "name": "activation_371"}, {"config": {"bias_regularizer": null, "padding": "valid", "activity_regularizer": null, "kernel_initializer": {"config": {"seed": null}, "class_name": "GlorotUniform"}, "trainable": true, "filters": 384, "name": "conv2d_369", "data_format": "channels_last", "kernel_regularizer": null, "dilation_rate": [1, 1], "strides": [2, 2], "dtype": "float32", "kernel_size": [3, 3], "bias_initializer": {"config": {}, "class_name": "Zeros"}, "bias_constraint": null, "activation": "linear", "kernel_constraint": null, "use_bias": false}, "class_name": "Conv2D", "inbound_nodes": [[["block35_10_ac", 0, 0, {}]]], "name": "conv2d_369"}, {"config": {"bias_regularizer": null, "padding": "valid", "activity_regularizer": null, "kernel_initializer": {"config": {"seed": null}, "class_name": "GlorotUniform"}, "trainable": true, "filters": 384, "name": "conv2d_372", "data_format": "channels_last", "kernel_regularizer": null, "dilation_rate": [1, 1], "strides": [2, 2], "dtype": "float32", "kernel_size": [3, 3], "bias_initializer": {"config": {}, "class_name": "Zeros"}, "bias_constraint": null, "activation": "linear", "kernel_constraint": null, "use_bias": false}, "class_name": "Conv2D", "inbound_nodes": [[["activation_371", 0, 0, {}]]], "name": "conv2d_372"}, {"config": {"center": true, "momentum": 0.99, "scale": false, "moving_mean_initializer": {"config": {}, "class_name": "Zeros"}, "trainable": true, "gamma_constraint": null, "name": "batch_normalization_369", "gamma_regularizer": null, "beta_regularizer": null, "gamma_initializer": {"config": {}, "class_name": "Ones"}, "beta_constraint": null, "dtype": "float32", "beta_initializer": {"config": {}, "class_name": "Zeros"}, "moving_variance_initializer": {"config": {}, "class_name": "Ones"}, "epsilon": 0.001, "axis": [3]}, "class_name": "BatchNormalization", "inbound_nodes": [[["conv2d_369", 0, 0, {}]]], "name": "batch_normalization_369"}, {"config": {"center": true, "momentum": 0.99, "scale": false, "moving_mean_initializer": {"config": {}, "class_name": "Zeros"}, "trainable": true, "gamma_constraint": null, "name": "batch_normalization_372", "gamma_regularizer": null, "beta_regularizer": null, "gamma_initializer": {"config": {}, "class_name": "Ones"}, "beta_constraint": null, "dtype": "float32", "beta_initializer": {"config": {}, "class_name": "Zeros"}, "moving_variance_initializer": {"config": {}, "class_name": "Ones"}, "epsilon": 0.001, "axis": [3]}, "class_name": "BatchNormalization", "inbound_nodes": [[["conv2d_372", 0, 0, {}]]], "name": "batch_normalization_372"}, {"config": {"name": "activation_369", "activation": "relu", "dtype": "float32", "trainable": true}, "class_name": "Activation", "inbound_nodes": [[["batch_normalization_369", 0, 0, {}]]], "name": "activation_369"}, {"config": {"name": "activation_372", "activation": "relu", "dtype": "float32", "trainable": true}, "class_name": "Activation", "inbound_nodes": [[["batch_normalization_372", 0, 0, {}]]], "name": "activation_372"}, {"config": {"pool_size": [3, 3], "strides": [2, 2], "dtype": "float32", "trainable": true, "name": "max_pooling2d_10", "data_format": "channels_last", "padding": "valid"}, "class_name": "MaxPooling2D", "inbound_nodes": [[["block35_10_ac", 0, 0, {}]]], "name": "max_pooling2d_10"}, {"config": {"dtype": "float32", "name": "mixed_6a", "axis": 3, "trainable": true}, "class_name": "Concatenate", "inbound_nodes": [[["activation_369", 0, 0, {}], ["activation_372", 0, 0, {}], ["max_pooling2d_10", 0, 0, {}]]], "name": "mixed_6a"}, {"config": {"bias_regularizer": null, "padding": "same", "activity_regularizer": null, "kernel_initializer": {"config": {"seed": null}, "class_name": "GlorotUniform"}, "trainable": true, "filters": 128, "name": "conv2d_374", "data_format": "channels_last", "kernel_regularizer": null, "dilation_rate": [1, 1], "strides": [1, 1], "dtype": "float32", "kernel_size": [1, 1], "bias_initializer": {"config": {}, "class_name": "Zeros"}, "bias_constraint": null, "activation": "linear", "kernel_constraint": null, "use_bias": false}, "class_name": "Conv2D", "inbound_nodes": [[["mixed_6a", 0, 0, {}]]], "name": "conv2d_374"}, {"config": {"center": true, "momentum": 0.99, "scale": false, "moving_mean_initializer": {"config": {}, "class_name": "Zeros"}, "trainable": true, "gamma_constraint": null, "name": "batch_normalization_374", "gamma_regularizer": null, "beta_regularizer": null, "gamma_initializer": {"config": {}, "class_name": "Ones"}, "beta_constraint": null, "dtype": "float32", "beta_initializer": {"config": {}, "class_name": "Zeros"}, "moving_variance_initializer": {"config": {}, "class_name": "Ones"}, "epsilon": 0.001, "axis": [3]}, "class_name": "BatchNormalization", "inbound_nodes": [[["conv2d_374", 0, 0, {}]]], "name": "batch_normalization_374"}, {"config": {"name": "activation_374", "activation": "relu", "dtype": "float32", "trainable": true}, "class_name": "Activation", "inbound_nodes": [[["batch_normalization_374", 0, 0, {}]]], "name": "activation_374"}, {"config": {"bias_regularizer": null, "padding": "same", "activity_regularizer": null, "kernel_initializer": {"config": {"seed": null}, "class_name": "GlorotUniform"}, "trainable": true, "filters": 160, "name": "conv2d_375", "data_format": "channels_last", "kernel_regularizer": null, "dilation_rate": [1, 1], "strides": [1, 1], "dtype": "float32", "kernel_size": [1, 7], "bias_initializer": {"config": {}, "class_name": "Zeros"}, "bias_constraint": null, "activation": "linear", "kernel_constraint": null, "use_bias": false}, "class_name": "Conv2D", "inbound_nodes": [[["activation_374", 0, 0, {}]]], "name": "conv2d_375"}, {"config": {"center": true, "momentum": 0.99, "scale": false, "moving_mean_initializer": {"config": {}, "class_name": "Zeros"}, "trainable": true, "gamma_constraint": null, "name": "batch_normalization_375", "gamma_regularizer": null, "beta_regularizer": null, "gamma_initializer": {"config": {}, "class_name": "Ones"}, "beta_constraint": null, "dtype": "float32", "beta_initializer": {"config": {}, "class_name": "Zeros"}, "moving_variance_initializer": {"config": {}, "class_name": "Ones"}, "epsilon": 0.001, "axis": [3]}, "class_name": "BatchNormalization", "inbound_nodes": [[["conv2d_375", 0, 0, {}]]], "name": "batch_normalization_375"}, {"config": {"name": "activation_375", "activation": "relu", "dtype": "float32", "trainable": true}, "class_name": "Activation", "inbound_nodes": [[["batch_normalization_375", 0, 0, {}]]], "name": "activation_375"}, {"config": {"bias_regularizer": null, "padding": "same", "activity_regularizer": null, "kernel_initializer": {"config": {"seed": null}, "class_name": "GlorotUniform"}, "trainable": true, "filters": 192, "name": "conv2d_373", "data_format": "channels_last", "kernel_regularizer": null, "dilation_rate": [1, 1], "strides": [1, 1], "dtype": "float32", "kernel_size": [1, 1], "bias_initializer": {"config": {}, "class_name": "Zeros"}, "bias_constraint": null, "activation": "linear", "kernel_constraint": null, "use_bias": false}, "class_name": "Conv2D", "inbound_nodes": [[["mixed_6a", 0, 0, {}]]], "name": "conv2d_373"}, {"config": {"bias_regularizer": null, "padding": "same", "activity_regularizer": null, "kernel_initializer": {"config": {"seed": null}, "class_name": "GlorotUniform"}, "trainable": true, "filters": 192, "name": "conv2d_376", "data_format": "channels_last", "kernel_regularizer": null, "dilation_rate": [1, 1], "strides": [1, 1], "dtype": "float32", "kernel_size": [7, 1], "bias_initializer": {"config": {}, "class_name": "Zeros"}, "bias_constraint": null, "activation": "linear", "kernel_constraint": null, "use_bias": false}, "class_name": "Conv2D", "inbound_nodes": [[["activation_375", 0, 0, {}]]], "name": "conv2d_376"}, {"config": {"center": true, "momentum": 0.99, "scale": false, "moving_mean_initializer": {"config": {}, "class_name": "Zeros"}, "trainable": true, "gamma_constraint": null, "name": "batch_normalization_373", "gamma_regularizer": null, "beta_regularizer": null, "gamma_initializer": {"config": {}, "class_name": "Ones"}, "beta_constraint": null, "dtype": "float32", "beta_initializer": {"config": {}, "class_name": "Zeros"}, "moving_variance_initializer": {"config": {}, "class_name": "Ones"}, "epsilon": 0.001, "axis": [3]}, "class_name": "BatchNormalization", "inbound_nodes": [[["conv2d_373", 0, 0, {}]]], "name": "batch_normalization_373"}, {"config": {"center": true, "momentum": 0.99, "scale": false, "moving_mean_initializer": {"config": {}, "class_name": "Zeros"}, "trainable": true, "gamma_constraint": null, "name": "batch_normalization_376", "gamma_regularizer": null, "beta_regularizer": null, "gamma_initializer": {"config": {}, "class_name": "Ones"}, "beta_constraint": null, "dtype": "float32", "beta_initializer": {"config": {}, "class_name": "Zeros"}, "moving_variance_initializer": {"config": {}, "class_name": "Ones"}, "epsilon": 0.001, "axis": [3]}, "class_name": "BatchNormalization", "inbound_nodes": [[["conv2d_376", 0, 0, {}]]], "name": "batch_normalization_376"}, {"config": {"name": "activation_373", "activation": "relu", "dtype": "float32", "trainable": true}, "class_name": "Activation", "inbound_nodes": [[["batch_normalization_373", 0, 0, {}]]], "name": "activation_373"}, {"config": {"name": "activation_376", "activation": "relu", "dtype": "float32", "trainable": true}, "class_name": "Activation", "inbound_nodes": [[["batch_normalization_376", 0, 0, {}]]], "name": "activation_376"}, {"config": {"dtype": "float32", "name": "block17_1_mixed", "axis": 3, "trainable": true}, "class_name": "Concatenate", "inbound_nodes": [[["activation_373", 0, 0, {}], ["activation_376", 0, 0, {}]]], "name": "block17_1_mixed"}, {"config": {"bias_regularizer": null, "padding": "same", "activity_regularizer": null, "kernel_initializer": {"config": {"seed": null}, "class_name": "GlorotUniform"}, "trainable": true, "filters": 1088, "name": "block17_1_conv", "data_format": "channels_last", "kernel_regularizer": null, "dilation_rate": [1, 1], "strides": [1, 1], "dtype": "float32", "kernel_size": [1, 1], "bias_initializer": {"config": {}, "class_name": "Zeros"}, "bias_constraint": null, "activation": "linear", "kernel_constraint": null, "use_bias": true}, "class_name": "Conv2D", "inbound_nodes": [[["block17_1_mixed", 0, 0, {}]]], "name": "block17_1_conv"}, {"config": {"function": ["4wIAAAAAAAAAAgAAAAMAAABTAAAAcxQAAAB8AABkAQAZfAAAZAIAGXwBABQXUykDTukAAAAA6QEA\nAACpACkC2gZpbnB1dHPaBXNjYWxlcgMAAAByAwAAAPpxQzovVXNlcnMva3oxOTkvQXBwRGF0YS9M\nb2NhbC9Qcm9ncmFtcy9QeXRob24vUHl0aG9uMzUvbGliL3NpdGUtcGFja2FnZXMva2VyYXNfYXBw\nbGljYXRpb25zL2luY2VwdGlvbl9yZXNuZXRfdjIucHnaCDxsYW1iZGE+qAAAAPMAAAAA\n", null, null], "function_type": "lambda", "dtype": "float32", "trainable": true, "output_shape": [14, 14, 1088], "name": "block17_1", "arguments": {"scale": 0.1}, "output_shape_type": "raw", "output_shape_module": null, "module": "keras_applications.inception_resnet_v2"}, "class_name": "Lambda", "inbound_nodes": [[["mixed_6a", 0, 0, {}], ["block17_1_conv", 0, 0, {}]]], "name": "block17_1"}, {"config": {"name": "block17_1_ac", "activation": "relu", "dtype": "float32", "trainable": true}, "class_name": "Activation", "inbound_nodes": [[["block17_1", 0, 0, {}]]], "name": "block17_1_ac"}, {"config": {"bias_regularizer": null, "padding": "same", "activity_regularizer": null, "kernel_initializer": {"config": {"seed": null}, "class_name": "GlorotUniform"}, "trainable": true, "filters": 128, "name": "conv2d_378", "data_format": "channels_last", "kernel_regularizer": null, "dilation_rate": [1, 1], "strides": [1, 1], "dtype": "float32", "kernel_size": [1, 1], "bias_initializer": {"config": {}, "class_name": "Zeros"}, "bias_constraint": null, "activation": "linear", "kernel_constraint": null, "use_bias": false}, "class_name": "Conv2D", "inbound_nodes": [[["block17_1_ac", 0, 0, {}]]], "name": "conv2d_378"}, {"config": {"center": true, "momentum": 0.99, "scale": false, "moving_mean_initializer": {"config": {}, "class_name": "Zeros"}, "trainable": true, "gamma_constraint": null, "name": "batch_normalization_378", "gamma_regularizer": null, "beta_regularizer": null, "gamma_initializer": {"config": {}, "class_name": "Ones"}, "beta_constraint": null, "dtype": "float32", "beta_initializer": {"config": {}, "class_name": "Zeros"}, "moving_variance_initializer": {"config": {}, "class_name": "Ones"}, "epsilon": 0.001, "axis": [3]}, "class_name": "BatchNormalization", "inbound_nodes": [[["conv2d_378", 0, 0, {}]]], "name": "batch_normalization_378"}, {"config": {"name": "activation_378", "activation": "relu", "dtype": "float32", "trainable": true}, "class_name": "Activation", "inbound_nodes": [[["batch_normalization_378", 0, 0, {}]]], "name": "activation_378"}, {"config": {"bias_regularizer": null, "padding": "same", "activity_regularizer": null, "kernel_initializer": {"config": {"seed": null}, "class_name": "GlorotUniform"}, "trainable": true, "filters": 160, "name": "conv2d_379", "data_format": "channels_last", "kernel_regularizer": null, "dilation_rate": [1, 1], "strides": [1, 1], "dtype": "float32", "kernel_size": [1, 7], "bias_initializer": {"config": {}, "class_name": "Zeros"}, "bias_constraint": null, "activation": "linear", "kernel_constraint": null, "use_bias": false}, "class_name": "Conv2D", "inbound_nodes": [[["activation_378", 0, 0, {}]]], "name": "conv2d_379"}, {"config": {"center": true, "momentum": 0.99, "scale": false, "moving_mean_initializer": {"config": {}, "class_name": "Zeros"}, "trainable": true, "gamma_constraint": null, "name": "batch_normalization_379", "gamma_regularizer": null, "beta_regularizer": null, "gamma_initializer": {"config": {}, "class_name": "Ones"}, "beta_constraint": null, "dtype": "float32", "beta_initializer": {"config": {}, "class_name": "Zeros"}, "moving_variance_initializer": {"config": {}, "class_name": "Ones"}, "epsilon": 0.001, "axis": [3]}, "class_name": "BatchNormalization", "inbound_nodes": [[["conv2d_379", 0, 0, {}]]], "name": "batch_normalization_379"}, {"config": {"name": "activation_379", "activation": "relu", "dtype": "float32", "trainable": true}, "class_name": "Activation", "inbound_nodes": [[["batch_normalization_379", 0, 0, {}]]], "name": "activation_379"}, {"config": {"bias_regularizer": null, "padding": "same", "activity_regularizer": null, "kernel_initializer": {"config": {"seed": null}, "class_name": "GlorotUniform"}, "trainable": true, "filters": 192, "name": "conv2d_377", "data_format": "channels_last", "kernel_regularizer": null, "dilation_rate": [1, 1], "strides": [1, 1], "dtype": "float32", "kernel_size": [1, 1], "bias_initializer": {"config": {}, "class_name": "Zeros"}, "bias_constraint": null, "activation": "linear", "kernel_constraint": null, "use_bias": false}, "class_name": "Conv2D", "inbound_nodes": [[["block17_1_ac", 0, 0, {}]]], "name": "conv2d_377"}, {"config": {"bias_regularizer": null, "padding": "same", "activity_regularizer": null, "kernel_initializer": {"config": {"seed": null}, "class_name": "GlorotUniform"}, "trainable": true, "filters": 192, "name": "conv2d_380", "data_format": "channels_last", "kernel_regularizer": null, "dilation_rate": [1, 1], "strides": [1, 1], "dtype": "float32", "kernel_size": [7, 1], "bias_initializer": {"config": {}, "class_name": "Zeros"}, "bias_constraint": null, "activation": "linear", "kernel_constraint": null, "use_bias": false}, "class_name": "Conv2D", "inbound_nodes": [[["activation_379", 0, 0, {}]]], "name": "conv2d_380"}, {"config": {"center": true, "momentum": 0.99, "scale": false, "moving_mean_initializer": {"config": {}, "class_name": "Zeros"}, "trainable": true, "gamma_constraint": null, "name": "batch_normalization_377", "gamma_regularizer": null, "beta_regularizer": null, "gamma_initializer": {"config": {}, "class_name": "Ones"}, "beta_constraint": null, "dtype": "float32", "beta_initializer": {"config": {}, "class_name": "Zeros"}, "moving_variance_initializer": {"config": {}, "class_name": "Ones"}, "epsilon": 0.001, "axis": [3]}, "class_name": "BatchNormalization", "inbound_nodes": [[["conv2d_377", 0, 0, {}]]], "name": "batch_normalization_377"}, {"config": {"center": true, "momentum": 0.99, "scale": false, "moving_mean_initializer": {"config": {}, "class_name": "Zeros"}, "trainable": true, "gamma_constraint": null, "name": "batch_normalization_380", "gamma_regularizer": null, "beta_regularizer": null, "gamma_initializer": {"config": {}, "class_name": "Ones"}, "beta_constraint": null, "dtype": "float32", "beta_initializer": {"config": {}, "class_name": "Zeros"}, "moving_variance_initializer": {"config": {}, "class_name": "Ones"}, "epsilon": 0.001, "axis": [3]}, "class_name": "BatchNormalization", "inbound_nodes": [[["conv2d_380", 0, 0, {}]]], "name": "batch_normalization_380"}, {"config": {"name": "activation_377", "activation": "relu", "dtype": "float32", "trainable": true}, "class_name": "Activation", "inbound_nodes": [[["batch_normalization_377", 0, 0, {}]]], "name": "activation_377"}, {"config": {"name": "activation_380", "activation": "relu", "dtype": "float32", "trainable": true}, "class_name": "Activation", "inbound_nodes": [[["batch_normalization_380", 0, 0, {}]]], "name": "activation_380"}, {"config": {"dtype": "float32", "name": "block17_2_mixed", "axis": 3, "trainable": true}, "class_name": "Concatenate", "inbound_nodes": [[["activation_377", 0, 0, {}], ["activation_380", 0, 0, {}]]], "name": "block17_2_mixed"}, {"config": {"bias_regularizer": null, "padding": "same", "activity_regularizer": null, "kernel_initializer": {"config": {"seed": null}, "class_name": "GlorotUniform"}, "trainable": true, "filters": 1088, "name": "block17_2_conv", "data_format": "channels_last", "kernel_regularizer": null, "dilation_rate": [1, 1], "strides": [1, 1], "dtype": "float32", "kernel_size": [1, 1], "bias_initializer": {"config": {}, "class_name": "Zeros"}, "bias_constraint": null, "activation": "linear", "kernel_constraint": null, "use_bias": true}, "class_name": "Conv2D", "inbound_nodes": [[["block17_2_mixed", 0, 0, {}]]], "name": "block17_2_conv"}, {"config": {"function": ["4wIAAAAAAAAAAgAAAAMAAABTAAAAcxQAAAB8AABkAQAZfAAAZAIAGXwBABQXUykDTukAAAAA6QEA\nAACpACkC2gZpbnB1dHPaBXNjYWxlcgMAAAByAwAAAPpxQzovVXNlcnMva3oxOTkvQXBwRGF0YS9M\nb2NhbC9Qcm9ncmFtcy9QeXRob24vUHl0aG9uMzUvbGliL3NpdGUtcGFja2FnZXMva2VyYXNfYXBw\nbGljYXRpb25zL2luY2VwdGlvbl9yZXNuZXRfdjIucHnaCDxsYW1iZGE+qAAAAPMAAAAA\n", null, null], "function_type": "lambda", "dtype": "float32", "trainable": true, "output_shape": [14, 14, 1088], "name": "block17_2", "arguments": {"scale": 0.1}, "output_shape_type": "raw", "output_shape_module": null, "module": "keras_applications.inception_resnet_v2"}, "class_name": "Lambda", "inbound_nodes": [[["block17_1_ac", 0, 0, {}], ["block17_2_conv", 0, 0, {}]]], "name": "block17_2"}, {"config": {"name": "block17_2_ac", "activation": "relu", "dtype": "float32", "trainable": true}, "class_name": "Activation", "inbound_nodes": [[["block17_2", 0, 0, {}]]], "name": "block17_2_ac"}, {"config": {"bias_regularizer": null, "padding": "same", "activity_regularizer": null, "kernel_initializer": {"config": {"seed": null}, "class_name": "GlorotUniform"}, "trainable": true, "filters": 128, "name": "conv2d_382", "data_format": "channels_last", "kernel_regularizer": null, "dilation_rate": [1, 1], "strides": [1, 1], "dtype": "float32", "kernel_size": [1, 1], "bias_initializer": {"config": {}, "class_name": "Zeros"}, "bias_constraint": null, "activation": "linear", "kernel_constraint": null, "use_bias": false}, "class_name": "Conv2D", "inbound_nodes": [[["block17_2_ac", 0, 0, {}]]], "name": "conv2d_382"}, {"config": {"center": true, "momentum": 0.99, "scale": false, "moving_mean_initializer": {"config": {}, "class_name": "Zeros"}, "trainable": true, "gamma_constraint": null, "name": "batch_normalization_382", "gamma_regularizer": null, "beta_regularizer": null, "gamma_initializer": {"config": {}, "class_name": "Ones"}, "beta_constraint": null, "dtype": "float32", "beta_initializer": {"config": {}, "class_name": "Zeros"}, "moving_variance_initializer": {"config": {}, "class_name": "Ones"}, "epsilon": 0.001, "axis": [3]}, "class_name": "BatchNormalization", "inbound_nodes": [[["conv2d_382", 0, 0, {}]]], "name": "batch_normalization_382"}, {"config": {"name": "activation_382", "activation": "relu", "dtype": "float32", "trainable": true}, "class_name": "Activation", "inbound_nodes": [[["batch_normalization_382", 0, 0, {}]]], "name": "activation_382"}, {"config": {"bias_regularizer": null, "padding": "same", "activity_regularizer": null, "kernel_initializer": {"config": {"seed": null}, "class_name": "GlorotUniform"}, "trainable": true, "filters": 160, "name": "conv2d_383", "data_format": "channels_last", "kernel_regularizer": null, "dilation_rate": [1, 1], "strides":…
, 1], "bias_initializer": {"config": {}, "class_name": "Zeros"}, "bias_constraint": null, "activation": "linear", "kernel_constraint": null, "use_bias": true}, "class_name": "Conv2D", "inbound_nodes": [[["block8_4_mixed", 0, 0, {}]]], "name": "block8_4_conv"}, {"config": {"function": ["4wIAAAAAAAAAAgAAAAMAAABTAAAAcxQAAAB8AABkAQAZfAAAZAIAGXwBABQXUykDTukAAAAA6QEA\nAACpACkC2gZpbnB1dHPaBXNjYWxlcgMAAAByAwAAAPpxQzovVXNlcnMva3oxOTkvQXBwRGF0YS9M\nb2NhbC9Qcm9ncmFtcy9QeXRob24vUHl0aG9uMzUvbGliL3NpdGUtcGFja2FnZXMva2VyYXNfYXBw\nbGljYXRpb25zL2luY2VwdGlvbl9yZXNuZXRfdjIucHnaCDxsYW1iZGE+qAAAAPMAAAAA\n", null, null], "function_type": "lambda", "dtype": "float32", "trainable": true, "output_shape": [6, 6, 2080], "name": "block8_4", "arguments": {"scale": 0.2}, "output_shape_type": "raw", "output_shape_module": null, "module": "keras_applications.inception_resnet_v2"}, "class_name": "Lambda", "inbound_nodes": [[["block8_3_ac", 0, 0, {}], ["block8_4_conv", 0, 0, {}]]], "name": "block8_4"}, {"config": {"name": "block8_4_ac", "activation": "relu", "dtype": "float32", "trainable": true}, "class_name": "Activation", "inbound_nodes": [[["block8_4", 0, 0, {}]]], "name": "block8_4_ac"}, {"config": {"bias_regularizer": null, "padding": "same", "activity_regularizer": null, "kernel_initializer": {"config": {"seed": null}, "class_name": "GlorotUniform"}, "trainable": true, "filters": 192, "name": "conv2d_477", "data_format": "channels_last", "kernel_regularizer": null, "dilation_rate": [1, 1], "strides": [1, 1], "dtype": "float32", "kernel_size": [1, 1], "bias_initializer": {"config": {}, "class_name": "Zeros"}, "bias_constraint": null, "activation": "linear", "kernel_constraint": null, "use_bias": false}, "class_name": "Conv2D", "inbound_nodes": [[["block8_4_ac", 0, 0, {}]]], "name": "conv2d_477"}, {"config": {"center": true, "momentum": 0.99, "scale": false, "moving_mean_initializer": {"config": {}, "class_name": "Zeros"}, "trainable": true, "gamma_constraint": null, "name": "batch_normalization_477", "gamma_regularizer": null, "beta_regularizer": null, "gamma_initializer": {"config": {}, "class_name": "Ones"}, "beta_constraint": null, "dtype": "float32", "beta_initializer": {"config": {}, "class_name": "Zeros"}, "moving_variance_initializer": {"config": {}, "class_name": "Ones"}, "epsilon": 0.001, "axis": [3]}, "class_name": "BatchNormalization", "inbound_nodes": [[["conv2d_477", 0, 0, {}]]], "name": "batch_normalization_477"}, {"config": {"name": "activation_477", "activation": "relu", "dtype": "float32", "trainable": true}, "class_name": "Activation", "inbound_nodes": [[["batch_normalization_477", 0, 0, {}]]], "name": "activation_477"}, {"config": {"bias_regularizer": null, "padding": "same", "activity_regularizer": null, "kernel_initializer": {"config": {"seed": null}, "class_name": "GlorotUniform"}, "trainable": true, "filters": 224, "name": "conv2d_478", "data_format": "channels_last", "kernel_regularizer": null, "dilation_rate": [1, 1], "strides": [1, 1], "dtype": "float32", "kernel_size": [1, 3], "bias_initializer": {"config": {}, "class_name": "Zeros"}, "bias_constraint": null, "activation": "linear", "kernel_constraint": null, "use_bias": false}, "class_name": "Conv2D", "inbound_nodes": [[["activation_477", 0, 0, {}]]], "name": "conv2d_478"}, {"config": {"center": true, "momentum": 0.99, "scale": false, "moving_mean_initializer": {"config": {}, "class_name": "Zeros"}, "trainable": true, "gamma_constraint": null, "name": "batch_normalization_478", "gamma_regularizer": null, "beta_regularizer": null, "gamma_initializer": {"config": {}, "class_name": "Ones"}, "beta_constraint": null, "dtype": "float32", "beta_initializer": {"config": {}, "class_name": "Zeros"}, "moving_variance_initializer": {"config": {}, "class_name": "Ones"}, "epsilon": 0.001, "axis": [3]}, "class_name": "BatchNormalization", "inbound_nodes": [[["conv2d_478", 0, 0, {}]]], "name": "batch_normalization_478"}, {"config": {"name": "activation_478", "activation": "relu", "dtype": "float32", "trainable": true}, "class_name": "Activation", "inbound_nodes": [[["batch_normalization_478", 0, 0, {}]]], "name": "activation_478"}, {"config": {"bias_regularizer": null, "padding": "same", "activity_regularizer": null, "kernel_initializer": {"config": {"seed": null}, "class_name": "GlorotUniform"}, "trainable": true, "filters": 192, "name": "conv2d_476", "data_format": "channels_last", "kernel_regularizer": null, "dilation_rate": [1, 1], "strides": [1, 1], "dtype": "float32", "kernel_size": [1, 1], "bias_initializer": {"config": {}, "class_name": "Zeros"}, "bias_constraint": null, "activation": "linear", "kernel_constraint": null, "use_bias": false}, "class_name": "Conv2D", "inbound_nodes": [[["block8_4_ac", 0, 0, {}]]], "name": "conv2d_476"}, {"config": {"bias_regularizer": null, "padding": "same", "activity_regularizer": null, "kernel_initializer": {"config": {"seed": null}, "class_name": "GlorotUniform"}, "trainable": true, "filters": 256, "name": "conv2d_479", "data_format": "channels_last", "kernel_regularizer": null, "dilation_rate": [1, 1], "strides": [1, 1], "dtype": "float32", "kernel_size": [3, 1], "bias_initializer": {"config": {}, "class_name": "Zeros"}, "bias_constraint": null, "activation": "linear", "kernel_constraint": null, "use_bias": false}, "class_name": "Conv2D", "inbound_nodes": [[["activation_478", 0, 0, {}]]], "name": "conv2d_479"}, {"config": {"center": true, "momentum": 0.99, "scale": false, "moving_mean_initializer": {"config": {}, "class_name": "Zeros"}, "trainable": true, "gamma_constraint": null, "name": "batch_normalization_476", "gamma_regularizer": null, "beta_regularizer": null, "gamma_initializer": {"config": {}, "class_name": "Ones"}, "beta_constraint": null, "dtype": "float32", "beta_initializer": {"config": {}, "class_name": "Zeros"}, "moving_variance_initializer": {"config": {}, "class_name": "Ones"}, "epsilon": 0.001, "axis": [3]}, "class_name": "BatchNormalization", "inbound_nodes": [[["conv2d_476", 0, 0, {}]]], "name": "batch_normalization_476"}, {"config": {"center": true, "momentum": 0.99, "scale": false, "moving_mean_initializer": {"config": {}, "class_name": "Zeros"}, "trainable": true, "gamma_constraint": null, "name": "batch_normalization_479", "gamma_regularizer": null, "beta_regularizer": null, "gamma_initializer": {"config": {}, "class_name": "Ones"}, "beta_constraint": null, "dtype": "float32", "beta_initializer": {"config": {}, "class_name": "Zeros"}, "moving_variance_initializer": {"config": {}, "class_name": "Ones"}, "epsilon": 0.001, "axis": [3]}, "class_name": "BatchNormalization", "inbound_nodes": [[["conv2d_479", 0, 0, {}]]], "name": "batch_normalization_479"}, {"config": {"name": "activation_476", "activation": "relu", "dtype": "float32", "trainable": true}, "class_name": "Activation", "inbound_nodes": [[["batch_normalization_476", 0, 0, {}]]], "name": "activation_476"}, {"config": {"name": "activation_479", "activation": "relu", "dtype": "float32", "trainable": true}, "class_name": "Activation", "inbound_nodes": [[["batch_normalization_479", 0, 0, {}]]], "name": "activation_479"}, {"config": {"dtype": "float32", "name": "block8_5_mixed", "axis": 3, "trainable": true}, "class_name": "Concatenate", "inbound_nodes": [[["activation_476", 0, 0, {}], ["activation_479", 0, 0, {}]]], "name": "block8_5_mixed"}, {"config": {"bias_regularizer": null, "padding": "same", "activity_regularizer": null, "kernel_initializer": {"config": {"seed": null}, "class_name": "GlorotUniform"}, "trainable": true, "filters": 2080, "name": "block8_5_conv", "data_format": "channels_last", "kernel_regularizer": null, "dilation_rate": [1, 1], "strides": [1, 1], "dtype": "float32", "kernel_size": [1, 1], "bias_initializer": {"config": {}, "class_name": "Zeros"}, "bias_constraint": null, "activation": "linear", "kernel_constraint": null, "use_bias": true}, "class_name": "Conv2D", "inbound_nodes": [[["block8_5_mixed", 0, 0, {}]]], "name": "block8_5_conv"}, {"config": {"function": ["4wIAAAAAAAAAAgAAAAMAAABTAAAAcxQAAAB8AABkAQAZfAAAZAIAGXwBABQXUykDTukAAAAA6QEA\nAACpACkC2gZpbnB1dHPaBXNjYWxlcgMAAAByAwAAAPpxQzovVXNlcnMva3oxOTkvQXBwRGF0YS9M\nb2NhbC9Qcm9ncmFtcy9QeXRob24vUHl0aG9uMzUvbGliL3NpdGUtcGFja2FnZXMva2VyYXNfYXBw\nbGljYXRpb25zL2luY2VwdGlvbl9yZXNuZXRfdjIucHnaCDxsYW1iZGE+qAAAAPMAAAAA\n", null, null], "function_type": "lambda", "dtype": "float32", "trainable": true, "output_shape": [6, 6, 2080], "name": "block8_5", "arguments": {"scale": 0.2}, "output_shape_type": "raw", "output_shape_module": null, "module": "keras_applications.inception_resnet_v2"}, "class_name": "Lambda", "inbound_nodes": [[["block8_4_ac", 0, 0, {}], ["block8_5_conv", 0, 0, {}]]], "name": "block8_5"}, {"config": {"name": "block8_5_ac", "activation": "relu", "dtype": "float32", "trainable": true}, "class_name": "Activation", "inbound_nodes": [[["block8_5", 0, 0, {}]]], "name": "block8_5_ac"}, {"config": {"bias_regularizer": null, "padding": "same", "activity_regularizer": null, "kernel_initializer": {"config": {"seed": null}, "class_name": "GlorotUniform"}, "trainable": true, "filters": 192, "name": "conv2d_481", "data_format": "channels_last", "kernel_regularizer": null, "dilation_rate": [1, 1], "strides": [1, 1], "dtype": "float32", "kernel_size": [1, 1], "bias_initializer": {"config": {}, "class_name": "Zeros"}, "bias_constraint": null, "activation": "linear", "kernel_constraint": null, "use_bias": false}, "class_name": "Conv2D", "inbound_nodes": [[["block8_5_ac", 0, 0, {}]]], "name": "conv2d_481"}, {"config": {"center": true, "momentum": 0.99, "scale": false, "moving_mean_initializer": {"config": {}, "class_name": "Zeros"}, "trainable": true, "gamma_constraint": null, "name": "batch_normalization_481", "gamma_regularizer": null, "beta_regularizer": null, "gamma_initializer": {"config": {}, "class_name": "Ones"}, "beta_constraint": null, "dtype": "float32", "beta_initializer": {"config": {}, "class_name": "Zeros"}, "moving_variance_initializer": {"config": {}, "class_name": "Ones"}, "epsilon": 0.001, "axis": [3]}, "class_name": "BatchNormalization", "inbound_nodes": [[["conv2d_481", 0, 0, {}]]], "name": "batch_normalization_481"}, {"config": {"name": "activation_481", "activation": "relu", "dtype": "float32", "trainable": true}, "class_name": "Activation", "inbound_nodes": [[["batch_normalization_481", 0, 0, {}]]], "name": "activation_481"}, {"config": {"bias_regularizer": null, "padding": "same", "activity_regularizer": null, "kernel_initializer": {"config": {"seed": null}, "class_name": "GlorotUniform"}, "trainable": true, "filters": 224, "name": "conv2d_482", "data_format": "channels_last", "kernel_regularizer": null, "dilation_rate": [1, 1], "strides": [1, 1], "dtype": "float32", "kernel_size": [1, 3], "bias_initializer": {"config": {}, "class_name": "Zeros"}, "bias_constraint": null, "activation": "linear", "kernel_constraint": null, "use_bias": false}, "class_name": "Conv2D", "inbound_nodes": [[["activation_481", 0, 0, {}]]], "name": "conv2d_482"}, {"config": {"center": true, "momentum": 0.99, "scale": false, "moving_mean_initializer": {"config": {}, "class_name": "Zeros"}, "trainable": true, "gamma_constraint": null, "name": "batch_normalization_482", "gamma_regularizer": null, "beta_regularizer": null, "gamma_initializer": {"config": {}, "class_name": "Ones"}, "beta_constraint": null, "dtype": "float32", "beta_initializer": {"config": {}, "class_name": "Zeros"}, "moving_variance_initializer": {"config": {}, "class_name": "Ones"}, "epsilon": 0.001, "axis": [3]}, "class_name": "BatchNormalization", "inbound_nodes": [[["conv2d_482", 0, 0, {}]]], "name": "batch_normalization_482"}, {"config": {"name": "activation_482", "activation": "relu", "dtype": "float32", "trainable": true}, "class_name": "Activation", "inbound_nodes": [[["batch_normalization_482", 0, 0, {}]]], "name": "activation_482"}, {"config": {"bias_regularizer": null, "padding": "same", "activity_regularizer": null, "kernel_initializer": {"config": {"seed": null}, "class_name": "GlorotUniform"}, "trainable": true, "filters": 192, "name": "conv2d_480", "data_format": "channels_last", "kernel_regularizer": null, "dilation_rate": [1, 1], "strides": [1, 1], "dtype": "float32", "kernel_size": [1, 1], "bias_initializer": {"config": {}, "class_name": "Zeros"}, "bias_constraint": null, "activation": "linear", "kernel_constraint": null, "use_bias": false}, "class_name": "Conv2D", "inbound_nodes": [[["block8_5_ac", 0, 0, {}]]], "name": "conv2d_480"}, {"config": {"bias_regularizer": null, "padding": "same", "activity_regularizer": null, "kernel_initializer": {"config": {"seed": null}, "class_name": "GlorotUniform"}, "trainable": true, "filters": 256, "name": "conv2d_483", "data_format": "channels_last", "kernel_regularizer": null, "dilation_rate": [1, 1], "strides": [1, 1], "dtype": "float32", "kernel_size": [3, 1], "bias_initializer": {"config": {}, "class_name": "Zeros"}, "bias_constraint": null, "activation": "linear", "kernel_constraint": null, "use_bias": false}, "class_name": "Conv2D", "inbound_nodes": [[["activation_482", 0, 0, {}]]], "name": "conv2d_483"}, {"config": {"center": true, "momentum": 0.99, "scale": false, "moving_mean_initializer": {"config": {}, "class_name": "Zeros"}, "trainable": true, "gamma_constraint": null, "name": "batch_normalization_480", "gamma_regularizer": null, "beta_regularizer": null, "gamma_initializer": {"config": {}, "class_name": "Ones"}, "beta_constraint": null, "dtype": "float32", "beta_initializer": {"config": {}, "class_name": "Zeros"}, "moving_variance_initializer": {"config": {}, "class_name": "Ones"}, "epsilon": 0.001, "axis": [3]}, "class_name": "BatchNormalization", "inbound_nodes": [[["conv2d_480", 0, 0, {}]]], "name": "batch_normalization_480"}, {"config": {"center": true, "momentum": 0.99, "scale": false, "moving_mean_initializer": {"config": {}, "class_name": "Zeros"}, "trainable": true, "gamma_constraint": null, "name": "batch_normalization_483", "gamma_regularizer": null, "beta_regularizer": null, "gamma_initializer": {"config": {}, "class_name": "Ones"}, "beta_constraint": null, "dtype": "float32", "beta_initializer": {"config": {}, "class_name": "Zeros"}, "moving_variance_initializer": {"config": {}, "class_name": "Ones"}, "epsilon": 0.001, "axis": [3]}, "class_name": "BatchNormalization", "inbound_nodes": [[["conv2d_483", 0, 0, {}]]], "name": "batch_normalization_483"}, {"config": {"name": "activation_480", "activation": "relu", "dtype": "float32", "trainable": true}, "class_name": "Activation", "inbound_nodes": [[["batch_normalization_480", 0, 0, {}]]], "name": "activation_480"}, {"config": {"name": "activation_483", "activation": "relu", "dtype": "float32", "trainable": true}, "class_name": "Activation", "inbound_nodes": [[["batch_normalization_483", 0, 0, {}]]], "name": "activation_483"}, {"config": {"dtype": "float32", "name": "block8_6_mixed", "axis": 3, "trainable": true}, "class_name": "Concatenate", "inbound_nodes": [[["activation_480", 0, 0, {}], ["activation_483", 0, 0, {}]]], "name": "block8_6_mixed"}, {"config": {"bias_regularizer": null, "padding": "same", "activity_regularizer": null, "kernel_initializer": {"config": {"seed": null}, "class_name": "GlorotUniform"}, "trainable": true, "filters": 2080, "name": "block8_6_conv", "data_format": "channels_last", "kernel_regularizer": null, "dilation_rate": [1, 1], "strides": [1, 1], "dtype": "float32", "kernel_size": [1, 1], "bias_initializer": {"config": {}, "class_name": "Zeros"}, "bias_constraint": null, "activation": "linear", "kernel_constraint": null, "use_bias": true}, "class_name": "Conv2D", "inbound_nodes": [[["block8_6_mixed", 0, 0, {}]]], "name": "block8_6_conv"}, {"config": {"function": ["4wIAAAAAAAAAAgAAAAMAAABTAAAAcxQAAAB8AABkAQAZfAAAZAIAGXwBABQXUykDTukAAAAA6QEA\nAACpACkC2gZpbnB1dHPaBXNjYWxlcgMAAAByAwAAAPpxQzovVXNlcnMva3oxOTkvQXBwRGF0YS9M\nb2NhbC9Qcm9ncmFtcy9QeXRob24vUHl0aG9uMzUvbGliL3NpdGUtcGFja2FnZXMva2VyYXNfYXBw\nbGljYXRpb25zL2luY2VwdGlvbl9yZXNuZXRfdjIucHnaCDxsYW1iZGE+qAAAAPMAAAAA\n", null, null], "function_type": "lambda", "dtype": "float32", "trainable": true, "output_shape": [6, 6, 2080], "name": "block8_6", "arguments": {"scale": 0.2}, "output_shape_type": "raw", "output_shape_module": null, "module": "keras_applications.inception_resnet_v2"}, "class_name": "Lambda", "inbound_nodes": [[["block8_5_ac", 0, 0, {}], ["block8_6_conv", 0, 0, {}]]], "name": "block8_6"}, {"config": {"name": "block8_6_ac", "activation": "relu", "dtype": "float32", "trainable": true}, "class_name": "Activation", "inbound_nodes": [[["block8_6", 0, 0, {}]]], "name": "block8_6_ac"}, {"config": {"bias_regularizer": null, "padding": "same", "activity_regularizer": null, "kernel_initializer": {"config": {"seed": null}, "class_name": "GlorotUniform"}, "trainable": true, "filters": 192, "name": "conv2d_485", "data_format": "channels_last", "kernel_regularizer": null, "dilation_rate": [1, 1], "strides": [1, 1], "dtype": "float32", "kernel_size": [1, 1], "bias_initializer": {"config": {}, "class_name": "Zeros"}, "bias_constraint": null, "activation": "linear", "kernel_constraint": null, "use_bias": false}, "class_name": "Conv2D", "inbound_nodes": [[["block8_6_ac", 0, 0, {}]]], "name": "conv2d_485"}, {"config": {"center": true, "momentum": 0.99, "scale": false, "moving_mean_initializer": {"config": {}, "class_name": "Zeros"}, "trainable": true, "gamma_constraint": null, "name": "batch_normalization_485", "gamma_regularizer": null, "beta_regularizer": null, "gamma_initializer": {"config": {}, "class_name": "Ones"}, "beta_constraint": null, "dtype": "float32", "beta_initializer": {"config": {}, "class_name": "Zeros"}, "moving_variance_initializer": {"config": {}, "class_name": "Ones"}, "epsilon": 0.001, "axis": [3]}, "class_name": "BatchNormalization", "inbound_nodes": [[["conv2d_485", 0, 0, {}]]], "name": "batch_normalization_485"}, {"config": {"name": "activation_485", "activation": "relu", "dtype": "float32", "trainable": true}, "class_name": "Activation", "inbound_nodes": [[["batch_normalization_485", 0, 0, {}]]], "name": "activation_485"}, {"config": {"bias_regularizer": null, "padding": "same", "activity_regularizer": null, "kernel_initializer": {"config": {"seed": null}, "class_name": "GlorotUniform"}, "trainable": true, "filters": 224, "name": "conv2d_486", "data_format": "channels_last", "kernel_regularizer": null, "dilation_rate": [1, 1], "strides": [1, 1], "dtype": "float32", "kernel_size": [1, 3], "bias_initializer": {"config": {}, "class_name": "Zeros"}, "bias_constraint": null, "activation": "linear", "kernel_constraint": null, "use_bias": false}, "class_name": "Conv2D", "inbound_nodes": [[["activation_485", 0, 0, {}]]], "name": "conv2d_486"}, {"config": {"center": true, "momentum": 0.99, "scale": false, "moving_mean_initializer": {"config": {}, "class_name": "Zeros"}, "trainable": true, "gamma_constraint": null, "name": "batch_normalization_486", "gamma_regularizer": null, "beta_regularizer": null, "gamma_initializer": {"config": {}, "class_name": "Ones"}, "beta_constraint": null, "dtype": "float32", "beta_initializer": {"config": {}, "class_name": "Zeros"}, "moving_variance_initializer": {"config": {}, "class_name": "Ones"}, "epsilon": 0.001, "axis": [3]}, "class_name": "BatchNormalization", "inbound_nodes": [[["conv2d_486", 0, 0, {}]]], "name": "batch_normalization_486"}, {"config": {"name": "activation_486", "activation": "relu", "dtype": "float32", "trainable": true}, "class_name": "Activation", "inbound_nodes": [[["batch_normalization_486", 0, 0, {}]]], "name": "activation_486"}, {"config": {"bias_regularizer": null, "padding": "same", "activity_regularizer": null, "kernel_initializer": {"config": {"seed": null}, "class_name": "GlorotUniform"}, "trainable": true, "filters": 192, "name": "conv2d_484", "data_format": "channels_last", "kernel_regularizer": null, "dilation_rate": [1, 1], "strides": [1, 1], "dtype": "float32", "kernel_size": [1, 1], "bias_initializer": {"config": {}, "class_name": "Zeros"}, "bias_constraint": null, "activation": "linear", "kernel_constraint": null, "use_bias": false}, "class_name": "Conv2D", "inbound_nodes": [[["block8_6_ac", 0, 0, {}]]], "name": "conv2d_484"}, {"config": {"bias_regularizer": null, "padding": "same", "activity_regularizer": null, "kernel_initializer": {"config": {"seed": null}, "class_name": "GlorotUniform"}, "trainable": true, "filters": 256, "name": "conv2d_487", "data_format": "channels_last", "kernel_regularizer": null, "dilation_rate": [1, 1], "strides": [1, 1], "dtype": "float32", "kernel_size": [3, 1], "bias_initializer": {"config": {}, "class_name": "Zeros"}, "bias_constraint": null, "activation": "linear", "kernel_constraint": null, "use_bias": false}, "class_name": "Conv2D", "inbound_nodes": [[["activation_486", 0, 0, {}]]], "name": "conv2d_487"}, {"config": {"center": true, "momentum": 0.99, "scale": false, "moving_mean_initializer": {"config": {}, "class_name": "Zeros"}, "trainable": true, "gamma_constraint": null, "name": "batch_normalization_484", "gamma_regularizer": null, "beta_regularizer": null, "gamma_initializer": {"config": {}, "class_name": "Ones"}, "beta_constraint": null, "dtype": "float32", "beta_initializer": {"config": {}, "class_name": "Zeros"}, "moving_variance_initializer": {"config": {}, "class_name": "Ones"}, "epsilon": 0.001, "axis": [3]}, "class_name": "BatchNormalization", "inbound_nodes": [[["conv2d_484", 0, 0, {}]]], "name": "batch_normalization_484"}, {"config": {"center": true, "momentum": 0.99, "scale": false, "moving_mean_initializer": {"config": {}, "class_name": "Zeros"}, "trainable": true, "gamma_constraint": null, "name": "batch_normalization_487", "gamma_regularizer": null, "beta_regularizer": null, "gamma_initializer": {"config": {}, "class_name": "Ones"}, "beta_constraint": null, "dtype": "float32", "beta_initializer": {"config": {}, "class_name": "Zeros"}, "moving_variance_initializer": {"config": {}, "class_name": "Ones"}, "epsilon": 0.001, "axis": [3]}, "class_name": "BatchNormalization", "inbound_nodes": [[["conv2d_487", 0, 0, {}]]], "name": "batch_normalization_487"}, {"config": {"name": "activation_484", "activation": "relu", "dtype": "float32", "trainable": true}, "class_name": "Activation", "inbound_nodes": [[["batch_normalization_484", 0, 0, {}]]], "name": "activation_484"}, {"config": {"name": "activation_487", "activation": "relu", "dtype": "float32", "trainable": true}, "class_name": "Activation", "inbound_nodes": [[["batch_normalization_487", 0, 0, {}]]], "name": "activation_487"}, {"config": {"dtype": "float32", "name": "block8_7_mixed", "axis": 3, "trainable": true}, "class_name": "Concatenate", "inbound_nodes": [[["activation_484", 0, 0, {}], ["activation_487", 0, 0, {}]]], "name": "block8_7_mixed"}, {"config": {"bias_regularizer": null, "padding": "same", "activity_regularizer": null, "kernel_initializer": {"config": {"seed": null}, "class_name": "GlorotUniform"}, "trainable": true, "filters": 2080, "name": "block8_7_conv", "data_format": "channels_last", "kernel_regularizer": null, "dilation_rate": [1, 1], "strides": [1, 1], "dtype": "float32", "kernel_size": [1, 1], "bias_initializer": {"config": {}, "class_name": "Zeros"}, "bias_constraint": null, "activation": "linear", "kernel_constraint": null, "use_bias": true}, "class_name": "Conv2D", "inbound_nodes": [[["block8_7_mixed", 0, 0, {}]]], "name": "block8_7_conv"}, {"config": {"function": ["4wIAAAAAAAAAAgAAAAMAAABTAAAAcxQAAAB8AABkAQAZfAAAZAIAGXwBABQXUykDTukAAAAA6QEA\nAACpACkC2gZpbnB1dHPaBXNjYWxlcgMAAAByAwAAAPpxQzovVXNlcnMva3oxOTkvQXBwRGF0YS9M\nb2NhbC9Qcm9ncmFtcy9QeXRob24vUHl0aG9uMzUvbGliL3NpdGUtcGFja2FnZXMva2VyYXNfYXBw\nbGljYXRpb25zL2luY2VwdGlvbl9yZXNuZXRfdjIucHnaCDxsYW1iZGE+qAAAAPMAAAAA\n", null, null], "function_type": "lambda", "dtype": "float32", "trainable": true, "output_shape": [6, 6, 2080], "name": "block8_7", "arguments": {"scale": 0.2}, "output_shape_type": "raw", "output_shape_module": null, "module": "keras_applications.inception_resnet_v2"}, "class_name": "Lambda", "inbound_nodes": [[["block8_6_ac", 0, 0, {}], ["block8_7_conv", 0, 0, {}]]], "name": "block8_7"}, {"config": {"name": "block8_7_ac", "activation": "relu", "dtype": "float32", "trainable": true}, "class_name": "Activation", "inbound_nodes": [[["block8_7", 0, 0, {}]]], "name": "block8_7_ac"}, {"config": {"bias_regularizer": null, "padding": "same", "activity_regularizer": null, "kernel_initializer": {"config": {"seed": null}, "class_name": "GlorotUniform"}, "trainable": true, "filters": 192, "name": "conv2d_489", "data_format": "channels_last", "kernel_regularizer": null, "dilation_rate": [1, 1], "strides": [1, 1], "dtype": "float32", "kernel_size": [1, 1], "bias_initializer": {"config": {}, "class_name": "Zeros"}, "bias_constraint": null, "activation": "linear", "kernel_constraint": null, "use_bias": false}, "class_name": "Conv2D", "inbound_nodes": [[["block8_7_ac", 0, 0, {}]]], "name": "conv2d_489"}, {"config": {"center": true, "momentum": 0.99, "scale": false, "moving_mean_initializer": {"config": {}, "class_name": "Zeros"}, "trainable": true, "gamma_constraint": null, "name": "batch_normalization_489", "gamma_regularizer": null, "beta_regularizer": null, "gamma_initializer": {"config": {}, "class_name": "Ones"}, "beta_constraint": null, "dtype": "float32", "beta_initializer": {"config": {}, "class_name": "Zeros"}, "moving_variance_initializer": {"config": {}, "class_name": "Ones"}, "epsilon": 0.001, "axis": [3]}, "class_name": "BatchNormalization", "inbound_nodes": [[["conv2d_489", 0, 0, {}]]], "name": "batch_normalization_489"}, {"config": {"name": "activation_489", "activation": "relu", "dtype": "float32", "trainable": true}, "class_name": "Activation", "inbound_nodes": [[["batch_normalization_489", 0, 0, {}]]], "name": "activation_489"}, {"config": {"bias_regularizer": null, "padding": "same", "activity_regularizer": null, "kernel_initializer": {"config": {"seed": null}, "class_name": "GlorotUniform"}, "trainable": true, "filters": 224, "name": "conv2d_490", "data_format": "channels_last", "kernel_regularizer": null, "dilation_rate": [1, 1], "strides": [1, 1], "dtype": "float32", "kernel_size": [1, 3], "bias_initializer": {"config": {}, "class_name": "Zeros"}, "bias_constraint": null, "activation": "linear", "kernel_constraint": null, "use_bias": false}, "class_name": "Conv2D", "inbound_nodes": [[["activation_489", 0, 0, {}]]], "name": "conv2d_490"}, {"config": {"center": true, "momentum": 0.99, "scale": false, "moving_mean_initializer": {"config": {}, "class_name": "Zeros"}, "trainable": true, "gamma_constraint": null, "name": "batch_normalization_490", "gamma_regularizer": null, "beta_regularizer": null, "gamma_initializer": {"config": {}, "class_name": "Ones"}, "beta_constraint": null, "dtype": "float32", "beta_initializer": {"config": {}, "class_name": "Zeros"}, "moving_variance_initializer": {"config": {}, "class_name": "Ones"}, "epsilon": 0.001, "axis": [3]}, "class_name": "BatchNormalization", "inbound_nodes": [[["conv2d_490", 0, 0, {}]]], "name": "batch_normalization_490"}, {"config": {"name": "activation_490", "activation": "relu", "dtype": "float32", "trainable": true}, "class_name": "Activation", "inbound_nodes": [[["batch_normalization_490", 0, 0, {}]]], "name": "activation_490"}, {"config": {"bias_regularizer": null, "padding": "same", "activity_regularizer": null, "kernel_initializer": {"config": {"seed": null}, "class_name": "GlorotUniform"}, "trainable": true, "filters": 192, "name": "conv2d_488", "data_format": "channels_last", "kernel_regularizer": null, "dilation_rate": [1, 1], "strides": [1, 1], "dtype": "float32", "kernel_size": [1, 1], "bias_initializer": {"config": {}, "class_name": "Zeros"}, "bias_constraint": null, "activation": "linear", "kernel_constraint": null, "use_bias": false}, "class_name": "Conv2D", "inbound_nodes": [[["block8_7_ac", 0, 0, {}]]], "name": "conv2d_488"}, {"config": {"bias_regularizer": null, "padding": "same", "activity_regularizer": null, "kernel_initializer": {"config": {"seed": null}, "class_name": "GlorotUniform"}, "trainable": true, "filters": 256, "name": "conv2d_491", "data_format": "channels_last", "kernel_regularizer": null, "dilation_rate": [1, 1], "strides": [1, 1], "dtype": "float32", "kernel_size": [3, 1], "bias_initializer": {"config": {}, "class_name": "Zeros"}, "bias_constraint": null, "activation": "linear", "kernel_constraint": null, "use_bias": false}, "class_name": "Conv2D", "inbound_nodes": [[["activation_490", 0, 0, {}]]], "name": "conv2d_491"}, {"config": {"center": true, "momentum": 0.99, "scale": false, "moving_mean_initializer": {"config": {}, "class_name": "Zeros"}, "trainable": true, "gamma_constraint": null, "name": "batch_normalization_488", "gamma_regularizer": null, "beta_regularizer": null, "gamma_initializer": {"config": {}, "class_name": "Ones"}, "beta_constraint": null, "dtype": "float32", "beta_initializer": {"config": {}, "class_name": "Zeros"}, "moving_variance_initializer": {"config": {}, "class_name": "Ones"}, "epsilon": 0.001, "axis": [3]}, "class_name": "BatchNormalization", "inbound_nodes": [[["conv2d_488", 0, 0, {}]]], "name": "batch_normalization_488"}, {"config": {"center": true, "momentum": 0.99, "scale": false, "moving_mean_initializer": {"config": {}, "class_name": "Zeros"}, "trainable": true, "gamma_constraint": null, "name": "batch_normalization_491", "gamma_regularizer": null, "beta_regularizer": null, "gamma_initializer": {"config": {}, "class_name": "Ones"}, "beta_constraint": null, "dtype": "float32", "beta_initializer": {"config": {}, "class_name": "Zeros"}, "moving_variance_initializer": {"config": {}, "class_name": "Ones"}, "epsilon": 0.001, "axis": [3]}, "class_name": "BatchNormalization", "inbound_nodes": [[["conv2d_491", 0, 0, {}]]], "name": "batch_normalization_491"}, {"config": {"name": "activation_488", "activation": "relu", "dtype": "float32", "trainable": true}, "class_name": "Activation", "inbound_nodes": [[["batch_normalization_488", 0, 0, {}]]], "name": "activation_488"}, {"config": {"name": "activation_491", "activation": "relu", "dtype": "float32", "trainable": true}, "class_name": "Activation", "inbound_nodes": [[["batch_normalization_491", 0, 0, {}]]], "name": "activation_491"}, {"config": {"dtype": "float32", "name": "block8_8_mixed", "axis": 3, "trainable": true}, "class_name": "Concatenate", "inbound_nodes": [[["activation_488", 0, 0, {}], ["activation_491", 0, 0, {}]]], "name": "block8_8_mixed"}, {"config": {"bias_regularizer": null, "padding": "same", "activity_regularizer": null, "kernel_initializer": {"config": {"seed": null}, "class_name": "GlorotUniform"}, "trainable": true, "filters": 2080, "name": "block8_8_conv", "data_format": "channels_last", "kernel_regularizer": null, "dilation_rate": [1, 1], "strides": [1, 1], "dtype": "float32", "kernel_size": [1, 1], "bias_initializer": {"config": {}, "class_name": "Zeros"}, "bias_constraint": null, "activation": "linear", "kernel_constraint": null, "use_bias": true}, "class_name": "Conv2D", "inbound_nodes": [[["block8_8_mixed", 0, 0, {}]]], "name": "block8_8_conv"}, {"config": {"function": ["4wIAAAAAAAAAAgAAAAMAAABTAAAAcxQAAAB8AABkAQAZfAAAZAIAGXwBABQXUykDTukAAAAA6QEA\nAACpACkC2gZpbnB1dHPaBXNjYWxlcgMAAAByAwAAAPpxQzovVXNlcnMva3oxOTkvQXBwRGF0YS9M\nb2NhbC9Qcm9ncmFtcy9QeXRob24vUHl0aG9uMzUvbGliL3NpdGUtcGFja2FnZXMva2VyYXNfYXBw\nbGljYXRpb25zL2luY2VwdGlvbl9yZXNuZXRfdjIucHnaCDxsYW1iZGE+qAAAAPMAAAAA\n", null, null], "function_type": "lambda", "dtype": "float32", "trainable": true, "output_shape": [6, 6, 2080], "name": "block8_8", "arguments": {"scale": 0.2}, "output_shape_type": "raw", "output_shape_module": null, "module": "keras_applications.inception_resnet_v2"}, "class_name": "Lambda", "inbound_nodes": [[["block8_7_ac", 0, 0, {}], ["block8_8_conv", 0, 0, {}]]], "name": "block8_8"}, {"config": {"name": "block8_8_ac", "activation": "relu", "dtype": "float32", "trainable": true}, "class_name": "Activation", "inbound_nodes": [[["block8_8", 0, 0, {}]]], "name": "block8_8_ac"}, {"config": {"bias_regularizer": null, "padding": "same", "activity_regularizer": null, "kernel_initializer": {"config": {"seed": null}, "class_name": "GlorotUniform"}, "trainable": true, "filters": 192, "name": "conv2d_493", "data_format": "channels_last", "kernel_regularizer": null, "dilation_rate": [1, 1], "strides": [1, 1], "dtype": "float32", "kernel_size": [1, 1], "bias_initializer": {"config": {}, "class_name": "Zeros"}, "bias_constraint": null, "activation": "linear", "kernel_constraint": null, "use_bias": false}, "class_name": "Conv2D", "inbound_nodes": [[["block8_8_ac", 0, 0, {}]]], "name": "conv2d_493"}, {"config": {"center": true, "momentum": 0.99, "scale": false, "moving_mean_initializer": {"config": {}, "class_name": "Zeros"}, "trainable": true, "gamma_constraint": null, "name": "batch_normalization_493", "gamma_regularizer": null, "beta_regularizer": null, "gamma_initializer": {"config": {}, "class_name": "Ones"}, "beta_constraint": null, "dtype": "float32", "beta_initializer": {"config": {}, "class_name": "Zeros"}, "moving_variance_initializer": {"config": {}, "class_name": "Ones"}, "epsilon": 0.001, "axis": [3]}, "class_name": "BatchNormalization", "inbound_nodes": [[["conv2d_493", 0, 0, {}]]], "name": "batch_normalization_493"}, {"config": {"name": "activation_493", "activation": "relu", "dtype": "float32", "trainable": true}, "class_name": "Activation", "inbound_nodes": [[["batch_normalization_493", 0, 0, {}]]], "name": "activation_493"}, {"config": {"bias_regularizer": null, "padding": "same", "activity_regularizer": null, "kernel_initializer": {"config": {"seed": null}, "class_name": "GlorotUniform"}, "trainable": true, "filters": 224, "name": "conv2d_494", "data_format": "channels_last", "kernel_regularizer": null, "dilation_rate": [1, 1], "strides": [1, 1], "dtype": "float32", "kernel_size": [1, 3], "bias_initializer": {"config": {}, "class_name": "Zeros"}, "bias_constraint": null, "activation": "linear", "kernel_constraint": null, "use_bias": false}, "class_name": "Conv2D", "inbound_nodes": [[["activation_493", 0, 0, {}]]], "name": "conv2d_494"}, {"config": {"center": true, "momentum": 0.99, "scale": false, "moving_mean_initializer": {"config": {}, "class_name": "Zeros"}, "trainable": true, "gamma_constraint": null, "name": "batch_normalization_494", "gamma_regularizer": null, "beta_regularizer": null, "gamma_initializer": {"config": {}, "class_name": "Ones"}, "beta_constraint": null, "dtype": "float32", "beta_initializer": {"config": {}, "class_name": "Zeros"}, "moving_variance_initializer": {"config": {}, "class_name": "Ones"}, "epsilon": 0.001, "axis": [3]}, "class_name": "BatchNormalization", "inbound_nodes": [[["conv2d_494", 0, 0, {}]]], "name": "batch_normalization_494"}, {"config": {"name": "activation_494", "activation": "relu", "dtype": "float32", "trainable": true}, "class_name": "Activation", "inbound_nodes": [[["batch_normalization_494", 0, 0, {}]]], "name": "activation_494"}, {"config": {"bias_regularizer": null, "padding": "same", "activity_regularizer": null, "kernel_initializer": {"config": {"seed": null}, "class_name": "GlorotUniform"}, "trainable": true, "filters": 192, "name": "conv2d_492", "data_format": "channels_last", "kernel_regularizer": null, "dilation_rate": [1, 1], "strides": [1, 1], "dtype": "float32", "kernel_size": [1, 1], "bias_initializer": {"config": {}, "class_name": "Zeros"}, "bias_constraint": null, "activation": "linear", "kernel_constraint": null, "use_bias": false}, "class_name": "Conv2D", "inbound_nodes": [[["block8_8_ac", 0, 0, {}]]], "name": "conv2d_492"}, {"config": {"bias_regularizer": null, "padding": "same", "activity_regularizer": null, "kernel_initializer": {"config": {"seed": null}, "class_name": "GlorotUniform"}, "trainable": true, "filters": 256, "name": "conv2d_495", "data_format": "channels_last", "kernel_regularizer": null, "dilation_rate": [1, 1], "strides": [1, 1], "dtype": "float32", "kernel_size": [3, 1], "bias_initializer": {"config": {}, "class_name": "Zeros"}, "bias_constraint": null, "activation": "linear", "kernel_constraint": null, "use_bias": false}, "class_name": "Conv2D", "inbound_nodes": [[["activation_494", 0, 0, {}]]], "name": "conv2d_495"}, {"config": {"center": true, "momentum": 0.99, "scale": false, "moving_mean_initializer": {"config": {}, "class_name": "Zeros"}, "trainable": true, "gamma_constraint": null, "name": "batch_normalization_492", "gamma_regularizer": null, "beta_regularizer": null, "gamma_initializer": {"config": {}, "class_name": "Ones"}, "beta_constraint": null, "dtype": "float32", "beta_initializer": {"config": {}, "class_name": "Zeros"}, "moving_variance_initializer": {"config": {}, "class_name": "Ones"}, "epsilon": 0.001, "axis": [3]}, "class_name": "BatchNormalization", "inbound_nodes": [[["conv2d_492", 0, 0, {}]]], "name": "batch_normalization_492"}, {"config": {"center": true, "momentum": 0.99, "scale": false, "moving_mean_initializer": {"config": {}, "class_name": "Zeros"}, "trainable": true, "gamma_constraint": null, "name": "batch_normalization_495", "gamma_regularizer": null, "beta_regularizer": null, "gamma_initializer": {"config": {}, "class_name": "Ones"}, "beta_constraint": null, "dtype": "float32", "beta_initializer": {"config": {}, "class_name": "Zeros"}, "moving_variance_initializer": {"config": {}, "class_name": "Ones"}, "epsilon": 0.001, "axis": [3]}, "class_name": "BatchNormalization", "inbound_nodes": [[["conv2d_495", 0, 0, {}]]], "name": "batch_normalization_495"}, {"config": {"name": "activation_492", "activation": "relu", "dtype": "float32", "trainable": true}, "class_name": "Activation", "inbound_nodes": [[["batch_normalization_492", 0, 0, {}]]], "name": "activation_492"}, {"config": {"name": "activation_495", "activation": "relu", "dtype": "float32", "trainable": true}, "class_name": "Activation", "inbound_nodes": [[["batch_normalization_495", 0, 0, {}]]], "name": "activation_495"}, {"config": {"dtype": "float32", "name": "block8_9_mixed", "axis": 3, "trainable": true}, "class_name": "Concatenate", "inbound_nodes": [[["activation_492", 0, 0, {}], ["activation_495", 0, 0, {}]]], "name": "block8_9_mixed"}, {"config": {"bias_regularizer": null, "padding": "same", "activity_regularizer": null, "kernel_initializer": {"config": {"seed": null}, "class_name": "GlorotUniform"}, "trainable": true, "filters": 2080, "name": "block8_9_conv", "data_format": "channels_last", "kernel_regularizer": null, "dilation_rate": [1, 1], "strides": [1, 1], "dtype": "float32", "kernel_size": [1, 1], "bias_initializer": {"config": {}, "class_name": "Zeros"}, "bias_constraint": null, "activation": "linear", "kernel_constraint": null, "use_bias": true}, "class_name": "Conv2D", "inbound_nodes": [[["block8_9_mixed", 0, 0, {}]]], "name": "block8_9_conv"}, {"config": {"function": ["4wIAAAAAAAAAAgAAAAMAAABTAAAAcxQAAAB8AABkAQAZfAAAZAIAGXwBABQXUykDTukAAAAA6QEA\nAACpACkC2gZpbnB1dHPaBXNjYWxlcgMAAAByAwAAAPpxQzovVXNlcnMva3oxOTkvQXBwRGF0YS9M\nb2NhbC9Qcm9ncmFtcy9QeXRob24vUHl0aG9uMzUvbGliL3NpdGUtcGFja2FnZXMva2VyYXNfYXBw\nbGljYXRpb25zL2luY2VwdGlvbl9yZXNuZXRfdjIucHnaCDxsYW1iZGE+qAAAAPMAAAAA\n", null, null], "function_type": "lambda", "dtype": "float32", "trainable": true, "output_shape": [6, 6, 2080], "name": "block8_9", "arguments": {"scale": 0.2}, "output_shape_type": "raw", "output_shape_module": null, "module": "keras_applications.inception_resnet_v2"}, "class_name": "Lambda", "inbound_nodes": [[["block8_8_ac", 0, 0, {}], ["block8_9_conv", 0, 0, {}]]], "name": "block8_9"}, {"config": {"name": "block8_9_ac", "activation": "relu", "dtype": "float32", "trainable": true}, "class_name": "Activation", "inbound_nodes": [[["block8_9", 0, 0, {}]]], "name": "block8_9_ac"}, {"config": {"bias_regularizer": null, "padding": "same", "activity_regularizer": null, "kernel_initializer": {"config": {"seed": null}, "class_name": "GlorotUniform"}, "trainable": true, "filters": 192, "name": "conv2d_497", "data_format": "channels_last", "kernel_regularizer": null, "dilation_rate": [1, 1], "strides": [1, 1], "dtype": "float32", "kernel_size": [1, 1], "bias_initializer": {"config": {}, "class_name": "Zeros"}, "bias_constraint": null, "activation": "linear", "kernel_constraint": null, "use_bias": false}, "class_name": "Conv2D", "inbound_nodes": [[["block8_9_ac", 0, 0, {}]]], "name": "conv2d_497"}, {"config": {"center": true, "momentum": 0.99, "scale": false, "moving_mean_initializer": {"config": {}, "class_name": "Zeros"}, "trainable": true, "gamma_constraint": null, "name": "batch_normalization_497", "gamma_regularizer": null, "beta_regularizer": null, "gamma_initializer": {"config": {}, "class_name": "Ones"}, "beta_constraint": null, "dtype": "float32", "beta_initializer": {"config": {}, "class_name": "Zeros"}, "moving_variance_initializer": {"config": {}, "class_name": "Ones"}, "epsilon": 0.001, "axis": [3]}, "class_name": "BatchNormalization", "inbound_nodes": [[["conv2d_497", 0, 0, {}]]], "name": "batch_normalization_497"}, {"config": {"name": "activation_497", "activation": "relu", "dtype": "float32", "trainable": true}, "class_name": "Activation", "inbound_nodes": [[["batch_normalization_497", 0, 0, {}]]], "name": "activation_497"}, {"config": {"bias_regularizer": null, "padding": "same", "activity_regularizer": null, "kernel_initializer": {"config": {"seed": null}, "class_name": "GlorotUniform"}, "trainable": true, "filters": 224, "name": "conv2d_498", "data_format": "channels_last", "kernel_regularizer": null, "dilation_rate": [1, 1], "strides": [1, 1], "dtype": "float32", "kernel_size": [1, 3], "bias_initializer": {"config": {}, "class_name": "Zeros"}, "bias_constraint": null, "activation": "linear", "kernel_constraint": null, "use_bias": false}, "class_name": "Conv2D", "inbound_nodes": [[["activation_497", 0, 0, {}]]], "name": "conv2d_498"}, {"config": {"center": true, "momentum": 0.99, "scale": false, "moving_mean_initializer": {"config": {}, "class_name": "Zeros"}, "trainable": true, "gamma_constraint": null, "name": "batch_normalization_498", "gamma_regularizer": null, "beta_regularizer": null, "gamma_initializer": {"config": {}, "class_name": "Ones"}, "beta_constraint": null, "dtype": "float32", "beta_initializer": {"config": {}, "class_name": "Zeros"}, "moving_variance_initializer": {"config": {}, "class_name": "Ones"}, "epsilon": 0.001, "axis": [3]}, "class_name": "BatchNormalization", "inbound_nodes": [[["conv2d_498", 0, 0, {}]]], "name": "batch_normalization_498"}, {"config": {"name": "activation_498", "activation": "relu", "dtype": "float32", "trainable": true}, "class_name": "Activation", "inbound_nodes": [[["batch_normalization_498", 0, 0, {}]]], "name": "activation_498"}, {"config": {"bias_regularizer": null, "padding": "same", "activity_regularizer": null, "kernel_initializer": {"config": {"seed": null}, "class_name": "GlorotUniform"}, "trainable": true, "filters": 192, "name": "conv2d_496", "data_format": "channels_last", "kernel_regularizer": null, "dilation_rate": [1, 1], "strides": [1, 1], "dtype": "float32", "kernel_size": [1, 1], "bias_initializer": {"config": {}, "class_name": "Zeros"}, "bias_constraint": null, "activation": "linear", "kernel_constraint": null, "use_bias": false}, "class_name": "Conv2D", "inbound_nodes": [[["block8_9_ac", 0, 0, {}]]], "name": "conv2d_496"}, {"config": {"bias_regularizer": null, "padding": "same", "activity_regularizer": null, "kernel_initializer": {"config": {"seed": null}, "class_name": "GlorotUniform"}, "trainable": true, "filters": 256, "name": "conv2d_499", "data_format": "channels_last", "kernel_regularizer": null, "dilation_rate": [1, 1], "strides": [1, 1], "dtype": "float32", "kernel_size": [3, 1], "bias_initializer": {"config": {}, "class_name": "Zeros"}, "bias_constraint": null, "activation": "linear", "kernel_constraint": null, "use_bias": false}, "class_name": "Conv2D", "inbound_nodes": [[["activation_498", 0, 0, {}]]], "name": "conv2d_499"}, {"config": {"center": true, "momentum": 0.99, "scale": false, "moving_mean_initializer": {"config": {}, "class_name": "Zeros"}, "trainable": true, "gamma_constraint": null, "name": "batch_normalization_496", "gamma_regularizer": null, "beta_regularizer": null, "gamma_initializer": {"config": {}, "class_name": "Ones"}, "beta_constraint": null, "dtype": "float32", "beta_initializer": {"config": {}, "class_name": "Zeros"}, "moving_variance_initializer": {"config": {}, "class_name": "Ones"}, "epsilon": 0.001, "axis": [3]}, "class_name": "BatchNormalization", "inbound_nodes": [[["conv2d_496", 0, 0, {}]]], "name": "batch_normalization_496"}, {"config": {"center": true, "momentum": 0.99, "scale": false, "moving_mean_initializer": {"config": {}, "class_name": "Zeros"}, "trainable": true, "gamma_constraint": null, "name": "batch_normalization_499", "gamma_regularizer": null, "beta_regularizer": null, "gamma_initializer": {"config": {}, "class_name": "Ones"}, "beta_constraint": null, "dtype": "float32", "beta_initializer": {"config": {}, "class_name": "Zeros"}, "moving_variance_initializer": {"config": {}, "class_name": "Ones"}, "epsilon": 0.001, "axis": [3]}, "class_name": "BatchNormalization", "inbound_nodes": [[["conv2d_499", 0, 0, {}]]], "name": "batch_normalization_499"}, {"config": {"name": "activation_496", "activation": "relu", "dtype": "float32", "trainable": true}, "class_name": "Activation", "inbound_nodes": [[["batch_normalization_496", 0, 0, {}]]], "name": "activation_496"}, {"config": {"name": "activation_499", "activation": "relu", "dtype": "float32", "trainable": true}, "class_name": "Activation", "inbound_nodes": [[["batch_normalization_499", 0, 0, {}]]], "name": "activation_499"}, {"config": {"dtype": "float32", "name": "block8_10_mixed", "axis": 3, "trainable": true}, "class_name": "Concatenate", "inbound_nodes": [[["activation_496", 0, 0, {}], ["activation_499", 0, 0, {}]]], "name": "block8_10_mixed"}, {"config": {"bias_regularizer": null, "padding": "same", "activity_regularizer": null, "kernel_initializer": {"config": {"seed": null}, "class_name": "GlorotUniform"}, "trainable": true, "filters": 2080, "name": "block8_10_conv", "data_format": "channels_last", "kernel_regularizer": null, "dilation_rate": [1, 1], "strides": [1, 1], "dtype": "float32", "kernel_size": [1, 1], "bias_initializer": {"config": {}, "class_name": "Zeros"}, "bias_constraint": null, "activation": "linear", "kernel_constraint": null, "use_bias": true}, "class_name": "Conv2D", "inbound_nodes": [[["block8_10_mixed", 0, 0, {}]]], "name": "block8_10_conv"}, {"config": {"function": ["4wIAAAAAAAAAAgAAAAMAAABTAAAAcxQAAAB8AABkAQAZfAAAZAIAGXwBABQXUykDTukAAAAA6QEA\nAACpACkC2gZpbnB1dHPaBXNjYWxlcgMAAAByAwAAAPpxQzovVXNlcnMva3oxOTkvQXBwRGF0YS9M\nb2NhbC9Qcm9ncmFtcy9QeXRob24vUHl0aG9uMzUvbGliL3NpdGUtcGFja2FnZXMva2VyYXNfYXBw\nbGljYXRpb25zL2luY2VwdGlvbl9yZXNuZXRfdjIucHnaCDxsYW1iZGE+qAAAAPMAAAAA\n", null, null], "function_type": "lambda", "dtype": "float32", "trainable": true, "output_shape": [6, 6, 2080], "name": "block8_10", "arguments": {"scale": 1.0}, "output_shape_type": "raw", "output_shape_module": null, "module": "keras_applications.inception_resnet_v2"}, "class_name": "Lambda", "inbound_nodes": [[["block8_9_ac", 0, 0, {}], ["block8_10_conv", 0, 0, {}]]], "name": "block8_10"}, {"config": {"bias_regularizer": null, "padding": "same", "activity_regularizer": null, "kernel_initializer": {"config": {"seed": null}, "class_name": "GlorotUniform"}, "trainable": true, "filters": 1536, "name": "conv_7b", "data_format": "channels_last", "kernel_regularizer": null, "dilation_rate": [1, 1], "strides": [1, 1], "dtype": "float32", "kernel_size": [1, 1], "bias_initializer": {"config": {}, "class_name": "Zeros"}, "bias_constraint": null, "activation": "linear", "kernel_constraint": null, "use_bias": false}, "class_name": "Conv2D", "inbound_nodes": [[["block8_10", 0, 0, {}]]], "name": "conv_7b"}, {"config": {"center": true, "momentum": 0.99, "scale": false, "moving_mean_initializer": {"config": {}, "class_name": "Zeros"}, "trainable": true, "gamma_constraint": null, "name": "conv_7b_bn", "gamma_regularizer": null, "beta_regularizer": null, "gamma_initializer": {"config": {}, "class_name": "Ones"}, "beta_constraint": null, "dtype": "float32", "beta_initializer": {"config": {}, "class_name": "Zeros"}, "moving_variance_initializer": {"config": {}, "class_name": "Ones"}, "epsilon": 0.001, "axis": [3]}, "class_name": "BatchNormalization", "inbound_nodes": [[["conv_7b", 0, 0, {}]]], "name": "conv_7b_bn"}, {"config": {"name": "conv_7b_ac", "activation": "relu", "dtype": "float32", "trainable": true}, "class_name": "Activation", "inbound_nodes": [[["conv_7b_bn", 0, 0, {}]]], "name": "conv_7b_ac"}], "output_layers": [["conv_7b_ac", 0, 0]], "input_layers": [["input_3", 0, 0]], "batch_input_shape": [null, 256, 256, 3]}, "class_name": "Model"}, {"config": {"rate": 0.3, "name": "dropout_2", "dtype": "float32", "trainable": true, "noise_shape": null, "seed": null}, "class_name": "Dropout"}, {"config": {"name": "flatten_2", "data_format": "channels_last", "dtype": "float32", "trainable": true}, "class_name": "Flatten"}, {"config": {"bias_regularizer": null, "activity_regularizer": null, "kernel_initializer": {"config": {"seed": null}, "class_name": "GlorotUniform"}, "trainable": true, "name": "dense_4", "bias_initializer": {"config": {}, "class_name": "Zeros"}, "kernel_regularizer": null, "units": 1024, "dtype": "float32", "bias_constraint": null, "activation": "relu", "kernel_constraint": null, "use_bias": true}, "class_name": "Dense"}, {"config": {"bias_regularizer": null, "activity_regularizer": null, "kernel_initializer": {"config": {"seed": null}, "class_name": "GlorotUniform"}, "trainable": true, "name": "dense_5", "bias_initializer": {"config": {}, "class_name": "Zeros"}, "kernel_regularizer": null, "units": 20, "dtype": "float32", "bias_constraint": null, "activation": "softmax", "kernel_constraint": null, "use_bias": true}, "class_name": "Dense"}]}, "class_name": "Sequential", "keras_version": "2.2.4-tf", "backend": "tensorflow"}