{"keras_version": "2.2.4-tf", "class_name": "Sequential", "config": {"layers": [{"class_name": "Model", "config": {"output_layers": [["mixed10", 0, 0]], "input_layers": [["input_1", 0, 0]], "layers": [{"inbound_nodes": [], "class_name": "InputLayer", "config": {"batch_input_shape": [null, 256, 256, 3], "sparse": false, "dtype": "float32", "name": "input_1"}, "name": "input_1"}, {"inbound_nodes": [[["input_1", 0, 0, {}]]], "class_name": "Conv2D", "config": {"use_bias": false, "bias_initializer": {"class_name": "Zeros", "config": {}}, "kernel_size": [3, 3], "trainable": false, "dtype": "float32", "name": "conv2d", "padding": "valid", "activation": "linear", "activity_regularizer": null, "bias_constraint": null, "kernel_regularizer": null, "strides": [2, 2], "filters": 32, "kernel_initializer": {"class_name": "GlorotUniform", "config": {"seed": null}}, "bias_regularizer": null, "dilation_rate": [1, 1], "data_format": "channels_last", "kernel_constraint": null}, "name": "conv2d"}, {"inbound_nodes": [[["conv2d", 0, 0, {}]]], "class_name": "BatchNormalization", "config": {"beta_constraint": null, "trainable": false, "dtype": "float32", "name": "batch_normalization", "gamma_initializer": {"class_name": "Ones", "config": {}}, "gamma_constraint": null, "epsilon": 0.001, "beta_regularizer": null, "moving_variance_initializer": {"class_name": "Ones", "config": {}}, "gamma_regularizer": null, "beta_initializer": {"class_name": "Zeros", "config": {}}, "axis": [3], "center": true, "moving_mean_initializer": {"class_name": "Zeros", "config": {}}, "momentum": 0.99, "scale": false}, "name": "batch_normalization"}, {"inbound_nodes": [[["batch_normalization", 0, 0, {}]]], "class_name": "Activation", "config": {"activation": "relu", "trainable": false, "dtype": "float32", "name": "activation"}, "name": "activation"}, {"inbound_nodes": [[["activation", 0, 0, {}]]], "class_name": "Conv2D", "config": {"use_bias": false, "bias_initializer": {"class_name": "Zeros", "config": {}}, "kernel_size": [3, 3], "trainable": false, "dtype": "float32", "name": "conv2d_1", "padding": "valid", "activation": "linear", "activity_regularizer": null, "bias_constraint": null, "kernel_regularizer": null, "strides": [1, 1], "filters": 32, "kernel_initializer": {"class_name": "GlorotUniform", "config": {"seed": null}}, "bias_regularizer": null, "dilation_rate": [1, 1], "data_format": "channels_last", "kernel_constraint": null}, "name": "conv2d_1"}, {"inbound_nodes": [[["conv2d_1", 0, 0, {}]]], "class_name": "BatchNormalization", "config": {"beta_constraint": null, "trainable": false, "dtype": "float32", "name": "batch_normalization_1", "gamma_initializer": {"class_name": "Ones", "config": {}}, "gamma_constraint": null, "epsilon": 0.001, "beta_regularizer": null, "moving_variance_initializer": {"class_name": "Ones", "config": {}}, "gamma_regularizer": null, "beta_initializer": {"class_name": "Zeros", "config": {}}, "axis": [3], "center": true, "moving_mean_initializer": {"class_name": "Zeros", "config": {}}, "momentum": 0.99, "scale": false}, "name": "batch_normalization_1"}, {"inbound_nodes": [[["batch_normalization_1", 0, 0, {}]]], "class_name": "Activation", "config": {"activation": "relu", "trainable": false, "dtype": "float32", "name": "activation_1"}, "name": "activation_1"}, {"inbound_nodes": [[["activation_1", 0, 0, {}]]], "class_name": "Conv2D", "config": {"use_bias": false, "bias_initializer": {"class_name": "Zeros", "config": {}}, "kernel_size": [3, 3], "trainable": false, "dtype": "float32", "name": "conv2d_2", "padding": "same", "activation": "linear", "activity_regularizer": null, "bias_constraint": null, "kernel_regularizer": null, "strides": [1, 1], "filters": 64, "kernel_initializer": {"class_name": "GlorotUniform", "config": {"seed": null}}, "bias_regularizer": null, "dilation_rate": [1, 1], "data_format": "channels_last", "kernel_constraint": null}, "name": "conv2d_2"}, {"inbound_nodes": [[["conv2d_2", 0, 0, {}]]], "class_name": "BatchNormalization", "config": {"beta_constraint": null, "trainable": false, "dtype": "float32", "name": "batch_normalization_2", "gamma_initializer": {"class_name": "Ones", "config": {}}, "gamma_constraint": null, "epsilon": 0.001, "beta_regularizer": null, "moving_variance_initializer": {"class_name": "Ones", "config": {}}, "gamma_regularizer": null, "beta_initializer": {"class_name": "Zeros", "config": {}}, "axis": [3], "center": true, "moving_mean_initializer": {"class_name": "Zeros", "config": {}}, "momentum": 0.99, "scale": false}, "name": "batch_normalization_2"}, {"inbound_nodes": [[["batch_normalization_2", 0, 0, {}]]], "class_name": "Activation", "config": {"activation": "relu", "trainable": false, "dtype": "float32", "name": "activation_2"}, "name": "activation_2"}, {"inbound_nodes": [[["activation_2", 0, 0, {}]]], "class_name": "MaxPooling2D", "config": {"strides": [2, 2], "pool_size": [3, 3], "trainable": true, "dtype": "float32", "name": "max_pooling2d", "data_format": "channels_last", "padding": "valid"}, "name": "max_pooling2d"}, {"inbound_nodes": [[["max_pooling2d", 0, 0, {}]]], "class_name": "Conv2D", "config": {"use_bias": false, "bias_initializer": {"class_name": "Zeros", "config": {}}, "kernel_size": [1, 1], "trainable": true, "dtype": "float32", "name": "conv2d_3", "padding": "valid", "activation": "linear", "activity_regularizer": null, "bias_constraint": null, "kernel_regularizer": null, "strides": [1, 1], "filters": 80, "kernel_initializer": {"class_name": "GlorotUniform", "config": {"seed": null}}, "bias_regularizer": null, "dilation_rate": [1, 1], "data_format": "channels_last", "kernel_constraint": null}, "name": "conv2d_3"}, {"inbound_nodes": [[["conv2d_3", 0, 0, {}]]], "class_name": "BatchNormalization", "config": {"beta_constraint": null, "trainable": true, "dtype": "float32", "name": "batch_normalization_3", "gamma_initializer": {"class_name": "Ones", "config": {}}, "gamma_constraint": null, "epsilon": 0.001, "beta_regularizer": null, "moving_variance_initializer": {"class_name": "Ones", "config": {}}, "gamma_regularizer": null, "beta_initializer": {"class_name": "Zeros", "config": {}}, "axis": [3], "center": true, "moving_mean_initializer": {"class_name": "Zeros", "config": {}}, "momentum": 0.99, "scale": false}, "name": "batch_normalization_3"}, {"inbound_nodes": [[["batch_normalization_3", 0, 0, {}]]], "class_name": "Activation", "config": {"activation": "relu", "trainable": true, "dtype": "float32", "name": "activation_3"}, "name": "activation_3"}, {"inbound_nodes": [[["activation_3", 0, 0, {}]]], "class_name": "Conv2D", "config": {"use_bias": false, "bias_initializer": {"class_name": "Zeros", "config": {}}, "kernel_size": [3, 3], "trainable": true, "dtype": "float32", "name": "conv2d_4", "padding": "valid", "activation": "linear", "activity_regularizer": null, "bias_constraint": null, "kernel_regularizer": null, "strides": [1, 1], "filters": 192, "kernel_initializer": {"class_name": "GlorotUniform", "config": {"seed": null}}, "bias_regularizer": null, "dilation_rate": [1, 1], "data_format": "channels_last", "kernel_constraint": null}, "name": "conv2d_4"}, {"inbound_nodes": [[["conv2d_4", 0, 0, {}]]], "class_name": "BatchNormalization", "config": {"beta_constraint": null, "trainable": true, "dtype": "float32", "name": "batch_normalization_4", "gamma_initializer": {"class_name": "Ones", "config": {}}, "gamma_constraint": null, "epsilon": 0.001, "beta_regularizer": null, "moving_variance_initializer": {"class_name": "Ones", "config": {}}, "gamma_regularizer": null, "beta_initializer": {"class_name": "Zeros", "config": {}}, "axis": [3], "center": true, "moving_mean_initializer": {"class_name": "Zeros", "config": {}}, "momentum": 0.99, "scale": false}, "name": "batch_normalization_4"}, {"inbound_nodes": [[["batch_normalization_4", 0, 0, {}]]], "class_name": "Activation", "config": {"activation": "relu", "trainable": true, "dtype": "float32", "name": "activation_4"}, "name": "activation_4"}, {"inbound_nodes": [[["activation_4", 0, 0, {}]]], "class_name": "MaxPooling2D", "config": {"strides": [2, 2], "pool_size": [3, 3], "trainable": true, "dtype": "float32", "name": "max_pooling2d_1", "data_format": "channels_last", "padding": "valid"}, "name": "max_pooling2d_1"}, {"inbound_nodes": [[["max_pooling2d_1", 0, 0, {}]]], "class_name": "Conv2D", "config": {"use_bias": false, "bias_initializer": {"class_name": "Zeros", "config": {}}, "kernel_size": [1, 1], "trainable": true, "dtype": "float32", "name": "conv2d_8", "padding": "same", "activation": "linear", "activity_regularizer": null, "bias_constraint": null, "kernel_regularizer": null, "strides": [1, 1], "filters": 64, "kernel_initializer": {"class_name": "GlorotUniform", "config": {"seed": null}}, "bias_regularizer": null, "dilation_rate": [1, 1], "data_format": "channels_last", "kernel_constraint": null}, "name": "conv2d_8"}, {"inbound_nodes": [[["conv2d_8", 0, 0, {}]]], "class_name": "BatchNormalization", "config": {"beta_constraint": null, "trainable": true, "dtype": "float32", "name": "batch_normalization_8", "gamma_initializer": {"class_name": "Ones", "config": {}}, "gamma_constraint": null, "epsilon": 0.001, "beta_regularizer": null, "moving_variance_initializer": {"class_name": "Ones", "config": {}}, "gamma_regularizer": null, "beta_initializer": {"class_name": "Zeros", "config": {}}, "axis": [3], "center": true, "moving_mean_initializer": {"class_name": "Zeros", "config": {}}, "momentum": 0.99, "scale": false}, "name": "batch_normalization_8"}, {"inbound_nodes": [[["batch_normalization_8", 0, 0, {}]]], "class_name": "Activation", "config": {"activation": "relu", "trainable": true, "dtype": "float32", "name": "activation_8"}, "name": "activation_8"}, {"inbound_nodes": [[["max_pooling2d_1", 0, 0, {}]]], "class_name": "Conv2D", "config": {"use_bias": false, "bias_initializer": {"class_name": "Zeros", "config": {}}, "kernel_size": [1, 1], "trainable": true, "dtype": "float32", "name": "conv2d_6", "padding": "same", "activation": "linear", "activity_regularizer": null, "bias_constraint": null, "kernel_regularizer": null, "strides": [1, 1], "filters": 48, "kernel_initializer": {"class_name": "GlorotUniform", "config": {"seed": null}}, "bias_regularizer": null, "dilation_rate": [1, 1], "data_format": "channels_last", "kernel_constraint": null}, "name": "conv2d_6"}, {"inbound_nodes": [[["activation_8", 0, 0, {}]]], "class_name": "Conv2D", "config": {"use_bias": false, "bias_initializer": {"class_name": "Zeros", "config": {}}, "kernel_size": [3, 3], "trainable": true, "dtype": "float32", "name": "conv2d_9", "padding": "same", "activation": "linear", "activity_regularizer": null, "bias_constraint": null, "kernel_regularizer": null, "strides": [1, 1], "filters": 96, "kernel_initializer": {"class_name": "GlorotUniform", "config": {"seed": null}}, "bias_regularizer": null, "dilation_rate": [1, 1], "data_format": "channels_last", "kernel_constraint": null}, "name": "conv2d_9"}, {"inbound_nodes": [[["conv2d_6", 0, 0, {}]]], "class_name": "BatchNormalization", "config": {"beta_constraint": null, "trainable": true, "dtype": "float32", "name": "batch_normalization_6", "gamma_initializer": {"class_name": "Ones", "config": {}}, "gamma_constraint": null, "epsilon": 0.001, "beta_regularizer": null, "moving_variance_initializer": {"class_name": "Ones", "config": {}}, "gamma_regularizer": null, "beta_initializer": {"class_name": "Zeros", "config": {}}, "axis": [3], "center": true, "moving_mean_initializer": {"class_name": "Zeros", "config": {}}, "momentum": 0.99, "scale": false}, "name": "batch_normalization_6"}, {"inbound_nodes": [[["conv2d_9", 0, 0, {}]]], "class_name": "BatchNormalization", "config": {"beta_constraint": null, "trainable": true, "dtype": "float32", "name": "batch_normalization_9", "gamma_initializer": {"class_name": "Ones", "config": {}}, "gamma_constraint": null, "epsilon": 0.001, "beta_regularizer": null, "moving_variance_initializer": {"class_name": "Ones", "config": {}}, "gamma_regularizer": null, "beta_initializer": {"class_name": "Zeros", "config": {}}, "axis": [3], "center": true, "moving_mean_initializer": {"class_name": "Zeros", "config": {}}, "momentum": 0.99, "scale": false}, "name": "batch_normalization_9"}, {"inbound_nodes": [[["batch_normalization_6", 0, 0, {}]]], "class_name": "Activation", "config": {"activation": "relu", "trainable": true, "dtype": "float32", "name": "activation_6"}, "name": "activation_6"}, {"inbound_nodes": [[["batch_normalization_9", 0, 0, {}]]], "class_name": "Activation", "config": {"activation": "relu", "trainable": true, "dtype": "float32", "name": "activation_9"}, "name": "activation_9"}, {"inbound_nodes": [[["max_pooling2d_1", 0, 0, {}]]], "class_name": "AveragePooling2D", "config": {"strides": [1, 1], "pool_size": [3, 3], "trainable": true, "dtype": "float32", "name": "average_pooling2d", "data_format": "channels_last", "padding": "same"}, "name": "average_pooling2d"}, {"inbound_nodes": [[["max_pooling2d_1", 0, 0, {}]]], "class_name": "Conv2D", "config": {"use_bias": false, "bias_initializer": {"class_name": "Zeros", "config": {}}, "kernel_size": [1, 1], "trainable": true, "dtype": "float32", "name": "conv2d_5", "padding": "same", "activation": "linear", "activity_regularizer": null, "bias_constraint": null, "kernel_regularizer": null, "strides": [1, 1], "filters": 64, "kernel_initializer": {"class_name": "GlorotUniform", "config": {"seed": null}}, "bias_regularizer": null, "dilation_rate": [1, 1], "data_format": "channels_last", "kernel_constraint": null}, "name": "conv2d_5"}, {"inbound_nodes": [[["activation_6", 0, 0, {}]]], "class_name": "Conv2D", "config": {"use_bias": false, "bias_initializer": {"class_name": "Zeros", "config": {}}, "kernel_size": [5, 5], "trainable": true, "dtype": "float32", "name": "conv2d_7", "padding": "same", "activation": "linear", "activity_regularizer": null, "bias_constraint": null, "kernel_regularizer": null, "strides": [1, 1], "filters": 64, "kernel_initializer": {"class_name": "GlorotUniform", "config": {"seed": null}}, "bias_regularizer": null, "dilation_rate": [1, 1], "data_format": "channels_last", "kernel_constraint": null}, "name": "conv2d_7"}, {"inbound_nodes": [[["activation_9", 0, 0, {}]]], "class_name": "Conv2D", "config": {"use_bias": false, "bias_initializer": {"class_name": "Zeros", "config": {}}, "kernel_size": [3, 3], "trainable": true, "dtype": "float32", "name": "conv2d_10", "padding": "same", "activation": "linear", "activity_regularizer": null, "bias_constraint": null, "kernel_regularizer": null, "strides": [1, 1], "filters": 96, "kernel_initializer": {"class_name": "GlorotUniform", "config": {"seed": null}}, "bias_regularizer": null, "dilation_rate": [1, 1], "data_format": "channels_last", "kernel_constraint": null}, "name": "conv2d_10"}, {"inbound_nodes": [[["average_pooling2d", 0, 0, {}]]], "class_name": "Conv2D", "config": {"use_bias": false, "bias_initializer": {"class_name": "Zeros", "config": {}}, "kernel_size": [1, 1], "trainable": true, "dtype": "float32", "name": "conv2d_11", "padding": "same", "activation": "linear", "activity_regularizer": null, "bias_constraint": null, "kernel_regularizer": null, "strides": [1, 1], "filters": 32, "kernel_initializer": {"class_name": "GlorotUniform", "config": {"seed": null}}, "bias_regularizer": null, "dilation_rate": [1, 1], "data_format": "channels_last", "kernel_constraint": null}, "name": "conv2d_11"}, {"inbound_nodes": [[["conv2d_5", 0, 0, {}]]], "class_name": "BatchNormalization", "config": {"beta_constraint": null, "trainable": true, "dtype": "float32", "name": "batch_normalization_5", "gamma_initializer": {"class_name": "Ones", "config": {}}, "gamma_constraint": null, "epsilon": 0.001, "beta_regularizer": null, "moving_variance_initializer": {"class_name": "Ones", "config": {}}, "gamma_regularizer": null, "beta_initializer": {"class_name": "Zeros", "config": {}}, "axis": [3], "center": true, "moving_mean_initializer": {"class_name": "Zeros", "config": {}}, "momentum": 0.99, "scale": false}, "name": "batch_normalization_5"}, {"inbound_nodes": [[["conv2d_7", 0, 0, {}]]], "class_name": "BatchNormalization", "config": {"beta_constraint": null, "trainable": true, "dtype": "float32", "name": "batch_normalization_7", "gamma_initializer": {"class_name": "Ones", "config": {}}, "gamma_constraint": null, "epsilon": 0.001, "beta_regularizer": null, "moving_variance_initializer": {"class_name": "Ones", "config": {}}, "gamma_regularizer": null, "beta_initializer": {"class_name": "Zeros", "config": {}}, "axis": [3], "center": true, "moving_mean_initializer": {"class_name": "Zeros", "config": {}}, "momentum": 0.99, "scale": false}, "name": "batch_normalization_7"}, {"inbound_nodes": [[["conv2d_10", 0, 0, {}]]], "class_name": "BatchNormalization", "config": {"beta_constraint": null, "trainable": true, "dtype": "float32", "name": "batch_normalization_10", "gamma_initializer": {"class_name": "Ones", "config": {}}, "gamma_constraint": null, "epsilon": 0.001, "beta_regularizer": null, "moving_variance_initializer": {"class_name": "Ones", "config": {}}, "gamma_regularizer": null, "beta_initializer": {"class_name": "Zeros", "config": {}}, "axis": [3], "center": true, "moving_mean_initializer": {"class_name": "Zeros", "config": {}}, "momentum": 0.99, "scale": false}, "name": "batch_normalization_10"}, {"inbound_nodes": [[["conv2d_11", 0, 0, {}]]], "class_name": "BatchNormalization", "config": {"beta_constraint": null, "trainable": true, "dtype": "float32", "name": "batch_normalization_11", "gamma_initializer": {"class_name": "Ones", "config": {}}, "gamma_constraint": null, "epsilon": 0.001, "beta_regularizer": null, "moving_variance_initializer": {"class_name": "Ones", "config": {}}, "gamma_regularizer": null, "beta_initializer": {"class_name": "Zeros", "config": {}}, "axis": [3], "center": true, "moving_mean_initializer": {"class_name": "Zeros", "config": {}}, "momentum": 0.99, "scale": false}, "name": "batch_normalization_11"}, {"inbound_nodes": [[["batch_normalization_5", 0, 0, {}]]], "class_name": "Activation", "config": {"activation": "relu", "trainable": true, "dtype": "float32", "name": "activation_5"}, "name": "activation_5"}, {"inbound_nodes": [[["batch_normalization_7", 0, 0, {}]]], "class_name": "Activation", "config": {"activation": "relu", "trainable": true, "dtype": "float32", "name": "activation_7"}, "name": "activation_7"}, {"inbound_nodes": [[["batch_normalization_10", 0, 0, {}]]], "class_name": "Activation", "config": {"activation": "relu", "trainable": true, "dtype": "float32", "name": "activation_10"}, "name": "activation_10"}, {"inbound_nodes": [[["batch_normalization_11", 0, 0, {}]]], "class_name": "Activation", "config": {"activation": "relu", "trainable": true, "dtype": "float32", "name": "activation_11"}, "name": "activation_11"}, {"inbound_nodes": [[["activation_5", 0, 0, {}], ["activation_7", 0, 0, {}], ["activation_10", 0, 0, {}], ["activation_11", 0, 0, {}]]], "class_name": "Concatenate", "config": {"axis": 3, "trainable": true, "dtype": "float32", "name": "mixed0"}, "name": "mixed0"}, {"inbound_nodes": [[["mixed0", 0, 0, {}]]], "class_name": "Conv2D", "config": {"use_bias": false, "bias_initializer": {"class_name": "Zeros", "config": {}}, "kernel_size": [1, 1], "trainable": true, "dtype": "float32", "name": "conv2d_15", "padding": "same", "activation": "linear", "activity_regularizer": null, "bias_constraint": null, "kernel_regularizer": null, "strides": [1, 1], "filters": 64, "kernel_initializer": {"class_name": "GlorotUniform", "config": {"seed": null}}, "bias_regularizer": null, "dilation_rate": [1, 1], "data_format": "channels_last", "kernel_constraint": null}, "name": "conv2d_15"}, {"inbound_nodes": [[["conv2d_15", 0, 0, {}]]], "class_name": "BatchNormalization", "config": {"beta_constraint": null, "trainable": true, "dtype": "float32", "name": "batch_normalization_15", "gamma_initializer": {"class_name": "Ones", "config": {}}, "gamma_constraint": null, "epsilon": 0.001, "beta_regularizer": null, "moving_variance_initializer": {"class_name": "Ones", "config": {}}, "gamma_regularizer": null, "beta_initializer": {"class_name": "Zeros", "config": {}}, "axis": [3], "center": true, "moving_mean_initializer": {"class_name": "Zeros", "config": {}}, "momentum": 0.99, "scale": false}, "name": "batch_normalization_15"}, {"inbound_nodes": [[["batch_normalization_15", 0, 0, {}]]], "class_name": "Activation", "config": {"activation": "relu", "trainable": true, "dtype": "float32", "name": "activation_15"}, "name": "activation_15"}, {"inbound_nodes": [[["mixed0", 0, 0, {}]]], "class_name": "Conv2D", "config": {"use_bias": false, "bias_initializer": {"class_name": "Zeros", "config": {}}, "kernel_size": [1, 1], "trainable": true, "dtype": "float32", "name": "conv2d_13", "padding": "same", "activation": "linear", "activity_regularizer": null, "bias_constraint": null, "kernel_regularizer": null, "strides": [1, 1], "filters": 48, "kernel_initializer": {"class_name": "GlorotUniform", "config": {"seed": null}}, "bias_regularizer": null, "dilation_rate": [1, 1], "data_format": "channels_last", "kernel_constraint": null}, "name": "conv2d_13"}, {"inbound_nodes": [[["activation_15", 0, 0, {}]]], "class_name": "Conv2D", "config": {"use_bias": false, "bias_initializer": {"class_name": "Zeros", "config": {}}, "kernel_size": [3, 3], "trainable": true, "dtype": "float32", "name": "conv2d_16", "padding": "same", "activation": "linear", "activity_regularizer": null, "bias_constraint": null, "kernel_regularizer": null, "strides": [1, 1], "filters": 96, "kernel_initializer": {"class_name": "GlorotUniform", "config": {"seed": null}}, "bias_regularizer": null, "dilation_rate": [1, 1], "data_format": "channels_last", "kernel_constraint": null}, "name": "conv2d_16"}, {"inbound_nodes": [[["conv2d_13", 0, 0, {}]]], "class_name": "BatchNormalization", "config": {"beta_constraint": null, "trainable": true, "dtype": "float32", "name": "batch_normalization_13", "gamma_initializer": {"class_name": "Ones", "config": {}}, "gamma_constraint": null, "epsilon": 0.001, "beta_regularizer": null, "moving_variance_initializer": {"class_name": "Ones", "config": {}}, "gamma_regularizer": null, "beta_initializer": {"class_name": "Zeros", "config": {}}, "axis": [3], "center": true, "moving_mean_initializer": {"class_name": "Zeros", "config": {}}, "momentum": 0.99, "scale": false}, "name": "batch_normalization_13"}, {"inbound_nodes": [[["conv2d_16", 0, 0, {}]]], "class_name": "BatchNormalization", "config": {"beta_constraint": null, "trainable": true, "dtype": "float32", "name": "batch_normalization_16", "gamma_initializer": {"class_name": "Ones", "config": {}}, "gamma_constraint": null, "epsilon": 0.001, "beta_regularizer": null, "moving_variance_initializer": {"class_name": "Ones", "config": {}}, "gamma_regularizer": null, "beta_initializer": {"class_name": "Zeros", "config": {}}, "axis": [3], "center": true, "moving_mean_initializer": {"class_name": "Zeros", "config": {}}, "momentum": 0.99, "scale": false}, "name": "batch_normalization_16"}, {"inbound_nodes": [[["batch_normalization_13", 0, 0, {}]]], "class_name": "Activation", "config": {"activation": "relu", "trainable": true, "dtype": "float32", "name": "activation_13"}, "name": "activation_13"}, {"inbound_nodes": [[["batch_normalization_16", 0, 0, {}]]], "class_name": "Activation", "config": {"activation": "relu", "trainable": true, "dtype": "float32", "name": "activation_16"}, "name": "activation_16"}, {"inbound_nodes": [[["mixed0", 0, 0, {}]]], "class_name": "AveragePooling2D", "config": {"strides": [1, 1], "pool_size": [3, 3], "trainable": true, "dtype": "float32", "name": "average_pooling2d_1", "data_format": "channels_last", "padding": "same"}, "name": "average_pooling2d_1"}, {"inbound_nodes": [[["mixed0", 0, 0, {}]]], "class_name": "Conv2D", "config": {"use_bias": false, "bias_initializer": {"class_name": "Zeros", "config": {}}, "kernel_size": [1, 1], "trainable": true, "dtype": "float32", "name": "conv2d_12", "padding": "same", "activation": "linear", "activity_regularizer": null, "bias_constraint": null, "kernel_regularizer": null, "strides": [1, 1], "filters": 64, "kernel_initializer": {"class_name": "GlorotUniform", "config": {"seed": null}}, "bias_regularizer": null, "dilation_rate": [1, 1], "data_format": "channels_last", "kernel_constraint": null}, "name": "conv2d_12"}, {"inbound_nodes": [[["activation_13", 0, 0, {}]]], "class_name": "Conv2D", "config": {"use_bias": false, "bias_initializer": {"class_name": "Zeros", "config": {}}, "kernel_size": [5, 5], "trainable": true, "dtype": "float32", "name": "conv2d_14", "padding": "same", "activation": "linear", "activity_regularizer": null, "bias_constraint": null, "kernel_regularizer": null, "strides": [1, 1], "filters": 64, "kernel_initializer": {"class_name": "GlorotUniform", "config": {"seed": null}}, "bias_regularizer": null, "dilation_rate": [1, 1], "data_format": "channels_last", "kernel_constraint": null}, "name": "conv2d_14"}, {"inbound_nodes": [[["activation_16", 0, 0, {}]]], "class_name": "Conv2D", "config": {"use_bias": false, "bias_initializer": {"class_name": "Zeros", "config": {}}, "kernel_size": [3, 3], "trainable": true, "dtype": "float32", "name": "conv2d_17", "padding": "same", "activation": "linear", "activity_regularizer": null, "bias_constraint": null, "kernel_regularizer": null, "strides": [1, 1], "filters": 96, "kernel_initializer": {"class_name": "GlorotUniform", "config": {"seed": null}}, "bias_regularizer": null, "dilation_rate": [1, 1], "data_format": "channels_last", "kernel_constraint": null}, "name": "conv2d_17"}, {"inbound_nodes": [[["average_pooling2d_1", 0, 0, {}]]], "class_name": "Conv2D", "config": {"use_bias": false, "bias_initializer": {"class_name": "Zeros", "config": {}}, "kernel_size": [1, 1], "trainable": true, "dtype": "float32", "name": "conv2d_18", "padding": "same", "activation": "linear", "activity_regularizer": null, "bias_constraint": null, "kernel_regularizer": null, "strides": [1, 1], "filters": 64, "kernel_initializer": {"class_name": "GlorotUniform", "config": {"seed": null}}, "bias_regularizer": null, "dilation_rate": [1, 1], "data_format": "channels_last", "kernel_constraint": null}, "name": "conv2d_18"}, {"inbound_nodes": [[["conv2d_12", 0, 0, {}]]], "class_name": "BatchNormalization", "config": {"beta_constraint": null, "trainable": true, "dtype": "float32", "name": "batch_normalization_12", "gamma_initializer": {"class_name": "Ones", "config": {}}, "gamma_constraint": null, "epsilon": 0.001, "beta_regularizer": null, "moving_variance_initializer": {"class_name": "Ones", "config": {}}, "gamma_regularizer": null, "beta_initializer": {"class_name": "Zeros", "config": {}}, "axis": [3], "center": true, "moving_mean_initializer": {"class_name": "Zeros", "config": {}}, "momentum": 0.99, "scale": false}, "name": "batch_normalization_12"}, {"inbound_nodes": [[["conv2d_14", 0, 0, {}]]], "class_name": "BatchNormalization", "config": {"beta_constraint": null, "trainable": true, "dtype": "float32", "name": "batch_normalization_14", "gamma_initializer": {"class_name": "Ones", "config": {}}, "gamma_constraint": null, "epsilon": 0.001, "beta_regularizer": null, "moving_variance_initializer": {"class_name": "Ones", "config": {}}, "gamma_regularizer": null, "beta_initializer": {"class_name": "Zeros", "config": {}}, "axis": [3], "center": true, "moving_mean_initializer": {"class_name": "Zeros", "config": {}}, "momentum": 0.99, "scale": false}, "name": "batch_normalization_14"}, {"inbound_nodes": [[["conv2d_17", 0, 0, {}]]], "class_name": "BatchNormalization", "config": {"beta_constraint": null, "trainable": true, "dtype": "float32", "name": "batch_normalization_17", "gamma_initializer": {"class_name": "Ones", "config": {}}, "gamma_constraint": null, "epsilon": 0.001, "beta_regularizer": null, "moving_variance_initializer": {"class_name": "Ones", "config": {}}, "gamma_regularizer": null, "beta_initializer": {"class_name": "Zeros", "config": {}}, "axis": [3], "center": true, "moving_mean_initializer": {"class_name": "Zeros", "config": {}}, "momentum": 0.99, "scale": false}, "name": "batch_normalization_17"}, {"inbound_nodes": [[["conv2d_18", 0, 0, {}]]], "class_name": "BatchNormalization", "config": {"beta_constraint": null, "trainable": true, "dtype": "float32", "name": "batch_normalization_18", "gamma_initializer": {"class_name": "Ones", "config": {}}, "gamma_constraint": null, "epsilon": 0.001, "beta_regularizer": null, "moving_variance_initializer": {"class_name": "Ones", "config": {}}, "gamma_regularizer": null, "beta_initializer": {"class_name": "Zeros", "config": {}}, "axis": [3], "center": true, "moving_mean_initializer": {"class_name": "Zeros", "config": {}}, "momentum": 0.99, "scale": false}, "name": "batch_normalization_18"}, {"inbound_nodes": [[["batch_normalization_12", 0, 0, {}]]], "class_name": "Activation", "config": {"activation": "relu", "trainable": true, "dtype": "float32", "name": "activation_12"}, "name": "activation_12"}, {"inbound_nodes": [[["batch_normalization_14", 0, 0, {}]]], "class_name": "Activation", "config": {"activation": "relu", "trainable": true, "dtype": "float32", "name": "activation_14"}, "name": "activation_14"}, {"inbound_nodes": [[["batch_normalization_17", 0, 0, {}]]], "class_name": "Activation", "config": {"activation": "relu", "trainable": true, "dtype": "float32", "name": "activation_17"}, "name": "activation_17"}, {"inbound_nodes": [[["batch_normalization_18", 0, 0, {}]]], "class_name": "Activation", "config": {"activation": "relu", "trainable": true, "dtype": "float32", "name": "activation_18"}, "name": "activation_18"}, {"inbound_nodes": [[["activation_12", 0, 0, {}], ["activation_14", 0, 0, {}], ["activation_17", 0, 0, {}], ["activation_18", 0, 0, {}]]], "class_name": "Concatenate", "config": {"axis": 3, "trainable": true, "dtype": "float32", "name": "mixed1"}, "name": "mixed1"}, {"inbound_nodes": [[["mixed1", 0, 0, {}]]], "class_name": "Conv2D", "config": {"use_bias": false, "bias_initializer": {"class_name": "Zeros", "config": {}}, "kernel_size": [1, 1], "trainable": true, "dtype": "float32", "name": "conv2d_22", "padding": "same", "activation": "linear", "activity_regularizer": null, "bias_constraint": null, "kernel_regularizer": null, "strides": [1, 1], "filters": 64, "kernel_initializer": {"class_name": "GlorotUniform", "config": {"seed": null}}, "bias_regularizer": null, "dilation_rate": [1, 1], "data_format": "channels_last", "kernel_constraint": null}, "name": "conv2d_22"}, {"inbound_nodes": [[["conv2d_22", 0, 0, {}]]], "class_name": "BatchNormalization", "config": {"beta_constraint": null, "trainable": true, "dtype": "float32", "name": "batch_normalization_22", "gamma_initializer": {"class_name": "Ones", "config": {}}, "gamma_constraint": null, "epsilon": 0.001, "beta_regularizer": null, "moving_variance_initializer": {"class_name": "Ones", "config": {}}, "gamma_regularizer": null, "beta_initializer": {"class_name": "Zeros", "config": {}}, "axis": [3], "center": true, "moving_mean_initializer": {"class_name": "Zeros", "config": {}}, "momentum": 0.99, "scale": false}, "name": "batch_normalization_22"}, {"inbound_nodes": [[["batch_normalization_22", 0, 0, {}]]], "class_name": "Activation", "config": {"activation": "relu", "trainable": true, "dtype": "float32", "name": "activation_22"}, "name": "activation_22"}, {"inbound_nodes": [[["mixed1", 0, 0, {}]]], "class_name": "Conv2D", "config": {"use_bias": false, "bias_initializer": {"class_name": "Zeros", "config": {}}, "kernel_size": [1, 1], "trainable": true, "dtype": "float32", "name": "conv2d_20", "padding": "same", "activation": "linear", "activity_regularizer": null, "bias_constraint": null, "kernel_regularizer": null, "strides": [1, 1], "filters": 48, "kernel_initializer": {"class_name": "GlorotUniform", "config": {"seed": null}}, "bias_regularizer": null, "dilation_rate": [1, 1], "data_format": "channels_last", "kernel_constraint": null}, "name": "conv2d_20"}, {"inbound_nodes": [[["activation_22", 0, 0, {}]]], "class_name": "Conv2D", "config": {"use_bias": false, "bias_initializer": {"class_name": "Zeros", "config": {}}, "kernel_size": [3, 3], "trainable": true, "dtype": "float32", "name": "conv2d_23", "padding": "same", "activation": "linear", "activity_regularizer": null, "bias_constraint": null, "kernel_regularizer": null, "strides": [1, 1], "filters": 96, "kernel_initializer": {"class_name": "GlorotUniform", "config": {"seed": null}}, "bias_regularizer": null, "dilation_rate": [1, 1], "data_format": "channels_last", "kernel_constraint": null}, "name": "conv2d_23"}, {"inbound_nodes": [[["conv2d_20", 0, 0, {}]]], "class_name": "BatchNormalization", "config": {"beta_constraint": null, "trainable": true, "dtype": "float32", "name": "batch_normalization_20", "gamma_initializer": {"class_name": "Ones", "config": {}}, "gamma_constraint": null, "epsilon": 0.001, "beta_regularizer": null, "moving_variance_initializer": {"class_name": "Ones", "config": {}}, "gamma_regularizer": null, "beta_initializer": {"class_name": "Zeros", "config": {}}, "axis": [3], "center": true, "moving_mean_initializer": {"class_name": "Zeros", "config": {}}, "momentum": 0.99, "scale": false}, "name": "batch_normalization_20"}, {"inbound_nodes": [[["conv2d_23", 0, 0, {}]]], "class_name": "BatchNormalization", "config": {"beta_constraint": null, "trainable": true, "dtype": "float32", "name": "batch_normalization_23", "gamma_initializer": {"class_name": "Ones", "config": {}}, "gamma_constraint": null, "epsilon": 0.001, "beta_regularizer": null, "moving_variance_initializer": {"class_name": "Ones", "config": {}}, "gamma_regularizer": null, "beta_initializer": {"class_name": "Zeros", "config": {}}, "axis": [3], "center": true, "moving_mean_initializer": {"class_name": "Zeros", "config": {}}, "momentum": 0.99, "scale": false}, "name": "batch_normalization_23"}, {"inbound_nodes": [[["batch_normalization_20", 0, 0, {}]]], "class_name": "Activation", "config": {"activation": "relu", "trainable": true, "dtype": "float32", "name": "activation_20"}, "name": "activation_20"}, {"inbound_nodes": [[["batch_normalization_23", 0, 0, {}]]], "class_name": "Activation", "config": {"activation": "relu", "trainable": true, "dtype": "float32", "name": "activation_23"}, "name": "activation_23"}, {"inbound_nodes": [[["mixed1", 0, 0, {}]]], "class_name": "AveragePooling2D", "config": {"strides": [1, 1], "pool_size": [3, 3], "trainable": true, "dtype": "float32", "name": "average_pooling2d_2", "data_format": "channels_last", "padding": "same"}, "name": "average_pooling2d_2"}, {"inbound_nodes": [[["mixed1", 0, 0, {}]]], "class_name": "Conv2D", "config": {"use_bias": false, "bias_initializer": {"class_name": "Zeros", "config": {}}, "kernel_size": [1, 1], "trainable": true, "dtype": "float32", "name": "conv2d_19", "padding": "same", "activation": "linear", "activity_regularizer": null, "bias_constraint": null, "kernel_regularizer": null, "strides": [1, 1], "filters": 64, "kernel_initializer": {"class_name": "GlorotUniform", "config": {"seed": null}}, "bias_regularizer": null, "dilation_rate": [1, 1], "data_format": "channels_last", "kernel_constraint": null}, "name": "conv2d_19"}, {"inbound_nodes": [[["activation_20", 0, 0, {}]]], "class_name": "Conv2D", "config": {"use_bias": false, "bias_initializer": {"class_name": "Zeros", "config": {}}, "kernel_size": [5, 5], "trainable": true, "dtype": "float32", "name": "conv2d_21", "padding": "same", "activation": "linear", "activity_regularizer": null, "bias_constraint": null, "kernel_regularizer": null, "strides": [1, 1], "filters": 64, "kernel_initializer": {"class_name": "GlorotUniform", "config": {"seed": null}}, "bias_regularizer": null, "dilation_rate": [1, 1], "data_format": "channels_last", "kernel_constraint": null}, "name": "conv2d_21"}, {"inbound_nodes": [[["activation_23", 0, 0, {}]]], "class_name": "Conv2D", "config": {"use_bias": false, "bias_initializer": {"class_name": "Zeros", "config": {}}, "kernel_size": [3, 3], "trainable": true, "dtype": "float32", "name": "conv2d_24", "padding": "same", "activation": "linear", "activity_regularizer": null, "bias_constraint": null, "kernel_regularizer": null, "strides": [1, 1], "filters": 96, "kernel_initializer": {"class_name": "GlorotUniform", "config": {"seed": null}}, "bias_regularizer": null, "dilation_rate": [1, 1], "data_format": "channels_last", "kernel_constraint": null}, "name": "conv2d_24"}, {"inbound_nodes": [[["average_pooling2d_2", 0, 0, {}]]], "class_name": "Conv2D", "config": {"use_bias": false, "bias_initializer": {"class_name": "Zeros", "config": {}}, "kernel_size": [1, 1], "trainable": true, "dtype": "float32", "name": "conv2d_25", "padding": "same", "activation": "linear", "activity_regularizer": null, "bias_constraint": null, "kernel_regularizer": null, "strides": [1, 1], "filters": 64, "kernel_initializer": {"class_name": "GlorotUniform", "config": {"seed": null}}, "bias_regularizer": null, "dilation_rate": [1, 1], "data_format": "channels_last", "kernel_constraint": null}, "name": "conv2d_25"}, {"inbound_nodes": [[["conv2d_19", 0, 0, {}]]], "class_name": "BatchNormalization", "config": {"beta_constraint": null, "trainable": true, "dtype": "float32", "name": "batch_normalization_19", "gamma_initializer": {"class_name": "Ones", "config": {}}, "gamma_constraint": null, "epsilon": 0.001, "beta_regularizer": null, "moving_variance_initializer": {"class_name": "Ones", "config": {}}, "gamma_regularizer": null, "beta_initializer": {"class_name": "Zeros", "config": {}}, "axis": [3], "center": true, "moving_mean_initializer": {"class_name": "Zeros", "config": {}}, "momentum": 0.99, "scale": false}, "name": "batch_normalization_19"}, {"inbound_nodes": [[["conv2d_21", 0, 0, {}]]], "class_name": "BatchNormalization", "config": {"beta_constraint": null, "trainable": true, "dtype": "float32", "name": "batch_normalization_21", "gamma_initializer": {"class_name": "Ones", "config": {}}, "gamma_constraint": null, "epsilon": 0.001, "beta_regularizer": null, "moving_variance_initializer": {"class_name": "Ones", "config": {}}, "gamma_regularizer": null, "beta_initializer": {"class_name": "Zeros", "config": {}}, "axis": [3], "center": true, "moving_mean_initializer": {"class_name": "Zeros", "config": {}}, "momentum": 0.99, "scale": false}, "name": "batch_normalization_21"}, {"inbound_nodes": [[["conv2d_24", 0, 0, {}]]], "class_name": "BatchNormalization", "config": {"beta_constraint": null, "trainable": true, "dtype": "float32", "name": "batch_normalization_24", "gamma_initializer": {"class_name": "Ones", "config": {}}, "gamma_constraint": null, "epsilon": 0.001, "beta_regularizer": null, "moving_variance_initializer": {"class_name": "Ones", "config": {}}, "gamma_regularizer": null, "beta_initializer": {"class_name": "Zeros", "config": {}}, "axis": [3], "center": true, "moving_mean_initializer": {"class_name": "Zeros", "config": {}}, "momentum": 0.99, "scale": false}, "name": "batch_normalization_24"}, {"inbound_nodes": [[["conv2d_25", 0, 0, {}]]], "class_name": "BatchNormalization", "config": {"beta_constraint": null, "trainable": true, "dtype": "float32", "name": "batch_normalization_25", "gamma_initializer": {"class_name": "Ones", "config": {}}, "gamma_constraint": null, "epsilon": 0.001, "beta_regularizer": null, "moving_variance_initializer": {"class_name": "Ones", "config": {}}, "gamma_regularizer": null, "beta_initializer": {"class_name": "Zeros", "config": {}}, "axis": [3], "center": true, "moving_mean_initializer": {"class_name": "Zeros", "config": {}}, "momentum": 0.99, "scale": false}, "name": "batch_normalization_25"}, {"inbound_nodes": [[["batch_normalization_19", 0, 0, {}]]], "class_name": "Activation", "config": {"activation": "relu", "trainable": true, "dtype": "float32", "name": "activation_19"}, "name": "activation_19"}, {"inbound_nodes": [[["batch_normalization_21", 0, 0, {}]]], "class_name": "Activation", "config": {"activation": "relu", "trainable": true, "dtype": "float32", "name": "activation_21"}, "name": "activation_21"}, {"inbound_nodes": [[["batch_normalization_24", 0, 0, {}]]], "class_name": "Activation", "config": {"activation": "relu", "trainable": true, "dtype": "float32", "name": "activation_24"}, "name": "activation_24"}, {"inbound_nodes": [[["batch_normalization_25", 0, 0, {}]]], "class_name": "Activation", "config": {"activation": "relu", "trainable": true, "dtype": "float32", "name": "activation_25"}, "name": "activation_25"}, {"inbound_nodes": [[["activation_19", 0, 0, {}], ["activation_21", 0, 0, {}], ["activation_24", 0, 0, {}], ["activation_25", 0, 0, {}]]], "class_name": "Concatenate", "config": {"axis": 3, "trainable": true, "dtype": "float32", "name": "mixed2"}, "name": "mixed2"}, {"inbound_nodes": [[["mixed2", 0, 0, {}]]], "class_name": "Conv2D", "config": {"use_bias": false, "bias_initializer": {"class_name": "Zeros", "config": {}}, "kernel_size": [1, 1], "trainable": true, "dtype": "float32", "name": "conv2d_27", "padding": "same", "activation": "linear", "activity_regularizer": null, "bias_constraint": null, "kernel_regularizer": null, "strides": [1, 1], "filters": 64, "kernel_initializer": {"class_name": "GlorotUniform", "config": {"seed": null}}, "bias_regularizer": null, "dilation_rate": [1, 1], "data_format": "channels_last", "kernel_constraint": null}, "name": "conv2d_27"}, {"inbound_nodes": [[["conv2d_27", 0, 0, {}]]], "class_name": "BatchNormalization", "config": {"beta_constraint": null, "trainable": true, "dtype": "float32", "name": "batch_normalization_27", "gamma_initializer": {"class_name": "Ones", "config": {}}, "gamma_constraint": null, "epsilon": 0.001, "beta_regularizer": null, "moving_variance_initializer": {"class_name": "Ones", "config": {}}, "gamma_regularizer": null, "beta_initializer": {"class_name": "Zeros", "config": {}}, "axis": [3], "center": true, "moving_mean_initializer": {"class_name": "Zeros", "config": {}}, "momentum": 0.99, "scale": false}, "name": "batch_normalization_27"}, {"inbound_nodes": [[["batch_normalization_27", 0, 0, {}]]], "class_name": "Activation", "config": {"activation": "relu", "trainable": true, "dtype": "float32", "name": "activation_27"}, "name": "activation_27"}, {"inbound_nodes": [[["activation_27", 0, 0, {}]]], "class_name": "Conv2D", "config": {"use_bias": false, "bias_initializer": {"class_name": "Zeros", "config": {}}, "kernel_size": [3, 3], "trainable": true, "dtype": "float32", "name": "conv2d_28", "padding": "same", "activation": "linear", "activity_regularizer": null, "bias_constraint": null, "kernel_regularizer": null, "strides": [1, 1], "filters": 96, "kernel_initializer": {"class_name": "GlorotUniform", "config": {"seed": null}}, "bias_regularizer": null, "dilation_rate": [1, 1], "data_format": "channels_last", "kernel_constraint": null}, "name": "conv2d_28"}, {"inbound_nodes": [[["conv2d_28", 0, 0, {}]]], "class_name": "BatchNormalization", "config": {"beta_constraint": null, "trainable": true, "dtype": "float32", "name": "batch_normalization_28", "gamma_initializer": {"class_name": "Ones", "config": {}}, "gamma_constraint": null, "epsilon": 0.001, "beta_regularizer": null, "moving_variance_initializer": {"class_name": "Ones", "config": {}}, "gamma_regularizer": null, "beta_initializer": {"class_name": "Zeros", "config": {}}, "axis": [3], "center": true, "moving_mean_initializer": {"class_name": "Zeros", "config": {}}, "momentum": 0.99, "scale": false}, "name": "batch_normalization_28"}, {"inbound_nodes": [[["batch_normalization_28", 0, 0, {}]]], "class_name": "Activation", "config": {"activation": "relu", "trainable": true, "dtype": "float32", "name": "activation_28"}, "name": "activation_28"}, {"inbound_nodes": [[["mixed2", 0, 0, {}]]], "class_name": "Conv2D", "config": {"use_bias": false, "bias_initializer": {"class_name": "Zeros", "config": {}}, "kernel_size": [3, 3], "trainable": true, "dtype": "float32", "name": "conv2d_26", "padding": "valid", "activation": "linear", "activity_regularizer": null, "bias_constraint": null, "kernel_regularizer": null, "strides": [2, 2], "filters": 384, "kernel_initializer": {"class_name": "GlorotUniform", "config": {"seed": null}}, "bias_regularizer": null, "dilation_rate": [1, 1], "data_format": "channels_last", "kernel_constraint": null}, "name": "conv2d_26"}, {"inbound_nodes": [[["activation_28", 0, 0, {}]]], "class_name": "Conv2D", "config": {"use_bias": false, "bias_initializer": {"class_name": "Zeros", "config": {}}, "kernel_size": [3, 3], "trainable": true, "dtype": "float32", "name": "conv2d_29", "padding": "valid", "activation": "linear", "activity_regularizer": null, "bias_constraint": null, "kernel_regularizer": null, "strides": [2, 2], "filters": 96, "kernel_initializer": {"class_name": "GlorotUniform", "config": {"seed": null}}, "bias_regularizer": null, "dilation_rate": [1, 1], "data_format": "channels_last", "kernel_constraint": null}, "name": "conv2d_29"}, {"inbound_nodes": [[["conv2d_26", 0, 0, {}]]], "class_name": "BatchNormalization", "config": {"beta_constraint": null, "trainable": true, "dtype": "float32", "name": "batch_normalization_26", "gamma_initializer": {"class_name": "Ones", "config": {}}, "gamma_constraint": null, "epsilon": 0.001, "beta_regularizer": null, "moving_variance_initializer": {"class_name": "Ones", "config": {}}, "gamma_regularizer": null, "beta_initializer": {"class_name": "Zeros", "config": {}}, "axis": [3], "center": true, "moving_mean_initializer": {"class_name": "Zeros", "config": {}}, "momentum": 0.99, "scale": false}, "name": "batch_normalization_26"}, {"inbound_nodes": [[["conv2d_29", 0, 0, {}]]], "class_name": "BatchNormalization", "config": {"beta_constraint": null, "trainable": true, "dtype": "float32", "name": "batch_normalization_29", "gamma_initializer": {"class_name": "Ones", "config": {}}, "gamma_constraint": null, "epsilon": 0.001, "beta_regularizer": null, "moving_variance_initializer": {"class_name": "Ones", "config": {}}, "gamma_regularizer": null, "beta_initializer": {"class_name": "Zeros", "config": {}}, "axis": [3], "center": true, "moving_mean_initializer": {"class_name": "Zeros", "config": {}}, "momentum": 0.99, "scale": false}, "name": "batch_normalization_29"}, {"inbound_nodes": [[["batch_normalization_26", 0, 0, {}]]], "class_name": "Activation", "config": {"activation": "relu", "trainable": true, "dtype": "float32", "name": "activation_26"}, "name": "activation_26"}, {"inbound_nodes": [[["batch_normalization_29", 0, 0, {}]]], "class_name": "Activation", "config": {"activation": "relu", "trainable": true, "dtype": "float32", "name": "activation_29"}, "name": "activation_29"}, {"inbound_nodes": [[["mixed2", 0, 0, {}]]], "class_name": "MaxPooling2D", "config": {"strides": [2, 2], "pool_size": [3, 3], "trainable": true, "dtype": "float32", "name": "max_pooling2d_2", "data_format": "channels_last", "padding": "valid"}, "name": "max_pooling2d_2"}, {"inbound_nodes": [[["activation_26", 0, 0, {}], ["activation_29", 0, 0, {}], ["max_pooling2d_2", 0, 0, {}]]], "class_name": "Concatenate", "config": {"axis": 3, "trainable": true, "dtype": "float32", "name": "mixed3"}, "name": "mixed3"}, {"inbound_nodes": [[["mixed3", 0, 0, {}]]], "class_name": "Conv2D", "config": {"use_bias": false, "bias_initializer": {"class_name": "Zeros", "config": {}}, "kernel_size": [1, 1], "trainable": true, "dtype": "float32", "name": "conv2d_34", "padding": "same", "activation": "linear", "activity_regularizer": null, "bias_constraint": null, "kernel_regularizer": null, "strides": [1, 1], "filters": 128, "kernel_initializer": {"class_name": "GlorotUniform", "config": {"seed": null}}, "bias_regularizer": null, "dilation_rate": [1, 1], "data_format": "channels_last", "kernel_constraint": null}, "name": "conv2d_34"}, {"inbound_nodes": [[["conv2d_34", 0, 0, {}]]], "class_name": "BatchNormalization", "config": {"beta_constraint": null, "trainable": true, "dtype": "float32", "name": "batch_normalization_34", "gamma_initializer": {"class_name": "Ones", "config": {}}, "gamma_constraint": null, "epsilon": 0.001, "beta_regularizer": null, "moving_variance_initializer": {"class_name": "Ones", "config": {}}, "gamma_regularizer": null, "beta_initializer": {"class_name": "Zeros", "config": {}}, "axis": [3], "center": true, "moving_mean_initializer": {"class_name": "Zeros", "config": {}}, "momentum": 0.99, "scale": false}, "name": "batch_normalization_34"}, {"inbound_nodes": [[["batch_normalization_34", 0, 0, {}]]], "class_name": "Activation", "config": {"activation": "relu", "trainable": true, "dtype": "float32", "name": "activation_34"}, "name": "activation_34"}, {"inbound_nodes": [[["activation_34", 0, 0, {}]]], "class_name": "Conv2D", "config": {"use_bias": false, "bias_initializer": {"class_name": "Zeros", "config": {}}, "kernel_size": [7, 1], "trainable": true, "dtype": "float32", "name": "conv2d_35", "padding": "same", "activation": "linear", "activity_regularizer": null, "bias_constraint": null, "kernel_regularizer": null, "strides": [1, 1], "filters": 128, "kernel_initializer": {"class_name": "GlorotUniform", "config": {"seed": null}}, "bias_regularizer": null, "dilation_rate": [1, 1], "data_format": "channels_last", "kernel_constraint": null}, "name": "conv2d_35"}, {"inbound_nodes": [[["conv2d_35", 0, 0, {}]]], "class_name": "BatchNormalization", "config": {"beta_constraint": null, "trainable": true, "dtype": "float32", "name": "batch_normalization_35", "gamma_initializer": {"class_name": "Ones", "config": {}}, "gamma_constraint": null, "epsilon": 0.001, "beta_regularizer": null, "moving_variance_initializer": {"class_name": "Ones", "config": {}}, "gamma_regularizer": null, "beta_initializer": {"class_name": "Zeros", "config": {}}, "axis": [3], "center": true, "moving_mean_initializer": {"class_name": "Zeros", "config": {}}, "momentum": 0.99, "scale": false}, "name": "batch_normalization_35"}, {"inbound_nodes": [[["batch_normalization_35", 0, 0, {}]]], "class_name": "Activation", "config": {"activation": "relu", "trainable": true, "dtype": "float32", "name": "activation_35"}, "name": "activation_35"}, {"inbound_nodes": [[["mixed3", 0, 0, {}]]], "class_name": "Conv2D", "config": {"use_bias": false, "bias_initializer": {"class_name": "Zeros", "config": {}}, "kernel_size": [1, 1], "trainable": true, "dtype": "float32", "name": "conv2d_31", "padding": "same", "activation": "linear", "activity_regularizer": null, "bias_constraint": null, "kernel_regularizer": null, "strides": [1, 1], "filters": 128, "kernel_initializer": {"class_name": "GlorotUniform", "config": {"seed": null}}, "bias_regularizer": null, "dilation_rate": [1, 1], "data_format": "channels_last", "kernel_constraint": null}, "name": "conv2d_31"}, {"inbound_nodes": [[["activation_35", 0, 0, {}]]], "class_name": "Conv2D", "config": {"use_bias": false, "bias_initializer": {"class_name": "Zeros", "config": {}}, "kernel_size": [1, 7], "trainable": true, "dtype": "float32", "name": "conv2d_36", "padding": "same", "activation": "linear", "activity_regularizer": null, "bias_constraint": null, "kernel_regularizer": null, "strides": [1, 1], "filters": 128, "kernel_initializer": {"class_name": "GlorotUniform", "config": {"seed": null}}, "bias_regularizer": null, "dilation_rate": [1, 1], "data_format": "channels_last", "kernel_constraint": null}, "name": "conv2d_36"}, {"inbound_nodes": [[["conv2d_31", 0, 0, {}]]], "class_name": "BatchNormalization", "config": {"beta_constraint": null, "trainable": true, "dtype": "float32", "name": "batch_normalization_31", "gamma_initializer": {"class_name": "Ones", "config": {}}, "gamma_constraint": null, "epsilon": 0.001, "beta_regularizer": null, "moving_variance_initializer": {"class_name": "Ones", "config": {}}, "gamma_regularizer": null, "beta_initializer": {"class_name": "Zeros", "config": {}}, "axis": [3], "center": true, "moving_mean_initializer": {"class_name": "Zeros", "config": {}}, "momentum": 0.99, "scale": false}, "name": "batch_normalization_31"}, {"inbound_nodes": [[["conv2d_36", 0, 0, {}]]], "class_name": "BatchNormalization", "config": {"beta_constraint": null, "trainable": true, "dtype": "float32", "name": "batch_normalization_36", "gamma_initializer": {"class_name": "Ones", "config": {}}, "gamma_constraint": null, "epsilon": 0.001, "beta_regularizer": null, "moving_variance_initializer": {"class_name": "Ones", "config": {}}, "gamma_regularizer": null, "beta_initializer": {"class_name": "Zeros", "config": {}}, "axis": [3], "center": true, "moving_mean_initializer": {"class_name": "Zeros", "config": {}}, "momentum": 0.99, "scale": false}, "name": "batch_normalization_36"}, {"inbound_nodes": [[["batch_normalization_31", 0, 0, {}]]], "class_name": "Activation", "config": {"activation": "relu", "trainable": true, "dtype": "float32", "name": "activation_31"}, "name": "activation_31"}, {"inbound_nodes": [[["batch_normalization_36", 0, 0, {}]]], "class_name": "Activation", "config": {"activation": "relu", "trainable": true, "dtype": "float32", "name": "activation_36"}, "name": "activation_36"}, {"inbound_nodes": [[["activation_31", 0, 0, {}]]], "class_name": "Conv2D", "config": {"use_bias": false, "bias_initializer": {"class_name": "Zeros", "config": {}}, "kernel_size": [1, 7], "trainable": true, "dtype": "float32", "name": "conv2d_32", "padding": "same", "activation": "linear", "activity_regularizer": null, "bias_constraint": null, "kernel_regularizer": null, "strides": [1, 1], "filters": 128, "kernel_initializer": {"class_name": "GlorotUniform", "config": {"seed": null}}, "bias_regularizer": null, "dilation_rate": [1, 1], "data_format": "channels_last", "kernel_constraint": null}, "name": "conv2d_32"}, {"inbound_nodes": [[["activation_36", 0, 0, {}]]], "class_name": "Conv2D", "config": {"use_bias": false, "bias_initializer": {"class_name": "Zeros", "config": {}}, "kernel_size": [7, 1], "trainable": true, "dtype": "float32", "name": "conv2d_37", "padding": "same", "activation": "linear", "activity_regularizer": null, "bias_constraint": null, "kernel_regularizer": null, "strides": [1, 1], "filters": 128, "kernel_initializer": {"class_name": "GlorotUniform", "config": {"seed": null}}, "bias_regularizer": null, "dilation_rate": [1, 1], "data_format": "channels_last", "kernel_constraint": null}, "name": "conv2d_37"}, {"inbound_nodes": [[["conv2d_32", 0, 0, {}]]], "class_name": "BatchNormalization", "config": {"beta_constraint": null, "trainable": true, "dtype": "float32", "name": "batch_normalization_32", "gamma_initializer": {"class_name": "Ones", "config": {}}, "gamma_constraint": null, "epsilon": 0.001, "beta_regularizer": null, "moving_variance_initializer": {"class_name": "Ones", "config": {}}, "gamma_regularizer": null, "beta_initializer": {"class_name": "Zeros", "config": {}}, "axis": [3], "center": true, "moving_mean_initializer": {"class_name": "Zeros", "config": {}}, "momentum": 0.99, "scale": false}, "name": "batch_normalization_32"}, {"inbound_nodes": [[["conv2d_37", 0, 0, {}]]], "class_name": "BatchNormalization", "config": {"beta_constraint": null, "trainable": true, "dtype": "float32", "name": "batch_normalization_37", "gamma_initializer": {"class_name": "Ones", "config": {}}, "gamma_constraint": null, "epsilon": 0.001, "beta_regularizer": null, "moving_variance_initializer": {"class_name": "Ones", "config": {}}, "gamma_regularizer": null, "beta_initializer": {"class_name": "Zeros", "config": {}}, "axis": [3], "center": true, "moving_mean_initializer": {"class_name": "Zeros", "config": {}}, "momentum": 0.99, "scale": false}, "name": "batch_normalization_37"}, {"inbound_nodes": [[["batch_normalization_32", 0, 0, {}]]], "class_name": "Activation", "config": {"activation": "relu", "trainable": true, "dtype": "float32", "name": "activation_32"}, "name": "activation_32"}, {"inbound_nodes": [[["batch_normalization_37", 0, 0, {}]]], "class_name": "Activation", "config": {"activation": "relu", "trainable": true, "dtype": "float32", "name": "activation_37"}, "name": "activation_37"}, {"inbound_nodes": [[["mixed3", 0, 0, {}]]], "class_name": "AveragePooling2D", "config": {"strides": [1, 1], "pool_size": [3, 3], "trainable": true, "dtype": "float32", "name": "average_pooling2d_3", "data_format": "channels_last", "padding": "same"}, "name": "average_pooling2d_3"}, {"inbound_nodes": [[["mixed3", 0, 0, {}]]], "class_name": "Conv2D", "config": {"use_bias": false, "bias_initializer": {"class_name": "Zeros", "config": {}}, "kernel_size": [1, 1], "trainable": true, "dtype": "float32", "name": "conv2d_30", "padding": "same", "activation": "linear", "activity_regularizer": null, "bias_constraint": null, "kernel_regularizer": null, "strides": [1, 1], "filters": 192, "kernel_initializer": {"class_name": "GlorotUniform", "config": {"seed": null}}, "bias_regularizer": null, "dilation_rate": [1, 1], "data_format": "channels_last", "kernel_constraint": null}, "name": "conv2d_30"}, {"inbound_nodes": [[["activation_32", 0, 0, {}]]], "class_name": "Conv2D", "config": {"use_bias": false, "bias_initializer": {"class_name": "Zeros", "config": {}}, "kernel_size": [7, 1], "trainable": true, "dtype": "float32", "name": "conv2d_33", "padding": "same", "activation": "linear", "activity_regularizer": null, "bias_constraint": null, "kernel_regularizer": null, "strides": [1, 1], "filters": 192, "kernel_initializer": {"class_name": "GlorotUniform", "config": {"seed": null}}, "bias_regularizer": null, "dilation_rate": [1, 1], "data_format": "channels_last", "kernel_constraint": null}, "name": "conv2d_33"}, {"inbound_nodes": [[["activation_37", 0, 0, {}]]], "class_name": "Conv2D", "config": {"use_bias": false, "bias_initializer": {"class_name": "Zeros", "config": {}}, "kernel_size": [1, 7], "trainable": true, "dtype": "float32", "name": "conv2d_38", "padding": "same", "activation": "linear", "activity_regularizer": null, "bias_constraint": null, "kernel_regularizer": null, "strides": [1, 1], "filters": 192, "kernel_initializer": {"class_name": "GlorotUniform", "config": {"seed": null}}, "bias_regularizer": null, "dilation_rate": [1, 1], "data_format": "channels_last", "kernel_constraint": null}, "name": "conv2d_38"}, {"inbound_nodes": [[["average_pooling2d_3", 0, 0, {}]]], "class_name": "Conv2D", "config": {"use_bias": false, "bias_initializer": {"class_name": "Zeros", "config": {}}, "kernel_size": [1, 1], "trainable": true, "dtype": "float32", "name": "conv2d_39", "padding": "same", "activation": "linear", "activity_regularizer": null, "bias_constraint": null, "kernel_regularizer": null, "strides": [1, 1], "filters": 192, "kernel_initializer": {"class_name": "GlorotUniform", "config": {"seed": null}}, "bias_regularizer": null, "dilation_rate": [1, 1], "data_format": "channels_last", "kernel_constraint": null}, "name": "conv2d_39"}, {"inbound_nodes": [[["conv2d_30", 0, 0, {}]]], "class_name": "BatchNormalization", "config": {"beta_constraint": null, "trainable": true, "dtype": "float32", "name": "batch_normalization_30", "gamma_initializer": {"class_name": "Ones", "config": {}}, "gamma_constraint": null, "epsilon": 0.001, "beta_regularizer": null, "moving_variance_initializer": {"class_name": "Ones", "config": {}}, "gamma_regularizer": null, "beta_initializer": {"class_name": "Zeros", "config": {}}, "axis": [3], "center": true, "moving_mean_initializer": {"class_name": "Zeros", "config": {}}, "momentum": 0.99, "scale": false}, "name": "batch_normalization_30"}, {"inbound_nodes": [[["conv2d_33", 0, 0, {}]]], "class_name": "BatchNormalization", "config": {"beta_constraint": null, "trainable": true, "dtype": "float32", "name": "batch_normalization_33", "gamma_initializer": {"class_name": "Ones", "config": {}}, "gamma_constraint": null, "epsilon": 0.001, "beta_regularizer": null, "moving_variance_initializer": {"class_name": "Ones", "config": {}}, "gamma_regularizer": null, "beta_initializer": {"class_name": "Zeros", "config": {}}, "axis": [3], "center": true, "moving_mean_initializer": {"class_name": "Zeros", "config": {}}, "momentum": 0.99, "scale": false}, "name": "batch_normalization_33"}, {"inbound_nodes": [[["conv2d_38", 0, 0, {}]]], "class_name": "BatchNormalization", "config": {"beta_constraint": null, "trainable": true, "dtype": "float32", "name": "batch_normalization_38", "gamma_initializer": {"class_name": "Ones", "config": {}}, "gamma_constraint": null, "epsilon": 0.001, "beta_regularizer": null, "moving_variance_initializer": {"class_name": "Ones", "config": {}}, "gamma_regularizer": null, "beta_initializer": {"class_name": "Zeros", "config": {}}, "axis": [3], "center": true, "moving_mean_initializer": {"class_name": "Zeros", "config": {}}, "momentum": 0.99, "scale": false}, "name": "batch_normalization_38"}, {"inbound_nodes": [[["conv2d_39", 0, 0, {}]]], "class_name": "BatchNormalization", "config": {"beta_constraint": null, "trainable": true, "dtype": "float32", "name": "batch_normalization_39", "gamma_initializer": {"class_name": "Ones", "config": {}}, "gamma_constraint": null, "epsilon": 0.001, "beta_regularizer": null, "moving_variance_initializer": {"class_name": "Ones", "config": {}}, "gamma_regularizer": null, "beta_initializer": {"class_name": "Zeros", "config": {}}, "axis": [3], "center": true, "moving_mean_initializer": {"class_name": "Zeros", "config": {}}, "momentum": 0.99, "scale": false}, "name": "batch_normalization_39"}, {"inbound_nodes": [[["batch_normalization_30", 0, 0, {}]]], "class_name": "Activation", "config": {"activation": "relu", "trainable": true, "dtype": "float32", "name": "activation_30"}, "name": "activation_30"}, {"inbound_nodes": [[["batch_normalization_33", 0, 0, {}]]], "class_name": "Activation", "config": {"activation": "relu", "trainable": true, "dtype": "float32", "name": "activation_33"}, "name": "activation_33"}, {"inbound_nodes": [[["batch_normalization_38", 0, 0, {}]]], "class_name": "Activation", "config": {"activation": "relu", "trainable": true, "dtype": "float32", "name": "activation_38"}, "name": "activation_38"}, {"inbound_nodes": [[["batch_normalization_39", 0, 0, {}]]], "class_name": "Activation", "config": {"activation": "relu", "trainable": true, "dtype": "float32", "name": "activation_39"}, "name": "activation_39"}, {"inbound_nodes": [[["activation_30", 0, 0, {}], ["activation_33", 0, 0, {}], ["activation_38", 0, 0, {}], ["activation_39", 0, 0, {}]]], "class_name": "Concatenate", "config": {"axis": 3, "trainable": true, "dtype": "float32", "name": "mixed4"}, "name": "mixed4"}, {"inbound_nodes": [[["mixed4", 0, 0, {}]]], "class_name": "Conv2D", "config": {"use_bias": false, "bias_initializer": {"class_name": "Zeros", "config": {}}, "kernel_size": [1, 1], "trainable": true, "dtype": "float32", "name": "conv2d_44", "padding": "same", "activation": "linear", "activity_regularizer": null, "bias_constraint": null, "kernel_regularizer": null, "strides": [1, 1], "filters": 160, "kernel_initializer": {"class_name": "GlorotUniform", "config": {"seed": null}}, "bias_regularizer": null, "dilation_rate": [1, 1], "data_format": "channels_last", "kernel_constraint": null}, "name": "conv2d_44"}, {"inbound_nodes": [[["conv2d_44", 0, 0, {}]]], "class_name": "BatchNormalization", "config": {"beta_constraint": null, "trainable": true, "dtype": "float32", "name": "batch_normalization_44", "gamma_initializer": {"class_name": "Ones", "config": {}}, "gamma_constraint": null, "epsilon": 0.001, "beta_regularizer": null, "moving_variance_initializer": {"class_name": "Ones", "config": {}}, "gamma_regularizer": null, "beta_initializer": {"class_name": "Zeros", "config": {}}, "axis": [3], "center": true, "moving_mean_initializer": {"class_name": "Zeros", "config": {}}, "momentum": 0.99, "scale": false}, "name": "batch_normalization_44"}, {"inbound_nodes": [[["batch_normalization_44", 0, 0, {}]]], "class_name": "Activation", "config": {"activation": "relu", "trainable": true, "dtype": "float32", "name": "activation_44"}, "name": "activation_44"}, {"inbound_nodes": [[["activation_44", 0, 0, {}]]], "class_name": "Conv2D", "config": {"use_bias": false, "bias_initializer": {"class_name": "Zeros", "config": {}}, "kernel_size": [7, 1], "trainable": true, "dtype": "float32", "name": "conv2d_45", "padding": "same", "activation": "linear", "activity_regularizer": null, "bias_constraint": null, "kernel_regularizer": null, "strides": [1, 1], "filters": 160, "kernel_initializer": {"class_name": "GlorotUniform", "config": {"seed": null}}, "bias_regularizer": null, "dilation_rate": [1, 1], "data_format": "channels_last", "kernel_constraint": null}, "name": "conv2d_45"}, {"inbound_nodes": [[["conv2d_45", 0, 0, {}]]], "class_name": "BatchNormalization", "config": {"beta_constraint": null, "trainable": true, "dtype": "float32", "name": "batch_normalization_45", "gamma_initializer": {"class_name": "Ones", "config": {}}, "gamma_constraint": null, "epsilon": 0.001, "beta_regularizer": null, "moving_variance_initializer": {"class_name": "Ones", "config": {}}, "gamma_regularizer": null, "beta_initializer": {"class_name": "Zeros", "config": {}}, "axis": [3], "center": true, "moving_mean_initializer": {"class_name": "Zeros", "config": {}}, "momentum": 0.99, "scale": false}, "name": "batch_normalization_45"}, {"inbound_nodes": [[["batch_normalization_45", 0, 0, {}]]], "class_name": "Activation", "config": {"activation": "relu", "trainable": true, "dtype": "float32", "name": "activation_45"}, "name": "activation_45"}, {"inbound_nodes": [[["mixed4", 0, 0, {}]]], "class_name": "Conv2D", "config": {"use_bias": false, "bias_initializer": {"class_name": "Zeros", "config": {}}, "kernel_size": [1, 1], "trainable": true, "dtype": "float32", "name": "conv2d_41", "padding": "same", "activation": "linear", "activity_regularizer": null, "bias_constraint": null, "kernel_regularizer": null, "strides": [1, 1], "filters": 160, "kernel_initializer": {"class_name": "GlorotUniform", "config": {"seed": null}}, "bias_regularizer": null, "dilation_rate": [1, 1], "data_format": "channels_last", "kernel_constraint": null}, "name": "conv2d_41"}, {"inbound_nodes": [[["activation_45", 0, 0, {}]]], "class_name": "Conv2D", "config": {"use_bias": false, "bias_initializer": {"class_name": "Zeros", "config": {}}, "kernel_size": [1, 7], "trainable": true, "dtype": "float32", "name": "conv2d_46", "padding": "same", "activation": "linear", "activity_regularizer": null, "bias_constraint": null, "kernel_regularizer": null, "strides": [1, 1], "filters": 160, "kernel_initializer": {"class_name": "GlorotUniform", "config": {"seed": null}}, "bias_regularizer": null, "dilation_rate": [1, 1], "data_format": "channels_last", "kernel_constraint": null}, "name": "conv2d_46"}, {"inbound_nodes": [[["conv2d_41", 0, 0, {}]]], "class_name": "BatchNormalization", "config": {"beta_constraint": null, "trainable": true, "dtype": "float32", "name": "batch_normalization_41", "gamma_initializer": {"class_name": "Ones", "config": {}}, "gamma_constraint": null, "epsilon": 0.001, "beta_regularizer": null, "moving_variance_initializer": {"class_name": "Ones", "config": {}}, "gamma_regularizer": null, "beta_initializer": {"class_name": "Zeros", "config": {}}, "axis": [3], "center": true, "moving_mean_initializer": {"class_name": "Zeros", "config": {}}, "momentum": 0.99, "scale": false}, "name": "batch_normalization_41"}, {"inbound_nodes": [[["conv2d_46", 0, 0, {}]]], "class_name": "BatchNormalization", "config": {"beta_constraint": null, "trainable": true, "dtype": "float32", "name": "batch_normalization_46", "gamma_initializer": {"class_name": "Ones", "config": {}}, "gamma_constraint": null, "epsilon": 0.001, "beta_regularizer": null, "moving_variance_initializer": {"class_name": "Ones", "config": {}}, "gamma_regularizer": null, "beta_initializer": {"class_name": "Zeros", "config": {}}, "axis": [3], "center": true, "moving_mean_initializer": {"class_name": "Zeros", "config": {}}, "momentum": 0.99, "scale": false}, "name": "batch_normalization_46"}, {"inbound_nodes": [[["batch_normalization_41", 0, 0, {}]]], "class_name": "Activation", "config": {"activation": "relu", "trainable": true, "dtype": "float32", "name": "activation_41"}, "name": "activation_41"}, {"inbound_nodes": [[["batch_normalization_46", 0, 0, {}]]], "class_name": "Activation", "config": {"activation": "relu", "trainable": true, "dtype": "float32", "name": "activation_46"}, "name": "activation_46"}, {"inbound_nodes": [[["activation_41", 0, 0, {}]]], "class_name": "Conv2D", "config": {"use_bias": false, "bias_initializer": {"class_name": "Zeros", "config": {}}, "kernel_size": [1, 7], "trainable": true, "dtype": "float32", "name": "conv2d_42", "padding": "same", "activation": "linear", "activity_regularizer": null, "bias_constraint": null, "kernel_regularizer": null, "strides": [1, 1], "filters": 160, "kernel_initializer": {"class_name": "GlorotUniform", "config": {"seed": null}}, "bias_regularizer": null, "dilation_rate": [1, 1], "data_format": "channels_last", "kernel_constraint": null}, "name": "conv2d_42"}, {"inbound_nodes": [[["activation_46", 0, 0, {}]]], "class_name": "Conv2D", "config": {"use_bias": false, "bias_initializer": {"class_name": "Zeros", "config": {}}, "kernel_size": [7, 1], "trainable": true, "dtype": "float32", "name": "conv2d_47", "padding": "same", "activation": "linear", "activity_regularizer": null, "bias_constraint": null, "kernel_regularizer": null, "strides": [1, 1], "filters": 160, "kernel_initializer": {"class_name": "GlorotUniform", "config": {"seed": null}}, "bias_regularizer": null, "dilation_rate": [1, 1], "data_format": "channels_last", "kernel_constraint": null}, "name": "conv2d_47"}, {"inbound_nodes": [[["conv2d_42", 0, 0, {}]]], "class_name": "BatchNormalization", "config": {"beta_constraint": null, "trainable": true, "dtype": "float32", "name": "batch_normalization_42", "gamma_initializer": {"class_name": "Ones", "config": {}}, "gamma_constraint": null, "epsilon": 0.001, "beta_regularizer": null, "moving_variance_initializer": {"class_name": "Ones", "config": {}}, "gamma_regularizer": null, "beta_initializer": {"class_name": "Zeros", "config": {}}, "axis": [3], "center": true, "moving_mean_initializer": {"class_name": "Zeros", "config": {}}, "momentum": 0.99, "scale": false}, "name": "batch_normalization_42"}, {"inbound_nodes": [[["conv2d_47", 0, 0, {}]]], "class_name": "BatchNormalization", "config": {"beta_constraint": null, "trainable": true, "dtype": "float32", "name": "batch_normalization_47", "gamma_initializer": {"class_name": "Ones", "config": {}}, "gamma_constraint": null, "epsilon": 0.001, "beta_regularizer": null, "moving_variance_initializer": {"class_name": "Ones", "config": {}}, "gamma_regularizer": null, "beta_initializer": {"class_name": "Zeros", "config": {}}, "axis": [3], "center": true, "moving_mean_initializer": {"class_name": "Zeros", "config": {}}, "momentum": 0.99, "scale": false}, "name": "batch_normalization_47"}, {"inbound_nodes": [[["batch_normalization_42", 0, 0, {}]]], "class_name": "Activation", "config": {"activation": "relu", "trainable": true, "dtype": "float32", "name": "activation_42"}, "name": "activation_42"}, {"inbound_nodes": [[["batch_normalization_47", 0, 0, {}]]], "class_name": "Activation", "config": {"activation": "relu", "trainable": true, "dtype": "float32", "name": "activation_47"}, "name": "activation_47"}, {"inbound_nodes": [[["mixed4", 0, 0, {}]]], "class_name": "AveragePooling2D", "config": {"strides": [1, 1], "pool_size": [3, 3], "trainable": true, "dtype": "float32", "name": "average_pooling2d_4", "data_format": "channels_last", "padding": "same"}, "name": "average_pooling2d_4"}, {"inbound_nodes": [[["mixed4", 0, 0, {}]]], "class_name": "Conv2D", "config": {"use_bias": false, "bias_initializer": {"class_name": "Zeros", "config": {}}, "kernel_size": [1, 1], "trainable": true, "dtype": "float32", "name": "conv2d_40", "padding": "same", "activation": "linear", "activity_regularizer": null, "bias_constraint": null, "kernel_regularizer": null, "strides": [1, 1], "filters": 192, "kernel_initializer": {"class_name": "GlorotUniform", "config": {"seed": null}}, "bias_regularizer": null, "dilation_rate": [1, 1], "data_format": "channels_last", "kernel_constraint": null}, "name": "conv2d_40"}, {"inbound_nodes": [[["activation_42", 0, 0, {}]]], "class_name": "Conv2D", "config": {"use_bias": false, "bias_initializer": {"class_name": "Zeros", "config": {}}, "kernel_size": [7, 1], "trainable": true, "dtype": "float32", "name": "conv2d_43", "padding": "same", "activation": "linear", "activity_regularizer": null, "bias_constraint": null, "kernel_regularizer": null, "strides": [1, 1], "filters": 192, "kernel_initializer": {"class_name": "GlorotUniform", "config": {"seed": null}}, "bias_regularizer": null, "dilation_rate": [1, 1], "data_format": "channels_last", "kernel_constraint": null}, "name": "conv2d_43"}, {"inbound_nodes": [[["activation_47", 0, 0, {}]]], "class_name": "Conv2D", "config": {"use_bias": false, "bias_initializer": {"class_name": "Zeros", "config": {}}, "kernel_size": [1, 7], "trainable": true, "dtype": "float32", "name": "conv2d_48", "padding": "same", "activation": "linear", "activity_regularizer": null, "bias_constraint": null, "kernel_regularizer": null, "strides": [1, 1], "filters": 192, "kernel_initializer": {"class_name": "GlorotUniform", "config": {"seed": null}}, "bias_regularizer": null, "dilation_rate": [1, 1], "data_format": "channels_last", "kernel_constraint": null}, "name": "conv2d_48"}, {"inbound_nodes": [[["average_pooling2d_4", 0, 0, {}]]], "class_name": "Conv2D", "config": {"use_bias": false, "bias_initializer": {"class_name": "Zeros", "config": {}}, "kernel_size": [1, 1], "trainable": true, "dtype": "float32", "name": "conv2d_49", "padding": "same", "activation": "linear", "activity_regularizer": null, "bias_constraint": null, "kernel_regularizer": null, "strides": [1, 1], "filters": 192, "kernel_initializer": {"class_name": "GlorotUniform", "config": {"seed": null}}, "bias_regularizer": null, "dilation_rate": [1, 1], "data_format": "channels_last", "kernel_constraint": null}, "name": "conv2d_49"}, {"inbound_nodes": [[["conv2d_40", 0, 0, {}]]], "class_name": "BatchNormalization", "config": {"beta_constraint": null, "trainable": true, "dtype": "float32", "name": "batch_normalization_40", "gamma_initializer": {"class_name": "Ones", "config": {}}, "gamma_constraint": null, "epsilon": 0.001, "beta_regularizer": null, "moving_variance_initializer": {"class_name": "Ones", "config": {}}, "gamma_regularizer": null, "beta_initializer": {"class_name": "Zeros", "config": {}}, "axis": [3], "center": true, "moving_mean_initializer": {"class_name": "Zeros", "config": {}}, "momentum": 0.99, "scale": false}, "name": "batch_normalization_40"}, {"inbound_nodes": [[["conv2d_43", 0, 0, {}]]], "class_name": "BatchNormalization", "config": {"beta_constraint": null, "trainable": true, "dtype": "float32", "name": "batch_normalization_43", "gamma_initializer": {"class_name": "Ones", "config": {}}, "gamma_constraint": null, "epsilon": 0.001, "beta_regularizer": null, "moving_variance_initializer": {"class_name": "Ones", "config": {}}, "gamma_regularizer": null, "beta_initializer": {"class_name": "Zeros", "config": {}}, "axis": [3], "center": true, "moving_mean_initializer": {"class_name": "Zeros", "config": {}}, "momentum": 0.99, "scale": false}, "name": "batch_normalization_43"}, {"inbound_nodes": [[["conv2d_48", 0, 0, {}]]], "class_name": "BatchNormalization", "config": {"beta_constraint": null, "trainable": true, "dtype": "float32", "name": "batch_normalization_48", "gamma_initializer": {"class_name": "Ones", "config": {}}, "gamma_constraint": null, "epsilon": 0.001, "beta_regularizer": null, "moving_variance_initializer": {"class_name": "Ones", "config": {}}, "gamma_regularizer": null, "beta_initializer": {"class_name": "Zeros", "config": {}}, "axis": [3], "center": true, "moving_mean_initializer": {"class_name": "Zeros", "config": {}}, "momentum": 0.99, "scale": false}, "name": "batch_normalization_48"}, {"inbound_nodes": [[["conv2d_49", 0, 0, {}]]], "class_name": "BatchNormalization", "config": {"beta_constraint": null, "trainable": true, "dtype": "float32", "name": "batch_normalization_49", "gamma_initializer": {"class_name": "Ones", "config": {}}, "gamma_constraint": null, "epsilon": 0.001, "beta_regularizer": null, "moving_variance_initializer": {"class_name": "Ones", "config": {}}, "gamma_regularizer": null, "beta_initializer": {"class_name": "Zeros", "config": {}}, "axis": [3], "center": true, "moving_mean_initializer": {"class_name": "Zeros", "config": {}}, "momentum": 0.99, "scale": false}, "name": "batch_normalization_49"}, {"inbound_nodes": [[["batch_normalization_40", 0, 0, {}]]], "class_name": "Activation", "config": {"activation": "relu", "trainable": true, "dtype": "float32", "name": "activation_40"}, "name": "activation_40"}, {"inbound_nodes": [[["batch_normalization_43", 0, 0, {}]]], "class_name": "Activation", "config": {"activation": "relu", "trainable": true, "dtype": "float32", "name": "activation_43"}, "name": "activation_43"}, {"inbound_nodes": [[["batch_normalization_48", 0, 0, {}]]], "class_name": "Activation", "config": {"activation": "relu", "trainable": true, "dtype": "float32", "name": "activation_48"}, "name": "activation_48"}, {"inbound_nodes": [[["batch_normalization_49", 0, 0, {}]]], "class_name": "Activation", "config": {"activation": "relu", "trainable": true, "dtype": "float32", "name": "activation_49"}, "name": "activation_49"}, {"inbound_nodes": [[["activation_40", 0, 0, {}], ["activation_43", 0, 0, {}], ["activation_48", 0, 0, {}], ["activation_49", 0, 0, {}]]], "class_name": "Concatenate", "config": {"axis": 3, "trainable": true, "dtype": "float32", "name": "mixed5"}, "name": "mixed5"}, {"inbound_nodes": [[["mixed5", 0, 0, {}]]], "class_name": "Conv2D", "config": {"use_bias": false, "bias_initializer": {"class_name": "Zeros", "config": {}}, "kernel_size": [1, 1], "trainable": true, "dtype": "float32", "name": "conv2d_54", "padding": "same", "activation": "linear", "activity_regularizer": null, "bias_constraint": null, "kernel_regularizer": null, "strides": [1, 1], "filters": 160, "kernel_initializer": {"class_name": "GlorotUniform", "config": {"seed": null}}, "bias_regularizer": null, "dilation_rate": [1, 1], "data_format": "channels_last", "kernel_constraint": null}, "name": "conv2d_54"}, {"inbound_nodes": [[["conv2d_54", 0, 0, {}]]], "class_name": "BatchNormalization", "config": {"beta_constraint": null, "trainable": true, "dtype": "float32", "name": "batch_normalization_54", "gamma_initializer": {"class_name": "Ones", "config": {}}, "gamma_constraint": null, "epsilon": 0.001, "beta_regularizer": null, "moving_variance_initializer": {"class_name": "Ones", "config": {}}, "gamma_regularizer": null, "beta_initializer": {"class_name": "Zeros", "config": {}}, "axis": [3], "center": true, "moving_mean_initializer": {"class_name": "Zeros", "config": {}}, "momentum": 0.99, "scale": false}, "name": "batch_normalization_54"}, {"inbound_nodes": [[["batch_normalization_54", 0, 0, {}]]], "class_name": "Activation", "config": {"activation": "relu", "trainable": true, "dtype": "float32", "name": "activation_54"}, "name": "activation_54"}, {"inbound_nodes": [[["activation_54", 0, 0, {}]]], "class_name": "Conv2D", "config": {"use_bias": false, "bias_initializer": {"class_name": "Zeros", "config": {}}, "kernel_size": [7, 1], "trainable": true, "dtype": "float32", "name": "conv2d_55", "padding": "same", "activation": "linear", "activity_regularizer": null, "bias_constraint": null, "kernel_regularizer": null, "strides": [1, 1], "filters": 160, "kernel_initializer": {"class_name": "GlorotUniform", "config": {"seed": null}}, "bias_regularizer": null, "dilation_rate": [1, 1], "data_format": "channels_last", "kernel_constraint": null}, "name": "conv2d_55"}, {"inbound_nodes": [[["conv2d_55", 0, 0, {}]]], "class_name": "BatchNormalization", "config": {"beta_constraint": null, "trainable": true, "dtype": "float32", "name": "batch_normalization_55", "gamma_initializer": {"class_name": "Ones", "config": {}}, "gamma_constraint": null, "epsilon": 0.001, "beta_regularizer": null, "moving_variance_initializer": {"class_name": "Ones", "config": {}}, "gamma_regularizer": null, "beta_initializer": {"class_name": "Zeros", "config": {}}, "axis": [3], "center": true, "moving_mean_initializer": {"class_name": "Zeros", "config": {}}, "momentum": 0.99, "scale": false}, "name": "batch_normalization_55"}, {"inbound_nodes": [[["batch_normalization_55", 0, 0, {}]]], "class_name": "Activation", "config": {"activation": "relu", "trainable": true, "dtype": "float32", "name": "activation_55"}, "name": "activation_55"}, {"inbound_nodes": [[["mixed5", 0, 0, {}]]], "class_name": "Conv2D", "config": {"use_bias": false, "bias_initializer": {"class_name": "Zeros", "config": {}}, "kernel_size": [1, 1], "trainable": true, "dtype": "float32", "name": "conv2d_51", "padding": "same", "activation": "linear", "activity_regularizer": null, "bias_constraint": null, "kernel_regularizer": null, "strides": [1, 1], "filters": 160, "kernel_initializer": {"class_name": "GlorotUniform", "config": {"seed": null}}, "bias_regularizer": null, "dilation_rate": [1, 1], "data_format": "channels_last", "kernel_constraint": null}, "name": "conv2d_51"}, {"inbound_nodes": [[["activation_55", 0, 0, {}]]], "class_name": "Conv2D", "config": {"use_bias": false, "bias_initializer": {"class_name": "Zeros", "config": {}}, "kernel_size": [1, 7], "trainable": true, "dtype": "float32", "name": "conv2d_56", "padding": "same", "activation": "linear", "activity_regularizer": null, "bias_constraint": null, "kernel_regularizer": null, "strides": [1, 1], "filters": 160, "kernel_initializer": {"class_name": "GlorotUniform", "config": {"seed": null}}, "bias_regularizer": null, "dilation_rate": [1, 1], "data_format": "channels_last", "kernel_constraint": null}, "name": "conv2d_56"}, {"inbound_nodes": [[["conv2d_51", 0, 0, {}]]], "class_name": "BatchNormalization", "config": {"beta_constraint": null, "trainable": true, "dtype": "float32", "name": "batch_normalization_51", "gamma_initializer": {"class_name": "Ones", "config": {}}, "gamma_constraint": null, "epsilon": 0.001, "beta_regularizer": null, "moving_variance_initializer": {"class_name": "Ones", "config": {}}, "gamma_regularizer": null, "beta_initializer": {"class_name": "Zeros", "config": {}}, "axis": [3], "center": true, "moving_mean_initializer": {"class_name": "Zeros", "config": {}}, "momentum": 0.99, "scale": false}, "name": "batch_normalization_51"}, {"inbound_nodes": [[["conv2d_56", 0, 0, {}]]], "class_name": "BatchNormalization", "config": {"beta_constraint": null, "trainable": true, "dtype": "float32", "name": "batch_normalization_56", "gamma_initializer": {"class_name": "Ones", "config": {}}, "gamma_constraint": null, "epsilon": 0.001, "beta_regularizer": null, "moving_variance_initializer": {"class_name": "Ones", "config": {}}, "gamma_regularizer": null, "beta_initializer": {"class_name": "Zeros", "config": {}}, "axis": [3], "center": true, "moving_mean_initializer": {"class_name": "Zeros", "config": {}}, "momentum": 0.99, "scale": false}, "name": "batch_normalization_56"}, {"inbound_nodes": [[["batch_normalization_51", 0, 0, {}]]], "class_name": "Activation", "config": {"activation": "relu", "trainable": true, "dtype": "float32", "name": "activation_51"}, "name": "activation_51"}, {"inbound_nodes": [[["batch_normalization_56", 0, 0, {}]]], "class_name": "Activation", "config": {"activation": "relu", "trainable": true, "dtype": "float32", "name": "activation_56"}, "name": "activation_56"}, {"inbound_nodes": [[["activation_51", 0, 0, {}]]], "class_name": "Conv2D", "config": {"use_bias": false, "bias_initializer": {"class_name": "Zeros", "config": {}}, "kernel_size": [1, 7], "trainable": true, "dtype": "float32", "name": "conv2d_52", "padding": "same", "activation": "linear", "activity_regularizer": null, "bias_constraint": null, "kernel_regularizer": null, "strides": [1, 1], "filters": 160, "kernel_initializer": {"class_name": "GlorotUniform", "config": {"seed": null}}, "bias_regularizer": null, "dilation_rate": [1, 1], "data_format": "channels_last", "kernel_constraint": null}, "name": "conv2d_52"}, {"inbound_nodes": [[["activation_56", 0, 0, {}]]], "class_name": "Conv2D", "config": {"use_bias": false, "bias_initializer": {"class_name": "Zeros", "config": {}}, "kernel_size": [7, 1], "trainable": true, "dtype": "float32", "name": "conv2d_57", "padding": "same", "activation": "linear", "activity_regularizer": null, "bias_constraint": null, "kernel_regularizer": null, "strides": [1, 1], "filters": 160, "kernel_initializer": {"class_name": "GlorotUniform", "config": {"seed": null}}, "bias_regularizer": null, "dilation_rate": [1, 1], "data_format": "channels_last", "kernel_constraint": null}, "name": "conv2d_57"}, {"inbound_nodes": [[["conv2d_52", 0, 0, {}]]], "class_name": "BatchNormalization", "config": {"beta_constraint": null, "trainable": true, "dtype": "float32", "name": "batch_normalization_52", "gamma_initializer": {"class_name": "Ones", "config": {}}, "gamma_constraint": null, "epsilon": 0.001, "beta_regularizer": null, "moving_variance_initializer": {"class_name": "Ones", "config": {}}, "gamma_regularizer": null, "beta_initializer": {"class_name": "Zeros", "config": {}}, "axis": [3], "center": true, "moving_mean_initializer": {"class_name": "Zeros", "config": {}}, "momentum": 0.99, "scale": false}, "name": "batch_normalization_52"}, {"inbound_nodes": [[["conv2d_57", 0, 0, {}]]], "class_name": "BatchNormalization", "config": {"beta_constraint": null, "trainable": true, "dtype": "float32", "name": "batch_normalization_57", "gamma_initializer": {"class_name": "Ones", "config": {}}, "gamma_constraint": null, "epsilon": 0.001, "beta_regularizer": null, "moving_variance_initializer": {"class_name": "Ones", "config": {}}, "gamma_regularizer": null, "beta_initializer": {"class_name": "Zeros", "config": {}}, "axis": [3], "center": true, "moving_mean_initializer": {"class_name": "Zeros", "config": {}}, "momentum": 0.99, "scale": false}, "name": "batch_normalization_57"}, {"inbound_nodes": [[["batch_normalization_52", 0, 0, {}]]], "class_name": "Activation", "config": {"activation": "relu", "trainable": true, "dtype": "float32", "name": "activation_52"}, "name": "activation_52"}, {"inbound_nodes": [[["batch_normalization_57", 0, 0, {}]]], "class_name": "Activation", "config": {"activation": "relu", "trainable": true, "dtype": "float32", "name": "activation_57"}, "name": "activation_57"}, {"inbound_nodes": [[["mixed5", 0, 0, {}]]], "class_name": "AveragePooling2D", "config": {"strides": [1, 1], "pool_size": [3, 3], "trainable": true, "dtype": "float32", "name": "average_pooling2d_5", "data_format": "channels_last", "padding": "same"}, "name": "average_pooling2d_5"}, {"inbound_nodes": [[["mixed5", 0, 0, {}]]], "class_name": "Conv2D", "config": {"use_bias": false, "bias_initializer": {"class_name": "Zeros", "config": {}}, "kernel_size": [1, 1], "trainable": true, "dtype": "float32", "name": "conv2d_50", "padding": "same", "activation": "linear", "activity_regularizer": null, "bias_constraint": null, "kernel_regularizer": null, "strides": [1, 1], "filters": 192, "kernel_initializer": {"class_name": "GlorotUniform", "config": {"seed": null}}, "bias_regularizer": null, "dilation_rate": [1, 1], "data_format": "channels_last", "kernel_constraint": null}, "name": "conv2d_50"}, {"inbound_nodes": [[["activation_52", 0, 0, {}]]], "class_name": "Conv2D", "config": {"use_bias": false, "bias_initializer": {"class_name": "Zeros", "config": {}}, "kernel_size": [7, 1], "trainable": true, "dtype": "float32", "name": "conv2d_53", "padding": "same", "activation": "linear", "activity_regularizer": null, "bias_constraint": null, "kernel_regularizer": null, "strides": [1, 1], "filters": 192, "kernel_initializer": {"class_name": "GlorotUniform", "config": {"seed": null}}, "bias_regularizer": null, "dilation_rate": [1, 1], "data_format": "channels_last", "kernel_constraint": null}, "name": "conv2d_53"}, {"inbound_nodes": [[["activation_57", 0, 0, {}]]], "class_name": "Conv2D", "config": {"use_bias": false, "bias_initializer": {"class_name": "Zeros", "config": {}}, "kernel_size": [1, 7], "trainable": true, "dtype": "float32", "name": "conv2d_58", "padding": "same", "activation": "linear", "activity_regularizer": null, "bias_constraint": null, "kernel_regularizer": null, "strides": [1, 1], "filters": 192, "kernel_initializer": {"class_name": "GlorotUniform", "config": {"seed": null}}, "bias_regularizer": null, "dilation_rate": [1, 1], "data_format": "channels_last", "kernel_constraint": null}, "name": "conv2d_58"}, {"inbound_nodes": [[["average_pooling2d_5", 0, 0, {}]]], "class_name": "Conv2D", "config": {"use_bias": false, "bias_initializer": {"class_name": "Zeros", "config": {}}, "kernel_size": [1, 1], "trainable": true, "dtype": "float32", "name": "conv2d_59", "padding": "same", "activation": "linear", "activity_regularizer": null, "bias_constraint": null, "kernel_regularizer": null, "strides": [1, 1], "filters": 192, "kernel_initializer": {"class_name": "GlorotUniform", "config": {"seed": null}}, "bias_regularizer": null, "dilation_rate": [1, 1], "data_format": "channels_last", "kernel_constraint": null}, "name": "conv2d_59"}, {"inbound_nodes": [[["conv2d_50", 0, 0, {}]]], "class_name": "BatchNormalization", "config": {"beta_constraint": null, "trainable": true, "dtype": "float32", "name": "batch_normalization_50", "gamma_initializer": {"class_name": "Ones", "config": {}}, "gamma_constraint": null, "epsilon": 0.001, "beta_regularizer": null, "moving_variance_initializer": {"class_name": "Ones", "config": {}}, "gamma_regularizer": null, "beta_initializer": {"class_name": "Zeros", "config": {}}, "axis": [3], "center": true, "moving_mean_initializer": {"class_name": "Zeros", "config": {}}, "momentum": 0.99, "scale": false}, "name": "batch_normalization_50"}, {"inbound_nodes": [[["conv2d_53", 0, 0, {}]]], "class_name": "BatchNormalization", "config": {"beta_constraint": null, "trainable": true, "dtype": "float32", "name": "batch_normalization_53", "gamma_initializer": {"class_name": "Ones", "config": {}}, "gamma_constraint": null, "epsilon": 0.001, "beta_regularizer": null, "moving_variance_initializer": {"class_name": "Ones", "config": {}}, "gamma_regularizer": null, "beta_initializer": {"class_name": "Zeros", "config": {}}, "axis": [3], "center": true, "moving_mean_initializer": {"class_name": "Zeros", "config": {}}, "momentum": 0.99, "scale": false}, "name": "batch_normalization_53"}, {"inbound_nodes": [[["conv2d_58", 0, 0, {}]]], "class_name": "BatchNormalization", "config": {"beta_constraint": null, "trainable": true, "dtype": "float32", "name": "batch_normalization_58", "gamma_initializer": {"class_name": "Ones", "config": {}}, "gamma_constraint": null, "epsilon": 0.001, "beta_regularizer": null, "moving_variance_initializer": {"class_name": "Ones", "config": {}}, "gamma_regularizer": null, "beta_initializer": {"class_name": "Zeros", "config": {}}, "axis": [3], "center": true, "moving_mean_initializer": {"class_name": "Zeros", "config": {}}, "momentum": 0.99, "scale": false}, "name": "batch_normalization_58"}, {"inbound_nodes": [[["conv2d_59", 0, 0, {}]]], "class_name": "BatchNormalization", "config": {"beta_constraint": null, "trainable": true, "dtype": "float32", "name": "batch_normalization_59", "gamma_initializer": {"class_name": "Ones", "config": {}}, "gamma_constraint": null, "epsilon": 0.001, "beta_regularizer": null, "moving_variance_initializer": {"class_name": "Ones", "config": {}}, "gamma_regularizer": null, "beta_initializer": {"class_name": "Zeros", "config": {}}, "axis": [3], "center": true, "moving_mean_initializer": {"class_name": "Zeros", "config": {}}, "momentum": 0.99, "scale": false}, "name": "batch_normalization_59"}, {"inbound_nodes": [[["batch_normalization_50", 0, 0, {}]]], "class_name": "Activation", "config": {"activation": "relu", "trainable": true, "dtype": "float32", "name": "activation_50"}, "name": "activation_50"}, {"inbound_nodes": [[["batch_normalization_53", 0, 0, {}]]], "class_name": "Activation", "config": {"activation": "relu", "trainable": true, "dtype": "float32", "name": "activation_53"}, "name": "activation_53"}, {"inbound_nodes": [[["batch_normalization_58", 0, 0, {}]]], "class_name": "Activation", "config": {"activation": "relu", "trainable": true, "dtype": "float32", "name": "activation_58"}, "name": "activation_58"}, {"inbound_nodes": [[["batch_normalization_59", 0, 0, {}]]], "class_name": "Activation", "config": {"activation": "relu", "trainable": true, "dtype": "float32", "name": "activation_59"}, "name": "activation_59"}, {"inbound_nodes": [[["activation_50", 0, 0, {}], ["activation_53", 0, 0, {}], ["activation_58", 0, 0, {}], ["activation_59", 0, 0, {}]]], "class_name": "Concatenate", "config": {"axis": 3, "trainable": true, "dtype": "float32", "name": "mixed6"}, "name": "mixed6"}, {"inbound_nodes": [[["mixed6", 0, 0, {}]]], "class_name": "Conv2D", "config": {"use_bias": false, "bias_initializer": {"class_name": "Zeros", "config": {}}, "kernel_size": [1, 1], "trainable": true, "dtype": "float32", "name": "conv2d_64", "padding": "same", "activation": "linear", "activity_regularizer": null, "bias_constraint": null, "kernel_regularizer": null, "strides": [1, 1], "filters": 192, "kernel_initializer": {"class_name": "GlorotUniform", "config": {"seed": null}}, "bias_regularizer": null, "dilation_rate": [1, 1], "data_format": "channels_last", "kernel_constraint": null}, "name": "conv2d_64"}, {"inbound_nodes": [[["conv2d_64", 0, 0, {}]]], "class_name": "BatchNormalization", "config": {"beta_constraint": null, "trainable": true, "dtype": "float32", "name": "batch_normalization_64", "gamma_initializer": {"class_name": "Ones", "config": {}}, "gamma_constraint": null, "epsilon": 0.001, "beta_regularizer": null, "moving_variance_initializer": {"class_name": "Ones", "config": {}}, "gamma_regularizer": null, "beta_initializer": {"class_name": "Zeros", "config": {}}, "axis": [3], "center": true, "moving_mean_initializer": {"class_name": "Zeros", "config": {}}, "momentum": 0.99, "scale": false}, "name": "batch_normalization_64"}, {"inbound_nodes": [[["batch_normalization_64", 0, 0, {}]]], "class_name": "Activation", "config": {"activation": "relu", "trainable": true, "dtype": "float32", "name": "activation_64"}, "name": "activation_64"}, {"inbound_nodes": [[["activation_64", 0, 0, {}]]], "class_name": "Conv2D", "config": {"use_bias": false, "bias_initializer": {"class_name": "Zeros", "config": {}}, "kernel_size": [7, 1], "trainable": true, "dtype": "float32", "name": "conv2d_65", "padding": "same", "activation": "linear", "activity_regularizer": null, "bias_constraint": null, "kernel_regularizer": null, "strides": [1, 1], "filters": 192, "kernel_initializer": {"class_name": "GlorotUniform", "config": {"seed": null}}, "bias_regularizer": null, "dilation_rate": [1, 1], "data_format": "channels_last", "kernel_constraint": null}, "name": "conv2d_65"}, {"inbound_nodes": [[["conv2d_65", 0, 0, {}]]], "class_name": "BatchNormalization", "config": {"beta_constraint": null, "trainable": true, "dtype": "float32", "name": "batch_normalization_65", "gamma_initializer": {"class_name": "Ones", "config": {}}, "gamma_constraint": null, "epsilon": 0.001, "beta_regularizer": null, "moving_variance_initializer": {"class_name": "Ones", "config": {}}, "gamma_regularizer": null, "beta_initializer": {"class_name": "Zeros", "config": {}}, "axis": [3], "center": true, "moving_mean_initializer": {"class_name": "Zeros", "config": {}}, "momentum": 0.99, "scale": false}, "name": "batch_normalization_65"}, {"inbound_nodes": [[["batch_normalization_65", 0, 0, {}]]], "class_name": "Activation", "config": {"activation": "relu", "trainable": true, "dtype": "float32", "name": "activation_65"}, "name": "activation_65"}, {"inbound_nodes": [[["mixed6", 0, 0, {}]]], "class_name": "Conv2D", "config": {"use_bias": false, "bias_initializer": {"class_name": "Zeros", "config": {}}, "kernel_size": [1, 1], "trainable": true, "dtype": "float32", "name": "conv2d_61", "padding": "same", "activation": "linear", "activity_regularizer": null, "bias_constraint": null, "kernel_regularizer": null, "strides": [1, 1], "filters": 192, "kernel_initializer": {"class_name": "GlorotUniform", "config": {"seed": null}}, "bias_regularizer": null, "dilation_rate": [1, 1], "data_format": "channels_last", "kernel_constraint": null}, "name": "conv2d_61"}, {"inbound_nodes": [[["activation_65", 0, 0, {}]]], "class_name": "Conv2D", "config": {"use_bias": false, "bias_initializer": {"class_name": "Zeros", "config": {}}, "kernel_size": [1, 7], "trainable": true, "dtype": "float32", "name": "conv2d_66", "padding": "same", "activation": "linear", "activity_regularizer": null, "bias_constraint": null, "kernel_regularizer": null, "strides": [1, 1], "filters": 192, "kernel_initializer": {"class_name": "GlorotUniform", "config": {"seed": null}}, "bias_regularizer": null, "dilation_rate": [1, 1], "data_format": "channels_last", "kernel_constraint": null}, "name": "conv2d_66"}, {"inbound_nodes": [[["conv2d_61", 0, 0, {}]]], "class_name": "BatchNormalization", "config": {"beta_constraint": null, "trainable": true, "dtype": "float32", "name": "batch_normalization_61", "gamma_initializer": {"class_name": "Ones", "config": {}}, "gamma_constraint": null, "epsilon": 0.001, "beta_regularizer": null, "moving_variance_initializer": {"class_name": "Ones", "config": {}}, "gamma_regularizer": null, "beta_initializer": {"class_name": "Zeros", "config": {}}, "axis": [3], "center": true, "moving_mean_initializer": {"class_name": "Zeros", "config": {}}, "momentum": 0.99, "scale": false}, "name": "batch_normalization_61"}, {"inbound_nodes": [[["conv2d_66", 0, 0, {}]]], "class_name": "BatchNormalization", "config": {"beta_constraint": null, "trainable": true, "dtype": "float32", "name": "batch_normalization_66", "gamma_initializer": {"class_name": "Ones", "config": {}}, "gamma_constraint": null, "epsilon": 0.001, "beta_regularizer": null, "moving_variance_initializer": {"class_name": "Ones", "config": {}}, "gamma_regularizer": null, "beta_initializer": {"class_name": "Zeros", "config": {}}, "axis": [3], "center": true, "moving_mean_initializer": {"class_name": "Zeros", "config": {}}, "momentum": 0.99, "scale": false}, "name": "batch_normalization_66"}, {"inbound_nodes": [[["batch_normalization_61", 0, 0, {}]]], "class_name": "Activation", "config": {"activation": "relu", "trainable": true, "dtype": "float32", "name": "activation_61"}, "name": "activation_61"}, {"inbound_nodes": [[["batch_normalization_66", 0, 0, {}]]], "class_name": "Activation", "config": {"activation": "relu", "trainable": true, "dtype": "float32", "name": "activation_66"}, "name": "activation_66"}, {"inbound_nodes": [[["activation_61", 0, 0, {}]]], "class_name": "Conv2D", "config": {"use_bias": false, "bias_initializer": {"class_name": "Zeros", "config": {}}, "kernel_size": [1, 7], "trainable": true, "dtype": "float32", "name": "conv2d_62", "padding": "same", "activation": "linear", "activity_regularizer": null, "bias_constraint": null, "kernel_regularizer": null, "strides": [1, 1], "filters": 192, "kernel_initializer": {"class_name": "GlorotUniform", "config": {"seed": null}}, "bias_regularizer": null, "dilation_rate": [1, 1], "data_format": "channels_last", "kernel_constraint": null}, "name": "conv2d_62"}, {"inbound_nodes": [[["activation_66", 0, 0, {}]]], "class_name": "Conv2D", "config": {"use_bias": false, "bias_initializer": {"class_name": "Zeros", "config": {}}, "kernel_size": [7, 1], "trainable": true, "dtype": "float32", "name": "conv2d_67", "padding": "same", "activation": "linear", "activity_regularizer": null, "bias_constraint": null, "kernel_regularizer": null, "strides": [1, 1], "filters": 192, "kernel_initializer": {"class_name": "GlorotUniform", "config": {"seed": null}}, "bias_regularizer": null, "dilation_rate": [1, 1], "data_format": "channels_last", "kernel_constraint": null}, "name": "conv2d_67"}, {"inbound_nodes": [[["conv2d_62", 0, 0, {}]]], "class_name": "BatchNormalization", "config": {"beta_constraint": null, "trainable": true, "dtype": "float32", "name": "batch_normalization_62", "gamma_initializer": {"class_name": "Ones", "config": {}}, "gamma_constraint": null, "epsilon": 0.001, "beta_regularizer": null, "moving_variance_initializer": {"class_name": "Ones", "config": {}}, "gamma_regularizer": null, "beta_initializer": {"class_name": "Zeros", "config": {}}, "axis": [3], "center": true, "moving_mean_initializer": {"class_name": "Zeros", "config": {}}, "momentum": 0.99, "scale": false}, "name": "batch_normalization_62"}, {"inbound_nodes": [[["conv2d_67", 0, 0, {}]]], "class_name": "BatchNormalization", "config": {"beta_constraint": null, "trainable": true, "dtype": "float32", "name": "batch_normalization_67", "gamma_initializer": {"class_name": "Ones", "config": {}}, "gamma_constraint": null, "epsilon": 0.001, "beta_regularizer": null, "moving_variance_initializer": {"class_name": "Ones", "config": {}}, "gamma_regularizer": null, "beta_initializer": {"class_name": "Zeros", "config": {}}, "axis": [3], "center": true, "moving_mean_initializer": {"class_name": "Zeros", "config": {}}, "momentum": 0.99, "scale": false}, "name": "batch_normalization_67"}, {"inbound_nodes": [[["batch_normalization_62", 0, 0, {}]]], "class_name": "Activation", "config": {"activation": "relu", "trainable": true, "dtype": "float32", "name": "activation_62"}, "name": "activation_62"}, {"inbound_nodes": [[["batch_normalization_67", 0, 0, {}]]], "class_name": "Activation", "config": {"activation": "relu", "trainable": true, "dtype": "float32", "name": "activation_67"}, "name": "activation_67"}, {"inbound_nodes": [[["mixed6", 0, 0, {}]]], "class_name": "AveragePooling2D", "config": {"strides": [1, 1], "pool_size": [3, 3], "trainable": true, "dtype": "float32", "name": "average_pooling2d_6", "data_format": "channels_last", "padding": "same"}, "name": "average_pooling2d_6"}, {"inbound_nodes": [[["mixed6", 0, 0, {}]]], "class_name": "Conv2D", "config": {"use_bias": false, "bias_initializer": {"class_name": "Zeros", "config": {}}, "kernel_size": [1, 1], "trainable": true, "dtype": "float32", "name": "conv2d_60", "padding": "same", "activation": "linear", "activity_regularizer": null, "bias_constraint": null, "kernel_regularizer": null, "strides": [1, 1], "filters": 192, "kernel_initializer": {"class_name": "GlorotUniform", "config": {"seed": null}}, "bias_regularizer": null, "dilation_rate": [1, 1], "data_format": "channels_last", "kernel_constraint": null}, "name": "conv2d_60"}, {"inbound_nodes": [[["activation_62", 0, 0, {}]]], "class_name": "Conv2D", "config": {"use_bias": false, "bias_initializer": {"class_name": "Zeros", "config": {}}, "kernel_size": [7, 1], "trainable": true, "dtype": "float32", "name": "conv2d_63", "padding": "same", "activation": "linear", "activity_regularizer": null, "bias_constraint": null, "kernel_regularizer": null, "strides": [1, 1], "filters": 192, "kernel_initializer": {"class_name": "GlorotUniform", "config": {"seed": null}}, "bias_regularizer": null, "dilation_rate": [1, 1], "data_format": "channels_last", "kernel_constraint": null}, "name": "conv2d_63"}, {"inbound_nodes": [[["activation_67", 0, 0, {}]]], "class_name": "Conv2D", "config": {"use_bias": false, "bias_initializer": {"class_name": "Zeros", "config": {}}, "kernel_size": [1, 7], "trainable": true, "dtype": "float32", "name": "conv2d_68", "padding": "same", "activation": "linear", "activity_regularizer": null, "bias_constraint": null, "kernel_regularizer": null, "strides": [1, 1], "filters": 192, "kernel_initializer": {"class_name": "GlorotUniform", "config": {"seed": null}}, "bias_regularizer": null, "dilation_rate": [1, 1], "data_format": "channels_last", "kernel_constraint": null}, "name": "conv2d_68"}, {"inbound_nodes": [[["average_pooling2d_6", 0, 0, {}]]], "class_name": "Conv2D", "config": {"use_bias": false, "bias_initializer": {"class_name": "Zeros", "config": {}}, "kernel_size": [1, 1], "trainable": true, "dtype": "float32", "name": "conv2d_69", "padding": "same", "activation": "linear", "activity_regularizer": null, "bias_constraint": null, "kernel_regularizer": null, "strides": [1, 1], "filters": 192, "kernel_initializer": {"class_name": "GlorotUniform", "config": {"seed": null}}, "bias_regularizer": null, "dilation_rate": [1, 1], "data_format": "channels_last", "kernel_constraint": null}, "name": "conv2d_69"}, {"inbound_nodes": [[["conv2d_60", 0, 0, {}]]], "class_name": "BatchNormalization", "config": {"beta_constraint": null, "trainable": true, "dtype": "float32", "name": "batch_normalization_60", "gamma_initializer": {"class_name": "Ones", "config": {}}, "gamma_constraint": null, "epsilon": 0.001, "beta_regularizer": null, "moving_variance_initializer": {"class_name": "Ones", "config": {}}, "gamma_regularizer": null, "beta_initializer": {"class_name": "Zeros", "config": {}}, "axis": [3], "center": true, "moving_mean_initializer": {"class_name": "Zeros", "config": {}}, "momentum": 0.99, "scale": false}, "name": "batch_normalization_60"}, {"inbound_nodes": [[["conv2d_63", 0, 0, {}]]], "class_name": "BatchNormalization", "config": {"beta_constraint": null, "trainable": true, "dtype": "float32", "name": "batch_normalization_63", "gamma_initializer": {"class_name": "Ones", "config": {}}, "gamma_constraint": null, "epsilon": 0.001, "beta_regularizer": null, "moving_variance_initializer": {"class_name": "Ones", "config": {}}, "gamma_regularizer": null, "beta_initializer": {"class_name": "Zeros", "config": {}}, "axis": [3], "center": true, "moving_mean_initializer": {"class_name": "Zeros", "config": {}}, "momentum": 0.99, "scale": false}, "name": "batch_normalization_63"}, {"inbound_nodes": [[["conv2d_68", 0, 0, {}]]], "class_name": "BatchNormalization", "config": {"beta_constraint": null, "trainable": true, "dtype": "float32", "name": "batch_normalization_68", "gamma_initializer": {"class_name": "Ones", "config": {}}, "gamma_constraint": null, "epsilon": 0.001, "beta_regularizer": null, "moving_variance_initializer": {"class_name": "Ones", "config": {}}, "gamma_regularizer": null, "beta_initializer": {"class_name": "Zeros", "config": {}}, "axis": [3], "center": true, "moving_mean_initializer": {"class_name": "Zeros", "config": {}}, "momentum": 0.99, "scale": false}, "name": "batch_normalization_68"}, {"inbound_nodes": [[["conv2d_69", 0, 0, {}]]], "class_name": "BatchNormalization", "config": {"beta_constraint": null, "trainable": true, "dtype": "float32", "name": "batch_normalization_69", "gamma_initializer": {"class_name": "Ones", "config": {}}, "gamma_constraint": null, "epsilon": 0.001, "beta_regularizer": null, "moving_variance_initializer": {"class_name": "Ones", "config": {}}, "gamma_regularizer": null, "beta_initializer": {"class_name": "Zeros", "config": {}}, "axis": [3], "center": true, "moving_mean_initializer": {"class_name": "Zeros", "config": {}}, "momentum": 0.99, "scale": false}, "name": "batch_normalization_69"}, {"inbound_nodes": [[["batch_normalization_60", 0, 0, {}]]], "class_name": "Activation", "config": {"activation": "relu", "trainable": true, "dtype": "float32", "name": "activation_60"}, "name": "activation_60"}, {"inbound_nodes": [[["batch_normalization_63", 0, 0, {}]]], "class_name": "Activation", "config": {"activation": "relu", "trainable": true, "dtype": "float32", "name": "activation_63"}, "name": "activation_63"}, {"inbound_nodes": [[["batch_normalization_68", 0, 0, {}]]], "class_name": "Activation", "config": {"activation": "relu", "trainable": true, "dtype": "float32", "name": "activation_68"}, "name": "activation_68"}, {"inbound_nodes": [[["batch_normalization_69", 0, 0, {}]]], "class_name": "Activation", "config": {"activation": "relu", "trainable": true, "dtype": "float32", "name": "activation_69"}, "name": "activation_69"}, {"inbound_nodes": [[["activation_60", 0, 0, {}], ["activation_63", 0, 0, {}], ["activation_68", 0, 0, {}], ["activation_69", 0, 0, {}]]], "class_name": "Concatenate", "config": {"axis": 3, "trainable": true, "dtype": "float32", "name": "mixed7"}, "name": "mixed7"}, {"inbound_nodes": [[["mixed7", 0, 0, {}]]], "class_name": "Conv2D", "config": {"use_bias": false, "bias_initializer": {"class_name": "Zeros", "config": {}}, "kernel_size": [1, 1], "trainable": true, "dtype": "float32", "name": "conv2d_72", "padding": "same", "activation": "linear", "activity_regularizer": null, "bias_constraint": null, "kernel_regularizer": null, "strides": [1, 1], "filters": 192, "kernel_initializer": {"class_name": "GlorotUniform", "config": {"seed": null}}, "bias_regularizer": null, "dilation_rate": [1, 1], "data_format": "channels_last", "kernel_constraint": null}, "name": "conv2d_72"}, {"inbound_nodes": [[["conv2d_72", 0, 0, {}]]], "class_name": "BatchNormalization", "config": {"beta_constraint": null, "trainable": true, "dtype": "float32", "name": "batch_normalization_72", "gamma_initializer": {"class_name": "Ones", "config": {}}, "gamma_constraint": null, "epsilon": 0.001, "beta_regularizer": null, "moving_variance_initializer": {"class_name": "Ones", "config": {}}, "gamma_regularizer": null, "beta_initializer": {"class_name": "Zeros", "config": {}}, "axis": [3], "center": true, "moving_mean_initializer": {"class_name": "Zeros", "config": {}}, "momentum": 0.99, "scale": false}, "name": "batch_normalization_72"}, {"inbound_nodes": [[["batch_normalization_72", 0, 0, {}]]], "class_name": "Activation", "config": {"activation": "relu", "trainable": true, "dtype": "float32", "name": "activation_72"}, "name": "activation_72"}, {"inbound_nodes": [[["activation_72", 0, 0, {}]]], "class_name": "Conv2D", "config": {"use_bias": false, "bias_initializer": {"class_name": "Zeros", "config": {}}, "kernel_size": [1, 7], "trainable": true, "dtype": "float32", "name": "conv2d_73", "padding": "same", "activation": "linear", "activity_regularizer": null, "bias_constraint": null, "kernel_regularizer": null, "strides": [1, 1], "filters": 192, "kernel_initializer": {"class_name": "GlorotUniform", "config": {"seed": null}}, "bias_regularizer": null, "dilation_rate": [1, 1], "data_format": "channels_last", "kernel_constraint": null}, "name": "conv2d_73"}, {"inbound_nodes": [[["conv2d_73", 0, 0, {}]]], "class_name": "BatchNormalization", "config": {"beta_constraint": null, "trainable": true, "dtype": "float32", "name": "batch_normalization_73", "gamma_initializer": {"class_name": "Ones", "config": {}}, "gamma_constraint": null, "epsilon": 0.001, "beta_regularizer": null, "moving_variance_initializer": {"class_name": "Ones", "config": {}}, "gamma_regularizer": null, "beta_initializer": {"class_name": "Zeros", "config": {}}, "axis": [3], "center": true, "moving_mean_initializer": {"class_name": "Zeros", "config": {}}, "momentum": 0.99, "scale": false}, "name": "batch_normalization_73"}, {"inbound_nodes": [[["batch_normalization_73", 0, 0, {}]]], "class_name": "Activation", "config": {"activation": "relu", "trainable": true, "dtype": "float32", "name": "activation_73"}, "name": "activation_73"}, {"inbound_nodes": [[["mixed7", 0, 0, {}]]], "class_name": "Conv2D", "config": {"use_bias": false, "bias_initializer": {"class_name": "Zeros", "config": {}}, "kernel_size": [1, 1], "trainable": true, "dtype": "float32", "name": "conv2d_70", "padding": "same", "activation": "linear", "activity_regularizer": null, "bias_constraint": null, "kernel_regularizer": null, "strides": [1, 1], "filters": 192, "kernel_initializer": {"class_name": "GlorotUniform", "config": {"seed": null}}, "bias_regularizer": null, "dilation_rate": [1, 1], "data_format": "channels_last", "kernel_constraint": null}, "name": "conv2d_70"}, {"inbound_nodes": [[["activation_73", 0, 0, {}]]], "class_name": "Conv2D", "config": {"use_bias": false, "bias_initializer": {"class_name": "Zeros", "config": {}}, "kernel_size": [7, 1], "trainable": true, "dtype": "float32", "name": "conv2d_74", "padding": "same", "activation": "linear", "activity_regularizer": null, "bias_constraint": null, "kernel_regularizer": null, "strides": [1, 1], "filters": 192, "kernel_initializer": {"class_name": "GlorotUniform", "config": {"seed": null}}, "bias_regularizer": null, "dilation_rate": [1, 1], "data_format": "channels_last", "kernel_constraint": null}, "name": "conv2d_74"}, {"inbound_nodes": [[["conv2d_70", 0, 0, {}]]], "class_name": "BatchNormalization", "config": {"beta_constraint": null, "trainable": true, "dtype": "float32", "name": "batch_normalization_70", "gamma_initializer": {"class_name": "Ones", "config": {}}, "gamma_constraint": null, "epsilon": 0.001, "beta_regularizer": null, "moving_variance_initializer": {"class_name": "Ones", "config": {}}, "gamma_regularizer": null, "beta_initializer": {"class_name": "Zeros", "config": {}}, "axis": [3], "center": true, "moving_mean_initializer": {"class_name": "Zeros", "config": {}}, "momentum": 0.99, "scale": false}, "name": "batch_normalization_70"}, {"inbound_nodes": [[["conv2d_74", 0, 0, {}]]], "class_name": "BatchNormalization", "config": {"beta_constraint": null, "trainable": true, "dtype": "float32", "name": "batch_normalization_74", "gamma_initializer": {"class_name": "Ones", "config": {}}, "gamma_constraint": null, "epsilon": 0.001, "beta_regularizer": null, "moving_variance_initializer": {"class_name": "Ones", "config": {}}, "gamma_regularizer": null, "beta_initializer": {"class_name": "Zeros", "config": {}}, "axis": [3], "center": true, "moving_mean_initializer": {"class_name": "Zeros", "config": {}}, "momentum": 0.99, "scale": false}, "name": "batch_normalization_74"}, {"inbound_nodes": [[["batch_normalization_70", 0, 0, {}]]], "class_name": "Activation", "config": {"activation": "relu", "trainable": true, "dtype": "float32", "name": "activation_70"}, "name": "activation_70"}, {"inbound_nodes": [[["batch_normalization_74", 0, 0, {}]]], "class_name": "Activation", "config": {"activation": "relu", "trainable": true, "dtype": "float32", "name": "activation_74"}, "name": "activation_74"}, {"inbound_nodes": [[["activation_70", 0, 0, {}]]], "class_name": "Conv2D", "config": {"use_bias": false, "bias_initializer": {"class_name": "Zeros", "config": {}}, "kernel_size": [3, 3], "trainable": true, "dtype": "float32", "name": "conv2d_71", "padding": "valid", "activation": "linear", "activity_regularizer": null, "bias_constraint": null, "kernel_regularizer": null, "strides": [2, 2], "filters": 320, "kernel_initializer": {"class_name": "GlorotUniform", "config": {"seed": null}}, "bias_regularizer": null, "dilation_rate": [1, 1], "data_format": "channels_last", "kernel_constraint": null}, "name": "conv2d_71"}, {"inbound_nodes": [[["activation_74", 0, 0, {}]]], "class_name": "Conv2D", "config": {"use_bias": false, "bias_initializer": {"class_name": "Zeros", "config": {}}, "kernel_size": [3, 3], "trainable": true, "dtype": "float32", "name": "conv2d_75", "padding": "valid", "activation": "linear", "activity_regularizer": null, "bias_constraint": null, "kernel_regularizer": null, "strides": [2, 2], "filters": 192, "kernel_initializer": {"class_name": "GlorotUniform", "config": {"seed": null}}, "bias_regularizer": null, "dilation_rate": [1, 1], "data_format": "channels_last", "kernel_constraint": null}, "name": "conv2d_75"}, {"inbound_nodes": [[["conv2d_71", 0, 0, {}]]], "class_name": "BatchNormalization", "config": {"beta_constraint": null, "trainable": true, "dtype": "float32", "name": "batch_normalization_71", "gamma_initializer": {"class_name": "Ones", "config": {}}, "gamma_constraint": null, "epsilon": 0.001, "beta_regularizer": null, "moving_variance_initializer": {"class_name": "Ones", "config": {}}, "gamma_regularizer": null, "beta_initializer": {"class_name": "Zeros", "config": {}}, "axis": [3], "center": true, "moving_mean_initializer": {"class_name": "Zeros", "config": {}}, "momentum": 0.99, "scale": false}, "name": "batch_normalization_71"}, {"inbound_nodes": [[["conv2d_75", 0, 0, {}]]], "class_name": "BatchNormalization", "config": {"beta_constraint": null, "trainable": true, "dtype": "float32", "name": "batch_normalization_75", "gamma_initializer": {"class_name": "Ones", "config": {}}, "gamma_constraint": null, "epsilon": 0.001, "beta_regularizer": null, "moving_variance_initializer": {"class_name": "Ones", "config": {}}, "gamma_regularizer": null, "beta_initializer": {"class_name": "Zeros", "config": {}}, "axis": [3], "center": true, "moving_mean_initializer": {"class_name": "Zeros", "config": {}}, "momentum": 0.99, "scale": false}, "name": "batch_normalization_75"}, {"inbound_nodes": [[["batch_normalization_71", 0, 0, {}]]], "class_name": "Activation", "config": {"activation": "relu", "trainable": true, "dtype": "float32", "name": "activation_71"}, "name": "activation_71"}, {"inbound_nodes": [[["batch_normalization_75", 0, 0, {}]]], "class_name": "Activation", "config": {"activation": "relu", "trainable": true, "dtype": "float32", "name": "activation_75"}, "name": "activation_75"}, {"inbound_nodes": [[["mixed7", 0, 0, {}]]], "class_name": "MaxPooling2D", "config": {"strides": [2, 2], "pool_size": [3, 3], "trainable": true, "dtype": "float32", "name": "max_pooling2d_3", "data_format": "channels_last", "padding": "valid"}, "name": "max_pooling2d_3"}, {"inbound_nodes": [[["activation_71", 0, 0, {}], ["activation_75", 0, 0, {}], ["max_pooling2d_3", 0, 0, {}]]], "class_name": "Concatenate", "config": {"axis": 3, "trainable": true, "dtype": "float32", "name": "mixed8"}, "name": "mixed8"}, {"inbound_nodes": [[["mixed8", 0, 0, {}]]], "class_name": "Conv2D", "config": {"use_bias": false, "bias_initializer": {"class_name": "Zeros", "config": {}}, "kernel_size": [1, 1], "trainable": true, "dtype": "float32", "name": "conv2d_80", "padding": "same", "activation": "linear", "activity_regularizer": null, "bias_constraint": null, "kernel_regularizer": null, "strides": [1, 1], "filters": 448, "kernel_initializer": {"class_name": "GlorotUniform", "config": {"seed": null}}, "bias_regularizer": null, "dilation_rate": [1, 1], "data_format": "channels_last", "kernel_constraint": null}, "name": "conv2d_80"}, {"inbound_nodes": [[["conv2d_80", 0, 0, {}]]], "class_name": "BatchNormalization", "config": {"beta_constraint": null, "trainable": true, "dtype": "float32", "name": "batch_normalization_80", "gamma_initializer": {"class_name": "Ones", "config": {}}, "gamma_constraint": null, "epsilon": 0.001, "beta_regularizer": null, "moving_variance_initializer": {"class_name": "Ones", "config": {}}, "gamma_regularizer": null, "beta_initializer": {"class_name": "Zeros", "config": {}}, "axis": [3], "center": true, "moving_mean_initializer": {"class_name": "Zeros", "config": {}}, "momentum": 0.99, "scale": false}, "name": "batch_normalization_80"}, {"inbound_nodes": [[["batch_normalization_80", 0, 0, {}]]], "class_name": "Activation", "config": {"activation": "relu", "trainable": true, "dtype": "float32", "name": "activation_80"}, "name": "activation_80"}, {"inbound_nodes": [[["mixed8", 0, 0, {}]]], "class_name": "Conv2D", "config": {"use_bias": false, "bias_initializer": {"class_name": "Zeros", "config": {}}, "kernel_size": [1, 1], "trainable": true, "dtype": "float32", "name": "conv2d_77", "padding": "same", "activation": "linear", "activity_regularizer": null, "bias_constraint": null, "kernel_regularizer": null, "strides": [1, 1], "filters": 384, "kernel_initializer": {"class_name": "GlorotUniform", "config": {"seed": null}}, "bias_regularizer": null, "dilation_rate": [1, 1], "data_format": "channels_last", "kernel_constraint": null}, "name": "conv2d_77"}, {"inbound_nodes": [[["activation_80", 0, 0, {}]]], "class_name": "Conv2D", "config": {"use_bias": false, "bias_initializer": {"class_name": "Zeros", "config": {}}, "kernel_size": [3, 3], "trainable": true, "dtype": "float32", "name": "conv2d_81", "padding": "same", "activation": "linear", "activity_regularizer": null, "bias_constraint": null, "kernel_regularizer": null, "strides": [1, 1], "filters": 384, "kernel_initializer": {"class_name": "GlorotUniform", "config": {"seed": null}}, "bias_regularizer": null, "dilation_rate": [1, 1], "data_format": "channels_last", "kernel_constraint": null}, "name": "conv2d_81"}, {"inbound_nodes": [[["conv2d_77", 0, 0, {}]]], "class_name": "BatchNormalization", "config": {"beta_constraint": null, "trainable": true, "dtype": "float32", "name": "batch_normalization_77", "gamma_initializer": {"class_name": "Ones", "config": {}}, "gamma_constraint": null, "epsilon": 0.001, "beta_regularizer": null, "moving_variance_initializer": {"class_name": "Ones", "config": {}}, "gamma_regularizer": null, "beta_initializer": {"class_name": "Zeros", "config": {}}, "axis": [3], "center": true, "moving_mean_initializer": {"class_name": "Zeros", "config": {}}, "momentum": 0.99, "scale": false}, "name": "batch_normalization_77"}, {"inbound_nodes": [[["conv2d_81", 0, 0, {}]]], "class_name": "BatchNormalization", "config": {"beta_constraint": null, "trainable": true, "dtype": "float32", "name": "batch_normalization_81", "gamma_initializer": {"class_name": "Ones", "config": {}}, "gamma_constraint": null, "epsilon": 0.001, "beta_regularizer": null, "moving_variance_initializer": {"class_name": "Ones", "config": {}}, "gamma_regularizer": null, "beta_initializer": {"class_name": "Zeros", "config": {}}, "axis": [3], "center": true, "moving_mean_initializer": {"class_name": "Zeros", "config": {}}, "momentum": 0.99, "scale": false}, "name": "batch_normalization_81"}, {"inbound_nodes": [[["batch_normalization_77", 0, 0, {}]]], "class_name": "Activation", "config": {"activation": "relu", "trainable": true, "dtype": "float32", "name": "activation_77"}, "name": "activation_77"}, {"inbound_nodes": [[["batch_normalization_81", 0, 0, {}]]], "class_name": "Activation", "config": {"activation": "relu", "trainable": true, "dtype": "float32", "name": "activation_81"}, "name": "activation_81"}, {"inbound_nodes": [[["activation_77", 0, 0, {}]]], "class_name": "Conv2D", "config": {"use_bias": false, "bias_initializer": {"class_name": "Zeros", "config": {}}, "kernel_size": [1, 3], "trainable": true, "dtype": "float32", "name": "conv2d_78", "padding": "same", "activation": "linear", "activity_regularizer": null, "bias_constraint": null, "kernel_regularizer": null, "strides": [1, 1], "filters": 384, "kernel_initializer": {"class_name": "GlorotUniform", "config": {"seed": null}}, "bias_regularizer": null, "dilation_rate": [1, 1], "data_format": "channels_last", "kernel_constraint": null}, "name": "conv2d_78"}, {"inbound_nodes": [[["activation_77", 0, 0, {}]]], "class_name": "Conv2D", "config": {"use_bias": false, "bias_initializer": {"class_name": "Zeros", "config": {}}, "kernel_size": [3, 1], "trainable": true, "dtype": "float32", "name": "conv2d_79", "padding": "same", "activation": "linear", "activity_regularizer": null, "bias_constraint": null, "kernel_regularizer": null, "strides": [1, 1], "filters": 384, "kernel_initializer": {"class_name": "GlorotUniform", "config": {"seed": null}}, "bias_regularizer": null, "dilation_rate": [1, 1], "data_format": "channels_last", "kernel_constraint": null}, "name": "conv2d_79"}, {"inbound_nodes": [[["activation_81", 0, 0, {}]]], "class_name": "Conv2D", "config": {"use_bias": false, "bias_initializer": {"class_name": "Zeros", "config": {}}, "kernel_size": [1, 3], "trainable": true, "dtype": "float32", "name": "conv2d_82", "padding": "same", "activation": "linear", "activity_regularizer": null, "bias_constraint": null, "kernel_regularizer": null, "strides": [1, 1], "filters": 384, "kernel_initializer": {"class_name": "GlorotUniform", "config": {"seed": null}}, "bias_regularizer": null, "dilation_rate": [1, 1], "data_format": "channels_last", "kernel_constraint": null}, "name": "conv2d_82"}, {"inbound_nodes": [[["activation_81", 0, 0, {}]]], "class_name": "Conv2D", "config": {"use_bias": false, "bias_initializer": {"class_name": "Zeros", "config": {}}, "kernel_size": [3, 1], "trainable": true, "dtype": "float32", "name": "conv2d_83", "padding": "same", "activation": "linear", "activity_regularizer": null, "bias_constraint": null, "kernel_regularizer": null, "strides": [1, 1], "filters": 384, "kernel_initializer": {"class_name": "GlorotUniform", "config": {"seed": null}}, "bias_regularizer": null, "dilation_rate": [1, 1], "data_format": "channels_last", "kernel_constraint": null}, "name": "conv2d_83"}, {"inbound_nodes": [[["mixed8", 0, 0, {}]]], "class_name": "AveragePooling2D", "config": {"strides": [1, 1], "pool_size": [3, 3], "trainable": true, "dtype": "float32", "name": "average_pooling2d_7", "data_format": "channels_last", "padding": "same"}, "name": "average_pooling2d_7"}, {"inbound_nodes": [[["mixed8", 0, 0, {}]]], "class_name": "Conv2D", "config": {"use_bias": false, "bias_initializer": {"class_name": "Zeros", "config": {}}, "kernel_size": [1, 1], "trainable": true, "dtype": "float32", "name": "conv2d_76", "padding": "same", "activation": "linear", "activity_regularizer": null, "bias_constraint": null, "kernel_regularizer": null, "strides": [1, 1], "filters": 320, "kernel_initializer": {"class_name": "GlorotUniform", "config": {"seed": null}}, "bias_regularizer": null, "dilation_rate": [1, 1], "data_format": "channels_last", "kernel_constraint": null}, "name": "conv2d_76"}, {"inbound_nodes": [[["conv2d_78", 0, 0, {}]]], "class_name": "BatchNormalization", "config": {"beta_constraint": null, "trainable": true, "dtype": "float32", "name": "batch_normalization_78", "gamma_initializer": {"class_name": "Ones", "config": {}}, "gamma_constraint": null, "epsilon": 0.001, "beta_regularizer": null, "moving_variance_initializer": {"class_name": "Ones", "config": {}}, "gamma_regularizer": null, "beta_initializer": {"class_name": "Zeros", "config": {}}, "axis": [3], "center": true, "moving_mean_initializer": {"class_name": "Zeros", "config": {}}, "momentum": 0.99, "scale": false}, "name": "batch_normalization_78"}, {"inbound_nodes": [[["conv2d_79", 0, 0, {}]]], "class_name": "BatchNormalization", "config": {"beta_constraint": null, "trainable": true, "dtype": "float32", "name": "batch_normalization_79", "gamma_initializer": {"class_name": "Ones", "config": {}}, "gamma_constraint": null, "epsilon": 0.001, "beta_regularizer": null, "moving_variance_initializer": {"class_name": "Ones", "config": {}}, "gamma_regularizer": null, "beta_initializer": {"class_name": "Zeros", "config": {}}, "axis": [3], "center": true, "moving_mean_initializer": {"class_name": "Zeros", "config": {}}, "momentum": 0.99, "scale": false}, "name": "batch_normalization_79"}, {"inbound_nodes": [[["conv2d_82", 0, 0, {}]]], "class_name": "BatchNormalization", "config": {"beta_constraint": null, "trainable": true, "dtype": "float32", "name": "batch_normalization_82", "gamma_initializer": {"class_name": "Ones", "config": {}}, "gamma_constraint": null, "epsilon": 0.001, "beta_regularizer": null, "moving_variance_initializer": {"class_name": "Ones", "config": {}}, "gamma_regularizer": null, "beta_initializer": {"class_name": "Zeros", "config": {}}, "axis": [3], "center": true, "moving_mean_initializer": {"class_name": "Zeros", "config": {}}, "momentum": 0.99, "scale": false}, "name": "batch_normalization_82"}, {"inbound_nodes": [[["conv2d_83", 0, 0, {}]]], "class_name": "BatchNormalization", "config": {"beta_constraint": null, "trainable": true, "dtype": "float32", "name": "batch_normalization_83", "gamma_initializer": {"class_name": "Ones", "config": {}}, "gamma_constraint": null, "epsilon": 0.001, "beta_regularizer": null, "moving_variance_initializer": {"class_name": "Ones", "config": {}}, "gamma_regularizer": null, "beta_initializer": {"class_name": "Zeros", "config": {}}, "axis": [3], "center": true, "moving_mean_initializer": {"class_name": "Zeros", "config": {}}, "momentum": 0.99, "scale": false}, "name": "batch_normalization_83"}, {"inbound_nodes": [[["average_pooling2d_7", 0, 0, {}]]], "class_name": "Conv2D", "config": {"use_bias": false, "bias_initializer": {"class_name": "Zeros", "config": {}}, "kernel_size": [1, 1], "trainable": true, "dtype": "float32", "name": "conv2d_84", "padding": "same", "activation": "linear", "activity_regularizer": null, "bias_constraint": null, "kernel_regularizer": null, "strides": [1, 1], "filters": 192, "kernel_initializer": {"class_name": "GlorotUniform", "config": {"seed": null}}, "bias_regularizer": null, "dilation_rate": [1, 1], "data_format": "channels_last", "kernel_constraint": null}, "name": "conv2d_84"}, {"inbound_nodes": [[["conv2d_76", 0, 0, {}]]], "class_name": "BatchNormalization", "config": {"beta_constraint": null, "trainable": true, "dtype": "float32", "name": "batch_normalization_76", "gamma_initializer": {"class_name": "Ones", "config": {}}, "gamma_constraint": null, "epsilon": 0.001, "beta_regularizer": null, "moving_variance_initializer": {"class_name": "Ones", "config": {}}, "gamma_regularizer": null, "beta_initializer": {"class_name": "Zeros", "config": {}}, "axis": [3], "center": true, "moving_mean_initializer": {"class_name": "Zeros", "config": {}}, "momentum": 0.99, "scale": false}, "name": "batch_normalization_76"}, {"inbound_nodes": [[["batch_normalization_78", 0, 0, {}]]], "class_name": "Activation", "config": {"activation": "relu", "trainable": true, "dtype": "float32", "name": "activation_78"}, "name": "activation_78"}, {"inbound_nodes": [[["batch_normalization_79", 0, 0, {}]]], "class_name": "Activation", "config": {"activation": "relu", "trainable": true, "dtype": "float32", "name": "activation_79"}, "name": "activation_79"}, {"inbound_nodes": [[["batch_normalization_82", 0, 0, {}]]], "class_name": "Activation", "config": {"activation": "relu", "trainable": true, "dtype": "float32", "name": "activation_82"}, "name": "activation_82"}, {"inbound_nodes": [[["batch_normalization_83", 0, 0, {}]]], "class_name": "Activation", "config": {"activation": "relu", "trainable": true, "dtype": "float32", "name": "activation_83"}, "name": "activation_83"}, {"inbound_nodes": [[["conv2d_84", 0, 0, {}]]], "class_name": "BatchNormalization", "config": {"beta_constraint": null, "trainable": true, "dtype": "float32", "name": "batch_normalization_84", "gamma_initializer": {"class_name": "Ones", "config": {}}, "gamma_constraint": null, "epsilon": 0.001, "beta_regularizer": null, "moving_variance_initializer": {"class_name": "Ones", "config": {}}, "gamma_regularizer": null, "beta_initializer": {"class_name": "Zeros", "config": {}}, "axis": [3], "center": true, "moving_mean_initializer": {"class_name": "Zeros", "config": {}}, "momentum": 0.99, "scale": false}, "name": "batch_normalization_84"}, {"inbound_nodes": [[["batch_normalization_76", 0, 0, {}]]], "class_name": "Activation", "config": {"activation": "relu", "trainable": true, "dtype": "float32", "name": "activation_76"}, "name": "activation_76"}, {"inbound_nodes": [[["activation_78", 0, 0, {}], ["activation_79", 0, 0, {}]]], "class_name": "Concatenate", "config": {"axis": 3, "trainable": true, "dtype": "float32", "name": "mixed9_0"}, "name": "mixed9_0"}, {"inbound_nodes": [[["activation_82", 0, 0, {}], ["activation_83", 0, 0, {}]]], "class_name": "Concatenate", "config": {"axis": 3, "trainable": true, "dtype": "float32", "name": "concatenate"}, "name": "concatenate"}, {"inbound_nodes": [[["batch_normalization_84", 0, 0, {}]]], "class_name": "Activation", "config": {"activation": "relu", "trainable": true, "dtype": "float32", "name": "activation_84"}, "name": "activation_84"}, {"inbound_nodes": [[["activation_76", 0, 0, {}], ["mixed9_0", 0, 0, {}], ["concatenate", 0, 0, {}], ["activation_84", 0, 0, {}]]], "class_name": "Concatenate", "config": {"axis": 3, "trainable": true, "dtype": "float32", "name": "mixed9"}, "name": "mixed9"}, {"inbound_nodes": [[["mixed9", 0, 0, {}]]], "class_name": "Conv2D", "config": {"use_bias": false, "bias_initializer": {"class_name": "Zeros", "config": {}}, "kernel_size": [1, 1], "trainable": true, "dtype": "float32", "name": "conv2d_89", "padding": "same", "activation": "linear", "activity_regularizer": null, "bias_constraint": null, "kernel_regularizer": null, "strides": [1, 1], "filters": 448, "kernel_initializer": {"class_name": "GlorotUniform", "config": {"seed": null}}, "bias_regularizer": null, "dilation_rate": [1, 1], "data_format": "channels_last", "kernel_constraint": null}, "name": "conv2d_89"}, {"inbound_nodes": [[["conv2d_89", 0, 0, {}]]], "class_name": "BatchNormalization", "config": {"beta_constraint": null, "trainable": true, "dtype": "float32", "name": "batch_normalization_89", "gamma_initializer": {"class_name": "Ones", "config": {}}, "gamma_constraint": null, "epsilon": 0.001, "beta_regularizer": null, "moving_variance_initializer": {"class_name": "Ones", "config": {}}, "gamma_regularizer": null, "beta_initializer": {"class_name": "Zeros", "config": {}}, "axis": [3], "center": true, "moving_mean_initializer": {"class_name": "Zeros", "config": {}}, "momentum": 0.99, "scale": false}, "name": "batch_normalization_89"}, {"inbound_nodes": [[["batch_normalization_89", 0, 0, {}]]], "class_name": "Activation", "config": {"activation": "relu", "trainable": true, "dtype": "float32", "name": "activation_89"}, "name": "activation_89"}, {"inbound_nodes": [[["mixed9", 0, 0, {}]]], "class_name": "Conv2D", "config": {"use_bias": false, "bias_initializer": {"class_name": "Zeros", "config": {}}, "kernel_size": [1, 1], "trainable": true, "dtype": "float32", "name": "conv2d_86", "padding": "same", "activation": "linear", "activity_regularizer": null, "bias_constraint": null, "kernel_regularizer": null, "strides": [1, 1], "filters": 384, "kernel_initializer": {"class_name": "GlorotUniform", "config": {"seed": null}}, "bias_regularizer": null, "dilation_rate": [1, 1], "data_format": "channels_last", "kernel_constraint": null}, "name": "conv2d_86"}, {"inbound_nodes": [[["activation_89", 0, 0, {}]]], "class_name": "Conv2D", "config": {"use_bias": false, "bias_initializer": {"class_name": "Zeros", "config": {}}, "kernel_size": [3, 3], "trainable": true, "dtype": "float32", "name": "conv2d_90", "padding": "same", "activation": "linear", "activity_regularizer": null, "bias_constraint": null, "kernel_regularizer": null, "strides": [1, 1], "filters": 384, "kernel_initializer": {"class_name": "GlorotUniform", "config": {"seed": null}}, "bias_regularizer": null, "dilation_rate": [1, 1], "data_format": "channels_last", "kernel_constraint": null}, "name": "conv2d_90"}, {"inbound_nodes": [[["conv2d_86", 0, 0, {}]]], "class_name": "BatchNormalization", "config": {"beta_constraint": null, "trainable": true, "dtype": "float32", "name": "batch_normalization_86", "gamma_initializer": {"class_name": "Ones", "config": {}}, "gamma_constraint": null, "epsilon": 0.001, "beta_regularizer": null, "moving_variance_initializer": {"class_name": "Ones", "config": {}}, "gamma_regularizer": null, "beta_initializer": {"class_name": "Zeros", "config": {}}, "axis": [3], "center": true, "moving_mean_initializer": {"class_name": "Zeros", "config": {}}, "momentum": 0.99, "scale": false}, "name": "batch_normalization_86"}, {"inbound_nodes": [[["conv2d_90", 0, 0, {}]]], "class_name": "BatchNormalization", "config": {"beta_constraint": null, "trainable": true, "dtype": "float32", "name": "batch_normalization_90", "gamma_initializer": {"class_name": "Ones", "config": {}}, "gamma_constraint": null, "epsilon": 0.001, "beta_regularizer": null, "moving_variance_initializer": {"class_name": "Ones", "config": {}}, "gamma_regularizer": null, "beta_initializer": {"class_name": "Zeros", "config": {}}, "axis": [3], "center": true, "moving_mean_initializer": {"class_name": "Zeros", "config": {}}, "momentum": 0.99, "scale": false}, "name": "batch_normalization_90"}, {"inbound_nodes": [[["batch_normalization_86", 0, 0, {}]]], "class_name": "Activation", "config": {"activation": "relu", "trainable": true, "dtype": "float32", "name": "activation_86"}, "name": "activation_86"}, {"inbound_nodes": [[["batch_normalization_90", 0, 0, {}]]], "class_name": "Activation", "config": {"activation": "relu", "trainable": true, "dtype": "float32", "name": "activation_90"}, "name": "activation_90"}, {"inbound_nodes": [[["activation_86", 0, 0, {}]]], "class_name": "Conv2D", "config": {"use_bias": false, "bias_initializer": {"class_name": "Zeros", "config": {}}, "kernel_size": [1, 3], "trainable": true, "dtype": "float32", "name": "conv2d_87", "padding": "same", "activation": "linear", "activity_regularizer": null, "bias_constraint": null, "kernel_regularizer": null, "strides": [1, 1], "filters": 384, "kernel_initializer": {"class_name": "GlorotUniform", "config": {"seed": null}}, "bias_regularizer": null, "dilation_rate": [1, 1], "data_format": "channels_last", "kernel_constraint": null}, "name": "conv2d_87"}, {"inbound_nodes": [[["activation_86", 0, 0, {}]]], "class_name": "Conv2D", "config": {"use_bias": false, "bias_initializer": {"class_name": "Zeros", "config": {}}, "kernel_size": [3, 1], "trainable": true, "dtype": "float32", "name": "conv2d_88", "padding": "same", "activation": "linear", "activity_regularizer": null, "bias_constraint": null, "kernel_regularizer": null, "strides": [1, 1], "filters": 384, "kernel_initializer": {"class_name": "GlorotUniform", "config": {"seed": null}}, "bias_regularizer": null, "dilation_rate": [1, 1], "data_format": "channels_last", "kernel_constraint": null}, "name": "conv2d_88"}, {"inbound_nodes": [[["activation_90", 0, 0, {}]]], "class_name": "Conv2D", "config": {"use_bias": false, "bias_initializer": {"class_name": "Zeros", "config": {}}, "kernel_size": [1, 3], "trainable": true, "dtype": "float32", "name": "conv2d_91", "padding": "same", "activation": "linear", "activity_regularizer": null, "bias_constraint": null, "kernel_regularizer": null, "strides": [1, 1], "filters": 384, "kernel_initializer": {"class_name": "GlorotUniform", "config": {"seed": null}}, "bias_regularizer": null, "dilation_rate": [1, 1], "data_format": "channels_last", "kernel_constraint": null}, "name": "conv2d_91"}, {"inbound_nodes": [[["activation_90", 0, 0, {}]]], "class_name": "Conv2D", "config": {"use_bias": false, "bias_initializer": {"class_name": "Zeros", "config": {}}, "kernel_size": [3, 1], "trainable": true, "dtype": "float32", "name": "conv2d_92", "padding": "same", "activation": "linear", "activity_regularizer": null, "bias_constraint": null, "kernel_regularizer": null, "strides": [1, 1], "filters": 384, "kernel_initializer": {"class_name": "GlorotUniform", "config": {"seed": null}}, "bias_regularizer": null, "dilation_rate": [1, 1], "data_format": "channels_last", "kernel_constraint": null}, "name": "conv2d_92"}, {"inbound_nodes": [[["mixed9", 0, 0, {}]]], "class_name": "AveragePooling2D", "config": {"strides": [1, 1], "pool_size": [3, 3], "trainable": true, "dtype": "float32", "name": "average_pooling2d_8", "data_format": "channels_last", "padding": "same"}, "name": "average_pooling2d_8"}, {"inbound_nodes": [[["mixed9", 0, 0, {}]]], "class_name": "Conv2D", "config": {"use_bias": false, "bias_initializer": {"class_name": "Zeros", "config": {}}, "kernel_size": [1, 1], "trainable": true, "dtype": "float32", "name": "conv2d_85", "padding": "same", "activation": "linear", "activity_regularizer": null, "bias_constraint": null, "kernel_regularizer": null, "strides": [1, 1], "filters": 320, "kernel_initializer": {"class_name": "GlorotUniform", "config": {"seed": null}}, "bias_regularizer": null, "dilation_rate": [1, 1], "data_format": "channels_last", "kernel_constraint": null}, "name": "conv2d_85"}, {"inbound_nodes": [[["conv2d_87", 0, 0, {}]]], "class_name": "BatchNormalization", "config": {"beta_constraint": null, "trainable": true, "dtype": "float32", "name": "batch_normalization_87", "gamma_initializer": {"class_name": "Ones", "config": {}}, "gamma_constraint": null, "epsilon": 0.001, "beta_regularizer": null, "moving_variance_initializer": {"class_name": "Ones", "config": {}}, "gamma_regularizer": null, "beta_initializer": {"class_name": "Zeros", "config": {}}, "axis": [3], "center": true, "moving_mean_initializer": {"class_name": "Zeros", "config": {}}, "momentum": 0.99, "scale": false}, "name": "batch_normalization_87"}, {"inbound_nodes": [[["conv2d_88", 0, 0, {}]]], "class_name": "BatchNormalization", "config": {"beta_constraint": null, "trainable": true, "dtype": "float32", "name": "batch_normalization_88", "gamma_initializer": {"class_name": "Ones", "config": {}}, "gamma_constraint": null, "epsilon": 0.001, "beta_regularizer": null, "moving_variance_initializer": {"class_name": "Ones", "config": {}}, "gamma_regularizer": null, "beta_initializer": {"class_name": "Zeros", "config": {}}, "axis": [3], "center": true, "moving_mean_initializer": {"class_name": "Zeros", "config": {}}, "momentum": 0.99, "scale": false}, "name": "batch_normalization_88"}, {"inbound_nodes": [[["conv2d_91", 0, 0, {}]]], "class_name": "BatchNormalization", "config": {"beta_constraint": null, "trainable": true, "dtype": "float32", "name": "batch_normalization_91", "gamma_initializer": {"class_name": "Ones", "config": {}}, "gamma_constraint": null, "epsilon": 0.001, "beta_regularizer": null, "moving_variance_initializer": {"class_name": "Ones", "config": {}}, "gamma_regularizer": null, "beta_initializer": {"class_name": "Zeros", "config": {}}, "axis": [3], "center": true, "moving_mean_initializer": {"class_name": "Zeros", "config": {}}, "momentum": 0.99, "scale": false}, "name": "batch_normalization_91"}, {"inbound_nodes": [[["conv2d_92", 0, 0, {}]]], "class_name": "BatchNormalization", "config": {"beta_constraint": null, "trainable": true, "dtype": "float32", "name": "batch_normalization_92", "gamma_initializer": {"class_name": "Ones", "config": {}}, "gamma_constraint": null, "epsilon": 0.001, "beta_regularizer": null, "moving_variance_initializer": {"class_name": "Ones", "config": {}}, "gamma_regularizer": null, "beta_initializer": {"class_name": "Zeros", "config": {}}, "axis": [3], "center": true, "moving_mean_initializer": {"class_name": "Zeros", "config": {}}, "momentum": 0.99, "scale": false}, "name": "batch_normalization_92"}, {"inbound_nodes": [[["average_pooling2d_8", 0, 0, {}]]], "class_name": "Conv2D", "config": {"use_bias": false, "bias_initializer": {"class_name": "Zeros", "config": {}}, "kernel_size": [1, 1], "trainable": true, "dtype": "float32", "name": "conv2d_93", "padding": "same", "activation": "linear", "activity_regularizer": null, "bias_constraint": null, "kernel_regularizer": null, "strides": [1, 1], "filters": 192, "kernel_initializer": {"class_name": "GlorotUniform", "config": {"seed": null}}, "bias_regularizer": null, "dilation_rate": [1, 1], "data_format": "channels_last", "kernel_constraint": null}, "name": "conv2d_93"}, {"inbound_nodes": [[["conv2d_85", 0, 0, {}]]], "class_name": "BatchNormalization", "config": {"beta_constraint": null, "trainable": true, "dtype": "float32", "name": "batch_normalization_85", "gamma_initializer": {"class_name": "Ones", "config": {}}, "gamma_constraint": null, "epsilon": 0.001, "beta_regularizer": null, "moving_variance_initializer": {"class_name": "Ones", "config": {}}, "gamma_regularizer": null, "beta_initializer": {"class_name": "Zeros", "config": {}}, "axis": [3], "center": true, "moving_mean_initializer": {"class_name": "Zeros", "config": {}}, "momentum": 0.99, "scale": false}, "name": "batch_normalization_85"}, {"inbound_nodes": [[["batch_normalization_87", 0, 0, {}]]], "class_name": "Activation", "config": {"activation": "relu", "trainable": true, "dtype": "float32", "name": "activation_87"}, "name": "activation_87"}, {"inbound_nodes": [[["batch_normalization_88", 0, 0, {}]]], "class_name": "Activation", "config": {"activation": "relu", "trainable": true, "dtype": "float32", "name": "activation_88"}, "name": "activation_88"}, {"inbound_nodes": [[["batch_normalization_91", 0, 0, {}]]], "class_name": "Activation", "config": {"activation": "relu", "trainable": true, "dtype": "float32", "name": "activation_91"}, "name": "activation_91"}, {"inbound_nodes": [[["batch_normalization_92", 0, 0, {}]]], "class_name": "Activation", "config": {"activation": "relu", "trainable": true, "dtype": "float32", "name": "activation_92"}, "name": "activation_92"}, {"inbound_nodes": [[["conv2d_93", 0, 0, {}]]], "class_name": "BatchNormalization", "config": {"beta_constraint": null, "trainable": true, "dtype": "float32", "name": "batch_normalization_93", "gamma_initializer": {"class_name": "Ones", "config": {}}, "gamma_constraint": null, "epsilon": 0.001, "beta_regularizer": null, "moving_variance_initializer": {"class_name": "Ones", "config": {}}, "gamma_regularizer": null, "beta_initializer": {"class_name": "Zeros", "config": {}}, "axis": [3], "center": true, "moving_mean_initializer": {"class_name": "Zeros", "config": {}}, "momentum": 0.99, "scale": false}, "name": "batch_normalization_93"}, {"inbound_nodes": [[["batch_normalization_85", 0, 0, {}]]], "class_name": "Activation", "config": {"activation": "relu", "trainable": true, "dtype": "float32", "name": "activation_85"}, "name": "activation_85"}, {"inbound_nodes": [[["activation_87", 0, 0, {}], ["activation_88", 0, 0, {}]]], "class_name": "Concatenate", "config": {"axis": 3, "trainable": true, "dtype": "float32", "name": "mixed9_1"}, "name": "mixed9_1"}, {"inbound_nodes": [[["activation_91", 0, 0, {}], ["activation_92", 0, 0, {}]]], "class_name": "Concatenate", "config": {"axis": 3, "trainable": true, "dtype": "float32", "name": "concatenate_1"}, "name": "concatenate_1"}, {"inbound_nodes": [[["batch_normalization_93", 0, 0, {}]]], "class_name": "Activation", "config": {"activation": "relu", "trainable": true, "dtype": "float32", "name": "activation_93"}, "name": "activation_93"}, {"inbound_nodes": [[["activation_85", 0, 0, {}], ["mixed9_1", 0, 0, {}], ["concatenate_1", 0, 0, {}], ["activation_93", 0, 0, {}]]], "class_name": "Concatenate", "config": {"axis": 3, "trainable": true, "dtype": "float32", "name": "mixed10"}, "name": "mixed10"}], "batch_input_shape": [null, 256, 256, 3], "name": "inception_v3"}}, {"class_name": "Dropout", "config": {"seed": null, "noise_shape": null, "dtype": "float32", "name": "dropout", "trainable": true, "rate": 0.3}}, {"class_name": "Flatten", "config": {"data_format": "channels_last", "trainable": true, "dtype": "float32", "name": "flatten"}}, {"class_name": "Dense", "config": {"use_bias": true, "trainable": true, "dtype": "float32", "name": "dense", "units": 512, "activation": "relu", "activity_regularizer": null, "bias_constraint": null, "kernel_regularizer": null, "bias_regularizer": null, "kernel_initializer": {"class_name": "GlorotUniform", "config": {"seed": null}}, "kernel_constraint": null, "bias_initializer": {"class_name": "Zeros", "config": {}}}}, {"class_name": "Dense", "config": {"use_bias": true, "trainable": true, "dtype": "float32", "name": "dense_1", "units": 20, "activation": "softmax", "activity_regularizer": null, "bias_constraint": null, "kernel_regularizer": null, "bias_regularizer": null, "kernel_initializer": {"class_name": "GlorotUniform", "config": {"seed": null}}, "kernel_constraint": null, "bias_initializer": {"class_name": "Zeros", "config": {}}}}], "name": "sequential"}, "backend": "tensorflow"}