{"config": {"output_layers": [["conv2d_18", 0, 0]], "name": "model", "input_layers": [["input_2", 0, 0]], "layers": [{"config": {"batch_input_shape": [null, 256, 256, 3], "name": "input_2", "dtype": "float32", "sparse": false}, "name": "input_2", "inbound_nodes": [], "class_name": "InputLayer"}, {"config": {"name": "lambda", "module": "__main__", "dtype": "float32", "output_shape_type": "raw", "trainable": true, "arguments": {}, "output_shape_module": null, "function_type": "lambda", "output_shape": null, "function": ["4wEAAAAAAAAAAQAAAAIAAABDAAAAcwgAAAB8AABkAQAbUykCTun/AAAAqQApAdoBeHICAAAAcgIA\nAAD6dkQ6L2NvbGxlZ2VfcG9saW1pL1NlbWVzdGVyIDEvQXJ0aWZpY2lhbCBuZXVyYWwgbmV0d29y\na3MgYW5kIGRlZXAgbGVhcm5pbmcvQXNzaWdubWVudHMvQXNzIDIgc2VnbWVudGF0aW9uL21vZGVs\nX1VuZXQucHnaCDxsYW1iZGE+rwAAAHMAAAAA\n", null, null]}, "name": "lambda", "inbound_nodes": [[["input_2", 0, 0, {}]]], "class_name": "Lambda"}, {"config": {"bias_regularizer": null, "strides": [1, 1], "name": "conv2d", "use_bias": true, "dtype": "float32", "filters": 16, "dilation_rate": [1, 1], "activity_regularizer": null, "trainable": true, "kernel_initializer": {"config": {"seed": null, "scale": 2.0, "mode": "fan_in", "distribution": "truncated_normal"}, "class_name": "VarianceScaling"}, "bias_constraint": null, "kernel_constraint": null, "activation": "elu", "kernel_size": [3, 3], "data_format": "channels_last", "kernel_regularizer": null, "padding": "same", "bias_initializer": {"config": {}, "class_name": "Zeros"}}, "name": "conv2d", "inbound_nodes": [[["lambda", 0, 0, {}]]], "class_name": "Conv2D"}, {"config": {"seed": null, "name": "dropout", "dtype": "float32", "rate": 0.1, "trainable": true, "noise_shape": null}, "name": "dropout", "inbound_nodes": [[["conv2d", 0, 0, {}]]], "class_name": "Dropout"}, {"config": {"bias_regularizer": null, "strides": [1, 1], "name": "conv2d_1", "use_bias": true, "dtype": "float32", "filters": 16, "dilation_rate": [1, 1], "activity_regularizer": null, "trainable": true, "kernel_initializer": {"config": {"seed": null, "scale": 2.0, "mode": "fan_in", "distribution": "truncated_normal"}, "class_name": "VarianceScaling"}, "bias_constraint": null, "kernel_constraint": null, "activation": "elu", "kernel_size": [3, 3], "data_format": "channels_last", "kernel_regularizer": null, "padding": "same", "bias_initializer": {"config": {}, "class_name": "Zeros"}}, "name": "conv2d_1", "inbound_nodes": [[["dropout", 0, 0, {}]]], "class_name": "Conv2D"}, {"config": {"strides": [2, 2], "name": "max_pooling2d", "pool_size": [2, 2], "dtype": "float32", "trainable": true, "data_format": "channels_last", "padding": "valid"}, "name": "max_pooling2d", "inbound_nodes": [[["conv2d_1", 0, 0, {}]]], "class_name": "MaxPooling2D"}, {"config": {"bias_regularizer": null, "strides": [1, 1], "name": "conv2d_2", "use_bias": true, "dtype": "float32", "filters": 32, "dilation_rate": [1, 1], "activity_regularizer": null, "trainable": true, "kernel_initializer": {"config": {"seed": null, "scale": 2.0, "mode": "fan_in", "distribution": "truncated_normal"}, "class_name": "VarianceScaling"}, "bias_constraint": null, "kernel_constraint": null, "activation": "elu", "kernel_size": [3, 3], "data_format": "channels_last", "kernel_regularizer": null, "padding": "same", "bias_initializer": {"config": {}, "class_name": "Zeros"}}, "name": "conv2d_2", "inbound_nodes": [[["max_pooling2d", 0, 0, {}]]], "class_name": "Conv2D"}, {"config": {"seed": null, "name": "dropout_1", "dtype": "float32", "rate": 0.2, "trainable": true, "noise_shape": null}, "name": "dropout_1", "inbound_nodes": [[["conv2d_2", 0, 0, {}]]], "class_name": "Dropout"}, {"config": {"bias_regularizer": null, "strides": [1, 1], "name": "conv2d_3", "use_bias": true, "dtype": "float32", "filters": 32, "dilation_rate": [1, 1], "activity_regularizer": null, "trainable": true, "kernel_initializer": {"config": {"seed": null, "scale": 2.0, "mode": "fan_in", "distribution": "truncated_normal"}, "class_name": "VarianceScaling"}, "bias_constraint": null, "kernel_constraint": null, "activation": "elu", "kernel_size": [3, 3], "data_format": "channels_last", "kernel_regularizer": null, "padding": "same", "bias_initializer": {"config": {}, "class_name": "Zeros"}}, "name": "conv2d_3", "inbound_nodes": [[["dropout_1", 0, 0, {}]]], "class_name": "Conv2D"}, {"config": {"strides": [2, 2], "name": "max_pooling2d_1", "pool_size": [2, 2], "dtype": "float32", "trainable": true, "data_format": "channels_last", "padding": "valid"}, "name": "max_pooling2d_1", "inbound_nodes": [[["conv2d_3", 0, 0, {}]]], "class_name": "MaxPooling2D"}, {"config": {"bias_regularizer": null, "strides": [1, 1], "name": "conv2d_4", "use_bias": true, "dtype": "float32", "filters": 64, "dilation_rate": [1, 1], "activity_regularizer": null, "trainable": true, "kernel_initializer": {"config": {"seed": null, "scale": 2.0, "mode": "fan_in", "distribution": "truncated_normal"}, "class_name": "VarianceScaling"}, "bias_constraint": null, "kernel_constraint": null, "activation": "elu", "kernel_size": [3, 3], "data_format": "channels_last", "kernel_regularizer": null, "padding": "same", "bias_initializer": {"config": {}, "class_name": "Zeros"}}, "name": "conv2d_4", "inbound_nodes": [[["max_pooling2d_1", 0, 0, {}]]], "class_name": "Conv2D"}, {"config": {"seed": null, "name": "dropout_2", "dtype": "float32", "rate": 0.2, "trainable": true, "noise_shape": null}, "name": "dropout_2", "inbound_nodes": [[["conv2d_4", 0, 0, {}]]], "class_name": "Dropout"}, {"config": {"bias_regularizer": null, "strides": [1, 1], "name": "conv2d_5", "use_bias": true, "dtype": "float32", "filters": 64, "dilation_rate": [1, 1], "activity_regularizer": null, "trainable": true, "kernel_initializer": {"config": {"seed": null, "scale": 2.0, "mode": "fan_in", "distribution": "truncated_normal"}, "class_name": "VarianceScaling"}, "bias_constraint": null, "kernel_constraint": null, "activation": "elu", "kernel_size": [3, 3], "data_format": "channels_last", "kernel_regularizer": null, "padding": "same", "bias_initializer": {"config": {}, "class_name": "Zeros"}}, "name": "conv2d_5", "inbound_nodes": [[["dropout_2", 0, 0, {}]]], "class_name": "Conv2D"}, {"config": {"strides": [2, 2], "name": "max_pooling2d_2", "pool_size": [2, 2], "dtype": "float32", "trainable": true, "data_format": "channels_last", "padding": "valid"}, "name": "max_pooling2d_2", "inbound_nodes": [[["conv2d_5", 0, 0, {}]]], "class_name": "MaxPooling2D"}, {"config": {"bias_regularizer": null, "strides": [1, 1], "name": "conv2d_6", "use_bias": true, "dtype": "float32", "filters": 128, "dilation_rate": [1, 1], "activity_regularizer": null, "trainable": true, "kernel_initializer": {"config": {"seed": null, "scale": 2.0, "mode": "fan_in", "distribution": "truncated_normal"}, "class_name": "VarianceScaling"}, "bias_constraint": null, "kernel_constraint": null, "activation": "elu", "kernel_size": [3, 3], "data_format": "channels_last", "kernel_regularizer": null, "padding": "same", "bias_initializer": {"config": {}, "class_name": "Zeros"}}, "name": "conv2d_6", "inbound_nodes": [[["max_pooling2d_2", 0, 0, {}]]], "class_name": "Conv2D"}, {"config": {"seed": null, "name": "dropout_3", "dtype": "float32", "rate": 0.2, "trainable": true, "noise_shape": null}, "name": "dropout_3", "inbound_nodes": [[["conv2d_6", 0, 0, {}]]], "class_name": "Dropout"}, {"config": {"bias_regularizer": null, "strides": [1, 1], "name": "conv2d_7", "use_bias": true, "dtype": "float32", "filters": 128, "dilation_rate": [1, 1], "activity_regularizer": null, "trainable": true, "kernel_initializer": {"config": {"seed": null, "scale": 2.0, "mode": "fan_in", "distribution": "truncated_normal"}, "class_name": "VarianceScaling"}, "bias_constraint": null, "kernel_constraint": null, "activation": "elu", "kernel_size": [3, 3], "data_format": "channels_last", "kernel_regularizer": null, "padding": "same", "bias_initializer": {"config": {}, "class_name": "Zeros"}}, "name": "conv2d_7", "inbound_nodes": [[["dropout_3", 0, 0, {}]]], "class_name": "Conv2D"}, {"config": {"strides": [2, 2], "name": "max_pooling2d_3", "pool_size": [2, 2], "dtype": "float32", "trainable": true, "data_format": "channels_last", "padding": "valid"}, "name": "max_pooling2d_3", "inbound_nodes": [[["conv2d_7", 0, 0, {}]]], "class_name": "MaxPooling2D"}, {"config": {"bias_regularizer": null, "strides": [1, 1], "name": "conv2d_8", "use_bias": true, "dtype": "float32", "filters": 256, "dilation_rate": [1, 1], "activity_regularizer": null, "trainable": true, "kernel_initializer": {"config": {"seed": null, "scale": 2.0, "mode": "fan_in", "distribution": "truncated_normal"}, "class_name": "VarianceScaling"}, "bias_constraint": null, "kernel_constraint": null, "activation": "elu", "kernel_size": [3, 3], "data_format": "channels_last", "kernel_regularizer": null, "padding": "same", "bias_initializer": {"config": {}, "class_name": "Zeros"}}, "name": "conv2d_8", "inbound_nodes": [[["max_pooling2d_3", 0, 0, {}]]], "class_name": "Conv2D"}, {"config": {"seed": null, "name": "dropout_4", "dtype": "float32", "rate": 0.3, "trainable": true, "noise_shape": null}, "name": "dropout_4", "inbound_nodes": [[["conv2d_8", 0, 0, {}]]], "class_name": "Dropout"}, {"config": {"bias_regularizer": null, "strides": [1, 1], "name": "conv2d_9", "use_bias": true, "dtype": "float32", "filters": 256, "dilation_rate": [1, 1], "activity_regularizer": null, "trainable": true, "kernel_initializer": {"config": {"seed": null, "scale": 2.0, "mode": "fan_in", "distribution": "truncated_normal"}, "class_name": "VarianceScaling"}, "bias_constraint": null, "kernel_constraint": null, "activation": "elu", "kernel_size": [3, 3], "data_format": "channels_last", "kernel_regularizer": null, "padding": "same", "bias_initializer": {"config": {}, "class_name": "Zeros"}}, "name": "conv2d_9", "inbound_nodes": [[["dropout_4", 0, 0, {}]]], "class_name": "Conv2D"}, {"config": {"bias_regularizer": null, "strides": [2, 2], "name": "conv2d_transpose", "use_bias": true, "dtype": "float32", "filters": 128, "dilation_rate": [1, 1], "activity_regularizer": null, "trainable": true, "padding": "same", "kernel_initializer": {"config": {"seed": null}, "class_name": "GlorotUniform"}, "bias_constraint": null, "kernel_constraint": null, "activation": "linear", "kernel_size": [2, 2], "data_format": "channels_last", "kernel_regularizer": null, "output_padding": null, "bias_initializer": {"config": {}, "class_name": "Zeros"}}, "name": "conv2d_transpose", "inbound_nodes": [[["conv2d_9", 0, 0, {}]]], "class_name": "Conv2DTranspose"}, {"config": {"trainable": true, "name": "concatenate", "dtype": "float32", "axis": -1}, "name": "concatenate", "inbound_nodes": [[["conv2d_transpose", 0, 0, {}], ["conv2d_7", 0, 0, {}]]], "class_name": "Concatenate"}, {"config": {"bias_regularizer": null, "strides": [1, 1], "name": "conv2d_10", "use_bias": true, "dtype": "float32", "filters": 128, "dilation_rate": [1, 1], "activity_regularizer": null, "trainable": true, "kernel_initializer": {"config": {"seed": null, "scale": 2.0, "mode": "fan_in", "distribution": "truncated_normal"}, "class_name": "VarianceScaling"}, "bias_constraint": null, "kernel_constraint": null, "activation": "elu", "kernel_size": [3, 3], "data_format": "channels_last", "kernel_regularizer": null, "padding": "same", "bias_initializer": {"config": {}, "class_name": "Zeros"}}, "name": "conv2d_10", "inbound_nodes": [[["concatenate", 0, 0, {}]]], "class_name": "Conv2D"}, {"config": {"seed": null, "name": "dropout_5", "dtype": "float32", "rate": 0.2, "trainable": true, "noise_shape": null}, "name": "dropout_5", "inbound_nodes": [[["conv2d_10", 0, 0, {}]]], "class_name": "Dropout"}, {"config": {"bias_regularizer": null, "strides": [1, 1], "name": "conv2d_11", "use_bias": true, "dtype": "float32", "filters": 128, "dilation_rate": [1, 1], "activity_regularizer": null, "trainable": true, "kernel_initializer": {"config": {"seed": null, "scale": 2.0, "mode": "fan_in", "distribution": "truncated_normal"}, "class_name": "VarianceScaling"}, "bias_constraint": null, "kernel_constraint": null, "activation": "elu", "kernel_size": [3, 3], "data_format": "channels_last", "kernel_regularizer": null, "padding": "same", "bias_initializer": {"config": {}, "class_name": "Zeros"}}, "name": "conv2d_11", "inbound_nodes": [[["dropout_5", 0, 0, {}]]], "class_name": "Conv2D"}, {"config": {"bias_regularizer": null, "strides": [2, 2], "name": "conv2d_transpose_1", "use_bias": true, "dtype": "float32", "filters": 64, "dilation_rate": [1, 1], "activity_regularizer": null, "trainable": true, "padding": "same", "kernel_initializer": {"config": {"seed": null}, "class_name": "GlorotUniform"}, "bias_constraint": null, "kernel_constraint": null, "activation": "linear", "kernel_size": [2, 2], "data_format": "channels_last", "kernel_regularizer": null, "output_padding": null, "bias_initializer": {"config": {}, "class_name": "Zeros"}}, "name": "conv2d_transpose_1", "inbound_nodes": [[["conv2d_11", 0, 0, {}]]], "class_name": "Conv2DTranspose"}, {"config": {"trainable": true, "name": "concatenate_1", "dtype": "float32", "axis": -1}, "name": "concatenate_1", "inbound_nodes": [[["conv2d_transpose_1", 0, 0, {}], ["conv2d_5", 0, 0, {}]]], "class_name": "Concatenate"}, {"config": {"bias_regularizer": null, "strides": [1, 1], "name": "conv2d_12", "use_bias": true, "dtype": "float32", "filters": 64, "dilation_rate": [1, 1], "activity_regularizer": null, "trainable": true, "kernel_initializer": {"config": {"seed": null, "scale": 2.0, "mode": "fan_in", "distribution": "truncated_normal"}, "class_name": "VarianceScaling"}, "bias_constraint": null, "kernel_constraint": null, "activation": "elu", "kernel_size": [3, 3], "data_format": "channels_last", "kernel_regularizer": null, "padding": "same", "bias_initializer": {"config": {}, "class_name": "Zeros"}}, "name": "conv2d_12", "inbound_nodes": [[["concatenate_1", 0, 0, {}]]], "class_name": "Conv2D"}, {"config": {"seed": null, "name": "dropout_6", "dtype": "float32", "rate": 0.2, "trainable": true, "noise_shape": null}, "name": "dropout_6", "inbound_nodes": [[["conv2d_12", 0, 0, {}]]], "class_name": "Dropout"}, {"config": {"bias_regularizer": null, "strides": [1, 1], "name": "conv2d_13", "use_bias": true, "dtype": "float32", "filters": 64, "dilation_rate": [1, 1], "activity_regularizer": null, "trainable": true, "kernel_initializer": {"config": {"seed": null, "scale": 2.0, "mode": "fan_in", "distribution": "truncated_normal"}, "class_name": "VarianceScaling"}, "bias_constraint": null, "kernel_constraint": null, "activation": "elu", "kernel_size": [3, 3], "data_format": "channels_last", "kernel_regularizer": null, "padding": "same", "bias_initializer": {"config": {}, "class_name": "Zeros"}}, "name": "conv2d_13", "inbound_nodes": [[["dropout_6", 0, 0, {}]]], "class_name": "Conv2D"}, {"config": {"bias_regularizer": null, "strides": [2, 2], "name": "conv2d_transpose_2", "use_bias": true, "dtype": "float32", "filters": 32, "dilation_rate": [1, 1], "activity_regularizer": null, "trainable": true, "padding": "same", "kernel_initializer": {"config": {"seed": null}, "class_name": "GlorotUniform"}, "bias_constraint": null, "kernel_constraint": null, "activation": "linear", "kernel_size": [2, 2], "data_format": "channels_last", "kernel_regularizer": null, "output_padding": null, "bias_initializer": {"config": {}, "class_name": "Zeros"}}, "name": "conv2d_transpose_2", "inbound_nodes": [[["conv2d_13", 0, 0, {}]]], "class_name": "Conv2DTranspose"}, {"config": {"trainable": true, "name": "concatenate_2", "dtype": "float32", "axis": -1}, "name": "concatenate_2", "inbound_nodes": [[["conv2d_transpose_2", 0, 0, {}], ["conv2d_3", 0, 0, {}]]], "class_name": "Concatenate"}, {"config": {"bias_regularizer": null, "strides": [1, 1], "name": "conv2d_14", "use_bias": true, "dtype": "float32", "filters": 32, "dilation_rate": [1, 1], "activity_regularizer": null, "trainable": true, "kernel_initializer": {"config": {"seed": null, "scale": 2.0, "mode": "fan_in", "distribution": "truncated_normal"}, "class_name": "VarianceScaling"}, "bias_constraint": null, "kernel_constraint": null, "activation": "elu", "kernel_size": [3, 3], "data_format": "channels_last", "kernel_regularizer": null, "padding": "same", "bias_initializer": {"config": {}, "class_name": "Zeros"}}, "name": "conv2d_14", "inbound_nodes": [[["concatenate_2", 0, 0, {}]]], "class_name": "Conv2D"}, {"config": {"seed": null, "name": "dropout_7", "dtype": "float32", "rate": 0.1, "trainable": true, "noise_shape": null}, "name": "dropout_7", "inbound_nodes": [[["conv2d_14", 0, 0, {}]]], "class_name": "Dropout"}, {"config": {"bias_regularizer": null, "strides": [1, 1], "name": "conv2d_15", "use_bias": true, "dtype": "float32", "filters": 32, "dilation_rate": [1, 1], "activity_regularizer": null, "trainable": true, "kernel_initializer": {"config": {"seed": null, "scale": 2.0, "mode": "fan_in", "distribution": "truncated_normal"}, "class_name": "VarianceScaling"}, "bias_constraint": null, "kernel_constraint": null, "activation": "elu", "kernel_size": [3, 3], "data_format": "channels_last", "kernel_regularizer": null, "padding": "same", "bias_initializer": {"config": {}, "class_name": "Zeros"}}, "name": "conv2d_15", "inbound_nodes": [[["dropout_7", 0, 0, {}]]], "class_name": "Conv2D"}, {"config": {"bias_regularizer": null, "strides": [2, 2], "name": "conv2d_transpose_3", "use_bias": true, "dtype": "float32", "filters": 16, "dilation_rate": [1, 1], "activity_regularizer": null, "trainable": true, "padding": "same", "kernel_initializer": {"config": {"seed": null}, "class_name": "GlorotUniform"}, "bias_constraint": null, "kernel_constraint": null, "activation": "linear", "kernel_size": [2, 2], "data_format": "channels_last", "kernel_regularizer": null, "output_padding": null, "bias_initializer": {"config": {}, "class_name": "Zeros"}}, "name": "conv2d_transpose_3", "inbound_nodes": [[["conv2d_15", 0, 0, {}]]], "class_name": "Conv2DTranspose"}, {"config": {"trainable": true, "name": "concatenate_3", "dtype": "float32", "axis": 3}, "name": "concatenate_3", "inbound_nodes": [[["conv2d_transpose_3", 0, 0, {}], ["conv2d_1", 0, 0, {}]]], "class_name": "Concatenate"}, {"config": {"bias_regularizer": null, "strides": [1, 1], "name": "conv2d_16", "use_bias": true, "dtype": "float32", "filters": 16, "dilation_rate": [1, 1], "activity_regularizer": null, "trainable": true, "kernel_initializer": {"config": {"seed": null, "scale": 2.0, "mode": "fan_in", "distribution": "truncated_normal"}, "class_name": "VarianceScaling"}, "bias_constraint": null, "kernel_constraint": null, "activation": "elu", "kernel_size": [3, 3], "data_format": "channels_last", "kernel_regularizer": null, "padding": "same", "bias_initializer": {"config": {}, "class_name": "Zeros"}}, "name": "conv2d_16", "inbound_nodes": [[["concatenate_3", 0, 0, {}]]], "class_name": "Conv2D"}, {"config": {"seed": null, "name": "dropout_8", "dtype": "float32", "rate": 0.1, "trainable": true, "noise_shape": null}, "name": "dropout_8", "inbound_nodes": [[["conv2d_16", 0, 0, {}]]], "class_name": "Dropout"}, {"config": {"bias_regularizer": null, "strides": [1, 1], "name": "conv2d_17", "use_bias": true, "dtype": "float32", "filters": 16, "dilation_rate": [1, 1], "activity_regularizer": null, "trainable": true, "kernel_initializer": {"config": {"seed": null, "scale": 2.0, "mode": "fan_in", "distribution": "truncated_normal"}, "class_name": "VarianceScaling"}, "bias_constraint": null, "kernel_constraint": null, "activation": "elu", "kernel_size": [3, 3], "data_format": "channels_last", "kernel_regularizer": null, "padding": "same", "bias_initializer": {"config": {}, "class_name": "Zeros"}}, "name": "conv2d_17", "inbound_nodes": [[["dropout_8", 0, 0, {}]]], "class_name": "Conv2D"}, {"config": {"bias_regularizer": null, "strides": [1, 1], "name": "conv2d_18", "use_bias": true, "dtype": "float32", "filters": 1, "dilation_rate": [1, 1], "activity_regularizer": null, "trainable": true, "kernel_initializer": {"config": {"seed": null}, "class_name": "GlorotUniform"}, "bias_constraint": null, "kernel_constraint": null, "activation": "sigmoid", "kernel_size": [1, 1], "data_format": "channels_last", "kernel_regularizer": null, "padding": "valid", "bias_initializer": {"config": {}, "class_name": "Zeros"}}, "name": "conv2d_18", "inbound_nodes": [[["conv2d_17", 0, 0, {}]]], "class_name": "Conv2D"}]}, "keras_version": "2.2.4-tf", "backend": "tensorflow", "class_name": "Model"}