{"backend": "tensorflow", "keras_version": "2.2.4-tf", "class_name": "Model", "config": {"layers": [{"inbound_nodes": [], "class_name": "InputLayer", "config": {"batch_input_shape": [null, 256, 256, 3], "dtype": "float32", "sparse": false, "name": "input_1"}, "name": "input_1"}, {"inbound_nodes": [[["input_1", 0, 0, {}]]], "class_name": "ZeroPadding2D", "config": {"padding": [[3, 3], [3, 3]], "dtype": "float32", "trainable": false, "name": "conv1_pad", "data_format": "channels_last"}, "name": "conv1_pad"}, {"inbound_nodes": [[["conv1_pad", 0, 0, {}]]], "class_name": "Conv2D", "config": {"kernel_constraint": null, "filters": 64, "trainable": false, "kernel_regularizer": null, "data_format": "channels_last", "dtype": "float32", "bias_regularizer": null, "bias_constraint": null, "activity_regularizer": null, "padding": "valid", "bias_initializer": {"class_name": "Zeros", "config": {}}, "activation": "linear", "name": "conv1_conv", "dilation_rate": [1, 1], "use_bias": true, "strides": [2, 2], "kernel_size": [7, 7], "kernel_initializer": {"class_name": "GlorotUniform", "config": {"seed": null}}}, "name": "conv1_conv"}, {"inbound_nodes": [[["conv1_conv", 0, 0, {}]]], "class_name": "BatchNormalization", "config": {"center": true, "beta_regularizer": null, "gamma_constraint": null, "beta_initializer": {"class_name": "Zeros", "config": {}}, "gamma_initializer": {"class_name": "Ones", "config": {}}, "trainable": false, "moving_variance_initializer": {"class_name": "Ones", "config": {}}, "dtype": "float32", "epsilon": 1.001e-05, "axis": [3], "name": "conv1_bn", "momentum": 0.99, "gamma_regularizer": null, "scale": true, "beta_constraint": null, "moving_mean_initializer": {"class_name": "Zeros", "config": {}}}, "name": "conv1_bn"}, {"inbound_nodes": [[["conv1_bn", 0, 0, {}]]], "class_name": "Activation", "config": {"dtype": "float32", "activation": "relu", "trainable": false, "name": "conv1_relu"}, "name": "conv1_relu"}, {"inbound_nodes": [[["conv1_relu", 0, 0, {}]]], "class_name": "ZeroPadding2D", "config": {"padding": [[1, 1], [1, 1]], "dtype": "float32", "trainable": false, "name": "pool1_pad", "data_format": "channels_last"}, "name": "pool1_pad"}, {"inbound_nodes": [[["pool1_pad", 0, 0, {}]]], "class_name": "MaxPooling2D", "config": {"padding": "valid", "strides": [2, 2], "trainable": false, "data_format": "channels_last", "dtype": "float32", "pool_size": [3, 3], "name": "pool1_pool"}, "name": "pool1_pool"}, {"inbound_nodes": [[["pool1_pool", 0, 0, {}]]], "class_name": "Conv2D", "config": {"kernel_constraint": null, "filters": 64, "trainable": false, "kernel_regularizer": null, "data_format": "channels_last", "dtype": "float32", "bias_regularizer": null, "bias_constraint": null, "activity_regularizer": null, "padding": "valid", "bias_initializer": {"class_name": "Zeros", "config": {}}, "activation": "linear", "name": "conv2_block1_1_conv", "dilation_rate": [1, 1], "use_bias": true, "strides": [1, 1], "kernel_size": [1, 1], "kernel_initializer": {"class_name": "GlorotUniform", "config": {"seed": null}}}, "name": "conv2_block1_1_conv"}, {"inbound_nodes": [[["conv2_block1_1_conv", 0, 0, {}]]], "class_name": "BatchNormalization", "config": {"center": true, "beta_regularizer": null, "gamma_constraint": null, "beta_initializer": {"class_name": "Zeros", "config": {}}, "gamma_initializer": {"class_name": "Ones", "config": {}}, "trainable": false, "moving_variance_initializer": {"class_name": "Ones", "config": {}}, "dtype": "float32", "epsilon": 1.001e-05, "axis": [3], "name": "conv2_block1_1_bn", "momentum": 0.99, "gamma_regularizer": null, "scale": true, "beta_constraint": null, "moving_mean_initializer": {"class_name": "Zeros", "config": {}}}, "name": "conv2_block1_1_bn"}, {"inbound_nodes": [[["conv2_block1_1_bn", 0, 0, {}]]], "class_name": "Activation", "config": {"dtype": "float32", "activation": "relu", "trainable": false, "name": "conv2_block1_1_relu"}, "name": "conv2_block1_1_relu"}, {"inbound_nodes": [[["conv2_block1_1_relu", 0, 0, {}]]], "class_name": "Conv2D", "config": {"kernel_constraint": null, "filters": 64, "trainable": false, "kernel_regularizer": null, "data_format": "channels_last", "dtype": "float32", "bias_regularizer": null, "bias_constraint": null, "activity_regularizer": null, "padding": "same", "bias_initializer": {"class_name": "Zeros", "config": {}}, "activation": "linear", "name": "conv2_block1_2_conv", "dilation_rate": [1, 1], "use_bias": true, "strides": [1, 1], "kernel_size": [3, 3], "kernel_initializer": {"class_name": "GlorotUniform", "config": {"seed": null}}}, "name": "conv2_block1_2_conv"}, {"inbound_nodes": [[["conv2_block1_2_conv", 0, 0, {}]]], "class_name": "BatchNormalization", "config": {"center": true, "beta_regularizer": null, "gamma_constraint": null, "beta_initializer": {"class_name": "Zeros", "config": {}}, "gamma_initializer": {"class_name": "Ones", "config": {}}, "trainable": false, "moving_variance_initializer": {"class_name": "Ones", "config": {}}, "dtype": "float32", "epsilon": 1.001e-05, "axis": [3], "name": "conv2_block1_2_bn", "momentum": 0.99, "gamma_regularizer": null, "scale": true, "beta_constraint": null, "moving_mean_initializer": {"class_name": "Zeros", "config": {}}}, "name": "conv2_block1_2_bn"}, {"inbound_nodes": [[["conv2_block1_2_bn", 0, 0, {}]]], "class_name": "Activation", "config": {"dtype": "float32", "activation": "relu", "trainable": false, "name": "conv2_block1_2_relu"}, "name": "conv2_block1_2_relu"}, {"inbound_nodes": [[["pool1_pool", 0, 0, {}]]], "class_name": "Conv2D", "config": {"kernel_constraint": null, "filters": 256, "trainable": false, "kernel_regularizer": null, "data_format": "channels_last", "dtype": "float32", "bias_regularizer": null, "bias_constraint": null, "activity_regularizer": null, "padding": "valid", "bias_initializer": {"class_name": "Zeros", "config": {}}, "activation": "linear", "name": "conv2_block1_0_conv", "dilation_rate": [1, 1], "use_bias": true, "strides": [1, 1], "kernel_size": [1, 1], "kernel_initializer": {"class_name": "GlorotUniform", "config": {"seed": null}}}, "name": "conv2_block1_0_conv"}, {"inbound_nodes": [[["conv2_block1_2_relu", 0, 0, {}]]], "class_name": "Conv2D", "config": {"kernel_constraint": null, "filters": 256, "trainable": false, "kernel_regularizer": null, "data_format": "channels_last", "dtype": "float32", "bias_regularizer": null, "bias_constraint": null, "activity_regularizer": null, "padding": "valid", "bias_initializer": {"class_name": "Zeros", "config": {}}, "activation": "linear", "name": "conv2_block1_3_conv", "dilation_rate": [1, 1], "use_bias": true, "strides": [1, 1], "kernel_size": [1, 1], "kernel_initializer": {"class_name": "GlorotUniform", "config": {"seed": null}}}, "name": "conv2_block1_3_conv"}, {"inbound_nodes": [[["conv2_block1_0_conv", 0, 0, {}]]], "class_name": "BatchNormalization", "config": {"center": true, "beta_regularizer": null, "gamma_constraint": null, "beta_initializer": {"class_name": "Zeros", "config": {}}, "gamma_initializer": {"class_name": "Ones", "config": {}}, "trainable": true, "moving_variance_initializer": {"class_name": "Ones", "config": {}}, "dtype": "float32", "epsilon": 1.001e-05, "axis": [3], "name": "conv2_block1_0_bn", "momentum": 0.99, "gamma_regularizer": null, "scale": true, "beta_constraint": null, "moving_mean_initializer": {"class_name": "Zeros", "config": {}}}, "name": "conv2_block1_0_bn"}, {"inbound_nodes": [[["conv2_block1_3_conv", 0, 0, {}]]], "class_name": "BatchNormalization", "config": {"center": true, "beta_regularizer": null, "gamma_constraint": null, "beta_initializer": {"class_name": "Zeros", "config": {}}, "gamma_initializer": {"class_name": "Ones", "config": {}}, "trainable": true, "moving_variance_initializer": {"class_name": "Ones", "config": {}}, "dtype": "float32", "epsilon": 1.001e-05, "axis": [3], "name": "conv2_block1_3_bn", "momentum": 0.99, "gamma_regularizer": null, "scale": true, "beta_constraint": null, "moving_mean_initializer": {"class_name": "Zeros", "config": {}}}, "name": "conv2_block1_3_bn"}, {"inbound_nodes": [[["conv2_block1_0_bn", 0, 0, {}], ["conv2_block1_3_bn", 0, 0, {}]]], "class_name": "Add", "config": {"dtype": "float32", "name": "conv2_block1_add", "trainable": true}, "name": "conv2_block1_add"}, {"inbound_nodes": [[["conv2_block1_add", 0, 0, {}]]], "class_name": "Activation", "config": {"dtype": "float32", "activation": "relu", "trainable": true, "name": "conv2_block1_out"}, "name": "conv2_block1_out"}, {"inbound_nodes": [[["conv2_block1_out", 0, 0, {}]]], "class_name": "Conv2D", "config": {"kernel_constraint": null, "filters": 64, "trainable": true, "kernel_regularizer": null, "data_format": "channels_last", "dtype": "float32", "bias_regularizer": null, "bias_constraint": null, "activity_regularizer": null, "padding": "valid", "bias_initializer": {"class_name": "Zeros", "config": {}}, "activation": "linear", "name": "conv2_block2_1_conv", "dilation_rate": [1, 1], "use_bias": true, "strides": [1, 1], "kernel_size": [1, 1], "kernel_initializer": {"class_name": "GlorotUniform", "config": {"seed": null}}}, "name": "conv2_block2_1_conv"}, {"inbound_nodes": [[["conv2_block2_1_conv", 0, 0, {}]]], "class_name": "BatchNormalization", "config": {"center": true, "beta_regularizer": null, "gamma_constraint": null, "beta_initializer": {"class_name": "Zeros", "config": {}}, "gamma_initializer": {"class_name": "Ones", "config": {}}, "trainable": true, "moving_variance_initializer": {"class_name": "Ones", "config": {}}, "dtype": "float32", "epsilon": 1.001e-05, "axis": [3], "name": "conv2_block2_1_bn", "momentum": 0.99, "gamma_regularizer": null, "scale": true, "beta_constraint": null, "moving_mean_initializer": {"class_name": "Zeros", "config": {}}}, "name": "conv2_block2_1_bn"}, {"inbound_nodes": [[["conv2_block2_1_bn", 0, 0, {}]]], "class_name": "Activation", "config": {"dtype": "float32", "activation": "relu", "trainable": true, "name": "conv2_block2_1_relu"}, "name": "conv2_block2_1_relu"}, {"inbound_nodes": [[["conv2_block2_1_relu", 0, 0, {}]]], "class_name": "Conv2D", "config": {"kernel_constraint": null, "filters": 64, "trainable": true, "kernel_regularizer": null, "data_format": "channels_last", "dtype": "float32", "bias_regularizer": null, "bias_constraint": null, "activity_regularizer": null, "padding": "same", "bias_initializer": {"class_name": "Zeros", "config": {}}, "activation": "linear", "name": "conv2_block2_2_conv", "dilation_rate": [1, 1], "use_bias": true, "strides": [1, 1], "kernel_size": [3, 3], "kernel_initializer": {"class_name": "GlorotUniform", "config": {"seed": null}}}, "name": "conv2_block2_2_conv"}, {"inbound_nodes": [[["conv2_block2_2_conv", 0, 0, {}]]], "class_name": "BatchNormalization", "config": {"center": true, "beta_regularizer": null, "gamma_constraint": null, "beta_initializer": {"class_name": "Zeros", "config": {}}, "gamma_initializer": {"class_name": "Ones", "config": {}}, "trainable": true, "moving_variance_initializer": {"class_name": "Ones", "config": {}}, "dtype": "float32", "epsilon": 1.001e-05, "axis": [3], "name": "conv2_block2_2_bn", "momentum": 0.99, "gamma_regularizer": null, "scale": true, "beta_constraint": null, "moving_mean_initializer": {"class_name": "Zeros", "config": {}}}, "name": "conv2_block2_2_bn"}, {"inbound_nodes": [[["conv2_block2_2_bn", 0, 0, {}]]], "class_name": "Activation", "config": {"dtype": "float32", "activation": "relu", "trainable": true, "name": "conv2_block2_2_relu"}, "name": "conv2_block2_2_relu"}, {"inbound_nodes": [[["conv2_block2_2_relu", 0, 0, {}]]], "class_name": "Conv2D", "config": {"kernel_constraint": null, "filters": 256, "trainable": true, "kernel_regularizer": null, "data_format": "channels_last", "dtype": "float32", "bias_regularizer": null, "bias_constraint": null, "activity_regularizer": null, "padding": "valid", "bias_initializer": {"class_name": "Zeros", "config": {}}, "activation": "linear", "name": "conv2_block2_3_conv", "dilation_rate": [1, 1], "use_bias": true, "strides": [1, 1], "kernel_size": [1, 1], "kernel_initializer": {"class_name": "GlorotUniform", "config": {"seed": null}}}, "name": "conv2_block2_3_conv"}, {"inbound_nodes": [[["conv2_block2_3_conv", 0, 0, {}]]], "class_name": "BatchNormalization", "config": {"center": true, "beta_regularizer": null, "gamma_constraint": null, "beta_initializer": {"class_name": "Zeros", "config": {}}, "gamma_initializer": {"class_name": "Ones", "config": {}}, "trainable": true, "moving_variance_initializer": {"class_name": "Ones", "config": {}}, "dtype": "float32", "epsilon": 1.001e-05, "axis": [3], "name": "conv2_block2_3_bn", "momentum": 0.99, "gamma_regularizer": null, "scale": true, "beta_constraint": null, "moving_mean_initializer": {"class_name": "Zeros", "config": {}}}, "name": "conv2_block2_3_bn"}, {"inbound_nodes": [[["conv2_block1_out", 0, 0, {}], ["conv2_block2_3_bn", 0, 0, {}]]], "class_name": "Add", "config": {"dtype": "float32", "name": "conv2_block2_add", "trainable": true}, "name": "conv2_block2_add"}, {"inbound_nodes": [[["conv2_block2_add", 0, 0, {}]]], "class_name": "Activation", "config": {"dtype": "float32", "activation": "relu", "trainable": true, "name": "conv2_block2_out"}, "name": "conv2_block2_out"}, {"inbound_nodes": [[["conv2_block2_out", 0, 0, {}]]], "class_name": "Conv2D", "config": {"kernel_constraint": null, "filters": 64, "trainable": true, "kernel_regularizer": null, "data_format": "channels_last", "dtype": "float32", "bias_regularizer": null, "bias_constraint": null, "activity_regularizer": null, "padding": "valid", "bias_initializer": {"class_name": "Zeros", "config": {}}, "activation": "linear", "name": "conv2_block3_1_conv", "dilation_rate": [1, 1], "use_bias": true, "strides": [1, 1], "kernel_size": [1, 1], "kernel_initializer": {"class_name": "GlorotUniform", "config": {"seed": null}}}, "name": "conv2_block3_1_conv"}, {"inbound_nodes": [[["conv2_block3_1_conv", 0, 0, {}]]], "class_name": "BatchNormalization", "config": {"center": true, "beta_regularizer": null, "gamma_constraint": null, "beta_initializer": {"class_name": "Zeros", "config": {}}, "gamma_initializer": {"class_name": "Ones", "config": {}}, "trainable": true, "moving_variance_initializer": {"class_name": "Ones", "config": {}}, "dtype": "float32", "epsilon": 1.001e-05, "axis": [3], "name": "conv2_block3_1_bn", "momentum": 0.99, "gamma_regularizer": null, "scale": true, "beta_constraint": null, "moving_mean_initializer": {"class_name": "Zeros", "config": {}}}, "name": "conv2_block3_1_bn"}, {"inbound_nodes": [[["conv2_block3_1_bn", 0, 0, {}]]], "class_name": "Activation", "config": {"dtype": "float32", "activation": "relu", "trainable": true, "name": "conv2_block3_1_relu"}, "name": "conv2_block3_1_relu"}, {"inbound_nodes": [[["conv2_block3_1_relu", 0, 0, {}]]], "class_name": "Conv2D", "config": {"kernel_constraint": null, "filters": 64, "trainable": true, "kernel_regularizer": null, "data_format": "channels_last", "dtype": "float32", "bias_regularizer": null, "bias_constraint": null, "activity_regularizer": null, "padding": "same", "bias_initializer": {"class_name": "Zeros", "config": {}}, "activation": "linear", "name": "conv2_block3_2_conv", "dilation_rate": [1, 1], "use_bias": true, "strides": [1, 1], "kernel_size": [3, 3], "kernel_initializer": {"class_name": "GlorotUniform", "config": {"seed": null}}}, "name": "conv2_block3_2_conv"}, {"inbound_nodes": [[["conv2_block3_2_conv", 0, 0, {}]]], "class_name": "BatchNormalization", "config": {"center": true, "beta_regularizer": null, "gamma_constraint": null, "beta_initializer": {"class_name": "Zeros", "config": {}}, "gamma_initializer": {"class_name": "Ones", "config": {}}, "trainable": true, "moving_variance_initializer": {"class_name": "Ones", "config": {}}, "dtype": "float32", "epsilon": 1.001e-05, "axis": [3], "name": "conv2_block3_2_bn", "momentum": 0.99, "gamma_regularizer": null, "scale": true, "beta_constraint": null, "moving_mean_initializer": {"class_name": "Zeros", "config": {}}}, "name": "conv2_block3_2_bn"}, {"inbound_nodes": [[["conv2_block3_2_bn", 0, 0, {}]]], "class_name": "Activation", "config": {"dtype": "float32", "activation": "relu", "trainable": true, "name": "conv2_block3_2_relu"}, "name": "conv2_block3_2_relu"}, {"inbound_nodes": [[["conv2_block3_2_relu", 0, 0, {}]]], "class_name": "Conv2D", "config": {"kernel_constraint": null, "filters": 256, "trainable": true, "kernel_regularizer": null, "data_format": "channels_last", "dtype": "float32", "bias_regularizer": null, "bias_constraint": null, "activity_regularizer": null, "padding": "valid", "bias_initializer": {"class_name": "Zeros", "config": {}}, "activation": "linear", "name": "conv2_block3_3_conv", "dilation_rate": [1, 1], "use_bias": true, "strides": [1, 1], "kernel_size": [1, 1], "kernel_initializer": {"class_name": "GlorotUniform", "config": {"seed": null}}}, "name": "conv2_block3_3_conv"}, {"inbound_nodes": [[["conv2_block3_3_conv", 0, 0, {}]]], "class_name": "BatchNormalization", "config": {"center": true, "beta_regularizer": null, "gamma_constraint": null, "beta_initializer": {"class_name": "Zeros", "config": {}}, "gamma_initializer": {"class_name": "Ones", "config": {}}, "trainable": true, "moving_variance_initializer": {"class_name": "Ones", "config": {}}, "dtype": "float32", "epsilon": 1.001e-05, "axis": [3], "name": "conv2_block3_3_bn", "momentum": 0.99, "gamma_regularizer": null, "scale": true, "beta_constraint": null, "moving_mean_initializer": {"class_name": "Zeros", "config": {}}}, "name": "conv2_block3_3_bn"}, {"inbound_nodes": [[["conv2_block2_out", 0, 0, {}], ["conv2_block3_3_bn", 0, 0, {}]]], "class_name": "Add", "config": {"dtype": "float32", "name": "conv2_block3_add", "trainable": true}, "name": "conv2_block3_add"}, {"inbound_nodes": [[["conv2_block3_add", 0, 0, {}]]], "class_name": "Activation", "config": {"dtype": "float32", "activation": "relu", "trainable": true, "name": "conv2_block3_out"}, "name": "conv2_block3_out"}, {"inbound_nodes": [[["conv2_block3_out", 0, 0, {}]]], "class_name": "Conv2D", "config": {"kernel_constraint": null, "filters": 128, "trainable": true, "kernel_regularizer": null, "data_format": "channels_last", "dtype": "float32", "bias_regularizer": null, "bias_constraint": null, "activity_regularizer": null, "padding": "valid", "bias_initializer": {"class_name": "Zeros", "config": {}}, "activation": "linear", "name": "conv3_block1_1_conv", "dilation_rate": [1, 1], "use_bias": true, "strides": [2, 2], "kernel_size": [1, 1], "kernel_initializer": {"class_name": "GlorotUniform", "config": {"seed": null}}}, "name": "conv3_block1_1_conv"}, {"inbound_nodes": [[["conv3_block1_1_conv", 0, 0, {}]]], "class_name": "BatchNormalization", "config": {"center": true, "beta_regularizer": null, "gamma_constraint": null, "beta_initializer": {"class_name": "Zeros", "config": {}}, "gamma_initializer": {"class_name": "Ones", "config": {}}, "trainable": true, "moving_variance_initializer": {"class_name": "Ones", "config": {}}, "dtype": "float32", "epsilon": 1.001e-05, "axis": [3], "name": "conv3_block1_1_bn", "momentum": 0.99, "gamma_regularizer": null, "scale": true, "beta_constraint": null, "moving_mean_initializer": {"class_name": "Zeros", "config": {}}}, "name": "conv3_block1_1_bn"}, {"inbound_nodes": [[["conv3_block1_1_bn", 0, 0, {}]]], "class_name": "Activation", "config": {"dtype": "float32", "activation": "relu", "trainable": true, "name": "conv3_block1_1_relu"}, "name": "conv3_block1_1_relu"}, {"inbound_nodes": [[["conv3_block1_1_relu", 0, 0, {}]]], "class_name": "Conv2D", "config": {"kernel_constraint": null, "filters": 128, "trainable": true, "kernel_regularizer": null, "data_format": "channels_last", "dtype": "float32", "bias_regularizer": null, "bias_constraint": null, "activity_regularizer": null, "padding": "same", "bias_initializer": {"class_name": "Zeros", "config": {}}, "activation": "linear", "name": "conv3_block1_2_conv", "dilation_rate": [1, 1], "use_bias": true, "strides": [1, 1], "kernel_size": [3, 3], "kernel_initializer": {"class_name": "GlorotUniform", "config": {"seed": null}}}, "name": "conv3_block1_2_conv"}, {"inbound_nodes": [[["conv3_block1_2_conv", 0, 0, {}]]], "class_name": "BatchNormalization", "config": {"center": true, "beta_regularizer": null, "gamma_constraint": null, "beta_initializer": {"class_name": "Zeros", "config": {}}, "gamma_initializer": {"class_name": "Ones", "config": {}}, "trainable": true, "moving_variance_initializer": {"class_name": "Ones", "config": {}}, "dtype": "float32", "epsilon": 1.001e-05, "axis": [3], "name": "conv3_block1_2_bn", "momentum": 0.99, "gamma_regularizer": null, "scale": true, "beta_constraint": null, "moving_mean_initializer": {"class_name": "Zeros", "config": {}}}, "name": "conv3_block1_2_bn"}, {"inbound_nodes": [[["conv3_block1_2_bn", 0, 0, {}]]], "class_name": "Activation", "config": {"dtype": "float32", "activation": "relu", "trainable": true, "name": "conv3_block1_2_relu"}, "name": "conv3_block1_2_relu"}, {"inbound_nodes": [[["conv2_block3_out", 0, 0, {}]]], "class_name": "Conv2D", "config": {"kernel_constraint": null, "filters": 512, "trainable": true, "kernel_regularizer": null, "data_format": "channels_last", "dtype": "float32", "bias_regularizer": null, "bias_constraint": null, "activity_regularizer": null, "padding": "valid", "bias_initializer": {"class_name": "Zeros", "config": {}}, "activation": "linear", "name": "conv3_block1_0_conv", "dilation_rate": [1, 1], "use_bias": true, "strides": [2, 2], "kernel_size": [1, 1], "kernel_initializer": {"class_name": "GlorotUniform", "config": {"seed": null}}}, "name": "conv3_block1_0_conv"}, {"inbound_nodes": [[["conv3_block1_2_relu", 0, 0, {}]]], "class_name": "Conv2D", "config": {"kernel_constraint": null, "filters": 512, "trainable": true, "kernel_regularizer": null, "data_format": "channels_last", "dtype": "float32", "bias_regularizer": null, "bias_constraint": null, "activity_regularizer": null, "padding": "valid", "bias_initializer": {"class_name": "Zeros", "config": {}}, "activation": "linear", "name": "conv3_block1_3_conv", "dilation_rate": [1, 1], "use_bias": true, "strides": [1, 1], "kernel_size": [1, 1], "kernel_initializer": {"class_name": "GlorotUniform", "config": {"seed": null}}}, "name": "conv3_block1_3_conv"}, {"inbound_nodes": [[["conv3_block1_0_conv", 0, 0, {}]]], "class_name": "BatchNormalization", "config": {"center": true, "beta_regularizer": null, "gamma_constraint": null, "beta_initializer": {"class_name": "Zeros", "config": {}}, "gamma_initializer": {"class_name": "Ones", "config": {}}, "trainable": true, "moving_variance_initializer": {"class_name": "Ones", "config": {}}, "dtype": "float32", "epsilon": 1.001e-05, "axis": [3], "name": "conv3_block1_0_bn", "momentum": 0.99, "gamma_regularizer": null, "scale": true, "beta_constraint": null, "moving_mean_initializer": {"class_name": "Zeros", "config": {}}}, "name": "conv3_block1_0_bn"}, {"inbound_nodes": [[["conv3_block1_3_conv", 0, 0, {}]]], "class_name": "BatchNormalization", "config": {"center": true, "beta_regularizer": null, "gamma_constraint": null, "beta_initializer": {"class_name": "Zeros", "config": {}}, "gamma_initializer": {"class_name": "Ones", "config": {}}, "trainable": true, "moving_variance_initializer": {"class_name": "Ones", "config": {}}, "dtype": "float32", "epsilon": 1.001e-05, "axis": [3], "name": "conv3_block1_3_bn", "momentum": 0.99, "gamma_regularizer": null, "scale": true, "beta_constraint": null, "moving_mean_initializer": {"class_name": "Zeros", "config": {}}}, "name": "conv3_block1_3_bn"}, {"inbound_nodes": [[["conv3_block1_0_bn", 0, 0, {}], ["conv3_block1_3_bn", 0, 0, {}]]], "class_name": "Add", "config": {"dtype": "float32", "name": "conv3_block1_add", "trainable": true}, "name": "conv3_block1_add"}, {"inbound_nodes": [[["conv3_block1_add", 0, 0, {}]]], "class_name": "Activation", "config": {"dtype": "float32", "activation": "relu", "trainable": true, "name": "conv3_block1_out"}, "name": "conv3_block1_out"}, {"inbound_nodes": [[["conv3_block1_out", 0, 0, {}]]], "class_name": "Conv2D", "config": {"kernel_constraint": null, "filters": 128, "trainable": true, "kernel_regularizer": null, "data_format": "channels_last", "dtype": "float32", "bias_regularizer": null, "bias_constraint": null, "activity_regularizer": null, "padding": "valid", "bias_initializer": {"class_name": "Zeros", "config": {}}, "activation": "linear", "name": "conv3_block2_1_conv", "dilation_rate": [1, 1], "use_bias": true, "strides": [1, 1], "kernel_size": [1, 1], "kernel_initializer": {"class_name": "GlorotUniform", "config": {"seed": null}}}, "name": "conv3_block2_1_conv"}, {"inbound_nodes": [[["conv3_block2_1_conv", 0, 0, {}]]], "class_name": "BatchNormalization", "config": {"center": true, "beta_regularizer": null, "gamma_constraint": null, "beta_initializer": {"class_name": "Zeros", "config": {}}, "gamma_initializer": {"class_name": "Ones", "config": {}}, "trainable": true, "moving_variance_initializer": {"class_name": "Ones", "config": {}}, "dtype": "float32", "epsilon": 1.001e-05, "axis": [3], "name": "conv3_block2_1_bn", "momentum": 0.99, "gamma_regularizer": null, "scale": true, "beta_constraint": null, "moving_mean_initializer": {"class_name": "Zeros", "config": {}}}, "name": "conv3_block2_1_bn"}, {"inbound_nodes": [[["conv3_block2_1_bn", 0, 0, {}]]], "class_name": "Activation", "config": {"dtype": "float32", "activation": "relu", "trainable": true, "name": "conv3_block2_1_relu"}, "name": "conv3_block2_1_relu"}, {"inbound_nodes": [[["conv3_block2_1_relu", 0, 0, {}]]], "class_name": "Conv2D", "config": {"kernel_constraint": null, "filters": 128, "trainable": true, "kernel_regularizer": null, "data_format": "channels_last", "dtype": "float32", "bias_regularizer": null, "bias_constraint": null, "activity_regularizer": null, "padding": "same", "bias_initializer": {"class_name": "Zeros", "config": {}}, "activation": "linear", "name": "conv3_block2_2_conv", "dilation_rate": [1, 1], "use_bias": true, "strides": [1, 1], "kernel_size": [3, 3], "kernel_initializer": {"class_name": "GlorotUniform", "config": {"seed": null}}}, "name": "conv3_block2_2_conv"}, {"inbound_nodes": [[["conv3_block2_2_conv", 0, 0, {}]]], "class_name": "BatchNormalization", "config": {"center": true, "beta_regularizer": null, "gamma_constraint": null, "beta_initializer": {"class_name": "Zeros", "config": {}}, "gamma_initializer": {"class_name": "Ones", "config": {}}, "trainable": true, "moving_variance_initializer": {"class_name": "Ones", "config": {}}, "dtype": "float32", "epsilon": 1.001e-05, "axis": [3], "name": "conv3_block2_2_bn", "momentum": 0.99, "gamma_regularizer": null, "scale": true, "beta_constraint": null, "moving_mean_initializer": {"class_name": "Zeros", "config": {}}}, "name": "conv3_block2_2_bn"}, {"inbound_nodes": [[["conv3_block2_2_bn", 0, 0, {}]]], "class_name": "Activation", "config": {"dtype": "float32", "activation": "relu", "trainable": true, "name": "conv3_block2_2_relu"}, "name": "conv3_block2_2_relu"}, {"inbound_nodes": [[["conv3_block2_2_relu", 0, 0, {}]]], "class_name": "Conv2D", "config": {"kernel_constraint": null, "filters": 512, "trainable": true, "kernel_regularizer": null, "data_format": "channels_last", "dtype": "float32", "bias_regularizer": null, "bias_constraint": null, "activity_regularizer": null, "padding": "valid", "bias_initializer": {"class_name": "Zeros", "config": {}}, "activation": "linear", "name": "conv3_block2_3_conv", "dilation_rate": [1, 1], "use_bias": true, "strides": [1, 1], "kernel_size": [1, 1], "kernel_initializer": {"class_name": "GlorotUniform", "config": {"seed": null}}}, "name": "conv3_block2_3_conv"}, {"inbound_nodes": [[["conv3_block2_3_conv", 0, 0, {}]]], "class_name": "BatchNormalization", "config": {"center": true, "beta_regularizer": null, "gamma_constraint": null, "beta_initializer": {"class_name": "Zeros", "config": {}}, "gamma_initializer": {"class_name": "Ones", "config": {}}, "trainable": true, "moving_variance_initializer": {"class_name": "Ones", "config": {}}, "dtype": "float32", "epsilon": 1.001e-05, "axis": [3], "name": "conv3_block2_3_bn", "momentum": 0.99, "gamma_regularizer": null, "scale": true, "beta_constraint": null, "moving_mean_initializer": {"class_name": "Zeros", "config": {}}}, "name": "conv3_block2_3_bn"}, {"inbound_nodes": [[["conv3_block1_out", 0, 0, {}], ["conv3_block2_3_bn", 0, 0, {}]]], "class_name": "Add", "config": {"dtype": "float32", "name": "conv3_block2_add", "trainable": true}, "name": "conv3_block2_add"}, {"inbound_nodes": [[["conv3_block2_add", 0, 0, {}]]], "class_name": "Activation", "config": {"dtype": "float32", "activation": "relu", "trainable": true, "name": "conv3_block2_out"}, "name": "conv3_block2_out"}, {"inbound_nodes": [[["conv3_block2_out", 0, 0, {}]]], "class_name": "Conv2D", "config": {"kernel_constraint": null, "filters": 128, "trainable": true, "kernel_regularizer": null, "data_format": "channels_last", "dtype": "float32", "bias_regularizer": null, "bias_constraint": null, "activity_regularizer": null, "padding": "valid", "bias_initializer": {"class_name": "Zeros", "config": {}}, "activation": "linear", "name": "conv3_block3_1_conv", "dilation_rate": [1, 1], "use_bias": true, "strides": [1, 1], "kernel_size": [1, 1], "kernel_initializer": {"class_name": "GlorotUniform", "config": {"seed": null}}}, "name": "conv3_block3_1_conv"}, {"inbound_nodes": [[["conv3_block3_1_conv", 0, 0, {}]]], "class_name": "BatchNormalization", "config": {"center": true, "beta_regularizer": null, "gamma_constraint": null, "beta_initializer": {"class_name": "Zeros", "config": {}}, "gamma_initializer": {"class_name": "Ones", "config": {}}, "trainable": true, "moving_variance_initializer": {"class_name": "Ones", "config": {}}, "dtype": "float32", "epsilon": 1.001e-05, "axis": [3], "name": "conv3_block3_1_bn", "momentum": 0.99, "gamma_regularizer": null, "scale": true, "beta_constraint": null, "moving_mean_initializer": {"class_name": "Zeros", "config": {}}}, "name": "conv3_block3_1_bn"}, {"inbound_nodes": [[["conv3_block3_1_bn", 0, 0, {}]]], "class_name": "Activation", "config": {"dtype": "float32", "activation": "relu", "trainable": true, "name": "conv3_block3_1_relu"}, "name": "conv3_block3_1_relu"}, {"inbound_nodes": [[["conv3_block3_1_relu", 0, 0, {}]]], "class_name": "Conv2D", "config": {"kernel_constraint": null, "filters": 128, "trainable": true, "kernel_regularizer": null, "data_format": "channels_last", "dtype": "float32", "bias_regularizer": null, "bias_constraint": null, "activity_regularizer": null, "padding": "same", "bias_initializer": {"class_name": "Zeros", "config": {}}, "activation": "linear", "name": "conv3_block3_2_conv", "dilation_rate": [1, 1], "use_bias": true, "strides": [1, 1], "kernel_size": [3, 3], "kernel_initializer": {"class_name": "GlorotUniform", "config": {"seed": null}}}, "name": "conv3_block3_2_conv"}, {"inbound_nodes": [[["conv3_block3_2_conv", 0, 0, {}]]], "class_name": "BatchNormalization", "config": {"center": true, "beta_regularizer": null, "gamma_constraint": null, "beta_initializer": {"class_name": "Zeros", "config": {}}, "gamma_initializer": {"class_name": "Ones", "config": {}}, "trainable": true, "moving_variance_initializer": {"class_name": "Ones", "config": {}}, "dtype": "float32", "epsilon": 1.001e-05, "axis": [3], "name": "conv3_block3_2_bn", "momentum": 0.99, "gamma_regularizer": null, "scale": true, "beta_constraint": null, "moving_mean_initializer": {"class_name": "Zeros", "config": {}}}, "name": "conv3_block3_2_bn"}, {"inbound_nodes": [[["conv3_block3_2_bn", 0, 0, {}]]], "class_name": "Activation", "config": {"dtype": "float32", "activation": "relu", "trainable": true, "name": "conv3_block3_2_relu"}, "name": "conv3_block3_2_relu"}, {"inbound_nodes": [[["conv3_block3_2_relu", 0, 0, {}]]], "class_name": "Conv2D", "config": {"kernel_constraint": null, "filters": 512, "trainable": true, "kernel_regularizer": null, "data_format": "channels_last", "dtype": "float32", "bias_regularizer": null, "bias_constraint": null, "activity_regularizer": null, "padding": "valid", "bias_initializer": {"class_name": "Zeros", "config": {}}, "activation": "linear", "name": "conv3_block3_3_conv", "dilation_rate": [1, 1], "use_bias": true, "strides": [1, 1], "kernel_size": [1, 1], "kernel_initializer": {"class_name": "GlorotUniform", "config": {"seed": null}}}, "name": "conv3_block3_3_conv"}, {"inbound_nodes": [[["conv3_block3_3_conv", 0, 0, {}]]], "class_name": "BatchNormalization", "config": {"center": true, "beta_regularizer": null, "gamma_constraint": null, "beta_initializer": {"class_name": "Zeros", "config": {}}, "gamma_initializer": {"class_name": "Ones", "config": {}}, "trainable": true, "moving_variance_initializer": {"class_name": "Ones", "config": {}}, "dtype": "float32", "epsilon": 1.001e-05, "axis": [3], "name": "conv3_block3_3_bn", "momentum": 0.99, "gamma_regularizer": null, "scale": true, "beta_constraint": null, "moving_mean_initializer": {"class_name": "Zeros", "config": {}}}, "name": "conv3_block3_3_bn"}, {"inbound_nodes": [[["conv3_block2_out", 0, 0, {}], ["conv3_block3_3_bn", 0, 0, {}]]], "class_name": "Add", "config": {"dtype": "float32", "name": "conv3_block3_add", "trainable": true}, "name": "conv3_block3_add"}, {"inbound_nodes": [[["conv3_block3_add", 0, 0, {}]]], "class_name": "Activation", "config": {"dtype": "float32", "activation": "relu", "trainable": true, "name": "conv3_block3_out"}, "name": "conv3_block3_out"}, {"inbound_nodes": [[["conv3_block3_out", 0, 0, {}]]], "class_name": "Conv2D", "config": {"kernel_constraint": null, "filters": 128, "trainable": true, "kernel_regularizer": null, "data_format": "channels_last", "dtype": "float32", "bias_regularizer": null, "bias_constraint": null, "activity_regularizer": null, "padding": "valid", "bias_initializer": {"class_name": "Zeros", "config": {}}, "activation": "linear", "name": "conv3_block4_1_conv", "dilation_rate": [1, 1], "use_bias": true, "strides": [1, 1], "kernel_size": [1, 1], "kernel_initializer": {"class_name": "GlorotUniform", "config": {"seed": null}}}, "name": "conv3_block4_1_conv"}, {"inbound_nodes": [[["conv3_block4_1_conv", 0, 0, {}]]], "class_name": "BatchNormalization", "config": {"center": true, "beta_regularizer": null, "gamma_constraint": null, "beta_initializer": {"class_name": "Zeros", "config": {}}, "gamma_initializer": {"class_name": "Ones", "config": {}}, "trainable": true, "moving_variance_initializer": {"class_name": "Ones", "config": {}}, "dtype": "float32", "epsilon": 1.001e-05, "axis": [3], "name": "conv3_block4_1_bn", "momentum": 0.99, "gamma_regularizer": null, "scale": true, "beta_constraint": null, "moving_mean_initializer": {"class_name": "Zeros", "config": {}}}, "name": "conv3_block4_1_bn"}, {"inbound_nodes": [[["conv3_block4_1_bn", 0, 0, {}]]], "class_name": "Activation", "config": {"dtype": "float32", "activation": "relu", "trainable": true, "name": "conv3_block4_1_relu"}, "name": "conv3_block4_1_relu"}, {"inbound_nodes": [[["conv3_block4_1_relu", 0, 0, {}]]], "class_name": "Conv2D", "config": {"kernel_constraint": null, "filters": 128, "trainable": true, "kernel_regularizer": null, "data_format": "channels_last", "dtype": "float32", "bias_regularizer": null, "bias_constraint": null, "activity_regularizer": null, "padding": "same", "bias_initializer": {"class_name": "Zeros", "config": {}}, "activation": "linear", "name": "conv3_block4_2_conv", "dilation_rate": [1, 1], "use_bias": true, "strides": [1, 1], "kernel_size": [3, 3], "kernel_initializer": {"class_name": "GlorotUniform", "config": {"seed": null}}}, "name": "conv3_block4_2_conv"}, {"inbound_nodes": [[["conv3_block4_2_conv", 0, 0, {}]]], "class_name": "BatchNormalization", "config": {"center": true, "beta_regularizer": null, "gamma_constraint": null, "beta_initializer": {"class_name": "Zeros", "config": {}}, "gamma_initializer": {"class_name": "Ones", "config": {}}, "trainable": true, "moving_variance_initializer": {"class_name": "Ones", "config": {}}, "dtype": "float32", "epsilon": 1.001e-05, "axis": [3], "name": "conv3_block4_2_bn", "momentum": 0.99, "gamma_regularizer": null, "scale": true, "beta_constraint": null, "moving_mean_initializer": {"class_name": "Zeros", "config": {}}}, "name": "conv3_block4_2_bn"}, {"inbound_nodes": [[["conv3_block4_2_bn", 0, 0, {}]]], "class_name": "Activation", "config": {"dtype": "float32", "activation": "relu", "trainable": true, "name": "conv3_block4_2_relu"}, "name": "conv3_block4_2_relu"}, {"inbound_nodes": [[["conv3_block4_2_relu", 0, 0, {}]]], "class_name": "Conv2D", "config": {"kernel_constraint": null, "filters": 512, "trainable": true, "kernel_regularizer": null, "data_format": "channels_last", "dtype": "float32", "bias_regularizer": null, "bias_constraint": null, "activity_regularizer": null, "padding": "valid", "bias_initializer": {"class_name": "Zeros", "config": {}}, "activation": "linear", "name": "conv3_block4_3_conv", "dilation_rate": [1, 1], "use_bias": true, "strides": [1, 1], "kernel_size": [1, 1], "kernel_initializer": {"class_name": "GlorotUniform", "config": {"seed": null}}}, "name": "conv3_block4_3_conv"}, {"inbound_nodes": [[["conv3_block4_3_conv", 0, 0, {}]]], "class_name": "BatchNormalization", "config": {"center": true, "beta_regularizer": null, "gamma_constraint": null, "beta_initializer": {"class_name": "Zeros", "config": {}}, "gamma_initializer": {"class_name": "Ones", "config": {}}, "trainable": true, "moving_variance_initializer": {"class_name": "Ones", "config": {}}, "dtype": "float32", "epsilon": 1.001e-05, "axis": [3], "name": "conv3_block4_3_bn", "momentum": 0.99, "gamma_regularizer": null, "scale": true, "beta_constraint": null, "moving_mean_initializer": {"class_name": "Zeros", "config": {}}}, "name": "conv3_block4_3_bn"}, {"inbound_nodes": [[["conv3_block3_out", 0, 0, {}], ["conv3_block4_3_bn", 0, 0, {}]]], "class_name": "Add", "config": {"dtype": "float32", "name": "conv3_block4_add", "trainable": true}, "name": "conv3_block4_add"}, {"inbound_nodes": [[["conv3_block4_add", 0, 0, {}]]], "class_name": "Activation", "config": {"dtype": "float32", "activation": "relu", "trainable": true, "name": "conv3_block4_out"}, "name": "conv3_block4_out"}, {"inbound_nodes": [[["conv3_block4_out", 0, 0, {}]]], "class_name": "Conv2D", "config": {"kernel_constraint": null, "filters": 256, "trainable": true, "kernel_regularizer": null, "data_format": "channels_last", "dtype": "float32", "bias_regularizer": null, "bias_constraint": null, "activity_regularizer": null, "padding": "valid", "bias_initializer": {"class_name": "Zeros", "config": {}}, "activation": "linear", "name": "conv4_block1_1_conv", "dilation_rate": [1, 1], "use_bias": true, "strides": [2, 2], "kernel_size": [1, 1], "kernel_initializer": {"class_name": "GlorotUniform", "config": {"seed": null}}}, "name": "conv4_block1_1_conv"}, {"inbound_nodes": [[["conv4_block1_1_conv", 0, 0, {}]]], "class_name": "BatchNormalization", "config": {"center": true, "beta_regularizer": null, "gamma_constraint": null, "beta_initializer": {"class_name": "Zeros", "config": {}}, "gamma_initializer": {"class_name": "Ones", "config": {}}, "trainable": true, "moving_variance_initializer": {"class_name": "Ones", "config": {}}, "dtype": "float32", "epsilon": 1.001e-05, "axis": [3], "name": "conv4_block1_1_bn", "momentum": 0.99, "gamma_regularizer": null, "scale": true, "beta_constraint": null, "moving_mean_initializer": {"class_name": "Zeros", "config": {}}}, "name": "conv4_block1_1_bn"}, {"inbound_nodes": [[["conv4_block1_1_bn", 0, 0, {}]]], "class_name": "Activation", "config": {"dtype": "float32", "activation": "relu", "trainable": true, "name": "conv4_block1_1_relu"}, "name": "conv4_block1_1_relu"}, {"inbound_nodes": [[["conv4_block1_1_relu", 0, 0, {}]]], "class_name": "Conv2D", "config": {"kernel_constraint": null, "filters": 256, "trainable": true, "kernel_regularizer": null, "data_format": "channels_last", "dtype": "float32", "bias_regularizer": null, "bias_constraint": null, "activity_regularizer": null, "padding": "same", "bias_initializer": {"class_name": "Zeros", "config": {}}, "activation": "linear", "name": "conv4_block1_2_conv", "dilation_rate": [1, 1], "use_bias": true, "strides": [1, 1], "kernel_size": [3, 3], "kernel_initializer": {"class_name": "GlorotUniform", "config": {"seed": null}}}, "name": "conv4_block1_2_conv"}, {"inbound_nodes": [[["conv4_block1_2_conv", 0, 0, {}]]], "class_name": "BatchNormalization", "config": {"center": true, "beta_regularizer": null, "gamma_constraint": null, "beta_initializer": {"class_name": "Zeros", "config": {}}, "gamma_initializer": {"class_name": "Ones", "config": {}}, "trainable": true, "moving_variance_initializer": {"class_name": "Ones", "config": {}}, "dtype": "float32", "epsilon": 1.001e-05, "axis": [3], "name": "conv4_block1_2_bn", "momentum": 0.99, "gamma_regularizer": null, "scale": true, "beta_constraint": null, "moving_mean_initializer": {"class_name": "Zeros", "config": {}}}, "name": "conv4_block1_2_bn"}, {"inbound_nodes": [[["conv4_block1_2_bn", 0, 0, {}]]], "class_name": "Activation", "config": {"dtype": "float32", "activation": "relu", "trainable": true, "name": "conv4_block1_2_relu"}, "name": "conv4_block1_2_relu"}, {"inbound_nodes": [[["conv3_block4_out", 0, 0, {}]]], "class_name": "Conv2D", "config": {"kernel_constraint": null, "filters": 1024, "trainable": true, "kernel_regularizer": null, "data_format": "channels_last", "dtype": "float32", "bias_regularizer": null, "bias_constraint": null, "activity_regularizer": null, "padding": "valid", "bias_initializer": {"class_name": "Zeros", "config": {}}, "activation": "linear", "name": "conv4_block1_0_conv", "dilation_rate": [1, 1], "use_bias": true, "strides": [2, 2], "kernel_size": [1, 1], "kernel_initializer": {"class_name": "GlorotUniform", "config": {"seed": null}}}, "name": "conv4_block1_0_conv"}, {"inbound_nodes": [[["conv4_block1_2_relu", 0, 0, {}]]], "class_name": "Conv2D", "config": {"kernel_constraint": null, "filters": 1024, "trainable": true, "kernel_regularizer": null, "data_format": "channels_last", "dtype": "float32", "bias_regularizer": null, "bias_constraint": null, "activity_regularizer": null, "padding": "valid", "bias_initializer": {"class_name": "Zeros", "config": {}}, "activation": "linear", "name": "conv4_block1_3_conv", "dilation_rate": [1, 1], "use_bias": true, "strides": [1, 1], "kernel_size": [1, 1], "kernel_initializer": {"class_name": "GlorotUniform", "config": {"seed": null}}}, "name": "conv4_block1_3_conv"}, {"inbound_nodes": [[["conv4_block1_0_conv", 0, 0, {}]]], "class_name": "BatchNormalization", "config": {"center": true, "beta_regularizer": null, "gamma_constraint": null, "beta_initializer": {"class_name": "Zeros", "config": {}}, "gamma_initializer": {"class_name": "Ones", "config": {}}, "trainable": true, "moving_variance_initializer": {"class_name": "Ones", "config": {}}, "dtype": "float32", "epsilon": 1.001e-05, "axis": [3], "name": "conv4_block1_0_bn", "momentum": 0.99, "gamma_regularizer": null, "scale": true, "beta_constraint": null, "moving_mean_initializer": {"class_name": "Zeros", "config": {}}}, "name": "conv4_block1_0_bn"}, {"inbound_nodes": [[["conv4_block1_3_conv", 0, 0, {}]]], "class_name": "BatchNormalization", "config": {"center": true, "beta_regularizer": null, "gamma_constraint": null, "beta_initializer": {"class_name": "Zeros", "config": {}}, "gamma_initializer": {"class_name": "Ones", "config": {}}, "trainable": true, "moving_variance_initializer": {"class_name": "Ones", "config": {}}, "dtype": "float32", "epsilon": 1.001e-05, "axis": [3], "name": "conv4_block1_3_bn", "momentum": 0.99, "gamma_regularizer": null, "scale": true, "beta_constraint": null, "moving_mean_initializer": {"class_name": "Zeros", "config": {}}}, "name": "conv4_block1_3_bn"}, {"inbound_nodes": [[["conv4_block1_0_bn", 0, 0, {}], ["conv4_block1_3_bn", 0, 0, {}]]], "class_name": "Add", "config": {"dtype": "float32", "name": "conv4_block1_add", "trainable": true}, "name": "conv4_block1_add"}, {"inbound_nodes": [[["conv4_block1_add", 0, 0, {}]]], "class_name": "Activation", "config": {"dtype": "float32", "activation": "relu", "trainable": true, "name": "conv4_block1_out"}, "name": "conv4_block1_out"}, {"inbound_nodes": [[["conv4_block1_out", 0, 0, {}]]], "class_name": "Conv2D", "config": {"kernel_constraint": null, "filters": 256, "trainable": true, "kernel_regularizer": null, "data_format": "channels_last", "dtype": "float32", "bias_regularizer": null, "bias_constraint": null, "activity_regularizer": null, "padding": "valid", "bias_initializer": {"class_name": "Zeros", "config": {}}, "activation": "linear", "name": "conv4_block2_1_conv", "dilation_rate": [1, 1], "use_bias": true, "strides": [1, 1], "kernel_size": [1, 1], "kernel_initializer": {"class_name": "GlorotUniform", "config": {"seed": null}}}, "name": "conv4_block2_1_conv"}, {"inbound_nodes": [[["conv4_block2_1_conv", 0, 0, {}]]], "class_name": "BatchNormalization", "config": {"center": true, "beta_regularizer": null, "gamma_constraint": null, "beta_initializer": {"class_name": "Zeros", "config": {}}, "gamma_initializer": {"class_name": "Ones", "config": {}}, "trainable": true, "moving_variance_initializer": {"class_name": "Ones", "config": {}}, "dtype": "float32", "epsilon": 1.001e-05, "axis": [3], "name": "conv4_block2_1_bn", "momentum": 0.99, "gamma_regularizer": null, "scale": true, "beta_constraint": null, "moving_mean_initializer": {"class_name": "Zeros", "config": {}}}, "name": "conv4_block2_1_bn"}, {"inbound_nodes": [[["conv4_block2_1_bn", 0, 0, {}]]], "class_name": "Activation", "config": {"dtype": "float32", "activation": "relu", "trainable": true, "name": "conv4_block2_1_relu"}, "name": "conv4_block2_1_relu"}, {"inbound_nodes": [[["conv4_block2_1_relu", 0, 0, {}]]], "class_name": "Conv2D", "config": {"kernel_constraint": null, "filters": 256, "trainable": true, "kernel_regularizer": null, "data_format": "channels_last", "dtype": "float32", "bias_regularizer": null, "bias_constraint": null, "activity_regularizer": null, "padding": "same", "bias_initializer": {"class_name": "Zeros", "config": {}}, "activation": "linear", "name": "conv4_block2_2_conv", "dilation_rate": [1, 1], "use_bias": true, "strides": [1, 1], "kernel_size": [3, 3], "kernel_initializer": {"class_name": "GlorotUniform", "config": {"seed": null}}}, "name": "conv4_block2_2_conv"}, {"inbound_nodes": [[["conv4_block2_2_conv", 0, 0, {}]]], "class_name": "BatchNormalization", "config": {"center": true, "beta_regularizer": null, "gamma_constraint": null, "beta_initializer": {"class_name": "Zeros", "config": {}}, "gamma_initializer": {"class_name": "Ones", "config": {}}, "trainable": true, "moving_variance_initializer": {"class_name": "Ones", "config": {}}, "dtype": "float32", "epsilon": 1.001e-05, "axis": [3], "name": "conv4_block2_2_bn", "momentum": 0.99, "gamma_regularizer": null, "scale": true, "beta_constraint": null, "moving_mean_initializer": {"class_name": "Zeros", "config": {}}}, "name": "conv4_block2_2_bn"}, {"inbound_nodes": [[["conv4_block2_2_bn", 0, 0, {}]]], "class_name": "Activation", "config": {"dtype": "float32", "activation": "relu", "trainable": true, "name": "conv4_block2_2_relu"}, "name": "conv4_block2_2_relu"}, {"inbound_nodes": [[["conv4_block2_2_relu", 0, 0, {}]]], "class_name": "Conv2D", "config": {"kernel_constraint": null, "filters": 1024, "trainable": true, "kernel_regularizer": null, "data_format": "channels_last", "dtype": "float32", "bias_regularizer": null, "bias_constraint": null, "activity_regularizer": null, "padding": "valid", "bias_initializer": {"class_name": "Zeros", "config": {}}, "activation": "linear", "name": "conv4_block2_3_conv", "dilation_rate": [1, 1], "use_bias": true, "strides": [1, 1], "kernel_size": [1, 1], "kernel_initializer": {"class_name": "GlorotUniform", "config": {"seed": null}}}, "name": "conv4_block2_3_conv"}, {"inbound_nodes": [[["conv4_block2_3_conv", 0, 0, {}]]], "class_name": "BatchNormalization", "config": {"center": true, "beta_regularizer": null, "gamma_constraint": null, "beta_initializer": {"class_name": "Zeros", "config": {}}, "gamma_initializer": {"class_name": "Ones", "config": {}}, "trainable": true, "moving_variance_initializer": {"class_name": "Ones", "config": {}}, "dtype": "float32", "epsilon": 1.001e-05, "axis": [3], "name": "conv4_block2_3_bn", "momentum": 0.99, "gamma_regularizer": null, "scale": true, "beta_constraint": null, "moving_mean_initializer": {"class_name": "Zeros", "config": {}}}, "name": "conv4_block2_3_bn"}, {"inbound_nodes": [[["conv4_block1_out", 0, 0, {}], ["conv4_block2_3_bn", 0, 0, {}]]], "class_name": "Add", "config": {"dtype": "float32", "name": "conv4_block2_add", "trainable": true}, "name": "conv4_block2_add"}, {"inbound_nodes": [[["conv4_block2_add", 0, 0, {}]]], "class_name": "Activation", "config": {"dtype": "float32", "activation": "relu", "trainable": true, "name": "conv4_block2_out"}, "name": "conv4_block2_out"}, {"inbound_nodes": [[["conv4_block2_out", 0, 0, {}]]], "class_name": "Conv2D", "config": {"kernel_constraint": null, "filters": 256, "trainable": true, "kernel_regularizer": null, "data_format": "channels_last", "dtype": "float32", "bias_regularizer": null, "bias_constraint": null, "activity_regularizer": null, "padding": "valid", "bias_initializer": {"class_name": "Zeros", "config": {}}, "activation": "linear", "name": "conv4_block3_1_conv", "dilation_rate": [1, 1], "use_bias": true, "strides": [1, 1], "kernel_size": [1, 1], "kernel_initializer": {"class_name": "GlorotUniform", "config": {"seed": null}}}, "name": "conv4_block3_1_conv"}, {"inbound_nodes": [[["conv4_block3_1_conv", 0, 0, {}]]], "class_name": "BatchNormalization", "config": {"center": true, "beta_regularizer": null, "gamma_constraint": null, "beta_initializer": {"class_name": "Zeros", "config": {}}, "gamma_initializer": {"class_name": "Ones", "config": {}}, "trainable": true, "moving_variance_initializer": {"class_name": "Ones", "config": {}}, "dtype": "float32", "epsilon": 1.001e-05, "axis": [3], "name": "conv4_block3_1_bn", "momentum": 0.99, "gamma_regularizer": null, "scale": true, "beta_constraint": null, "moving_mean_initializer": {"class_name": "Zeros", "config": {}}}, "name": "conv4_block3_1_bn"}, {"inbound_nodes": [[["conv4_block3_1_bn", 0, 0, {}]]], "class_name": "Activation", "config": {"dtype": "float32", "activation": "relu", "trainable": true, "name": "conv4_block3_1_relu"}, "name": "conv4_block3_1_relu"}, {"inbound_nodes": [[["conv4_block3_1_relu", 0, 0, {}]]], "class_name": "Conv2D", "config": {"kernel_constraint": null, "filters": 256, "trainable": true, "kernel_regularizer": null, "data_format": "channels_last", "dtype": "float32", "bias_regularizer": null, "bias_constraint": null, "activity_regularizer": null, "padding": "same", "bias_initializer": {"class_name": "Zeros", "config": {}}, "activation": "linear", "name": "conv4_block3_2_conv", "dilation_rate": [1, 1], "use_bias": true, "strides": [1, 1], "kernel_size": [3, 3], "kernel_initializer": {"class_name": "GlorotUniform", "config": {"seed": null}}}, "name": "conv4_block3_2_conv"}, {"inbound_nodes": [[["conv4_block3_2_conv", 0, 0, {}]]], "class_name": "BatchNormalization", "config": {"center": true, "beta_regularizer": null, "gamma_constraint": null, "beta_initializer": {"class_name": "Zeros", "config": {}}, "gamma_initializer": {"class_name": "Ones", "config": {}}, "trainable": true, "moving_variance_initializer": {"class_name": "Ones", "config": {}}, "dtype": "float32", "epsilon": 1.001e-05, "axis": [3], "name": "conv4_block3_2_bn", "momentum": 0.99, "gamma_regularizer": null, "scale": true, "beta_constraint": null, "moving_mean_initializer": {"class_name": "Zeros", "config": {}}}, "name": "conv4_block3_2_bn"}, {"inbound_nodes": [[["conv4_block3_2_bn", 0, 0, {}]]], "class_name": "Activation", "config": {"dtype": "float32", "activation": "relu", "trainable": true, "name": "conv4_block3_2_relu"}, "name": "conv4_block3_2_relu"}, {"inbound_nodes": [[["conv4_block3_2_relu", 0, 0, {}]]], "class_name": "Conv2D", "config": {"kernel_constraint": null, "filters": 1024, "trainable": true, "kernel_regularizer": null, "data_format": "channels_last", "dtype": "float32", "bias_regularizer": null, "bias_constraint": null, "activity_regularizer": null, "padding": "valid", "bias_initializer": {"class_name": "Zeros", "config": {}}, "activation": "linear", "name": "conv4_block3_3_conv", "dilation_rate": [1, 1], "use_bias": true, "strides": [1, 1], "kernel_size": [1, 1], "kernel_initializer": {"class_name": "GlorotUniform", "config": {"seed": null}}}, "name": "conv4_block3_3_conv"}, {"inbound_nodes": [[["conv4_block3_3_conv", 0, 0, {}]]], "class_name": "BatchNormalization", "config": {"center": true, "beta_regularizer": null, "gamma_constraint": null, "beta_initializer": {"class_name": "Zeros", "config": {}}, "gamma_initializer": {"class_name": "Ones", "config": {}}, "trainable": true, "moving_variance_initializer": {"class_name": "Ones", "config": {}}, "dtype": "float32", "epsilon": 1.001e-05, "axis": [3], "name": "conv4_block3_3_bn", "momentum": 0.99, "gamma_regularizer": null, "scale": true, "beta_constraint": null, "moving_mean_initializer": {"class_name": "Zeros", "config": {}}}, "name": "conv4_block3_3_bn"}, {"inbound_nodes": [[["conv4_block2_out", 0, 0, {}], ["conv4_block3_3_bn", 0, 0, {}]]], "class_name": "Add", "config": {"dtype": "float32", "name": "conv4_block3_add", "trainable": true}, "name": "conv4_block3_add"}, {"inbound_nodes": [[["conv4_block3_add", 0, 0, {}]]], "class_name": "Activation", "config": {"dtype": "float32", "activation": "relu", "trainable": true, "name": "conv4_block3_out"}, "name": "conv4_block3_out"}, {"inbound_nodes": [[["conv4_block3_out", 0, 0, {}]]], "class_name": "Conv2D", "config": {"kernel_constraint": null, "filters": 256, "trainable": true, "kernel_regularizer": null, "data_format": "channels_last", "dtype": "float32", "bias_regularizer": null, "bias_constraint": null, "activity_regularizer": null, "padding": "valid", "bias_initializer": {"class_name": "Zeros", "config": {}}, "activation": "linear", "name": "conv4_block4_1_conv", "dilation_rate": [1, 1], "use_bias": true, "strides": [1, 1], "kernel_size": [1, 1], "kernel_initializer": {"class_name": "GlorotUniform", "config": {"seed": null}}}, "name": "conv4_block4_1_conv"}, {"inbound_nodes": [[["conv4_block4_1_conv", 0, 0, {}]]], "class_name": "BatchNormalization", "config": {"center": true, "beta_regularizer": null, "gamma_constraint": null, "beta_initializer": {"class_name": "Zeros", "config": {}}, "gamma_initializer": {"class_name": "Ones", "config": {}}, "trainable": true, "moving_variance_initializer": {"class_name": "Ones", "config": {}}, "dtype": "float32", "epsilon": 1.001e-05, "axis": [3], "name": "conv4_block4_1_bn", "momentum": 0.99, "gamma_regularizer": null, "scale": true, "beta_constraint": null, "moving_mean_initializer": {"class_name": "Zeros", "config": {}}}, "name": "conv4_block4_1_bn"}, {"inbound_nodes": [[["conv4_block4_1_bn", 0, 0, {}]]], "class_name": "Activation", "config": {"dtype": "float32", "activation": "relu", "trainable": true, "name": "conv4_block4_1_relu"}, "name": "conv4_block4_1_relu"}, {"inbound_nodes": [[["conv4_block4_1_relu", 0, 0, {}]]], "class_name": "Conv2D", "config": {"kernel_constraint": null, "filters": 256, "trainable": true, "kernel_regularizer": null, "data_format": "channels_last", "dtype": "float32", "bias_regularizer": null, "bias_constraint": null, "activity_regularizer": null, "padding": "same", "bias_initializer": {"class_name": "Zeros", "config": {}}, "activation": "linear", "name": "conv4_block4_2_conv", "dilation_rate": [1, 1], "use_bias": true, "strides": [1, 1], "kernel_size": [3, 3], "kernel_initializer": {"class_name": "GlorotUniform", "config": {"seed": null}}}, "name": "conv4_block4_2_conv"}, {"inbound_nodes": [[["conv4_block4_2_conv", 0, 0, {}]]], "class_name": "BatchNormalization", "config": {"center": true, "beta_regularizer": null, "gamma_constraint": null, "beta_initializer": {"class_name": "Zeros", "config": {}}, "gamma_initializer": {"class_name": "Ones", "config": {}}, "trainable": true, "moving_variance_initializer": {"class_name": "Ones", "config": {}}, "dtype": "float32", "epsilon": 1.001e-05, "axis": [3], "name": "conv4_block4_2_bn", "momentum": 0.99, "gamma_regularizer": null, "scale": true, "beta_constraint": null, "moving_mean_initializer": {"class_name": "Zeros", "config": {}}}, "name": "conv4_block4_2_bn"}, {"inbound_nodes": [[["conv4_block4_2_bn", 0, 0, {}]]], "class_name": "Activation", "config": {"dtype": "float32", "activation": "relu", "trainable": true, "name": "conv4_block4_2_relu"}, "name": "conv4_block4_2_relu"}, {"inbound_nodes": [[["conv4_block4_2_relu", 0, 0, {}]]], "class_name": "Conv2D", "config": {"kernel_constraint": null, "filters": 1024, "trainable": true, "kernel_regularizer": null, "data_format": "channels_last", "dtype": "float32", "bias_regularizer": null, "bias_constraint": null, "activity_regularizer": null, "padding": "valid", "bias_initializer": {"class_name": "Zeros", "config": {}}, "activation": "linear", "name": "conv4_block4_3_conv", "dilation_rate": [1, 1], "use_bias": true, "strides": [1, 1], "kernel_size": [1, 1], "kernel_initializer": {"class_name": "GlorotUniform", "config": {"seed": null}}}, "name": "conv4_block4_3_conv"}, {"inbound_nodes": [[["conv4_block4_3_conv", 0, 0, {}]]], "class_name": "BatchNormalization", "config": {"center": true, "beta_regularizer": null, "gamma_constraint": null, "beta_initializer": {"class_name": "Zeros", "config": {}}, "gamma_initializer": {"class_name": "Ones", "config": {}}, "trainable": true, "moving_variance_initializer": {"class_name": "Ones", "config": {}}, "dtype": "float32", "epsilon": 1.001e-05, "axis": [3], "name": "conv4_block4_3_bn", "momentum": 0.99, "gamma_regularizer": null, "scale": true, "beta_constraint": null, "moving_mean_initializer": {"class_name": "Zeros", "config": {}}}, "name": "conv4_block4_3_bn"}, {"inbound_nodes": [[["conv4_block3_out", 0, 0, {}], ["conv4_block4_3_bn", 0, 0, {}]]], "class_name": "Add", "config": {"dtype": "float32", "name": "conv4_block4_add", "trainable": true}, "name": "conv4_block4_add"}, {"inbound_nodes": [[["conv4_block4_add", 0, 0, {}]]], "class_name": "Activation", "config": {"dtype": "float32", "activation": "relu", "trainable": true, "name": "conv4_block4_out"}, "name": "conv4_block4_out"}, {"inbound_nodes": [[["conv4_block4_out", 0, 0, {}]]], "class_name": "Conv2D", "config": {"kernel_constraint": null, "filters": 256, "trainable": true, "kernel_regularizer": null, "data_format": "channels_last", "dtype": "float32", "bias_regularizer": null, "bias_constraint": null, "activity_regularizer": null, "padding": "valid", "bias_initializer": {"class_name": "Zeros", "config": {}}, "activation": "linear", "name": "conv4_block5_1_conv", "dilation_rate": [1, 1], "use_bias": true, "strides": [1, 1], "kernel_size": [1, 1], "kernel_initializer": {"class_name": "GlorotUniform", "config": {"seed": null}}}, "name": "conv4_block5_1_conv"}, {"inbound_nodes": [[["conv4_block5_1_conv", 0, 0, {}]]], "class_name": "BatchNormalization", "config": {"center": true, "beta_regularizer": null, "gamma_constraint": null, "beta_initializer": {"class_name": "Zeros", "config": {}}, "gamma_initializer": {"class_name": "Ones", "config": {}}, "trainable": true, "moving_variance_initializer": {"class_name": "Ones", "config": {}}, "dtype": "float32", "epsilon": 1.001e-05, "axis": [3], "name": "conv4_block5_1_bn", "momentum": 0.99, "gamma_regularizer": null, "scale": true, "beta_constraint": null, "moving_mean_initializer": {"class_name": "Zeros", "config": {}}}, "name": "conv4_block5_1_bn"}, {"inbound_nodes": [[["conv4_block5_1_bn", 0, 0, {}]]], "class_name": "Activation", "config": {"dtype": "float32", "activation": "relu", "trainable": true, "name": "conv4_block5_1_relu"}, "name": "conv4_block5_1_relu"}, {"inbound_nodes": [[["conv4_block5_1_relu", 0, 0, {}]]], "class_name": "Conv2D", "config": {"kernel_constraint": null, "filters": 256, "trainable": true, "kernel_regularizer": null, "data_format": "channels_last", "dtype": "float32", "bias_regularizer": null, "bias_constraint": null, "activity_regularizer": null, "padding": "same", "bias_initializer": {"class_name": "Zeros", "config": {}}, "activation": "linear", "name": "conv4_block5_2_conv", "dilation_rate": [1, 1], "use_bias": true, "strides": [1, 1], "kernel_size": [3, 3], "kernel_initializer": {"class_name": "GlorotUniform", "config": {"seed": null}}}, "name": "conv4_block5_2_conv"}, {"inbound_nodes": [[["conv4_block5_2_conv", 0, 0, {}]]], "class_name": "BatchNormalization", "config": {"center": true, "beta_regularizer": null, "gamma_constraint": null, "beta_initializer": {"class_name": "Zeros", "config": {}}, "gamma_initializer": {"class_name": "Ones", "config": {}}, "trainable": true, "moving_variance_initializer": {"class_name": "Ones", "config": {}}, "dtype": "float32", "epsilon": 1.001e-05, "axis": [3], "name": "conv4_block5_2_bn", "momentum": 0.99, "gamma_regularizer": null, "scale": true, "beta_constraint": null, "moving_mean_initializer": {"class_name": "Zeros", "config": {}}}, "name": "conv4_block5_2_bn"}, {"inbound_nodes": [[["conv4_block5_2_bn", 0, 0, {}]]], "class_name": "Activation", "config": {"dtype": "float32", "activation": "relu", "trainable": true, "name": "conv4_block5_2_relu"}, "name": "conv4_block5_2_relu"}, {"inbound_nodes": [[["conv4_block5_2_relu", 0, 0, {}]]], "class_name": "Conv2D", "config": {"kernel_constraint": null, "filters": 1024, "trainable": true, "kernel_regularizer": null, "data_format": "channels_last", "dtype": "float32", "bias_regularizer": null, "bias_constraint": null, "activity_regularizer": null, "padding": "valid", "bias_initializer": {"class_name": "Zeros", "config": {}}, "activation": "linear", "name": "conv4_block5_3_conv", "dilation_rate": [1, 1], "use_bias": true, "strides": [1, 1], "kernel_size": [1, 1], "kernel_initializer": {"class_name": "GlorotUniform", "config": {"seed": null}}}, "name": "conv4_block5_3_conv"}, {"inbound_nodes": [[["conv4_block5_3_conv", 0, 0, {}]]], "class_name": "BatchNormalization", "config": {"center": true, "beta_regularizer": null, "gamma_constraint": null, "beta_initializer": {"class_name": "Zeros", "config": {}}, "gamma_initializer": {"class_name": "Ones", "config": {}}, "trainable": true, "moving_variance_initializer": {"class_name": "Ones", "config": {}}, "dtype": "float32", "epsilon": 1.001e-05, "axis": [3], "name": "conv4_block5_3_bn", "momentum": 0.99, "gamma_regularizer": null, "scale": true, "beta_constraint": null, "moving_mean_initializer": {"class_name": "Zeros", "config": {}}}, "name": "conv4_block5_3_bn"}, {"inbound_nodes": [[["conv4_block4_out", 0, 0, {}], ["conv4_block5_3_bn", 0, 0, {}]]], "class_name": "Add", "config": {"dtype": "float32", "name": "conv4_block5_add", "trainable": true}, "name": "conv4_block5_add"}, {"inbound_nodes": [[["conv4_block5_add", 0, 0, {}]]], "class_name": "Activation", "config": {"dtype": "float32", "activation": "relu", "trainable": true, "name": "conv4_block5_out"}, "name": "conv4_block5_out"}, {"inbound_nodes": [[["conv4_block5_out", 0, 0, {}]]], "class_name": "Conv2D", "config": {"kernel_constraint": null, "filters": 256, "trainable": true, "kernel_regularizer": null, "data_format": "channels_last", "dtype": "float32", "bias_regularizer": null, "bias_constraint": null, "activity_regularizer": null, "padding": "valid", "bias_initializer": {"class_name": "Zeros", "config": {}}, "activation": "linear", "name": "conv4_block6_1_conv", "dilation_rate": [1, 1], "use_bias": true, "strides": [1, 1], "kernel_size": [1, 1], "kernel_initializer": {"class_name": "GlorotUniform", "config": {"seed": null}}}, "name": "conv4_block6_1_conv"}, {"inbound_nodes": [[["conv4_block6_1_conv", 0, 0, {}]]], "class_name": "BatchNormalization", "config": {"center": true, "beta_regularizer": null, "gamma_constraint": null, "beta_initializer": {"class_name": "Zeros", "config": {}}, "gamma_initializer": {"class_name": "Ones", "config": {}}, "trainable": true, "moving_variance_initializer": {"class_name": "Ones", "config": {}}, "dtype": "float32", "epsilon": 1.001e-05, "axis": [3], "name": "conv4_block6_1_bn", "momentum": 0.99, "gamma_regularizer": null, "scale": true, "beta_constraint": null, "moving_mean_initializer": {"class_name": "Zeros", "config": {}}}, "name": "conv4_block6_1_bn"}, {"inbound_nodes": [[["conv4_block6_1_bn", 0, 0, {}]]], "class_name": "Activation", "config": {"dtype": "float32", "activation": "relu", "trainable": true, "name": "conv4_block6_1_relu"}, "name": "conv4_block6_1_relu"}, {"inbound_nodes": [[["conv4_block6_1_relu", 0, 0, {}]]], "class_name": "Conv2D", "config": {"kernel_constraint": null, "filters": 256, "trainable": true, "kernel_regularizer": null, "data_format": "channels_last", "dtype": "float32", "bias_regularizer": null, "bias_constraint": null, "activity_regularizer": null, "padding": "same", "bias_initializer": {"class_name": "Zeros", "config": {}}, "activation": "linear", "name": "conv4_block6_2_conv", "dilation_rate": [1, 1], "use_bias": true, "strides": [1, 1], "kernel_size": [3, 3], "kernel_initializer": {"class_name": "GlorotUniform", "config": {"seed": null}}}, "name": "conv4_block6_2_conv"}, {"inbound_nodes": [[["conv4_block6_2_conv", 0, 0, {}]]], "class_name": "BatchNormalization", "config": {"center": true, "beta_regularizer": null, "gamma_constraint": null, "beta_initializer": {"class_name": "Zeros", "config": {}}, "gamma_initializer": {"class_name": "Ones", "config": {}}, "trainable": true, "moving_variance_initializer": {"class_name": "Ones", "config": {}}, "dtype": "float32", "epsilon": 1.001e-05, "axis": [3], "name": "conv4_block6_2_bn", "momentum": 0.99, "gamma_regularizer": null, "scale": true, "beta_constraint": null, "moving_mean_initializer": {"class_name": "Zeros", "config": {}}}, "name": "conv4_block6_2_bn"}, {"inbound_nodes": [[["conv4_block6_2_bn", 0, 0, {}]]], "class_name": "Activation", "config": {"dtype": "float32", "activation": "relu", "trainable": true, "name": "conv4_block6_2_relu"}, "name": "conv4_block6_2_relu"}, {"inbound_nodes": [[["conv4_block6_2_relu", 0, 0, {}]]], "class_name": "Conv2D", "config": {"kernel_constraint": null, "filters": 1024, "trainable": true, "kernel_regularizer": null, "data_format": "channels_last", "dtype": "float32", "bias_regularizer": null, "bias_constraint": null, "activity_regularizer": null, "padding": "valid", "bias_initializer": {"class_name": "Zeros", "config": {}}, "activation": "linear", "name": "conv4_block6_3_conv", "dilation_rate": [1, 1], "use_bias": true, "strides": [1, 1], "kernel_size": [1, 1], "kernel_initializer": {"class_name": "GlorotUniform", "config": {"seed": null}}}, "name": "conv4_block6_3_conv"}, {"inbound_nodes": [[["conv4_block6_3_conv", 0, 0, {}]]], "class_name": "BatchNormalization", "config": {"center": true, "beta_regularizer": null, "gamma_constraint": null, "beta_initializer": {"class_name": "Zeros", "config": {}}, "gamma_initializer": {"class_name": "Ones", "config": {}}, "trainable": true, "moving_variance_initializer": {"class_name": "Ones", "config": {}}, "dtype": "float32", "epsilon": 1.001e-05, "axis": [3], "name": "conv4_block6_3_bn", "momentum": 0.99, "gamma_regularizer": null, "scale": true, "beta_constraint": null, "moving_mean_initializer": {"class_name": "Zeros", "config": {}}}, "name": "conv4_block6_3_bn"}, {"inbound_nodes": [[["conv4_block5_out", 0, 0, {}], ["conv4_block6_3_bn", 0, 0, {}]]], "class_name": "Add", "config": {"dtype": "float32", "name": "conv4_block6_add", "trainable": true}, "name": "conv4_block6_add"}, {"inbound_nodes": [[["conv4_block6_add", 0, 0, {}]]], "class_name": "Activation", "config": {"dtype": "float32", "activation": "relu", "trainable": true, "name": "conv4_block6_out"}, "name": "conv4_block6_out"}, {"inbound_nodes": [[["conv4_block6_out", 0, 0, {}]]], "class_name": "Conv2D", "config": {"kernel_constraint": null, "filters": 512, "trainable": true, "kernel_regularizer": null, "data_format": "channels_last", "dtype": "float32", "bias_regularizer": null, "bias_constraint": null, "activity_regularizer": null, "padding": "valid", "bias_initializer": {"class_name": "Zeros", "config": {}}, "activation": "linear", "name": "conv5_block1_1_conv", "dilation_rate": [1, 1], "use_bias": true, "strides": [2, 2], "kernel_size": [1, 1], "kernel_initializer": {"class_name": "GlorotUniform", "config": {"seed": null}}}, "name": "conv5_block1_1_conv"}, {"inbound_nodes": [[["conv5_block1_1_conv", 0, 0, {}]]], "class_name": "BatchNormalization", "config": {"center": true, "beta_regularizer": null, "gamma_constraint": null, "beta_initializer": {"class_name": "Zeros", "config": {}}, "gamma_initializer": {"class_name": "Ones", "config": {}}, "trainable": true, "moving_variance_initializer": {"class_name": "Ones", "config": {}}, "dtype": "float32", "epsilon": 1.001e-05, "axis": [3], "name": "conv5_block1_1_bn", "momentum": 0.99, "gamma_regularizer": null, "scale": true, "beta_constraint": null, "moving_mean_initializer": {"class_name": "Zeros", "config": {}}}, "name": "conv5_block1_1_bn"}, {"inbound_nodes": [[["conv5_block1_1_bn", 0, 0, {}]]], "class_name": "Activation", "config": {"dtype": "float32", "activation": "relu", "trainable": true, "name": "conv5_block1_1_relu"}, "name": "conv5_block1_1_relu"}, {"inbound_nodes": [[["conv5_block1_1_relu", 0, 0, {}]]], "class_name": "Conv2D", "config": {"kernel_constraint": null, "filters": 512, "trainable": true, "kernel_regularizer": null, "data_format": "channels_last", "dtype": "float32", "bias_regularizer": null, "bias_constraint": null, "activity_regularizer": null, "padding": "same", "bias_initializer": {"class_name": "Zeros", "config": {}}, "activation": "linear", "name": "conv5_block1_2_conv", "dilation_rate": [1, 1], "use_bias": true, "strides": [1, 1], "kernel_size": [3, 3], "kernel_initializer": {"class_name": "GlorotUniform", "config": {"seed": null}}}, "name": "conv5_block1_2_conv"}, {"inbound_nodes": [[["conv5_block1_2_conv", 0, 0, {}]]], "class_name": "BatchNormalization", "config": {"center": true, "beta_regularizer": null, "gamma_constraint": null, "beta_initializer": {"class_name": "Zeros", "config": {}}, "gamma_initializer": {"class_name": "Ones", "config": {}}, "trainable": true, "moving_variance_initializer": {"class_name": "Ones", "config": {}}, "dtype": "float32", "epsilon": 1.001e-05, "axis": [3], "name": "conv5_block1_2_bn", "momentum": 0.99, "gamma_regularizer": null, "scale": true, "beta_constraint": null, "moving_mean_initializer": {"class_name": "Zeros", "config": {}}}, "name": "conv5_block1_2_bn"}, {"inbound_nodes": [[["conv5_block1_2_bn", 0, 0, {}]]], "class_name": "Activation", "config": {"dtype": "float32", "activation": "relu", "trainable": true, "name": "conv5_block1_2_relu"}, "name": "conv5_block1_2_relu"}, {"inbound_nodes": [[["conv4_block6_out", 0, 0, {}]]], "class_name": "Conv2D", "config": {"kernel_constraint": null, "filters": 2048, "trainable": true, "kernel_regularizer": null, "data_format": "channels_last", "dtype": "float32", "bias_regularizer": null, "bias_constraint": null, "activity_regularizer": null, "padding": "valid", "bias_initializer": {"class_name": "Zeros", "config": {}}, "activation": "linear", "name": "conv5_block1_0_conv", "dilation_rate": [1, 1], "use_bias": true, "strides": [2, 2], "kernel_size": [1, 1], "kernel_initializer": {"class_name": "GlorotUniform", "config": {"seed": null}}}, "name": "conv5_block1_0_conv"}, {"inbound_nodes": [[["conv5_block1_2_relu", 0, 0, {}]]], "class_name": "Conv2D", "config": {"kernel_constraint": null, "filters": 2048, "trainable": true, "kernel_regularizer": null, "data_format": "channels_last", "dtype": "float32", "bias_regularizer": null, "bias_constraint": null, "activity_regularizer": null, "padding": "valid", "bias_initializer": {"class_name": "Zeros", "config": {}}, "activation": "linear", "name": "conv5_block1_3_conv", "dilation_rate": [1, 1], "use_bias": true, "strides": [1, 1], "kernel_size": [1, 1], "kernel_initializer": {"class_name": "GlorotUniform", "config": {"seed": null}}}, "name": "conv5_block1_3_conv"}, {"inbound_nodes": [[["conv5_block1_0_conv", 0, 0, {}]]], "class_name": "BatchNormalization", "config": {"center": true, "beta_regularizer": null, "gamma_constraint": null, "beta_initializer": {"class_name": "Zeros", "config": {}}, "gamma_initializer": {"class_name": "Ones", "config": {}}, "trainable": true, "moving_variance_initializer": {"class_name": "Ones", "config": {}}, "dtype": "float32", "epsilon": 1.001e-05, "axis": [3], "name": "conv5_block1_0_bn", "momentum": 0.99, "gamma_regularizer": null, "scale": true, "beta_constraint": null, "moving_mean_initializer": {"class_name": "Zeros", "config": {}}}, "name": "conv5_block1_0_bn"}, {"inbound_nodes": [[["conv5_block1_3_conv", 0, 0, {}]]], "class_name": "BatchNormalization", "config": {"center": true, "beta_regularizer": null, "gamma_constraint": null, "beta_initializer": {"class_name": "Zeros", "config": {}}, "gamma_initializer": {"class_name": "Ones", "config": {}}, "trainable": true, "moving_variance_initializer": {"class_name": "Ones", "config": {}}, "dtype": "float32", "epsilon": 1.001e-05, "axis": [3], "name": "conv5_block1_3_bn", "momentum": 0.99, "gamma_regularizer": null, "scale": true, "beta_constraint": null, "moving_mean_initializer": {"class_name": "Zeros", "config": {}}}, "name": "conv5_block1_3_bn"}, {"inbound_nodes": [[["conv5_block1_0_bn", 0, 0, {}], ["conv5_block1_3_bn", 0, 0, {}]]], "class_name": "Add", "config": {"dtype": "float32", "name": "conv5_block1_add", "trainable": true}, "name": "conv5_block1_add"}, {"inbound_nodes": [[["conv5_block1_add", 0, 0, {}]]], "class_name": "Activation", "config": {"dtype": "float32", "activation": "relu", "trainable": true, "name": "conv5_block1_out"}, "name": "conv5_block1_out"}, {"inbound_nodes": [[["conv5_block1_out", 0, 0, {}]]], "class_name": "Conv2D", "config": {"kernel_constraint": null, "filters": 512, "trainable": true, "kernel_regularizer": null, "data_format": "channels_last", "dtype": "float32", "bias_regularizer": null, "bias_constraint": null, "activity_regularizer": null, "padding": "valid", "bias_initializer": {"class_name": "Zeros", "config": {}}, "activation": "linear", "name": "conv5_block2_1_conv", "dilation_rate": [1, 1], "use_bias": true, "strides": [1, 1], "kernel_size": [1, 1], "kernel_initializer": {"class_name": "GlorotUniform", "config": {"seed": null}}}, "name": "conv5_block2_1_conv"}, {"inbound_nodes": [[["conv5_block2_1_conv", 0, 0, {}]]], "class_name": "BatchNormalization", "config": {"center": true, "beta_regularizer": null, "gamma_constraint": null, "beta_initializer": {"class_name": "Zeros", "config": {}}, "gamma_initializer": {"class_name": "Ones", "config": {}}, "trainable": true, "moving_variance_initializer": {"class_name": "Ones", "config": {}}, "dtype": "float32", "epsilon": 1.001e-05, "axis": [3], "name": "conv5_block2_1_bn", "momentum": 0.99, "gamma_regularizer": null, "scale": true, "beta_constraint": null, "moving_mean_initializer": {"class_name": "Zeros", "config": {}}}, "name": "conv5_block2_1_bn"}, {"inbound_nodes": [[["conv5_block2_1_bn", 0, 0, {}]]], "class_name": "Activation", "config": {"dtype": "float32", "activation": "relu", "trainable": true, "name": "conv5_block2_1_relu"}, "name": "conv5_block2_1_relu"}, {"inbound_nodes": [[["conv5_block2_1_relu", 0, 0, {}]]], "class_name": "Conv2D", "config": {"kernel_constraint": null, "filters": 512, "trainable": true, "kernel_regularizer": null, "data_format": "channels_last", "dtype": "float32", "bias_regularizer": null, "bias_constraint": null, "activity_regularizer": null, "padding": "same", "bias_initializer": {"class_name": "Zeros", "config": {}}, "activation": "linear", "name": "conv5_block2_2_conv", "dilation_rate": [1, 1], "use_bias": true, "strides": [1, 1], "kernel_size": [3, 3], "kernel_initializer": {"class_name": "GlorotUniform", "config": {"seed": null}}}, "name": "conv5_block2_2_conv"}, {"inbound_nodes": [[["conv5_block2_2_conv", 0, 0, {}]]], "class_name": "BatchNormalization", "config": {"center": true, "beta_regularizer": null, "gamma_constraint": null, "beta_initializer": {"class_name": "Zeros", "config": {}}, "gamma_initializer": {"class_name": "Ones", "config": {}}, "trainable": true, "moving_variance_initializer": {"class_name": "Ones", "config": {}}, "dtype": "float32", "epsilon": 1.001e-05, "axis": [3], "name": "conv5_block2_2_bn", "momentum": 0.99, "gamma_regularizer": null, "scale": true, "beta_constraint": null, "moving_mean_initializer": {"class_name": "Zeros", "config": {}}}, "name": "conv5_block2_2_bn"}, {"inbound_nodes": [[["conv5_block2_2_bn", 0, 0, {}]]], "class_name": "Activation", "config": {"dtype": "float32", "activation": "relu", "trainable": true, "name": "conv5_block2_2_relu"}, "name": "conv5_block2_2_relu"}, {"inbound_nodes": [[["conv5_block2_2_relu", 0, 0, {}]]], "class_name": "Conv2D", "config": {"kernel_constraint": null, "filters": 2048, "trainable": true, "kernel_regularizer": null, "data_format": "channels_last", "dtype": "float32", "bias_regularizer": null, "bias_constraint": null, "activity_regularizer": null, "padding": "valid", "bias_initializer": {"class_name": "Zeros", "config": {}}, "activation": "linear", "name": "conv5_block2_3_conv", "dilation_rate": [1, 1], "use_bias": true, "strides": [1, 1], "kernel_size": [1, 1], "kernel_initializer": {"class_name": "GlorotUniform", "config": {"seed": null}}}, "name": "conv5_block2_3_conv"}, {"inbound_nodes": [[["conv5_block2_3_conv", 0, 0, {}]]], "class_name": "BatchNormalization", "config": {"center": true, "beta_regularizer": null, "gamma_constraint": null, "beta_initializer": {"class_name": "Zeros", "config": {}}, "gamma_initializer": {"class_name": "Ones", "config": {}}, "trainable": true, "moving_variance_initializer": {"class_name": "Ones", "config": {}}, "dtype": "float32", "epsilon": 1.001e-05, "axis": [3], "name": "conv5_block2_3_bn", "momentum": 0.99, "gamma_regularizer": null, "scale": true, "beta_constraint": null, "moving_mean_initializer": {"class_name": "Zeros", "config": {}}}, "name": "conv5_block2_3_bn"}, {"inbound_nodes": [[["conv5_block1_out", 0, 0, {}], ["conv5_block2_3_bn", 0, 0, {}]]], "class_name": "Add", "config": {"dtype": "float32", "name": "conv5_block2_add", "trainable": true}, "name": "conv5_block2_add"}, {"inbound_nodes": [[["conv5_block2_add", 0, 0, {}]]], "class_name": "Activation", "config": {"dtype": "float32", "activation": "relu", "trainable": true, "name": "conv5_block2_out"}, "name": "conv5_block2_out"}, {"inbound_nodes": [[["conv5_block2_out", 0, 0, {}]]], "class_name": "Conv2D", "config": {"kernel_constraint": null, "filters": 512, "trainable": true, "kernel_regularizer": null, "data_format": "channels_last", "dtype": "float32", "bias_regularizer": null, "bias_constraint": null, "activity_regularizer": null, "padding": "valid", "bias_initializer": {"class_name": "Zeros", "config": {}}, "activation": "linear", "name": "conv5_block3_1_conv", "dilation_rate": [1, 1], "use_bias": true, "strides": [1, 1], "kernel_size": [1, 1], "kernel_initializer": {"class_name": "GlorotUniform", "config": {"seed": null}}}, "name": "conv5_block3_1_conv"}, {"inbound_nodes": [[["conv5_block3_1_conv", 0, 0, {}]]], "class_name": "BatchNormalization", "config": {"center": true, "beta_regularizer": null, "gamma_constraint": null, "beta_initializer": {"class_name": "Zeros", "config": {}}, "gamma_initializer": {"class_name": "Ones", "config": {}}, "trainable": true, "moving_variance_initializer": {"class_name": "Ones", "config": {}}, "dtype": "float32", "epsilon": 1.001e-05, "axis": [3], "name": "conv5_block3_1_bn", "momentum": 0.99, "gamma_regularizer": null, "scale": true, "beta_constraint": null, "moving_mean_initializer": {"class_name": "Zeros", "config": {}}}, "name": "conv5_block3_1_bn"}, {"inbound_nodes": [[["conv5_block3_1_bn", 0, 0, {}]]], "class_name": "Activation", "config": {"dtype": "float32", "activation": "relu", "trainable": true, "name": "conv5_block3_1_relu"}, "name": "conv5_block3_1_relu"}, {"inbound_nodes": [[["conv5_block3_1_relu", 0, 0, {}]]], "class_name": "Conv2D", "config": {"kernel_constraint": null, "filters": 512, "trainable": true, "kernel_regularizer": null, "data_format": "channels_last", "dtype": "float32", "bias_regularizer": null, "bias_constraint": null, "activity_regularizer": null, "padding": "same", "bias_initializer": {"class_name": "Zeros", "config": {}}, "activation": "linear", "name": "conv5_block3_2_conv", "dilation_rate": [1, 1], "use_bias": true, "strides": [1, 1], "kernel_size": [3, 3], "kernel_initializer": {"class_name": "GlorotUniform", "config": {"seed": null}}}, "name": "conv5_block3_2_conv"}, {"inbound_nodes": [[["conv5_block3_2_conv", 0, 0, {}]]], "class_name": "BatchNormalization", "config": {"center": true, "beta_regularizer": null, "gamma_constraint": null, "beta_initializer": {"class_name": "Zeros", "config": {}}, "gamma_initializer": {"class_name": "Ones", "config": {}}, "trainable": true, "moving_variance_initializer": {"class_name": "Ones", "config": {}}, "dtype": "float32", "epsilon": 1.001e-05, "axis": [3], "name": "conv5_block3_2_bn", "momentum": 0.99, "gamma_regularizer": null, "scale": true, "beta_constraint": null, "moving_mean_initializer": {"class_name": "Zeros", "config": {}}}, "name": "conv5_block3_2_bn"}, {"inbound_nodes": [[["conv5_block3_2_bn", 0, 0, {}]]], "class_name": "Activation", "config": {"dtype": "float32", "activation": "relu", "trainable": true, "name": "conv5_block3_2_relu"}, "name": "conv5_block3_2_relu"}, {"inbound_nodes": [[["conv5_block3_2_relu", 0, 0, {}]]], "class_name": "Conv2D", "config": {"kernel_constraint": null, "filters": 2048, "trainable": true, "kernel_regularizer": null, "data_format": "channels_last", "dtype": "float32", "bias_regularizer": null, "bias_constraint": null, "activity_regularizer": null, "padding": "valid", "bias_initializer": {"class_name": "Zeros", "config": {}}, "activation": "linear", "name": "conv5_block3_3_conv", "dilation_rate": [1, 1], "use_bias": true, "strides": [1, 1], "kernel_size": [1, 1], "kernel_initializer": {"class_name": "GlorotUniform", "config": {"seed": null}}}, "name": "conv5_block3_3_conv"}, {"inbound_nodes": [[["conv5_block3_3_conv", 0, 0, {}]]], "class_name": "BatchNormalization", "config": {"center": true, "beta_regularizer": null, "gamma_constraint": null, "beta_initializer": {"class_name": "Zeros", "config": {}}, "gamma_initializer": {"class_name": "Ones", "config": {}}, "trainable": true, "moving_variance_initializer": {"class_name": "Ones", "config": {}}, "dtype": "float32", "epsilon": 1.001e-05, "axis": [3], "name": "conv5_block3_3_bn", "momentum": 0.99, "gamma_regularizer": null, "scale": true, "beta_constraint": null, "moving_mean_initializer": {"class_name": "Zeros", "config": {}}}, "name": "conv5_block3_3_bn"}, {"inbound_nodes": [[["conv5_block2_out", 0, 0, {}], ["conv5_block3_3_bn", 0, 0, {}]]], "class_name": "Add", "config": {"dtype": "float32", "name": "conv5_block3_add", "trainable": true}, "name": "conv5_block3_add"}, {"inbound_nodes": [[["conv5_block3_add", 0, 0, {}]]], "class_name": "Activation", "config": {"dtype": "float32", "activation": "relu", "trainable": true, "name": "conv5_block3_out"}, "name": "conv5_block3_out"}, {"inbound_nodes": [[["conv5_block3_out", 0, 0, {}]]], "class_name": "Conv2D", "config": {"kernel_constraint": null, "filters": 1024, "trainable": true, "kernel_regularizer": null, "data_format": "channels_last", "dtype": "float32", "bias_regularizer": null, "bias_constraint": null, "activity_regularizer": null, "padding": "same", "bias_initializer": {"class_name": "Zeros", "config": {}}, "activation": "linear", "name": "conv2d", "dilation_rate": [1, 1], "use_bias": true, "strides": [1, 1], "kernel_size": [3, 3], "kernel_initializer": {"class_name": "VarianceScaling", "config": {"seed": null, "scale": 2.0, "mode": "fan_in", "distribution": "truncated_normal"}}}, "name": "conv2d"}, {"inbound_nodes": [[["conv2d", 0, 0, {}]]], "class_name": "ELU", "config": {"dtype": "float32", "trainable": true, "name": "elu", "alpha": 1.0}, "name": "elu"}, {"inbound_nodes": [[["elu", 0, 0, {}]]], "class_name": "Dropout", "config": {"seed": null, "trainable": true, "dtype": "float32", "rate": 0.2, "name": "dropout", "noise_shape": null}, "name": "dropout"}, {"inbound_nodes": [[["dropout", 0, 0, {}]]], "class_name": "Conv2DTranspose", "config": {"kernel_constraint": null, "filters": 1024, "trainable": true, "kernel_regularizer": null, "data_format": "channels_last", "dtype": "float32", "output_padding": null, "bias_regularizer": null, "bias_constraint": null, "activity_regularizer": null, "padding": "same", "bias_initializer": {"class_name": "Zeros", "config": {}}, "activation": "linear", "name": "conv2d_transpose", "dilation_rate": [1, 1], "use_bias": true, "strides": [2, 2], "kernel_size": [2, 2], "kernel_initializer": {"class_name": "GlorotUniform", "config": {"seed": null}}}, "name": "conv2d_transpose"}, {"inbound_nodes": [[["conv2d_transpose", 0, 0, {}], ["conv4_block6_out", 0, 0, {}]]], "class_name": "Concatenate", "config": {"dtype": "float32", "trainable": true, "name": "concatenate", "axis": -1}, "name": "concatenate"}, {"inbound_nodes": [[["concatenate", 0, 0, {}]]], "class_name": "Conv2D", "config": {"kernel_constraint": null, "filters": 512, "trainable": true, "kernel_regularizer": null, "data_format": "channels_last", "dtype": "float32", "bias_regularizer": null, "bias_constraint": null, "activity_regularizer": null, "padding": "same", "bias_initializer": {"class_name": "Zeros", "config": {}}, "activation": "linear", "name": "conv2d_1", "dilation_rate": [1, 1], "use_bias": true, "strides": [1, 1], "kernel_size": [3, 3], "kernel_initializer": {"class_name": "VarianceScaling", "config": {"seed": null, "scale": 2.0, "mode": "fan_in", "distribution": "truncated_normal"}}}, "name": "conv2d_1"}, {"inbound_nodes": [[["conv2d_1", 0, 0, {}]]], "class_name": "ELU", "config": {"dtype": "float32", "trainable": true, "name": "elu_1", "alpha": 1.0}, "name": "elu_1"}, {"inbound_nodes": [[["elu_1", 0, 0, {}]]], "class_name": "Dropout", "config": {"seed": null, "trainable": true, "dtype": "float32", "rate": 0.2, "name": "dropout_1", "noise_shape": null}, "name": "dropout_1"}, {"inbound_nodes": [[["dropout_1", 0, 0, {}]]], "class_name": "Conv2DTranspose", "config": {"kernel_constraint": null, "filters": 512, "trainable": true, "kernel_regularizer": null, "data_format": "channels_last", "dtype": "float32", "output_padding": null, "bias_regularizer": null, "bias_constraint": null, "activity_regularizer": null, "padding": "same", "bias_initializer": {"class_name": "Zeros", "config": {}}, "activation": "linear", "name": "conv2d_transpose_1", "dilation_rate": [1, 1], "use_bias": true, "strides": [2, 2], "kernel_size": [2, 2], "kernel_initializer": {"class_name": "GlorotUniform", "config": {"seed": null}}}, "name": "conv2d_transpose_1"}, {"inbound_nodes": [[["conv2d_transpose_1", 0, 0, {}], ["conv3_block4_out", 0, 0, {}]]], "class_name": "Concatenate", "config": {"dtype": "float32", "trainable": true, "name": "concatenate_1", "axis": -1}, "name": "concatenate_1"}, {"inbound_nodes": [[["concatenate_1", 0, 0, {}]]], "class_name": "Conv2D", "config": {"kernel_constraint": null, "filters": 256, "trainable": true, "kernel_regularizer": null, "data_format": "channels_last", "dtype": "float32", "bias_regularizer": null, "bias_constraint": null, "activity_regularizer": null, "padding": "same", "bias_initializer": {"class_name": "Zeros", "config": {}}, "activation": "linear", "name": "conv2d_2", "dilation_rate": [1, 1], "use_bias": true, "strides": [1, 1], "kernel_size": [3, 3], "kernel_initializer": {"class_name": "VarianceScaling", "config": {"seed": null, "scale": 2.0, "mode": "fan_in", "distribution": "truncated_normal"}}}, "name": "conv2d_2"}, {"inbound_nodes": [[["conv2d_2", 0, 0, {}]]], "class_name": "ELU", "config": {"dtype": "float32", "trainable": true, "name": "elu_2", "alpha": 1.0}, "name": "elu_2"}, {"inbound_nodes": [[["elu_2", 0, 0, {}]]], "class_name": "Dropout", "config": {"seed": null, "trainable": true, "dtype": "float32", "rate": 0.2, "name": "dropout_2", "noise_shape": null}, "name": "dropout_2"}, {"inbound_nodes": [[["dropout_2", 0, 0, {}]]], "class_name": "Conv2DTranspose", "config": {"kernel_constraint": null, "filters": 256, "trainable": true, "kernel_regularizer": null, "data_format": "channels_last", "dtype": "float32", "output_padding": null, "bias_regularizer": null, "bias_constraint": null, "activity_regularizer": null, "padding": "same", "bias_initializer": {"class_name": "Zeros", "config": {}}, "activation": "linear", "name": "conv2d_transpose_2", "dilation_rate": [1, 1], "use_bias": true, "strides": [2, 2], "kernel_size": [2, 2], "kernel_initializer": {"class_name": "GlorotUniform", "config": {"seed": null}}}, "name": "conv2d_transpose_2"}, {"inbound_nodes": [[["conv2d_transpose_2", 0, 0, {}], ["conv2_block3_out", 0, 0, {}]]], "class_name": "Concatenate", "config": {"dtype": "float32", "trainable": true, "name": "concatenate_2", "axis": -1}, "name": "concatenate_2"}, {"inbound_nodes": [[["concatenate_2", 0, 0, {}]]], "class_name": "Conv2D", "config": {"kernel_constraint": null, "filters": 128, "trainable": true, "kernel_regularizer": null, "data_format": "channels_last", "dtype": "float32", "bias_regularizer": null, "bias_constraint": null, "activity_regularizer": null, "padding": "same", "bias_initializer": {"class_name": "Zeros", "config": {}}, "activation": "linear", "name": "conv2d_3", "dilation_rate": [1, 1], "use_bias": true, "strides": [1, 1], "kernel_size": [3, 3], "kernel_initializer": {"class_name": "VarianceScaling", "config": {"seed": null, "scale": 2.0, "mode": "fan_in", "distribution": "truncated_normal"}}}, "name": "conv2d_3"}, {"inbound_nodes": [[["conv2d_3", 0, 0, {}]]], "class_name": "ELU", "config": {"dtype": "float32", "trainable": true, "name": "elu_3", "alpha": 1.0}, "name": "elu_3"}, {"inbound_nodes": [[["elu_3", 0, 0, {}]]], "class_name": "Dropout", "config": {"seed": null, "trainable": true, "dtype": "float32", "rate": 0.2, "name": "dropout_3", "noise_shape": null}, "name": "dropout_3"}, {"inbound_nodes": [[["dropout_3", 0, 0, {}]]], "class_name": "Conv2DTranspose", "config": {"kernel_constraint": null, "filters": 128, "trainable": true, "kernel_regularizer": null, "data_format": "channels_last", "dtype": "float32", "output_padding": null, "bias_regularizer": null, "bias_constraint": null, "activity_regularizer": null, "padding": "same", "bias_initializer": {"class_name": "Zeros", "config": {}}, "activation": "linear", "name": "conv2d_transpose_3", "dilation_rate": [1, 1], "use_bias": true, "strides": [2, 2], "kernel_size": [2, 2], "kernel_initializer": {"class_name": "GlorotUniform", "config": {"seed": null}}}, "name": "conv2d_transpose_3"}, {"inbound_nodes": [[["conv2d_transpose_3", 0, 0, {}], ["conv1_relu", 0, 0, {}]]], "class_name": "Concatenate", "config": {"dtype": "float32", "trainable": true, "name": "concatenate_3", "axis": -1}, "name": "concatenate_3"}, {"inbound_nodes": [[["concatenate_3", 0, 0, {}]]], "class_name": "Conv2D", "config": {"kernel_constraint": null, "filters": 64, "trainable": true, "kernel_regularizer": null, "data_format": "channels_last", "dtype": "float32", "bias_regularizer": null, "bias_constraint": null, "activity_regularizer": null, "padding": "same", "bias_initializer": {"class_name": "Zeros", "config": {}}, "activation": "linear", "name": "conv2d_4", "dilation_rate": [1, 1], "use_bias": true, "strides": [1, 1], "kernel_size": [3, 3], "kernel_initializer": {"class_name": "VarianceScaling", "config": {"seed": null, "scale": 2.0, "mode": "fan_in", "distribution": "truncated_normal"}}}, "name": "conv2d_4"}, {"inbound_nodes": [[["conv2d_4", 0, 0, {}]]], "class_name": "ELU", "config": {"dtype": "float32", "trainable": true, "name": "elu_4", "alpha": 1.0}, "name": "elu_4"}, {"inbound_nodes": [[["elu_4", 0, 0, {}]]], "class_name": "Dropout", "config": {"seed": null, "trainable": true, "dtype": "float32", "rate": 0.1, "name": "dropout_4", "noise_shape": null}, "name": "dropout_4"}, {"inbound_nodes": [[["dropout_4", 0, 0, {}]]], "class_name": "Conv2DTranspose", "config": {"kernel_constraint": null, "filters": 64, "trainable": true, "kernel_regularizer": null, "data_format": "channels_last", "dtype": "float32", "output_padding": null, "bias_regularizer": null, "bias_constraint": null, "activity_regularizer": null, "padding": "same", "bias_initializer": {"class_name": "Zeros", "config": {}}, "activation": "linear", "name": "conv2d_transpose_4", "dilation_rate": [1, 1], "use_bias": true, "strides": [2, 2], "kernel_size": [2, 2], "kernel_initializer": {"class_name": "GlorotUniform", "config": {"seed": null}}}, "name": "conv2d_transpose_4"}, {"inbound_nodes": [[["conv2d_transpose_4", 0, 0, {}]]], "class_name": "Conv2D", "config": {"kernel_constraint": null, "filters": 64, "trainable": true, "kernel_regularizer": null, "data_format": "channels_last", "dtype": "float32", "bias_regularizer": null, "bias_constraint": null, "activity_regularizer": null, "padding": "same", "bias_initializer": {"class_name": "Zeros", "config": {}}, "activation": "linear", "name": "conv2d_5", "dilation_rate": [1, 1], "use_bias": true, "strides": [1, 1], "kernel_size": [3, 3], "kernel_initializer": {"class_name": "VarianceScaling", "config": {"seed": null, "scale": 2.0, "mode": "fan_in", "distribution": "truncated_normal"}}}, "name": "conv2d_5"}, {"inbound_nodes": [[["conv2d_5", 0, 0, {}]]], "class_name": "ELU", "config": {"dtype": "float32", "trainable": true, "name": "elu_5", "alpha": 1.0}, "name": "elu_5"}, {"inbound_nodes": [[["elu_5", 0, 0, {}]]], "class_name": "Conv2D", "config": {"kernel_constraint": null, "filters": 1, "trainable": true, "kernel_regularizer": null, "data_format": "channels_last", "dtype": "float32", "bias_regularizer": null, "bias_constraint": null, "activity_regularizer": null, "padding": "same", "bias_initializer": {"class_name": "Zeros", "config": {}}, "activation": "sigmoid", "name": "conv2d_6", "dilation_rate": [1, 1], "use_bias": true, "strides": [1, 1], "kernel_size": [1, 1], "kernel_initializer": {"class_name": "VarianceScaling", "config": {"seed": null, "scale": 2.0, "mode": "fan_in", "distribution": "truncated_normal"}}}, "name": "conv2d_6"}], "input_layers": [["input_1", 0, 0]], "output_layers": [["conv2d_6", 0, 0]], "name": "model"}}