{"class_name": "Model", "backend": "tensorflow", "keras_version": "2.2.4-tf", "config": {"name": "model", "layers": [{"class_name": "InputLayer", "inbound_nodes": [], "name": "input_1", "config": {"batch_input_shape": [null, 256, 256, 3], "name": "input_1", "sparse": false, "dtype": "float32"}}, {"class_name": "ZeroPadding2D", "inbound_nodes": [[["input_1", 0, 0, {}]]], "name": "zero_padding2d", "config": {"padding": [[3, 3], [3, 3]], "name": "zero_padding2d", "data_format": "channels_last", "trainable": false, "dtype": "float32"}}, {"class_name": "Conv2D", "inbound_nodes": [[["zero_padding2d", 0, 0, {}]]], "name": "conv1/conv", "config": {"use_bias": false, "kernel_initializer": {"class_name": "GlorotUniform", "config": {"seed": null}}, "filters": 64, "bias_initializer": {"class_name": "Zeros", "config": {}}, "bias_regularizer": null, "dilation_rate": [1, 1], "strides": [2, 2], "data_format": "channels_last", "trainable": false, "dtype": "float32", "activation": "linear", "padding": "valid", "kernel_size": [7, 7], "bias_constraint": null, "kernel_regularizer": null, "name": "conv1/conv", "activity_regularizer": null, "kernel_constraint": null}}, {"class_name": "BatchNormalization", "inbound_nodes": [[["conv1/conv", 0, 0, {}]]], "name": "conv1/bn", "config": {"scale": true, "beta_initializer": {"class_name": "Zeros", "config": {}}, "gamma_regularizer": null, "gamma_constraint": null, "axis": [3], "trainable": false, "dtype": "float32", "momentum": 0.99, "beta_regularizer": null, "gamma_initializer": {"class_name": "Ones", "config": {}}, "epsilon": 1.001e-05, "moving_variance_initializer": {"class_name": "Ones", "config": {}}, "name": "conv1/bn", "moving_mean_initializer": {"class_name": "Zeros", "config": {}}, "center": true, "beta_constraint": null}}, {"class_name": "Activation", "inbound_nodes": [[["conv1/bn", 0, 0, {}]]], "name": "conv1/relu", "config": {"activation": "relu", "name": "conv1/relu", "trainable": false, "dtype": "float32"}}, {"class_name": "ZeroPadding2D", "inbound_nodes": [[["conv1/relu", 0, 0, {}]]], "name": "zero_padding2d_1", "config": {"padding": [[1, 1], [1, 1]], "name": "zero_padding2d_1", "data_format": "channels_last", "trainable": false, "dtype": "float32"}}, {"class_name": "MaxPooling2D", "inbound_nodes": [[["zero_padding2d_1", 0, 0, {}]]], "name": "pool1", "config": {"padding": "valid", "strides": [2, 2], "name": "pool1", "dtype": "float32", "data_format": "channels_last", "trainable": false, "pool_size": [3, 3]}}, {"class_name": "BatchNormalization", "inbound_nodes": [[["pool1", 0, 0, {}]]], "name": "conv2_block1_0_bn", "config": {"scale": true, "beta_initializer": {"class_name": "Zeros", "config": {}}, "gamma_regularizer": null, "gamma_constraint": null, "axis": [3], "trainable": false, "dtype": "float32", "momentum": 0.99, "beta_regularizer": null, "gamma_initializer": {"class_name": "Ones", "config": {}}, "epsilon": 1.001e-05, "moving_variance_initializer": {"class_name": "Ones", "config": {}}, "name": "conv2_block1_0_bn", "moving_mean_initializer": {"class_name": "Zeros", "config": {}}, "center": true, "beta_constraint": null}}, {"class_name": "Activation", "inbound_nodes": [[["conv2_block1_0_bn", 0, 0, {}]]], "name": "conv2_block1_0_relu", "config": {"activation": "relu", "name": "conv2_block1_0_relu", "trainable": false, "dtype": "float32"}}, {"class_name": "Conv2D", "inbound_nodes": [[["conv2_block1_0_relu", 0, 0, {}]]], "name": "conv2_block1_1_conv", "config": {"use_bias": false, "kernel_initializer": {"class_name": "GlorotUniform", "config": {"seed": null}}, "filters": 128, "bias_initializer": {"class_name": "Zeros", "config": {}}, "bias_regularizer": null, "dilation_rate": [1, 1], "strides": [1, 1], "data_format": "channels_last", "trainable": false, "dtype": "float32", "activation": "linear", "padding": "valid", "kernel_size": [1, 1], "bias_constraint": null, "kernel_regularizer": null, "name": "conv2_block1_1_conv", "activity_regularizer": null, "kernel_constraint": null}}, {"class_name": "BatchNormalization", "inbound_nodes": [[["conv2_block1_1_conv", 0, 0, {}]]], "name": "conv2_block1_1_bn", "config": {"scale": true, "beta_initializer": {"class_name": "Zeros", "config": {}}, "gamma_regularizer": null, "gamma_constraint": null, "axis": [3], "trainable": false, "dtype": "float32", "momentum": 0.99, "beta_regularizer": null, "gamma_initializer": {"class_name": "Ones", "config": {}}, "epsilon": 1.001e-05, "moving_variance_initializer": {"class_name": "Ones", "config": {}}, "name": "conv2_block1_1_bn", "moving_mean_initializer": {"class_name": "Zeros", "config": {}}, "center": true, "beta_constraint": null}}, {"class_name": "Activation", "inbound_nodes": [[["conv2_block1_1_bn", 0, 0, {}]]], "name": "conv2_block1_1_relu", "config": {"activation": "relu", "name": "conv2_block1_1_relu", "trainable": false, "dtype": "float32"}}, {"class_name": "Conv2D", "inbound_nodes": [[["conv2_block1_1_relu", 0, 0, {}]]], "name": "conv2_block1_2_conv", "config": {"use_bias": false, "kernel_initializer": {"class_name": "GlorotUniform", "config": {"seed": null}}, "filters": 32, "bias_initializer": {"class_name": "Zeros", "config": {}}, "bias_regularizer": null, "dilation_rate": [1, 1], "strides": [1, 1], "data_format": "channels_last", "trainable": false, "dtype": "float32", "activation": "linear", "padding": "same", "kernel_size": [3, 3], "bias_constraint": null, "kernel_regularizer": null, "name": "conv2_block1_2_conv", "activity_regularizer": null, "kernel_constraint": null}}, {"class_name": "Concatenate", "inbound_nodes": [[["pool1", 0, 0, {}], ["conv2_block1_2_conv", 0, 0, {}]]], "name": "conv2_block1_concat", "config": {"name": "conv2_block1_concat", "axis": 3, "trainable": false, "dtype": "float32"}}, {"class_name": "BatchNormalization", "inbound_nodes": [[["conv2_block1_concat", 0, 0, {}]]], "name": "conv2_block2_0_bn", "config": {"scale": true, "beta_initializer": {"class_name": "Zeros", "config": {}}, "gamma_regularizer": null, "gamma_constraint": null, "axis": [3], "trainable": false, "dtype": "float32", "momentum": 0.99, "beta_regularizer": null, "gamma_initializer": {"class_name": "Ones", "config": {}}, "epsilon": 1.001e-05, "moving_variance_initializer": {"class_name": "Ones", "config": {}}, "name": "conv2_block2_0_bn", "moving_mean_initializer": {"class_name": "Zeros", "config": {}}, "center": true, "beta_constraint": null}}, {"class_name": "Activation", "inbound_nodes": [[["conv2_block2_0_bn", 0, 0, {}]]], "name": "conv2_block2_0_relu", "config": {"activation": "relu", "name": "conv2_block2_0_relu", "trainable": false, "dtype": "float32"}}, {"class_name": "Conv2D", "inbound_nodes": [[["conv2_block2_0_relu", 0, 0, {}]]], "name": "conv2_block2_1_conv", "config": {"use_bias": false, "kernel_initializer": {"class_name": "GlorotUniform", "config": {"seed": null}}, "filters": 128, "bias_initializer": {"class_name": "Zeros", "config": {}}, "bias_regularizer": null, "dilation_rate": [1, 1], "strides": [1, 1], "data_format": "channels_last", "trainable": false, "dtype": "float32", "activation": "linear", "padding": "valid", "kernel_size": [1, 1], "bias_constraint": null, "kernel_regularizer": null, "name": "conv2_block2_1_conv", "activity_regularizer": null, "kernel_constraint": null}}, {"class_name": "BatchNormalization", "inbound_nodes": [[["conv2_block2_1_conv", 0, 0, {}]]], "name": "conv2_block2_1_bn", "config": {"scale": true, "beta_initializer": {"class_name": "Zeros", "config": {}}, "gamma_regularizer": null, "gamma_constraint": null, "axis": [3], "trainable": false, "dtype": "float32", "momentum": 0.99, "beta_regularizer": null, "gamma_initializer": {"class_name": "Ones", "config": {}}, "epsilon": 1.001e-05, "moving_variance_initializer": {"class_name": "Ones", "config": {}}, "name": "conv2_block2_1_bn", "moving_mean_initializer": {"class_name": "Zeros", "config": {}}, "center": true, "beta_constraint": null}}, {"class_name": "Activation", "inbound_nodes": [[["conv2_block2_1_bn", 0, 0, {}]]], "name": "conv2_block2_1_relu", "config": {"activation": "relu", "name": "conv2_block2_1_relu", "trainable": false, "dtype": "float32"}}, {"class_name": "Conv2D", "inbound_nodes": [[["conv2_block2_1_relu", 0, 0, {}]]], "name": "conv2_block2_2_conv", "config": {"use_bias": false, "kernel_initializer": {"class_name": "GlorotUniform", "config": {"seed": null}}, "filters": 32, "bias_initializer": {"class_name": "Zeros", "config": {}}, "bias_regularizer": null, "dilation_rate": [1, 1], "strides": [1, 1], "data_format": "channels_last", "trainable": false, "dtype": "float32", "activation": "linear", "padding": "same", "kernel_size": [3, 3], "bias_constraint": null, "kernel_regularizer": null, "name": "conv2_block2_2_conv", "activity_regularizer": null, "kernel_constraint": null}}, {"class_name": "Concatenate", "inbound_nodes": [[["conv2_block1_concat", 0, 0, {}], ["conv2_block2_2_conv", 0, 0, {}]]], "name": "conv2_block2_concat", "config": {"name": "conv2_block2_concat", "axis": 3, "trainable": false, "dtype": "float32"}}, {"class_name": "BatchNormalization", "inbound_nodes": [[["conv2_block2_concat", 0, 0, {}]]], "name": "conv2_block3_0_bn", "config": {"scale": true, "beta_initializer": {"class_name": "Zeros", "config": {}}, "gamma_regularizer": null, "gamma_constraint": null, "axis": [3], "trainable": false, "dtype": "float32", "momentum": 0.99, "beta_regularizer": null, "gamma_initializer": {"class_name": "Ones", "config": {}}, "epsilon": 1.001e-05, "moving_variance_initializer": {"class_name": "Ones", "config": {}}, "name": "conv2_block3_0_bn", "moving_mean_initializer": {"class_name": "Zeros", "config": {}}, "center": true, "beta_constraint": null}}, {"class_name": "Activation", "inbound_nodes": [[["conv2_block3_0_bn", 0, 0, {}]]], "name": "conv2_block3_0_relu", "config": {"activation": "relu", "name": "conv2_block3_0_relu", "trainable": false, "dtype": "float32"}}, {"class_name": "Conv2D", "inbound_nodes": [[["conv2_block3_0_relu", 0, 0, {}]]], "name": "conv2_block3_1_conv", "config": {"use_bias": false, "kernel_initializer": {"class_name": "GlorotUniform", "config": {"seed": null}}, "filters": 128, "bias_initializer": {"class_name": "Zeros", "config": {}}, "bias_regularizer": null, "dilation_rate": [1, 1], "strides": [1, 1], "data_format": "channels_last", "trainable": false, "dtype": "float32", "activation": "linear", "padding": "valid", "kernel_size": [1, 1], "bias_constraint": null, "kernel_regularizer": null, "name": "conv2_block3_1_conv", "activity_regularizer": null, "kernel_constraint": null}}, {"class_name": "BatchNormalization", "inbound_nodes": [[["conv2_block3_1_conv", 0, 0, {}]]], "name": "conv2_block3_1_bn", "config": {"scale": true, "beta_initializer": {"class_name": "Zeros", "config": {}}, "gamma_regularizer": null, "gamma_constraint": null, "axis": [3], "trainable": false, "dtype": "float32", "momentum": 0.99, "beta_regularizer": null, "gamma_initializer": {"class_name": "Ones", "config": {}}, "epsilon": 1.001e-05, "moving_variance_initializer": {"class_name": "Ones", "config": {}}, "name": "conv2_block3_1_bn", "moving_mean_initializer": {"class_name": "Zeros", "config": {}}, "center": true, "beta_constraint": null}}, {"class_name": "Activation", "inbound_nodes": [[["conv2_block3_1_bn", 0, 0, {}]]], "name": "conv2_block3_1_relu", "config": {"activation": "relu", "name": "conv2_block3_1_relu", "trainable": false, "dtype": "float32"}}, {"class_name": "Conv2D", "inbound_nodes": [[["conv2_block3_1_relu", 0, 0, {}]]], "name": "conv2_block3_2_conv", "config": {"use_bias": false, "kernel_initializer": {"class_name": "GlorotUniform", "config": {"seed": null}}, "filters": 32, "bias_initializer": {"class_name": "Zeros", "config": {}}, "bias_regularizer": null, "dilation_rate": [1, 1], "strides": [1, 1], "data_format": "channels_last", "trainable": false, "dtype": "float32", "activation": "linear", "padding": "same", "kernel_size": [3, 3], "bias_constraint": null, "kernel_regularizer": null, "name": "conv2_block3_2_conv", "activity_regularizer": null, "kernel_constraint": null}}, {"class_name": "Concatenate", "inbound_nodes": [[["conv2_block2_concat", 0, 0, {}], ["conv2_block3_2_conv", 0, 0, {}]]], "name": "conv2_block3_concat", "config": {"name": "conv2_block3_concat", "axis": 3, "trainable": false, "dtype": "float32"}}, {"class_name": "BatchNormalization", "inbound_nodes": [[["conv2_block3_concat", 0, 0, {}]]], "name": "conv2_block4_0_bn", "config": {"scale": true, "beta_initializer": {"class_name": "Zeros", "config": {}}, "gamma_regularizer": null, "gamma_constraint": null, "axis": [3], "trainable": false, "dtype": "float32", "momentum": 0.99, "beta_regularizer": null, "gamma_initializer": {"class_name": "Ones", "config": {}}, "epsilon": 1.001e-05, "moving_variance_initializer": {"class_name": "Ones", "config": {}}, "name": "conv2_block4_0_bn", "moving_mean_initializer": {"class_name": "Zeros", "config": {}}, "center": true, "beta_constraint": null}}, {"class_name": "Activation", "inbound_nodes": [[["conv2_block4_0_bn", 0, 0, {}]]], "name": "conv2_block4_0_relu", "config": {"activation": "relu", "name": "conv2_block4_0_relu", "trainable": false, "dtype": "float32"}}, {"class_name": "Conv2D", "inbound_nodes": [[["conv2_block4_0_relu", 0, 0, {}]]], "name": "conv2_block4_1_conv", "config": {"use_bias": false, "kernel_initializer": {"class_name": "GlorotUniform", "config": {"seed": null}}, "filters": 128, "bias_initializer": {"class_name": "Zeros", "config": {}}, "bias_regularizer": null, "dilation_rate": [1, 1], "strides": [1, 1], "data_format": "channels_last", "trainable": false, "dtype": "float32", "activation": "linear", "padding": "valid", "kernel_size": [1, 1], "bias_constraint": null, "kernel_regularizer": null, "name": "conv2_block4_1_conv", "activity_regularizer": null, "kernel_constraint": null}}, {"class_name": "BatchNormalization", "inbound_nodes": [[["conv2_block4_1_conv", 0, 0, {}]]], "name": "conv2_block4_1_bn", "config": {"scale": true, "beta_initializer": {"class_name": "Zeros", "config": {}}, "gamma_regularizer": null, "gamma_constraint": null, "axis": [3], "trainable": false, "dtype": "float32", "momentum": 0.99, "beta_regularizer": null, "gamma_initializer": {"class_name": "Ones", "config": {}}, "epsilon": 1.001e-05, "moving_variance_initializer": {"class_name": "Ones", "config": {}}, "name": "conv2_block4_1_bn", "moving_mean_initializer": {"class_name": "Zeros", "config": {}}, "center": true, "beta_constraint": null}}, {"class_name": "Activation", "inbound_nodes": [[["conv2_block4_1_bn", 0, 0, {}]]], "name": "conv2_block4_1_relu", "config": {"activation": "relu", "name": "conv2_block4_1_relu", "trainable": false, "dtype": "float32"}}, {"class_name": "Conv2D", "inbound_nodes": [[["conv2_block4_1_relu", 0, 0, {}]]], "name": "conv2_block4_2_conv", "config": {"use_bias": false, "kernel_initializer": {"class_name": "GlorotUniform", "config": {"seed": null}}, "filters": 32, "bias_initializer": {"class_name": "Zeros", "config": {}}, "bias_regularizer": null, "dilation_rate": [1, 1], "strides": [1, 1], "data_format": "channels_last", "trainable": false, "dtype": "float32", "activation": "linear", "padding": "same", "kernel_size": [3, 3], "bias_constraint": null, "kernel_regularizer": null, "name": "conv2_block4_2_conv", "activity_regularizer": null, "kernel_constraint": null}}, {"class_name": "Concatenate", "inbound_nodes": [[["conv2_block3_concat", 0, 0, {}], ["conv2_block4_2_conv", 0, 0, {}]]], "name": "conv2_block4_concat", "config": {"name": "conv2_block4_concat", "axis": 3, "trainable": false, "dtype": "float32"}}, {"class_name": "BatchNormalization", "inbound_nodes": [[["conv2_block4_concat", 0, 0, {}]]], "name": "conv2_block5_0_bn", "config": {"scale": true, "beta_initializer": {"class_name": "Zeros", "config": {}}, "gamma_regularizer": null, "gamma_constraint": null, "axis": [3], "trainable": false, "dtype": "float32", "momentum": 0.99, "beta_regularizer": null, "gamma_initializer": {"class_name": "Ones", "config": {}}, "epsilon": 1.001e-05, "moving_variance_initializer": {"class_name": "Ones", "config": {}}, "name": "conv2_block5_0_bn", "moving_mean_initializer": {"class_name": "Zeros", "config": {}}, "center": true, "beta_constraint": null}}, {"class_name": "Activation", "inbound_nodes": [[["conv2_block5_0_bn", 0, 0, {}]]], "name": "conv2_block5_0_relu", "config": {"activation": "relu", "name": "conv2_block5_0_relu", "trainable": false, "dtype": "float32"}}, {"class_name": "Conv2D", "inbound_nodes": [[["conv2_block5_0_relu", 0, 0, {}]]], "name": "conv2_block5_1_conv", "config": {"use_bias": false, "kernel_initializer": {"class_name": "GlorotUniform", "config": {"seed": null}}, "filters": 128, "bias_initializer": {"class_name": "Zeros", "config": {}}, "bias_regularizer": null, "dilation_rate": [1, 1], "strides": [1, 1], "data_format": "channels_last", "trainable": false, "dtype": "float32", "activation": "linear", "padding": "valid", "kernel_size": [1, 1], "bias_constraint": null, "kernel_regularizer": null, "name": "conv2_block5_1_conv", "activity_regularizer": null, "kernel_constraint": null}}, {"class_name": "BatchNormalization", "inbound_nodes": [[["conv2_block5_1_conv", 0, 0, {}]]], "name": "conv2_block5_1_bn", "config": {"scale": true, "beta_initializer": {"class_name": "Zeros", "config": {}}, "gamma_regularizer": null, "gamma_constraint": null, "axis": [3], "trainable": false, "dtype": "float32", "momentum": 0.99, "beta_regularizer": null, "gamma_initializer": {"class_name": "Ones", "config": {}}, "epsilon": 1.001e-05, "moving_variance_initializer": {"class_name": "Ones", "config": {}}, "name": "conv2_block5_1_bn", "moving_mean_initializer": {"class_name": "Zeros", "config": {}}, "center": true, "beta_constraint": null}}, {"class_name": "Activation", "inbound_nodes": [[["conv2_block5_1_bn", 0, 0, {}]]], "name": "conv2_block5_1_relu", "config": {"activation": "relu", "name": "conv2_block5_1_relu", "trainable": false, "dtype": "float32"}}, {"class_name": "Conv2D", "inbound_nodes": [[["conv2_block5_1_relu", 0, 0, {}]]], "name": "conv2_block5_2_conv", "config": {"use_bias": false, "kernel_initializer": {"class_name": "GlorotUniform", "config": {"seed": null}}, "filters": 32, "bias_initializer": {"class_name": "Zeros", "config": {}}, "bias_regularizer": null, "dilation_rate": [1, 1], "strides": [1, 1], "data_format": "channels_last", "trainable": false, "dtype": "float32", "activation": "linear", "padding": "same", "kernel_size": [3, 3], "bias_constraint": null, "kernel_regularizer": null, "name": "conv2_block5_2_conv", "activity_regularizer": null, "kernel_constraint": null}}, {"class_name": "Concatenate", "inbound_nodes": [[["conv2_block4_concat", 0, 0, {}], ["conv2_block5_2_conv", 0, 0, {}]]], "name": "conv2_block5_concat", "config": {"name": "conv2_block5_concat", "axis": 3, "trainable": false, "dtype": "float32"}}, {"class_name": "BatchNormalization", "inbound_nodes": [[["conv2_block5_concat", 0, 0, {}]]], "name": "conv2_block6_0_bn", "config": {"scale": true, "beta_initializer": {"class_name": "Zeros", "config": {}}, "gamma_regularizer": null, "gamma_constraint": null, "axis": [3], "trainable": false, "dtype": "float32", "momentum": 0.99, "beta_regularizer": null, "gamma_initializer": {"class_name": "Ones", "config": {}}, "epsilon": 1.001e-05, "moving_variance_initializer": {"class_name": "Ones", "config": {}}, "name": "conv2_block6_0_bn", "moving_mean_initializer": {"class_name": "Zeros", "config": {}}, "center": true, "beta_constraint": null}}, {"class_name": "Activation", "inbound_nodes": [[["conv2_block6_0_bn", 0, 0, {}]]], "name": "conv2_block6_0_relu", "config": {"activation": "relu", "name": "conv2_block6_0_relu", "trainable": false, "dtype": "float32"}}, {"class_name": "Conv2D", "inbound_nodes": [[["conv2_block6_0_relu", 0, 0, {}]]], "name": "conv2_block6_1_conv", "config": {"use_bias": false, "kernel_initializer": {"class_name": "GlorotUniform", "config": {"seed": null}}, "filters": 128, "bias_initializer": {"class_name": "Zeros", "config": {}}, "bias_regularizer": null, "dilation_rate": [1, 1], "strides": [1, 1], "data_format": "channels_last", "trainable": false, "dtype": "float32", "activation": "linear", "padding": "valid", "kernel_size": [1, 1], "bias_constraint": null, "kernel_regularizer": null, "name": "conv2_block6_1_conv", "activity_regularizer": null, "kernel_constraint": null}}, {"class_name": "BatchNormalization", "inbound_nodes": [[["conv2_block6_1_conv", 0, 0, {}]]], "name": "conv2_block6_1_bn", "config": {"scale": true, "beta_initializer": {"class_name": "Zeros", "config": {}}, "gamma_regularizer": null, "gamma_constraint": null, "axis": [3], "trainable": false, "dtype": "float32", "momentum": 0.99, "beta_regularizer": null, "gamma_initializer": {"class_name": "Ones", "config": {}}, "epsilon": 1.001e-05, "moving_variance_initializer": {"class_name": "Ones", "config": {}}, "name": "conv2_block6_1_bn", "moving_mean_initializer": {"class_name": "Zeros", "config": {}}, "center": true, "beta_constraint": null}}, {"class_name": "Activation", "inbound_nodes": [[["conv2_block6_1_bn", 0, 0, {}]]], "name": "conv2_block6_1_relu", "config": {"activation": "relu", "name": "conv2_block6_1_relu", "trainable": false, "dtype": "float32"}}, {"class_name": "Conv2D", "inbound_nodes": [[["conv2_block6_1_relu", 0, 0, {}]]], "name": "conv2_block6_2_conv", "config": {"use_bias": false, "kernel_initializer": {"class_name": "GlorotUniform", "config": {"seed": null}}, "filters": 32, "bias_initializer": {"class_name": "Zeros", "config": {}}, "bias_regularizer": null, "dilation_rate": [1, 1], "strides": [1, 1], "data_format": "channels_last", "trainable": false, "dtype": "float32", "activation": "linear", "padding": "same", "kernel_size": [3, 3], "bias_constraint": null, "kernel_regularizer": null, "name": "conv2_block6_2_conv", "activity_regularizer": null, "kernel_constraint": null}}, {"class_name": "Concatenate", "inbound_nodes": [[["conv2_block5_concat", 0, 0, {}], ["conv2_block6_2_conv", 0, 0, {}]]], "name": "conv2_block6_concat", "config": {"name": "conv2_block6_concat", "axis": 3, "trainable": false, "dtype": "float32"}}, {"class_name": "BatchNormalization", "inbound_nodes": [[["conv2_block6_concat", 0, 0, {}]]], "name": "pool2_bn", "config": {"scale": true, "beta_initializer": {"class_name": "Zeros", "config": {}}, "gamma_regularizer": null, "gamma_constraint": null, "axis": [3], "trainable": false, "dtype": "float32", "momentum": 0.99, "beta_regularizer": null, "gamma_initializer": {"class_name": "Ones", "config": {}}, "epsilon": 1.001e-05, "moving_variance_initializer": {"class_name": "Ones", "config": {}}, "name": "pool2_bn", "moving_mean_initializer": {"class_name": "Zeros", "config": {}}, "center": true, "beta_constraint": null}}, {"class_name": "Activation", "inbound_nodes": [[["pool2_bn", 0, 0, {}]]], "name": "pool2_relu", "config": {"activation": "relu", "name": "pool2_relu", "trainable": false, "dtype": "float32"}}, {"class_name": "Conv2D", "inbound_nodes": [[["pool2_relu", 0, 0, {}]]], "name": "pool2_conv", "config": {"use_bias": false, "kernel_initializer": {"class_name": "GlorotUniform", "config": {"seed": null}}, "filters": 128, "bias_initializer": {"class_name": "Zeros", "config": {}}, "bias_regularizer": null, "dilation_rate": [1, 1], "strides": [1, 1], "data_format": "channels_last", "trainable": false, "dtype": "float32", "activation": "linear", "padding": "valid", "kernel_size": [1, 1], "bias_constraint": null, "kernel_regularizer": null, "name": "pool2_conv", "activity_regularizer": null, "kernel_constraint": null}}, {"class_name": "AveragePooling2D", "inbound_nodes": [[["pool2_conv", 0, 0, {}]]], "name": "pool2_pool", "config": {"padding": "valid", "strides": [2, 2], "name": "pool2_pool", "dtype": "float32", "data_format": "channels_last", "trainable": false, "pool_size": [2, 2]}}, {"class_name": "BatchNormalization", "inbound_nodes": [[["pool2_pool", 0, 0, {}]]], "name": "conv3_block1_0_bn", "config": {"scale": true, "beta_initializer": {"class_name": "Zeros", "config": {}}, "gamma_regularizer": null, "gamma_constraint": null, "axis": [3], "trainable": false, "dtype": "float32", "momentum": 0.99, "beta_regularizer": null, "gamma_initializer": {"class_name": "Ones", "config": {}}, "epsilon": 1.001e-05, "moving_variance_initializer": {"class_name": "Ones", "config": {}}, "name": "conv3_block1_0_bn", "moving_mean_initializer": {"class_name": "Zeros", "config": {}}, "center": true, "beta_constraint": null}}, {"class_name": "Activation", "inbound_nodes": [[["conv3_block1_0_bn", 0, 0, {}]]], "name": "conv3_block1_0_relu", "config": {"activation": "relu", "name": "conv3_block1_0_relu", "trainable": false, "dtype": "float32"}}, {"class_name": "Conv2D", "inbound_nodes": [[["conv3_block1_0_relu", 0, 0, {}]]], "name": "conv3_block1_1_conv", "config": {"use_bias": false, "kernel_initializer": {"class_name": "GlorotUniform", "config": {"seed": null}}, "filters": 128, "bias_initializer": {"class_name": "Zeros", "config": {}}, "bias_regularizer": null, "dilation_rate": [1, 1], "strides": [1, 1], "data_format": "channels_last", "trainable": false, "dtype": "float32", "activation": "linear", "padding": "valid", "kernel_size": [1, 1], "bias_constraint": null, "kernel_regularizer": null, "name": "conv3_block1_1_conv", "activity_regularizer": null, "kernel_constraint": null}}, {"class_name": "BatchNormalization", "inbound_nodes": [[["conv3_block1_1_conv", 0, 0, {}]]], "name": "conv3_block1_1_bn", "config": {"scale": true, "beta_initializer": {"class_name": "Zeros", "config": {}}, "gamma_regularizer": null, "gamma_constraint": null, "axis": [3], "trainable": false, "dtype": "float32", "momentum": 0.99, "beta_regularizer": null, "gamma_initializer": {"class_name": "Ones", "config": {}}, "epsilon": 1.001e-05, "moving_variance_initializer": {"class_name": "Ones", "config": {}}, "name": "conv3_block1_1_bn", "moving_mean_initializer": {"class_name": "Zeros", "config": {}}, "center": true, "beta_constraint": null}}, {"class_name": "Activation", "inbound_nodes": [[["conv3_block1_1_bn", 0, 0, {}]]], "name": "conv3_block1_1_relu", "config": {"activation": "relu", "name": "conv3_block1_1_relu", "trainable": false, "dtype": "float32"}}, {"class_name": "Conv2D", "inbound_nodes": [[["conv3_block1_1_relu", 0, 0, {}]]], "name": "conv3_block1_2_conv", "config": {"use_bias": false, "kernel_initializer": {"class_name": "GlorotUniform", "config": {"seed": null}}, "filters": 32, "bias_initializer": {"class_name": "Zeros", "config": {}}, "bias_regularizer": null, "dilation_rate": [1, 1], "strides": [1, 1], "data_format": "channels_last", "trainable": false, "dtype": "float32", "activation": "linear", "padding": "same", "kernel_size": [3, 3], "bias_constraint": null, "kernel_regularizer": null, "name": "conv3_block1_2_conv", "activity_regularizer": null, "kernel_constraint": null}}, {"class_name": "Concatenate", "inbound_nodes": [[["pool2_pool", 0, 0, {}], ["conv3_block1_2_conv", 0, 0, {}]]], "name": "conv3_block1_concat", "config": {"name": "conv3_block1_concat", "axis": 3, "trainable": false, "dtype": "float32"}}, {"class_name": "BatchNormalization", "inbound_nodes": [[["conv3_block1_concat", 0, 0, {}]]], "name": "conv3_block2_0_bn", "config": {"scale": true, "beta_initializer": {"class_name": "Zeros", "config": {}}, "gamma_regularizer": null, "gamma_constraint": null, "axis": [3], "trainable": false, "dtype": "float32", "momentum": 0.99, "beta_regularizer": null, "gamma_initializer": {"class_name": "Ones", "config": {}}, "epsilon": 1.001e-05, "moving_variance_initializer": {"class_name": "Ones", "config": {}}, "name": "conv3_block2_0_bn", "moving_mean_initializer": {"class_name": "Zeros", "config": {}}, "center": true, "beta_constraint": null}}, {"class_name": "Activation", "inbound_nodes": [[["conv3_block2_0_bn", 0, 0, {}]]], "name": "conv3_block2_0_relu", "config": {"activation": "relu", "name": "conv3_block2_0_relu", "trainable": false, "dtype": "float32"}}, {"class_name": "Conv2D", "inbound_nodes": [[["conv3_block2_0_relu", 0, 0, {}]]], "name": "conv3_block2_1_conv", "config": {"use_bias": false, "kernel_initializer": {"class_name": "GlorotUniform", "config": {"seed": null}}, "filters": 128, "bias_initializer": {"class_name": "Zeros", "config": {}}, "bias_regularizer": null, "dilation_rate": [1, 1], "strides": [1, 1], "data_format": "channels_last", "trainable": false, "dtype": "float32", "activation": "linear", "padding": "valid", "kernel_size": [1, 1], "bias_constraint": null, "kernel_regularizer": null, "name": "conv3_block2_1_conv", "activity_regularizer": null, "kernel_constraint": null}}, {"class_name": "BatchNormalization", "inbound_nodes": [[["conv3_block2_1_conv", 0, 0, {}]]], "name": "conv3_block2_1_bn", "config": {"scale": true, "beta_initializer": {"class_name": "Zeros", "config": {}}, "gamma_regularizer": null, "gamma_constraint": null, "axis": [3], "trainable": false, "dtype": "float32", "momentum": 0.99, "beta_regularizer": null, "gamma_initializer": {"class_name": "Ones", "config": {}}, "epsilon": 1.001e-05, "moving_variance_initializer": {"class_name": "Ones", "config": {}}, "name": "conv3_block2_1_bn", "moving_mean_initializer": {"class_name": "Zeros", "config": {}}, "center": true, "beta_constraint": null}}, {"class_name": "Activation", "inbound_nodes": [[["conv3_block2_1_bn", 0, 0, {}]]], "name": "conv3_block2_1_relu", "config": {"activation": "relu", "name": "conv3_block2_1_relu", "trainable": false, "dtype": "float32"}}, {"class_name": "Conv2D", "inbound_nodes": [[["conv3_block2_1_relu", 0, 0, {}]]], "name": "conv3_block2_2_conv", "config": {"use_bias": false, "kernel_initializer": {"class_name": "GlorotUniform", "config": {"seed": null}}, "filters": 32, "bias_initializer": {"class_name": "Zeros", "config": {}}, "bias_regularizer": null, "dilation_rate": [1, 1], "strides": [1, 1], "data_format": "channels_last", "trainable": false, "dtype": "float32", "activation": "linear", "padding": "same", "kernel_size": [3, 3], "bias_constraint": null, "kernel_regularizer": null, "name": "conv3_block2_2_conv", "activity_regularizer": null, "kernel_constraint": null}}, {"class_name": "Concatenate", "inbound_nodes": [[["conv3_block1_concat", 0, 0, {}], ["conv3_block2_2_conv", 0, 0, {}]]], "name": "conv3_block2_concat", "config": {"name": "conv3_block2_concat", "axis": 3, "trainable": false, "dtype": "float32"}}, {"class_name": "BatchNormalization", "inbound_nodes": [[["conv3_block2_concat", 0, 0, {}]]], "name": "conv3_block3_0_bn", "config": {"scale": true, "beta_initializer": {"class_name": "Zeros", "config": {}}, "gamma_regularizer": null, "gamma_constraint": null, "axis": [3], "trainable": false, "dtype": "float32", "momentum": 0.99, "beta_regularizer": null, "gamma_initializer": {"class_name": "Ones", "config": {}}, "epsilon": 1.001e-05, "moving_variance_initializer": {"class_name": "Ones", "config": {}}, "name": "conv3_block3_0_bn", "moving_mean_initializer": {"class_name": "Zeros", "config": {}}, "center": true, "beta_constraint": null}}, {"class_name": "Activation", "inbound_nodes": [[["conv3_block3_0_bn", 0, 0, {}]]], "name": "conv3_block3_0_relu", "config": {"activation": "relu", "name": "conv3_block3_0_relu", "trainable": false, "dtype": "float32"}}, {"class_name": "Conv2D", "inbound_nodes": [[["conv3_block3_0_relu", 0, 0, {}]]], "name": "conv3_block3_1_conv", "config": {"use_bias": false, "kernel_initializer": {"class_name": "GlorotUniform", "config": {"seed": null}}, "filters": 128, "bias_initializer": {"class_name": "Zeros", "config": {}}, "bias_regularizer": null, "dilation_rate": [1, 1], "strides": [1, 1], "data_format": "channels_last", "trainable": false, "dtype": "float32", "activation": "linear", "padding": "valid", "kernel_size": [1, 1], "bias_constraint": null, "kernel_regularizer": null, "name": "conv3_block3_1_conv", "activity_regularizer": null, "kernel_constraint": null}}, {"class_name": "BatchNormalization", "inbound_nodes": [[["conv3_block3_1_conv", 0, 0, {}]]], "name": "conv3_block3_1_bn", "config": {"scale": true, "beta_initializer": {"class_name": "Zeros", "config": {}}, "gamma_regularizer": null, "gamma_constraint": null, "axis": [3], "trainable": false, "dtype": "float32", "momentum": 0.99, "beta_regularizer": null, "gamma_initializer": {"class_name": "Ones", "config": {}}, "epsilon": 1.001e-05, "moving_variance_initializer": {"class_name": "Ones", "config": {}}, "name": "conv3_block3_1_bn", "moving_mean_initializer": {"class_name": "Zeros", "config": {}}, "center": true, "beta_constraint": null}}, {"class_name": "Activation", "inbound_nodes": [[["conv3_block3_1_bn", 0, 0, {}]]], "name": "conv3_block3_1_relu", "config": {"activation": "relu", "name": "conv3_block3_1_relu", "trainable": false, "dtype": "float32"}}, {"class_name": "Conv2D", "inbound_nodes": [[["conv3_block3_1_relu", 0, 0, {}]]], "name": "conv3_block3_2_conv", "config": {"use_bias": false, "kernel_initializer": {"class_name": "GlorotUniform", "config": {"seed": null}}, "filters": 32, "bias_initializer": {"class_name": "Zeros", "config": {}}, "bias_regularizer": null, "dilation_rate": [1, 1], "strides": [1, 1], "data_format": "channels_last", "trainable": false, "dtype": "float32", "activation": "linear", "padding": "same", "kernel_size": [3, 3], "bias_constraint": null, "kernel_regularizer": null, "name": "conv3_block3_2_conv", "activity_regularizer": null, "kernel_constraint": null}}, {"class_name": "Concatenate", "inbound_nodes": [[["conv3_block2_concat", 0, 0, {}], ["conv3_block3_2_conv", 0, 0, {}]]], "name": "conv3_block3_concat", "config": {"name": "conv3_block3_concat", "axis": 3, "trainable": false, "dtype": "float32"}}, {"class_name": "BatchNormalization", "inbound_nodes": [[["conv3_block3_concat", 0, 0, {}]]], "name": "conv3_block4_0_bn", "config": {"scale": true, "beta_initializer": {"class_name": "Zeros", "config": {}}, "gamma_regularizer": null, "gamma_constraint": null, "axis": [3], "trainable": false, "dtype": "float32", "momentum": 0.99, "beta_regularizer": null, "gamma_initializer": {"class_name": "Ones", "config": {}}, "epsilon": 1.001e-05, "moving_variance_initializer": {"class_name": "Ones", "config": {}}, "name": "conv3_block4_0_bn", "moving_mean_initializer": {"class_name": "Zeros", "config": {}}, "center": true, "beta_constraint": null}}, {"class_name": "Activation", "inbound_nodes": [[["conv3_block4_0_bn", 0, 0, {}]]], "name": "conv3_block4_0_relu", "config": {"activation": "relu", "name": "conv3_block4_0_relu", "trainable": false, "dtype": "float32"}}, {"class_name": "Conv2D", "inbound_nodes": [[["conv3_block4_0_relu", 0, 0, {}]]], "name": "conv3_block4_1_conv", "config": {"use_bias": false, "kernel_initializer": {"class_name": "GlorotUniform", "config": {"seed": null}}, "filters": 128, "bias_initializer": {"class_name": "Zeros", "config": {}}, "bias_regularizer": null, "dilation_rate": [1, 1], "strides": [1, 1], "data_format": "channels_last", "trainable": false, "dtype": "float32", "activation": "linear", "padding": "valid", "kernel_size": [1, 1], "bias_constraint": null, "kernel_regularizer": null, "name": "conv3_block4_1_conv", "activity_regularizer": null, "kernel_constraint": null}}, {"class_name": "BatchNormalization", "inbound_nodes": [[["conv3_block4_1_conv", 0, 0, {}]]], "name": "conv3_block4_1_bn", "config": {"scale": true, "beta_initializer": {"class_name": "Zeros", "config": {}}, "gamma_regularizer": null, "gamma_constraint": null, "axis": [3], "trainable": false, "dtype": "float32", "momentum": 0.99, "beta_regularizer": null, "gamma_initializer": {"class_name": "Ones", "config": {}}, "epsilon": 1.001e-05, "moving_variance_initializer": {"class_name": "Ones", "config": {}}, "name": "conv3_block4_1_bn", "moving_mean_initializer": {"class_name": "Zeros", "config": {}}, "center": true, "beta_constraint": null}}, {"class_name": "Activation", "inbound_nodes": [[["conv3_block4_1_bn", 0, 0, {}]]], "name": "conv3_block4_1_relu", "config": {"activation": "relu", "name": "conv3_block4_1_relu", "trainable": false, "dtype": "float32"}}, {"class_name": "Conv2D", "inbound_nodes": [[["conv3_block4_1_relu", 0, 0, {}]]], "name": "conv3_block4_2_conv", "config": {"use_bias": false, "kernel_initializer": {"class_name": "GlorotUniform", "config": {"seed": null}}, "filters": 32, "bias_initializer": {"class_name": "Zeros", "config": {}}, "bias_regularizer": null, "dilation_rate": [1, 1], "strides": [1, 1], "data_format": "channels_last", "trainable": false, "dtype": "float32", "activation": "linear", "padding": "same", "kernel_size": [3, 3], "bias_constraint": null, "kernel_regularizer": null, "name": "conv3_block4_2_conv", "activity_regularizer": null, "kernel_constraint": null}}, {"class_name": "Concatenate", "inbound_nodes": [[["conv3_block3_concat", 0, 0, {}], ["conv3_block4_2_conv", 0, 0, {}]]], "name": "conv3_block4_concat", "config": {"name": "conv3_block4_concat", "axis": 3, "trainable": false, "dtype": "float32"}}, {"class_name": "BatchNormalization", "inbound_nodes": [[["conv3_block4_concat", 0, 0, {}]]], "name": "conv3_block5_0_bn", "config": {"scale": true, "beta_initializer": {"class_name": "Zeros", "config": {}}, "gamma_regularizer": null, "gamma_constraint": null, "axis": [3], "trainable": false, "dtype": "float32", "momentum": 0.99, "beta_regularizer": null, "gamma_initializer": {"class_name": "Ones", "config": {}}, "epsilon": 1.001e-05, "moving_variance_initializer": {"class_name": "Ones", "config": {}}, "name": "conv3_block5_0_bn", "moving_mean_initializer": {"class_name": "Zeros", "config": {}}, "center": true, "beta_constraint": null}}, {"class_name": "Activation", "inbound_nodes": [[["conv3_block5_0_bn", 0, 0, {}]]], "name": "conv3_block5_0_relu", "config": {"activation": "relu", "name": "conv3_block5_0_relu", "trainable": false, "dtype": "float32"}}, {"class_name": "Conv2D", "inbound_nodes": [[["conv3_block5_0_relu", 0, 0, {}]]], "name": "conv3_block5_1_conv", "config": {"use_bias": false, "kernel_initializer": {"class_name": "GlorotUniform", "config": {"seed": null}}, "filters": 128, "bias_initializer": {"class_name": "Zeros", "config": {}}, "bias_regularizer": null, "dilation_rate": [1, 1], "strides": [1, 1], "data_format": "channels_last", "trainable": false, "dtype": "float32", "activation": "linear", "padding": "valid", "kernel_size": [1, 1], "bias_constraint": null, "kernel_regularizer": null, "name": "conv3_block5_1_conv", "activity_regularizer": null, "kernel_constraint": null}}, {"class_name": "BatchNormalization", "inbound_nodes": [[["conv3_block5_1_conv", 0, 0, {}]]], "name": "conv3_block5_1_bn", "config": {"scale": true, "beta_initializer": {"class_name": "Zeros", "config": {}}, "gamma_regularizer": null, "gamma_constraint": null, "axis": [3], "trainable": false, "dtype": "float32", "momentum": 0.99, "beta_regularizer": null, "gamma_initializer": {"class_name": "Ones", "config": {}}, "epsilon": 1.001e-05, "moving_variance_initializer": {"class_name": "Ones", "config": {}}, "name": "conv3_block5_1_bn", "moving_mean_initializer": {"class_name": "Zeros", "config": {}}, "center": true, "beta_constraint": null}}, {"class_name": "Activation", "inbound_nodes": [[["conv3_block5_1_bn", 0, 0, {}]]], "name": "conv3_block5_1_relu", "config": {"activation": "relu", "name": "conv3_block5_1_relu", "trainable": false, "dtype": "float32"}}, {"class_name": "Conv2D", "inbound_nodes": [[["conv3_block5_1_relu", 0, 0, {}]]], "name": "conv3_block5_2_conv", "config": {"use_bias": false, "kernel_initializer": {"class_name": "GlorotUniform", "config": {"seed": null}}, "filters": 32, "bias_initializer": {"class_name": "Zeros", "config": {}}, "bias_regularizer": null, "dilation_rate": [1, 1], "strides": [1, 1], "data_format": "channels_last", "trainable": false, "dtype": "float32", "activation": "linear", "padding": "same", "kernel_size": [3, 3], "bias_constraint": null, "kernel_regularizer": null, "name": "conv3_block5_2_conv", "activity_regularizer": null, "kernel_constraint": null}}, {"class_name": "Concatenate", "inbound_nodes": [[["conv3_block4_concat", 0, 0, {}], ["conv3_block5_2_conv", 0, 0, {}]]], "name": "conv3_block5_concat", "config": {"name": "conv3_block5_concat", "axis": 3, "trainable": false, "dtype": "float32"}}, {"class_name": "BatchNormalization", "inbound_nodes": [[["conv3_block5_concat", 0, 0, {}]]], "name": "conv3_block6_0_bn", "config": {"scale": true, "beta_initializer": {"class_name": "Zeros", "config": {}}, "gamma_regularizer": null, "gamma_constraint": null, "axis": [3], "trainable": false, "dtype": "float32", "momentum": 0.99, "beta_regularizer": null, "gamma_initializer": {"class_name": "Ones", "config": {}}, "epsilon": 1.001e-05, "moving_variance_initializer": {"class_name": "Ones", "config": {}}, "name": "conv3_block6_0_bn", "moving_mean_initializer": {"class_name": "Zeros", "config": {}}, "center": true, "beta_constraint": null}}, {"class_name": "Activation", "inbound_nodes": [[["conv3_block6_0_bn", 0, 0, {}]]], "name": "conv3_block6_0_relu", "config": {"activation": "relu", "name": "conv3_block6_0_relu", "trainable": false, "dtype": "float32"}}, {"class_name": "Conv2D", "inbound_nodes": [[["conv3_block6_0_relu", 0, 0, {}]]], "name": "conv3_block6_1_conv", "config": {"use_bias": false, "kernel_initializer": {"class_name": "GlorotUniform", "config": {"seed": null}}, "filters": 128, "bias_initializer": {"class_name": "Zeros", "config": {}}, "bias_regularizer": null, "dilation_rate": [1, 1], "strides": [1, 1], "data_format": "channels_last", "trainable": false, "dtype": "float32", "activation": "linear", "padding": "valid", "kernel_size": [1, 1], "bias_constraint": null, "kernel_regularizer": null, "name": "conv3_block6_1_conv", "activity_regularizer": null, "kernel_constraint": null}}, {"class_name": "BatchNormalization", "inbound_nodes": [[["conv3_block6_1_conv", 0, 0, {}]]], "name": "conv3_block6_1_bn", "config": {"scale": true, "beta_initializer": {"class_name": "Zeros", "config": {}}, "gamma_regularizer": null, "gamma_constraint": null, "axis": [3], "trainable": false, "dtype": "float32", "momentum": 0.99, "beta_regularizer": null, "gamma_initializer": {"class_name": "Ones", "config": {}}, "epsilon": 1.001e-05, "moving_variance_initializer": {"class_name": "Ones", "config": {}}, "name": "conv3_block6_1_bn", "moving_mean_initializer": {"class_name": "Zeros", "config": {}}, "center": true, "beta_constraint": null}}, {"class_name": "Activation", "inbound_nodes": [[["conv3_block6_1_bn", 0, 0, {}]]], "name": "conv3_block6_1_relu", "config": {"activation": "relu", "name": "conv3_block6_1_relu", "trainable": false, "dtype": "float32"}}, {"class_name": "Conv2D", "inbound_nodes": [[["conv3_block6_1_relu", 0, 0, {}]]], "name": "conv3_block6_2_conv", "config": {"use_bias": false, "kernel_initializer": {"class_name": "GlorotUniform", "config": {"seed": null}}, "filters": 32, "bias_initializer": {"class_name": "Zeros", "config": {}}, "bias_regularizer": null, "dilation_rate": [1, 1], "strides": [1, 1], "data_format": "channels_last", "trainable": false, "dtype": "float32", "activation": "linear", "padding": "same", "kernel_size": [3, 3], "bias_constraint": null, "kernel_regularizer": null, "name": "conv3_block6_2_conv", "activity_regularizer": null, "kernel_constraint": null}}, {"class_name": "Concatenate", "inbound_nodes": [[["conv3_block5_concat", 0, 0, {}], ["conv3_block6_2_conv", 0, 0, {}]]], "name": "conv3_block6_concat", "config": {"name": "conv3_block6_concat", "axis": 3, "trainable": false, "dtype": "float32"}}, {"class_name": "BatchNormalization", "inbound_nodes": [[["conv3_block6_concat", 0, 0, {}]]], "name": "conv3_block7_0_bn", "config": {"scale": true, "beta_initializer": {"class_name": "Zeros", "config": {}}, "gamma_regularizer": null, "gamma_constraint": null, "axis": [3], "trainable": false, "dtype": "float32", "momentum": 0.99, "beta_regularizer": null, "gamma_initializer": {"class_name": "Ones", "config": {}}, "epsilon": 1.001e-05, "moving_variance_initializer": {"class_name": "Ones", "config": {}}, "name": "conv3_block7_0_bn", "moving_mean_initializer": {"class_name": "Zeros", "config": {}}, "center": true, "beta_constraint": null}}, {"class_name": "Activation", "inbound_nodes": [[["conv3_block7_0_bn", 0, 0, {}]]], "name": "conv3_block7_0_relu", "config": {"activation": "relu", "name": "conv3_block7_0_relu", "trainable": false, "dtype": "float32"}}, {"class_name": "Conv2D", "inbound_nodes": [[["conv3_block7_0_relu", 0, 0, {}]]], "name": "conv3_block7_1_conv", "config": {"use_bias": false, "kernel_initializer": {"class_name": "GlorotUniform", "config": {"seed": null}}, "filters": 128, "bias_initializer": {"class_name": "Zeros", "config": {}}, "bias_regularizer": null, "dilation_rate": [1, 1], "strides": [1, 1], "data_format": "channels_last", "trainable": false, "dtype": "float32", "activation": "linear", "padding": "valid", "kernel_size": [1, 1], "bias_constraint": null, "kernel_regularizer": null, "name": "conv3_block7_1_conv", "activity_regularizer": null, "kernel_constraint": null}}, {"class_name": "BatchNormalization", "inbound_nodes": [[["conv3_block7_1_conv", 0, 0, {}]]], "name": "conv3_block7_1_bn", "config": {"scale": true, "beta_initializer": {"class_name": "Zeros", "config": {}}, "gamma_regularizer": null, "gamma_constraint": null, "axis": [3], "trainable": false, "dtype": "float32", "momentum": 0.99, "beta_regularizer": null, "gamma_initializer": {"class_name": "Ones", "config": {}}, "epsilon": 1.001e-05, "moving_variance_initializer": {"class_name": "Ones", "config": {}}, "name": "conv3_block7_1_bn", "moving_mean_initializer": {"class_name": "Zeros", "config": {}}, "center": true, "beta_constraint": null}}, {"class_name": "Activation", "inbound_nodes": [[["conv3_block7_1_bn", 0, 0, {}]]], "name": "conv3_block7_1_relu", "config": {"activation": "relu", "name": "conv3_block7_1_relu", "trainable": false, "dtype": "float32"}}, {"class_name": "Conv2D", "inbound_nodes": [[["conv3_block7_1_relu", 0, 0, {}]]], "name": "conv3_block7_2_conv", "config": {"use_bias": false, "kernel_initializer": {"class_name": "GlorotUniform", "config": {"seed": null}}, "filters": 32, "bias_initializer": {"class_name": "Zeros", "config": {}}, "bias_regularizer": null, "dilation_rate": [1, 1], "strides": [1, 1], "data_format": "channels_last", "trainable": false, "dtype": "float32", "activation": "linear", "padding": "same", "kernel_size": [3, 3], "bias_constraint": null, "kernel_regularizer": null, "name": "conv3_block7_2_conv", "activity_regularizer": null, "kernel_constraint": null}}, {"class_name": "Concatenate", "inbound_nodes": [[["conv3_block6_concat", 0, 0, {}], ["conv3_block7_2_conv", 0, 0, {}]]], "name": "conv3_block7_concat", "config": {"name": "conv3_block7_concat", "axis": 3, "trainable": false, "dtype": "float32"}}, {"class_name": "BatchNormalization", "inbound_nodes": [[["conv3_block7_concat", 0, 0, {}]]], "name": "conv3_block8_0_bn", "config": {"scale": true, "beta_initializer": {"class_name": "Zeros", "config": {}}, "gamma_regularizer": null, "gamma_constraint": null, "axis": [3], "trainable": false, "dtype": "float32", "momentum": 0.99, "beta_regularizer": null, "gamma_initializer": {"class_name": "Ones", "config": {}}, "epsilon": 1.001e-05, "moving_variance_initializer": {"class_name": "Ones", "config": {}}, "name": "conv3_block8_0_bn", "moving_mean_initializer": {"class_name": "Zeros", "config": {}}, "center": true, "beta_constraint": null}}, {"class_name": "Activation", "inbound_nodes": [[["conv3_block8_0_bn", 0, 0, {}]]], "name": "conv3_block8_0_relu", "config": {"activation": "relu", "name": "conv3_block8_0_relu", "trainable": false, "dtype": "float32"}}, {"class_name": "Conv2D", "inbound_nodes": [[["conv3_block8_0_relu", 0, 0, {}]]], "name": "conv3_block8_1_conv", "config": {"use_bias": false, "kernel_initializer": {"class_name": "GlorotUniform", "config": {"seed": null}}, "filters": 128, "bias_initializer": {"class_name": "Zeros", "config": {}}, "bias_regularizer": null, "dilation_rate": [1, 1], "strides": [1, 1], "data_format": "channels_last", "trainable": false, "dtype": "float32", "activation": "linear", "padding": "valid", "kernel_size": [1, 1], "bias_constraint": null, "kernel_regularizer": null, "name": "conv3_block8_1_conv", "activity_regularizer": null, "kernel_constraint": null}}, {"class_name": "BatchNormalization", "inbound_nodes": [[["conv3_block8_1_conv", 0, 0, {}]]], "name": "conv3_block8_1_bn", "config": {"scale": true, "beta_initializer": {"class_name": "Zeros", "config": {}}, "gamma_regularizer": null, "gamma_constraint": null, "axis": [3], "trainable": false, "dtype": "float32", "momentum": 0.99, "beta_regularizer": null, "gamma_initializer": {"class_name": "Ones", "config": {}}, "epsilon": 1.001e-05, "moving_variance_initializer": {"class_name": "Ones", "config": {}}, "name": "conv3_block8_1_bn", "moving_mean_initializer": {"class_name": "Zeros", "config": {}}, "center": true, "beta_constraint": null}}, {"class_name": "Activation", "inbound_nodes": [[["conv3_block8_1_bn", 0, 0, {}]]], "name": "conv3_block8_1_relu", "config": {"activation": "relu", "name": "conv3_block8_1_relu", "trainable": false, "dtype": "float32"}}, {"class_name": "Conv2D", "inbound_nodes": [[["conv3_block8_1_relu", 0, 0, {}]]], "name": "conv3_block8_2_conv", "config": {"use_bias": false, "kernel_initializer": {"class_name": "GlorotUniform", "config": {"seed": null}}, "filters": 32, "bias_initializer": {"class_name": "Zeros", "config": {}}, "bias_regularizer": null, "dilation_rate": [1, 1], "strides": [1, 1], "data_format": "channels_last", "trainable": false, "dtype": "float32", "activation": "linear", "padding": "same", "kernel_size": [3, 3], "bias_constraint": null, "kernel_regularizer": null, "name": "conv3_block8_2_conv", "activity_regularizer": null, "kernel_constraint": null}}, {"class_name": "Concatenate", "inbound_nodes": [[["conv3_block7_concat", 0, 0, {}], ["conv3_block8_2_conv", 0, 0, {}]]], "name": "conv3_block8_concat", "config": {"name": "conv3_block8_concat", "axis": 3, "trainable": false, "dtype": "float32"}}, {"class_name": "BatchNormalization", "inbound_nodes": [[["conv3_block8_concat", 0, 0, {}]]], "name": "conv3_block9_0_bn", "config": {"scale": true, "beta_initializer": {"class_name": "Zeros", "config": {}}, "gamma_regularizer": null, "gamma_constraint": null, "axis": [3], "trainable": false, "dtype": "float32", "momentum": 0.99, "beta_regularizer": null, "gamma_initializer": {"class_name": "Ones", "config": {}}, "epsilon": 1.001e-05, "moving_variance_initializer": {"class_name": "Ones", "config": {}}, "name": "conv3_block9_0_bn", "moving_mean_initializer": {"class_name": "Zeros", "config": {}}, "center": true, "beta_constraint": null}}, {"class_name": "Activation", "inbound_nodes": [[["conv3_block9_0_bn", 0, 0, {}]]], "name": "conv3_block9_0_relu", "config": {"activation": "relu", "name": "conv3_block9_0_relu", "trainable": false, "dtype": "float32"}}, {"class_name": "Conv2D", "inbound_nodes": [[["conv3_block9_0_relu", 0, 0, {}]]], "name": "conv3_block9_1_conv", "config": {"use_bias": false, "kernel_initializer": {"class_name": "GlorotUniform", "config": {"seed": null}}, "filters": 128, "bias_initializer": {"class_name": "Zeros", "config": {}}, "bias_regularizer": null, "dilation_rate": [1, 1], "strides": [1, 1], "data_format": "channels_last", "trainable": false, "dtype": "float32", "activation": "linear", "padding": "valid", "kernel_size": [1, 1], "bias_constraint": null, "kernel_regularizer": null, "name": "conv3_block9_1_conv", "activity_regularizer": null, "kernel_constraint": null}}, {"class_name": "BatchNormalization", "inbound_nodes": [[["conv3_block9_1_conv", 0, 0, {}]]], "name": "conv3_block9_1_bn", "config": {"scale": true, "beta_initializer": {"class_name": "Zeros", "config": {}}, "gamma_regularizer": null, "gamma_constraint": null, "axis": [3], "trainable": false, "dtype": "float32", "momentum": 0.99, "beta_regularizer": null, "gamma_initializer": {"class_name": "Ones", "config": {}}, "epsilon": 1.001e-05, "moving_variance_initializer": {"class_name": "Ones", "config": {}}, "name": "conv3_block9_1_bn", "moving_mean_initializer": {"class_name": "Zeros", "config": {}}, "center": true, "beta_constraint": null}}, {"class_name": "Activation", "inbound_nodes": [[["conv3_block9_1_bn", 0, 0, {}]]], "name": "conv3_block9_1_relu", "config": {"activation": "relu", "name": "conv3_block9_1_relu", "trainable": false, "dtype": "float32"}}, {"class_name": "Conv2D", "inbound_nodes": [[["conv3_block9_1_relu", 0, 0, {}]]], "name": "conv3_block9_2_conv", "config": {"use_bias": false, "kernel_initializer": {"class_name": "GlorotUniform", "config": {"seed": null}}, "filters": 32, "bias_initializer": {"class_name": "Zeros", "config": {}}, "bias_regularizer": null, "dilation_rate": [1, 1], "strides": [1, 1], "data_format": "channels_last", "trainable": false, "dtype": "float32", "activation": "linear", "padding": "same", "kernel_size": [3, 3], "bias_constraint": null, "kernel_regularizer": null, "name": "conv3_block9_2_conv", "activity_regularizer": null, "kernel_constraint": null}}, {"class_name": "Concatenate", "inbound_nodes": [[["conv3_block8_concat", 0, 0, {}], ["conv3_block9_2_conv", 0, 0, {}]]], "name": "conv3_block9_concat", "config": {"name": "conv3_block9_concat", "axis": 3, "trainable": false, "dtype": "float32"}}, {"class_name": "BatchNormalization", "inbound_nodes": [[["conv3_block9_concat", 0, 0, {}]]], "name": "conv3_block10_0_bn", "config": {"scale": true, "beta_initializer": {"class_name": "Zeros", "config": {}}, "gamma_regularizer": null, "gamma_constraint": null, "axis": [3], "trainable": false, "dtype": "float32", "momentum": 0.99, "beta_regularizer": null, "gamma_initializer": {"class_name": "Ones", "config": {}}, "epsilon": 1.001e-05, "moving_variance_initializer": {"class_name": "Ones", "config": {}}, "name": "conv3_block10_0_bn", "moving_mean_initializer": {"class_name": "Zeros", "config": {}}, "center": true, "beta_constraint": null}}, {"class_name": "Activation", "inbound_nodes": [[["conv3_block10_0_bn", 0, 0, {}]]], "name": "conv3_block10_0_relu", "config": {"activation": "relu", "name": "conv3_block10_0_relu", "trainable": false, "dtype": "float32"}}, {"class_name": "Conv2D", "inbound_nodes": [[["conv3_block10_0_relu", 0, 0, {}]]], "name": "conv3_block10_1_conv", "config": {"use_bias": false, "kernel_initializer": {"class_name": "GlorotUniform", "config": {"seed": null}}, "filters": 128, "bias_initializer": {"class_name": "Zeros", "config": {}}, "bias_regularizer": null, "dilation_rate": [1, 1], "strides": [1, 1], "data_format": "channels_last", "trainable": false, "dtype": "float32", "activation": "linear", "padding": "valid", "kernel_size": [1, 1], "bias_constraint": null, "kernel_regularizer": null, "name": "conv3_block10_1_conv", "activity_regularizer": null, "kernel_constraint": null}}, {"class_name": "BatchNormalization", "inbound_nodes": [[["conv3_block10_1_conv", 0, 0, {}]]], "name": "conv3_block10_1_bn", "config": {"scale": true, "beta_initializer": {"class_name": "Zeros", "config": {}}, "gamma_regularizer": null, "gamma_constraint": null, "axis": [3], "trainable": false, "dtype": "float32", "momentum": 0.99, "beta_regularizer": null, "gamma_initializer": {"class_name": "Ones", "config": {}}, "epsilon": 1.001e-05, "moving_variance_initializer": {"class_name": "Ones", "config": {}}, "name": "conv3_block10_1_bn", "moving_mean_initializer": {"class_name": "Zeros", "config": {}}, "center": true, "beta_constraint": null}}, {"class_name": "Activation", "inbound_nodes": [[["conv3_block10_1_bn", 0, 0, {}]]], "name": "conv3_block10_1_relu", "config": {"activation": "relu", "name": "conv3_block10_1_relu", "trainable": false, "dtype": "float32"}}, {"class_name": "Conv2D", "inbound_nodes": [[["conv3_block10_1_relu", 0, 0, {}]]], "name": "conv3_block10_2_conv", "config": {"use_bias": false, "kernel_initializer": {"class_name": "GlorotUniform", "config": {"seed": null}}, "filters": 32, "bias_initializer": {"class_name": "Zeros", "config": {}}, "bias_regularizer": null, "dilation_rate": [1, 1], "strides": [1, 1], "data_format": "channels_last", "trainable": false, "dtype": "float32", "activation": "linear", "padding": "same", "kernel_size": [3, 3], "bias_constraint": null, "kernel_regularizer": null, "name": "conv3_block10_2_conv", "activity_regularizer": null, "kernel_constraint": null}}, {"class_name": "Concatenate", "inbound_nodes": [[["conv3_block9_concat", 0, 0, {}], ["conv3_block10_2_conv", 0, 0, {}]]], "name": "conv3_block10_concat", "config": {"name": "conv3_block10_concat", "axis": 3, "trainable": false, "dtype": "float32"}}, {"class_name": "BatchNormalization", "inbound_nodes": [[["conv3_block10_concat", 0, 0, {}]]], "name": "conv3_block11_0_bn", "config": {"scale": true, "beta_initializer": {"class_name": "Zeros", "config": {}}, "gamma_regularizer": null, "gamma_constraint": null, "axis": [3], "trainable": false, "dtype": "float32", "momentum": 0.99, "beta_regularizer": null, "gamma_initializer": {"class_name": "Ones", "config": {}}, "epsilon": 1.001e-05, "moving_variance_initializer": {"class_name": "Ones", "config": {}}, "name": "conv3_block11_0_bn", "moving_mean_initializer": {"class_name": "Zeros", "config": {}}, "center": true, "beta_constraint": null}}, {"class_name": "Activation", "inbound_nodes": [[["conv3_block11_0_bn", 0, 0, {}]]], "name": "conv3_block11_0_relu", "config": {"activation": "relu", "name": "conv3_block11_0_relu", "trainable": false, "dtype": "float32"}}, {"class_name": "Conv2D", "inbound_nodes": [[["conv3_block11_0_relu", 0, 0, {}]]], "name": "conv3_block11_1_conv", "config": {"use_bias": false, "kernel_initializer": {"class_name": "GlorotUniform", "config": {"seed": null}}, "filters": 128, "bias_initializer": {"class_name": "Zeros", "config": {}}, "bias_regularizer": null, "dilation_rate": [1, 1], "strides": [1, 1], "data_format": "channels_last", "trainable": false, "dtype": "float32", "activation": "linear", "padding": "valid", "kernel_size": [1, 1], "bias_constraint": null, "kernel_regularizer": null, "name": "conv3_block11_1_conv", "activity_regularizer": null, "kernel_constraint": null}}, {"class_name": "BatchNormalization", "inbound_nodes": [[["conv3_block11_1_conv", 0, 0, {}]]], "name": "conv3_block11_1_bn", "config": {"scale": true, "beta_initializer": {"class_name": "Zeros", "config": {}}, "gamma_regularizer": null, "gamma_constraint": null, "axis": [3], "trainable": false, "dtype": "float32", "momentum": 0.99, "beta_regularizer": null, "gamma_initializer": {"class_name": "Ones", "config": {}}, "epsilon": 1.001e-05, "moving_variance_initializer": {"class_name": "Ones", "config": {}}, "name": "conv3_block11_1_bn", "moving_mean_initializer": {"class_name": "Zeros", "config": {}}, "center": true, "beta_constraint": null}}, {"class_name": "Activation", "inbound_nodes": [[["conv3_block11_1_bn", 0, 0, {}]]], "name": "conv3_block11_1_relu", "config": {"activation": "relu", "name": "conv3_block11_1_relu", "trainable": false, "dtype": "float32"}}, {"class_name": "Conv2D", "inbound_nodes": [[["conv3_block11_1_relu", 0, 0, {}]]], "name": "conv3_block11_2_conv", "config": {"use_bias": false, "kernel_initializer": {"class_name": "GlorotUniform", "config": {"seed": null}}, "filters": 32, "bias_initializer": {"class_name": "Zeros", "config": {}}, "bias_regularizer": null, "dilation_rate": [1, 1], "strides": [1, 1], "data_format": "channels_last", "trainable": false, "dtype": "float32", "activation": "linear", "padding": "same", "kernel_size": [3, 3], "bias_constraint": null, "kernel_regularizer": null, "name": "conv3_block11_2_conv", "activity_regularizer": null, "kernel_constraint": null}}, {"class_name": "Concatenate", "inbound_nodes": [[["conv3_block10_concat", 0, 0, {}], ["conv3_block11_2_conv", 0, 0, {}]]], "name": "conv3_block11_concat", "config": {"name": "conv3_block11_concat", "axis": 3, "trainable": false, "dtype": "float32"}}, {"class_name": "BatchNormalization", "inbound_nodes": [[["conv3_block11_concat", 0, 0, {}]]], "name": "conv3_block12_0_bn", "config": {"scale": true, "beta_initializer": {"class_name": "Zeros", "config": {}}, "gamma_regularizer": null, "gamma_constraint": null, "axis": [3], "trainable": false, "dtype": "float32", "momentum": 0.99, "beta_regularizer": null, "gamma_initializer": {"class_name": "Ones", "config": {}}, "epsilon": 1.001e-05, "moving_variance_initializer": {"class_name": "Ones", "config": {}}, "name": "conv3_block12_0_bn", "moving_mean_initializer": {"class_name": "Zeros", "config": {}}, "center": true, "beta_constraint": null}}, {"class_name": "Activation", "inbound_nodes": [[["conv3_block12_0_bn", 0, 0, {}]]], "name": "conv3_block12_0_relu", "config": {"activation": "relu", "name": "conv3_block12_0_relu", "trainable": false, "dtype": "float32"}}, {"class_name": "Conv2D", "inbound_nodes": [[["conv3_block12_0_relu", 0, 0, {}]]], "name": "conv3_block12_1_conv", "config": {"use_bias": false, "kernel_initializer": {"class_name": "GlorotUniform", "config": {"seed": null}}, "filters": 128, "bias_initializer": {"class_name": "Zeros", "config": {}}, "bias_regularizer": null, "dilation_rate": [1, 1], "strides": [1, 1], "data_format": "channels_last", "trainable": false, "dtype": "float32", "activation": "linear", "padding": "valid", "kernel_size": [1, 1], "bias_constraint": null, "kernel_regularizer": null, "name": "conv3_block12_1_conv", "activity_regularizer": null, "kernel_constraint": null}}, {"class_name": "BatchNormalization", "inbound_nodes": [[["conv3_block12_1_conv", 0, 0, {}]]], "name": "conv3_block12_1_bn", "config": {"scale": true, "beta_initializer": {"class_name": "Zeros", "config": {}}, "gamma_regularizer": null, "gamma_constraint": null, "axis": [3], "trainable": false, "dtype": "float32", "momentum": 0.99, "beta_regularizer": null, "gamma_initializer": {"class_name": "Ones", "config": {}}, "epsilon": 1.001e-05, "moving_variance_initializer": {"class_name": "Ones", "config": {}}, "name": "conv3_block12_1_bn", "moving_mean_initializer": {"class_name": "Zeros", "config": {}}, "center": true, "beta_constraint": null}}, {"class_name": "Activation", "inbound_nodes": [[["conv3_block12_1_bn", 0, 0, {}]]], "name": "conv3_block12_1_relu", "config": {"activation": "relu", "name": "conv3_block12_1_relu", "trainable": false, "dtype": "float32"}}, {"class_name": "Conv2D", "inbound_nodes": [[["conv3_block12_1_relu", 0, 0, {}]]], "name": "conv3_block12_2_conv", "config": {"use_bias": false, "kernel_initializer": {"class_name": "GlorotUniform", "config": {"seed": null}}, "filters": 32, "bias_initializer": {"class_name": "Zeros", "config": {}}, "bias_regularizer": null, "dilation_rate": [1, 1], "strides": [1, 1], "data_format": "channels_last", "trainable": false, "dtype": "float32", "activation": "linear", "padding": "same", "kernel_size": [3, 3], "bias_constraint": null, "kernel_regularizer": null, "name": "conv3_block12_2_conv", "activity_regularizer": null, "kernel_constraint": null}}, {"class_name": "Concatenate", "inbound_nodes": [[["conv3_block11_concat", 0, 0, {}], ["conv3_block12_2_conv", 0, 0, {}]]], "name": "conv3_block12_concat", "config": {"name": "conv3_block12_concat", "axis": 3, "trainable": false, "dtype": "float32"}}, {"class_name": "BatchNormalization", "inbound_nodes": [[["conv3_block12_concat", 0, 0, {}]]], "name": "pool3_bn", "config": {"scale": true, "beta_initializer": {"class_name": "Zeros", "config": {}}, "gamma_regularizer": null, "gamma_constraint": null, "axis": [3], "trainable": false, "dtype": "float32", "momentum": 0.99, "beta_regularizer": null, "gamma_initializer": {"class_name": "Ones", "config": {}}, "epsilon": 1.001e-05, "moving_variance_initializer": {"class_name": "Ones", "config": {}}, "name": "pool3_bn", "moving_mean_initializer": {"class_name": "Zeros", "config": {}}, "center": true, "beta_constraint": null}}, {"class_name": "Activation", "inbound_nodes": [[["pool3_bn", 0, 0, {}]]], "name": "pool3_relu", "config": {"activation": "relu", "name": "pool3_relu", "trainable": false, "dtype": "float32"}}, {"class_name": "Conv2D", "inbound_nodes": [[["pool3_relu", 0, 0, {}]]], "name": "pool3_conv", "config": {"use_bias": false, "kernel_initializer": {"class_name": "GlorotUniform", "config": {"seed": null}}, "filters": 256, "bias_initializer": {"class_name": "Zeros", "config": {}}, "bias_regularizer": null, "dilation_rate": [1, 1], "strides": [1, 1], "data_format": "channels_last", "trainable": false, "dtype": "float32", "activation": "linear", "padding": "valid", "kernel_size": [1, 1], "bias_constraint": null, "kernel_regularizer": null, "name": "pool3_conv", "activity_regularizer": null, "kernel_constraint": null}}, {"class_name": "AveragePooling2D", "inbound_nodes": [[["pool3_conv", 0, 0, {}]]], "name": "pool3_pool", "config": {"padding": "valid", "strides": [2, 2], "name": "pool3_pool", "dtype": "float32", "data_format": "channels_last", "trainable": false, "pool_size": [2, 2]}}, {"class_name": "BatchNormalization", "inbound_nodes": [[["pool3_pool", 0, 0, {}]]], "name": "conv4_block1_0_bn", "config": {"scale": true, "beta_initializer": {"class_name": "Zeros", "config": {}}, "gamma_regularizer": null, "gamma_constraint": null, "axis": [3], "trainable": false, "dtype": "float32", "momentum": 0.99, "beta_regularizer": null, "gamma_initializer": {"class_name": "Ones", "config": {}}, "epsilon": 1.001e-05, "moving_variance_initializer": {"class_name": "Ones", "config": {}}, "name": "conv4_block1_0_bn", "moving_mean_initializer": {"class_name": "Zeros", "config": {}}, "center": true, "beta_constraint": null}}, {"class_name": "Activation", "inbound_nodes": [[["conv4_block1_0_bn", 0, 0, {}]]], "name": "conv4_block1_0_relu", "config": {"activation": "relu", "name": "conv4_block1_0_relu", "trainable": false, "dtype": "float32"}}, {"class_name": "Conv2D", "inbound_nodes": [[["conv4_block1_0_relu", 0, 0, {}]]], "name": "conv4_block1_1_conv", "config": {"use_bias": false, "kernel_initializer": {"class_name": "GlorotUniform", "config": {"seed": null}}, "filters": 128, "bias_initializer": {"class_name": "Zeros", "config": {}}, "bias_regularizer": null, "dilation_rate": [1, 1], "strides": [1, 1], "data_format": "channels_last", "trainable": false, "dtype": "float32", "activation": "linear", "padding": "valid", "kernel_size": [1, 1], "bias_constraint": null, "kernel_regularizer": null, "name": "conv4_block1_1_conv", "activity_regularizer": null, "kernel_constraint": null}}, {"class_name": "BatchNormalization", "inbound_nodes": [[["conv4_block1_1_conv", 0, 0, {}]]], "name": "conv4_block1_1_bn", "config": {"scale": true, "beta_initializer": {"class_name": "Zeros", "config": {}}, "gamma_regularizer": null, "gamma_constraint": null, "axis": [3], "trainable": false, "dtype": "float32", "momentum": 0.99, "beta_regularizer": null, "gamma_initializer": {"class_name": "Ones", "config": {}}, "epsilon": 1.001e-05, "moving_variance_initializer": {"class_name": "Ones", "config": {}}, "name": "conv4_block1_1_bn", "moving_mean_initializer": {"class_name": "Zeros", "config": {}}, "center": true, "beta_constraint": null}}, {"class_name": "Activation", "inbound_nodes": [[["conv4_block1_1_bn", 0, 0, {}]]], "name": "conv4_block1_1_relu", "config": {"activation": "relu", "name": "conv4_block1_1_relu", "trainable": false, "dtype": "float32"}}, {"class_name": "Conv2D", "inbound_nodes": [[["conv4_block1_1_relu", 0, 0, {}]]], "name": "conv4_block1_2_conv", "config": {"use_bias": false, "kernel_initializer": {"class_name": "GlorotUniform", "config": {"seed": null}}, "filters": 32, "bias_initializer": {"class_name": "Zeros", "config": {}}, "bias_regularizer": null, "dilation_rate": [1, 1], "strides": [1, 1], "data_format": "channels_last", "trainable": false, "dtype": "float32", "activation": "linear", "padding": "same", "kernel_size": [3, 3], "bias_constraint": null, "kernel_regularizer": null, "name": "conv4_block1_2_conv", "activity_regularizer": null, "kernel_constraint": null}}, {"class_name": "Concatenate", "inbound_nodes": [[["pool3_pool", 0, 0, {}], ["conv4_block1_2_conv", 0, 0, {}]]], "name": "conv4_block1_concat", "config": {"name": "conv4_block1_concat", "axis": 3, "trainable": false, "dtype": "float32"}}, {"class_name": "BatchNormalization", "inbound_nodes": [[["conv4_block1_concat", 0, 0, {}]]], "name": "conv4_block2_0_bn", "config": {"scale": true, "beta_initializer": {"class_name": "Zeros", "config": {}}, "gamma_regularizer": null, "gamma_constraint": null, "axis": [3], "trainable": false, "dtype": "float32", "momentum": 0.99, "beta_regularizer": null, "gamma_initializer": {"class_name": "Ones", "config": {}}, "epsilon": 1.001e-05, "moving_variance_initializer": {"class_name": "Ones", "config": {}}, "name": "conv4_block2_0_bn", "moving_mean_initializer": {"class_name": "Zeros", "config": {}}, "center": true, "beta_constraint": null}}, {"class_name": "Activation", "inbound_nodes": [[["conv4_block2_0_bn", 0, 0, {}]]], "name": "conv4_block2_0_relu", "config": {"activation": "relu", "name": "conv4_block2_0_relu", "trainable": false, "dtype": "float32"}}, {"class_name": "Conv2D", "inbound_nodes": [[["conv4_block2_0_relu", 0, 0, {}]]], "name": "conv4_block2_1_conv", "config": {"use_bias": false, "kernel_initializer": {"class_name": "GlorotUniform", "config": {"seed": null}}, "filters": 128, "bias_initializer": {"class_name": "Zeros", "config": {}}, "bias_regularizer": null, "dilation_rate": [1, 1], "strides": [1, 1], "data_format": "channels_last", "trainable": false, "dtype": "float32", "activation": "linear", "padding": "valid", "kernel_size": [1, 1], "bias_constraint": null, "kernel_regularizer": null, "name": "conv4_block2_1_conv", "activity_regularizer": null, "kernel_constraint": null}}, {"class_name": "BatchNormalization", "inbound_nodes": [[["conv4_block2_1_conv", 0, 0, {}]]], "name": "conv4_block2_1_bn", "config": {"scale": true, "beta_initializer": {"class_name": "Zeros", "config": {}}, "gamma_regularizer": null, "gamma_constraint": null, "axis": [3], "trainable": false, "dtype": "float32", "momentum": 0.99, "beta_regularizer": null, "gamma_initializer": {"class_name": "Ones", "config": {}}, "epsilon": 1.001e-05, "moving_variance_initializer": {"class_name": "Ones", "config": {}}, "name": "conv4_block2_1_bn", "moving_mean_initializer": {"class_name": "Zeros", "config": {}}, "center": true, "beta_constraint": null}}, {"class_name": "Activation", "inbound_nodes": [[["conv4_block2_1_bn", 0, 0, {}]]], "name": "conv4_block2_1_relu", "config": {"activation": "relu", "name": "conv4_block2_1_relu", "trainable": false, "dtype": "float32"}}, {"class_name": "Conv2D", "inbound_nodes": [[["conv4_block2_1_relu", 0, 0, {}]]], "name": "conv4_block2_2_conv", "config": {"use_bias": false, "kernel_initializer": {"class_name": "GlorotUniform", "config": {"seed": null}}, "filters": 32, "bias_initializer": {"class_name": "Zeros", "config": {}}, "bias_regularizer": null, "dilation_rate": [1, 1], "strides": [1, 1], "data_format": "channels_last", "trainable": false, "dtype": "float32", "activation": "linear", "padding": "same", "kernel_size": [3, 3], "bias_constraint": null, "kernel_regularizer": null, "name": "conv4_block2_2_conv", "activity_regularizer": null, "kernel_constraint": null}}, {"class_name": "Concatenate", "inbound_nodes": [[["conv4_block1_concat", 0, 0, {}], ["conv4_block2_2_conv", 0, 0, {}]]], "name": "conv4_block2_concat", "config": {"name": "conv4_block2_concat", "axis": 3, "trainable": false, "dtype": "float32"}}, {"class_name": "BatchNormalization", "inbound_nodes": [[["conv4_block2_concat", 0, 0, {}]]], "name": "conv4_block3_0_bn", "config": {"scale": true, "beta_initializer": {"class_name": "Zeros", "config": {}}, "gamma_regularizer": null, "gamma_constraint": null, "axis": [3], "trainable": false, "dtype": "float32", "momentum": 0.99, "beta_regularizer": null, "gamma_initializer": {"class_name": "Ones", "config": {}}, "epsilon": 1.001e-05, "moving_variance_initializer": {"class_name": "Ones", "config": {}}, "name": "conv4_block3_0_bn", "moving_mean_initializer": {"class_name": "Zeros", "config": {}}, "center": true, "beta_constraint": null}}, {"class_name": "Activation", "inbound_nodes": [[["conv4_block3_0_bn", 0, 0, {}]]], "name": "conv4_block3_0_relu", "config": {"activation": "relu", "name": "conv4_block3_0_relu", "trainable": false, "dtype": "float32"}}, {"class_name": "Conv2D", "inbound_nodes": [[["conv4_block3_0_relu", 0, 0, {}]]], "name": "conv4_block3_1_conv", "config": {"use_bias": false, "kernel_initializer": {"class_name": "GlorotUniform", "config": {"seed": null}}, "filters": 128, "bias_initializer": {"class_name": "Zeros", "config": {}}, "bias_regularizer": null, "dilation_rate": [1, 1], "strides": [1, 1], "data_format": "channels_last", "trainable": false, "dtype": "float32", "activation": "linear", "padding": "valid", "kernel_size": [1, 1], "bias_constraint": null, "kernel_regularizer": null, "name": "conv4_block3_1_conv", "activity_regularizer": null, "kernel_constraint": null}}, {"class_name": "BatchNormalization", "inbound_nodes": [[["conv4_block3_1_conv", 0, 0, {}]]], "name": "conv4_block3_1_bn", "config": {"scale": true, "beta_initializer": {"class_name": "Zeros", "config": {}}, "gamma_regularizer": null, "gamma_constraint": null, "axis": [3], "trainable": false, "dtype": "float32", "momentum": 0.99, "beta_regularizer": null, "gamma_initializer": {"class_name": "Ones", "config": {}}, "epsilon": 1.001e-05, "moving_variance_initializer": {"class_name": "Ones", "config": {}}, "name": "conv4_block3_1_bn", "moving_mean_initializer": {"class_name": "Zeros", "config": {}}, "center": true, "beta_constraint": null}}, {"class_name": "Activation", "inbound_nodes": [[["conv4_block3_1_bn", 0, 0, {}]]], "name": "conv4_block3_1_relu", "config": {"activation": "relu", "name": "conv4_block3_1_relu", "trainable": false, "dtype": "float32"}}, {"class_name": "Conv2D", "inbound_nodes": [[["conv4_block3_1_relu", 0, 0, {}]]], "name": "conv4_block3_2_conv", "config": {"use_bias": false, "kernel_initializer": {"class_name": "GlorotUniform", "config": {"seed": null}}, "filters": 32, "bias_initializer": {"class_name": "Zeros", "config": {}}, "bias_regularizer": null, "dilation_rate": [1, 1], "strides": [1, 1], "data_format": "channels_last", "trainable": false, "dtype": "float32", "activation": "linear", "padding": "same", "kernel_size": [3, 3], "bias_constraint": null, "kernel_regularizer": null, "name": "conv4_block3_2_conv", "activity_regularizer": null, "kernel_constraint": null}}, {"class_name": "Concatenate", "inbound_nodes": [[["conv4_block2_concat", 0, 0, {}], ["conv4_block3_2_conv", 0, 0, {}]]], "name": "conv4_block3_concat", "config": {"name": "conv4_block3_concat", "axis": 3, "trainable": false, "dtype": "float32"}}, {"class_name": "BatchNormalization", "inbound_nodes": [[["conv4_block3_concat", 0, 0, {}]]], "name": "conv4_block4_0_bn", "config": {"scale": true, "beta_initializer": {"class_name": "Zeros", "config": {}}, "gamma_regularizer": null, "gamma_constraint": null, "axis": [3], "trainable": false, "dtype": "float32", "momentum": 0.99, "beta_regularizer": null, "gamma_initializer": {"class_name": "Ones", "config": {}}, "epsilon": 1.001e-05, "moving_variance_initializer": {"class_name": "Ones", "config": {}}, "name": "conv4_block4_0_bn", "moving_mean_initializer": {"class_name": "Zeros", "config": {}}, "center": true, "beta_constraint": null}}, {"class_name": "Activation", "inbound_nodes": [[["conv4_block4_0_bn", 0, 0, {}]]], "name": "conv4_block4_0_relu", "config": {"activation": "relu", "name": "conv4_block4_0_relu", "trainable": false, "dtype": "float32"}}, {"class_name": "Conv2D", "inbound_nodes": [[["conv4_block4_0_relu", 0, 0, {}]]], "name": "conv4_block4_1_conv", "config": {"use_bias": false, "kernel_initializer": {"class_name": "GlorotUniform", "config": {"seed": null}}, "filters": 128, "bias_initializer": {"class_name": "Zeros", "config": {}}, "bias_regularizer": null, "dilation_rate": [1, 1], "strides": [1, 1], "data_format": "channels_last", "trainable": false, "dtype": "float32", "activation": "linear", "padding": "valid", "kernel_size": [1, 1], "bias_constraint": null, "kernel_regularizer": null, "name": "conv4_block4_1_conv", "activity_regularizer": null, "kernel_constraint": null}}, {"class_name": "BatchNormalization", "inbound_nodes": [[["conv4_block4_1_conv", 0, 0, {}]]], "name": "conv4_block4_1_bn", "config": {"scale": true, "beta_initializer": {"class_name": "Zeros", "config": {}}, "gamma_regularizer": null, "gamma_constraint": null, "axis": [3], "trainable": false, "dtype": "float32", "momentum": 0.99, "beta_regularizer": null, "gamma_initializer": {"class_name": "Ones", "config": {}}, "epsilon": 1.001e-05, "moving_variance_initializer": {"class_name": "Ones", "config": {}}, "name": "conv4_block4_1_bn", "moving_mean_initializer": {"class_name": "Zeros", "config": {}}, "center": true, "beta_constraint": null}}, {"class_name": "Activation", "inbound_nodes": [[["conv4_block4_1_bn", 0, 0, {}]]], "name": "conv4_block4_1_relu", "config": {"activation": "relu", "name": "conv4_block4_1_relu", "trainable": false, "dtype": "float32"}}, {"class_name": "Conv2D", "inbound_nodes": [[["conv4_block4_1_relu", 0, 0, {}]]], "name": "conv4_block4_2_conv", "config": {"use_bias": false, "kernel_initializer": {"class_name": "GlorotUniform", "config": {"seed": null}}, "filters": 32, "bias_initializer": {"class_name": "Zeros", "config": {}}, "bias_regularizer": null, "dilation_rate": [1, 1], "strides": [1, 1], "data_format": "channels_last", "trainable": false, "dtype": "float32", "activation": "linear", "padding": "same", "kernel_size": [3, 3], "bias_constraint": null, "kernel_regularizer": null, "name": "conv4_block4_2_conv", "activity_regularizer": null, "kernel_constraint": null}}, {"class_name": "Concatenate", "inbound_nodes": [[["conv4_block3_concat", 0, 0, {}], ["conv4_block4_2_conv", 0, 0, {}]]], "name": "conv4_block4_concat", "config": {"name": "conv4_block4_concat", "axis": 3, "trainable": false, "dtype": "float32"}}, {"class_name": "BatchNormalization", "inbound_nodes": [[["conv4_block4_concat", 0, 0, {}]]], "name": "conv4_block5_0_bn", "config": {"scale": true, "beta_initializer": {"class_name": "Zeros", "config": {}}, "gamma_regularizer": null, "gamma_constraint": null, "axis": [3], "trainable": false, "dtype": "float32", "momentum": 0.99, "beta_regularizer": null, "gamma_initializer": {"class_name": "Ones", "config": {}}, "epsilon": 1.001e-05, "moving_variance_initializer": {"class_name": "Ones", "config": {}}, "name": "conv4_block5_0_bn", "moving_mean_initializer": {"class_name": "Zeros", "config": {}}, "center": true, "beta_constraint": null}}, {"class_name": "Activation", "inbound_nodes": [[["conv4_block5_0_bn", 0, 0, {}]]], "name": "conv4_block5_0_relu", "config": {"activation": "relu", "name": "conv4_block5_0_relu", "trainable": false, "dtype": "float32"}}, {"class_name": "Conv2D", "inbound_nodes": [[["conv4_block5_0_relu", 0, 0, {}]]], "name": "conv4_block5_1_conv", "config": {"use_bias": false, "kernel_initializer": {"class_name": "GlorotUniform", "config": {"seed": null}}, "filters": 128, "bias_initializer": {"class_name": "Zeros", "config": {}}, "bias_regularizer": null, "dilation_rate": [1, 1], "strides": [1, 1], "data_format": "channels_last", "trainable": false, "dtype": "float32", "activation": "linear", "padding": "valid", "kernel_size": [1, 1], "bias_constraint": null, "kernel_regularizer": null, "name": "conv4_block5_1_conv", "activity_regularizer": null, "kernel_constraint": null}}, {"class_name": "BatchNormalization", "inbound_nodes": [[["conv4_block5_1_conv", 0, 0, {}]]], "name": "conv4_block5_1_bn", "config": {"scale": true, "beta_initializer": {"class_name": "Zeros", "config": {}}, "gamma_regularizer": null, "gamma_constraint": null, "axis": [3], "trainable": false, "dtype": "float32", "momentum": 0.99, "beta_regularizer": null, "gamma_initializer": {"class_name": "Ones", "config": {}}, "epsilon": 1.001e-05, "moving_variance_initializer": {"class_name": "Ones", "config": {}}, "name": "conv4_block5_1_bn", "moving_mean_initializer": {"class_name": "Zeros", "config": {}}, "center": true, "beta_constraint": null}}, {"class_name": "Activation", "inbound_nodes": [[["conv4_block5_1_bn", 0, 0, {}]]], "name": "conv4_block5_1_relu", "config": {"activation": "relu", "name": "conv4_block5_1_relu", "trainable": false, "dtype": "float32"}}, {"class_name": "Conv2D", "inbound_nodes": [[["conv4_block5_1_relu", 0, 0, {}]]], "name": "conv4_block5_2_conv", "config": {"use_bias": false, "kernel_initializer": {"class_name": "GlorotUniform", "config": {"seed": null}}, "filters": 32, "bias_initializer": {"class_name": "Zeros", "config": {}}, "bias_regularizer": null, "dilation_rate": [1, 1], "strides": [1, 1], "data_format": "channels_last", "trainable": false, "dtype": "float32", "activation": "linear", "padding": "same", "kernel_size": [3, 3], "bias_constraint": null, "kernel_regularizer": null, "name": "conv4_block5_2_conv", "activity_regularizer": null, "kernel_constraint": null}}, {"class_name": "Concatenate", "inbound_nodes": [[["conv4_block4_concat", 0, 0, {}], ["conv4_block5_2_conv", 0, 0, {}]]], "name": "conv4_block5_concat", "config": {"name": "conv4_block5_concat", "axis": 3, "trainable": false, "dtype": "float32"}}, {"class_name": "BatchNormalization", "inbound_nodes": [[["conv4_block5_concat", 0, 0, {}]]], "name": "conv4_block6_0_bn", "config": {"scale": true, "beta_initializer": {"class_name": "Zeros", "config": {}}, "gamma_regularizer": null, "gamma_constraint": null, "axis": [3], "trainable": false, "dtype": "float32", "momentum": 0.99, "beta_regularizer": null, "gamma_initializer": {"class_name": "Ones", "config": {}}, "epsilon": 1.001e-05, "moving_variance_initializer": {"class_name": "Ones", "config": {}}, "name": "conv4_block6_0_bn", "moving_mean_initializer": {"class_name": "Zeros", "config": {}}, "center": true, "beta_constraint": null}}, {"class_name": "Activation", "inbound_nodes": [[["conv4_block6_0_bn", 0, 0, {}]]], "name": "conv4_block6_0_relu", "config": {"activation": "relu", "name": "conv4_block6_0_relu", "trainable": false, "dtype": "float32"}}, {"class_name": "Conv2D", "inbound_nodes": [[["conv4_block6_0_relu", 0, 0, {}]]], "name": "conv4_block6_1_conv", "config": {"use_bias": false, "kernel_initializer": {"class_name": "GlorotUniform", "config": {"seed": null}}, "filters": 128, "bias_initializer": {"class_name": "Zeros", "config": {}}, "bias_regularizer": null, "dilation_rate": [1, 1], "strides": [1, 1], "data_format": "channels_last", "trainable": false, "dtype": "float32", "activation": "linear", "padding": "valid", "kernel_size": [1, 1], "bias_constraint": null, "kernel_regularizer": null, "name": "conv4_block6_1_conv", "activity_regularizer": null, "kernel_constraint": null}}, {"class_name": "BatchNormalization", "inbound_nodes": [[["conv4_block6_1_conv", 0, 0, {}]]], "name": "conv4_block6_1_bn", "config": {"scale": true, "beta_initializer": {"class_name": "Zeros", "config": {}}, "gamma_regularizer": null, "gamma_constraint": null, "axis": [3], "trainable": false, "dtype": "float32", "momentum": 0.99, "beta_regularizer": null, "gamma_initializer": {"class_name": "Ones", "config": {}}, "epsilon": 1.001e-05, "moving_variance_initializer": {"class_name": "Ones", "config": {}}, "name": "conv4_block6_1_bn", "moving_mean_initializer": {"class_name": "Zeros", "config": {}}, "center": true, "beta_constraint": null}}, {"class_name": "Activation", "inbound_nodes": [[["conv4_block6_1_bn", 0, 0, {}]]], "name": "conv4_block6_1_relu", "config": {"activation": "relu", "name": "conv4_block6_1_relu", "trainable": false, "dtype": "float32"}}, {"class_name": "Conv2D", "inbound_nodes": [[["conv4_block6_1_relu", 0, 0, {}]]], "name": "conv4_block6_2_conv", "config": {"use_bias": false, "kernel_initializer": {"class_name": "GlorotUniform", "config": {"seed": null}}, "filters": 32, "bias_initializer": {"class_name": "Zeros", "config": {}}, "bias_regularizer": null, "dilation_rate": [1, 1], "strides": [1, 1], "data_format": "channels_last", "trainable": false, "dtype": "float32", "activation": "linear", "padding": "same", "kernel_size": [3, 3], "bias_constraint": null, "kernel_regularizer": null, "name": "conv4_block6_2_conv", "activity_regularizer": null, "kernel_constraint": null}}, {"class_name": "Concatenate", "inbound_nodes": [[["conv4_block5_concat", 0, 0, {}], ["conv4_block6_2_conv", 0, 0, {}]]], "name": "conv4_block6_concat", "config": {"name": "conv4_block6_concat", "axis": 3, "trainable": false, "dtype": "float32"}}, {"class_name": "BatchNormalization", "inbound_nodes": [[["conv4_block6_concat", 0, 0, {}]]], "name": "conv4_block7_0_bn", "config": {"scale": true, "beta_initializer": {"class_name": "Zeros", "config": {}}, "gamma_regularizer": null, "gamma_constraint": null, "axis": [3], "trainable": false, "dtype": "float32", "momentum": 0.99, "beta_regularizer": null, "gamma_initializer": {"class_name": "Ones", "config": {}}, "epsilon": 1.001e-05, "moving_variance_initializer": {"class_name": "Ones", "config": {}}, "name": "conv4_block7_0_bn", "moving_mean_initializer": {"class_name": "Zeros", "config": {}}, "center": true, "beta_constraint": null}}, {"class_name": "Activation", "inbound_nodes": [[["conv4_block7_0_bn", 0, 0, {}]]], "name": "conv4_block7_0_relu", "config": {"activation": "relu", "name": "conv4_block7_0_relu", "trainable": false, "dtype": "float32"}}, {"class_name": "Conv2D", "inbound_nodes": [[["conv4_block7_0_relu", 0, 0, {}]]], "name": "conv4_block7_1_conv", "config": {"use_bias": false, "kernel_initializer": {"class_name": "GlorotUniform", "config": {"seed": null}}, "filters": 128, "bias_initializer": {"class_name": "Zeros", "config": {}}, "bias_regularizer": null, "dilation_rate": [1, 1], "strides": [1, 1], "data_format": "channels_last", "trainable": false, "dtype": "float32", "activation": "linear", "padding": "valid", "kernel_size": [1, 1], "bias_constraint": null, "kernel_regularizer": null, "name": "conv4_block7_1_conv", "activity_regularizer": null, "kernel_constraint": null}}, {"class_name": "BatchNormalization", "inbound_nodes": [[["conv4_block7_1_conv", 0, 0, {}]]], "name": "conv4_block7_1_bn", "config": {"scale": true, "beta_initializer": {"class_name": "Zeros", "config": {}}, "gamma_regularizer": null, "gamma_constraint": null, "axis": [3], "trainable": false, "dtype": "float32", "momentum": 0.99, "beta_regularizer": null, "gamma_initializer": {"class_name": "Ones", "config": {}}, "epsilon": 1.001e-05, "moving_variance_initializer": {"class_name": "Ones", "config": {}}, "name": "conv4_block7_1_bn", "moving_mean_initializer": {"class_name": "Zeros", "config": {}}, "center": true, "beta_constraint": null}}, {"class_name": "Activation", "inbound_nodes": [[["conv4_block7_1_bn", 0, 0, {}]]], "name": "conv4_block7_1_relu", "config": {"activation": "relu", "name": "conv4_block7_1_relu", "trainable": false, "dtype": "float32"}}, {"class_name": "Conv2D", "inbound_nodes": [[["conv4_block7_1_relu", 0, 0, {}]]], "name": "conv4_block7_2_conv", "config": {"use_bias": false, "kernel_initializer": {"class_name": "GlorotUniform", "config": {"seed": null}}, "filters": 32, "bias_initializer": {"class_name": "Zeros", "config": {}}, "bias_regularizer": null, "dilation_rate": [1, 1], "strides": [1, 1], "data_format": "channels_last", "trainable": false, "dtype": "float32", "activation": "linear", "padding": "same", "kernel_size": [3, 3], "bias_constraint": null, "kernel_regularizer": null, "name": "conv4_block7_2_conv", "activity_regularizer": null, "kernel_constraint": null}}, {"class_name": "Concatenate", "inbound_nodes": [[["conv4_block6_concat", 0, 0, {}], ["conv4_block7_2_conv", 0, 0, {}]]], "name": "conv4_block7_concat", "config": {"name": "conv4_block7_concat", "axis": 3, "trainable": false, "dtype": "float32"}}, {"class_name": "BatchNormalization", "inbound_nodes": [[["conv4_block7_concat", 0, 0, {}]]], "name": "conv4_block8_0_bn", "config": {"scale": true, "beta_initializer": {"class_name": "Zeros", "config": {}}, "gamma_regularizer": null, "gamma_constraint": null, "axis": [3], "trainable": false, "dtype": "float32", "momentum": 0.99, "beta_regularizer": null, "gamma_initializer": {"class_name": "Ones", "config": {}}, "epsilon": 1.001e-05, "moving_variance_initializer": {"class_name": "Ones", "config": {}}, "name": "conv4_block8_0_bn", "moving_mean_initializer": {"class_name": "Zeros", "config": {}}, "center": true, "beta_constraint": null}}, {"class_name": "Activation", "inbound_nodes": [[["conv4_block8_0_bn", 0, 0, {}]]], "name": "conv4_block8_0_relu", "config": {"activation": "relu", "name": "conv4_block8_0_relu", "trainable": false, "dtype": "float32"}}, {"class_name": "Conv2D", "inbound_nodes": [[["conv4_block8_0_relu", 0, 0, {}]]], "name": "conv4_block8_1_conv", "config": {"use_bias": false, "kernel_initializer": {"class_name": "GlorotUniform", "config": {"seed": null}}, "filters": 128, "bias_initializer": {"class_name": "Zeros", "config": {}}, "bias_regularizer": null, "dilation_rate": [1, 1], "strides": [1, 1], "data_format": "channels_last", "trainable": false, "dtype": "float32", "activation": "linear", "padding": "valid", "kernel_size": [1, 1], "bias_constraint": null, "kernel_regularizer": null, "name": "conv4_block8_1_conv", "activity_regularizer": null, "kernel_constraint": null}}, {"class_name": "BatchNormalization", "inbound_nodes": [[["conv4_block8_1_conv", 0, 0, {}]]], "name": "conv4_block8_1_bn", "config": {"scale": true, "beta_initializer": {"class_name": "Zeros", "config": {}}, "gamma_regularizer": null, "gamma_constraint": null, "axis": [3], "trainable": false, "dtype": "float32", "momentum": 0.99, "beta_regularizer": null, "gamma_initializer": {"class_name": "Ones", "config": {}}, "epsilon": 1.001e-05, "moving_variance_initializer": {"class_name": "Ones", "config": {}}, "name": "conv4_block8_1_bn", "moving_mean_initializer": {"class_name": "Zeros", "config": {}}, "center": true, "beta_constraint": null}}, {"class_name": "Activation", "inbound_nodes": [[["conv4_block8_1_bn", 0, 0, {}]]], "name": "conv4_block8_1_relu", "config": {"activation": "relu", "name": "conv4_block8_1_relu", "trainable": false, "dtype": "float32"}}, {"class_name": "Conv2D", "inbound_nodes": [[["conv4_block8_1_relu", 0, 0, {}]]], "name": "conv4_block8_2_conv", "config": {"use_bias": false, "kernel_initializer": {"class_name": "GlorotUniform", "config": {"seed": null}}, "filters": 32, "bias_initializer": {"class_name": "Zeros", "config": {}}, "bias_regularizer": null, "dilation_rate": [1, 1], "strides": [1, 1], "data_format": "channels_last", "trainable": false, "dtype": "float32", "activation": "linear", "padding": "same", "kernel_size": [3, 3], "bias_constraint": null, "kernel_regularizer": null, "name": "conv4_block8_2_conv", "activity_regularizer": null, "kernel_constraint": null}}, {"class_name": "Concatenate", "inbound_nodes": [[["conv4_block7_concat", 0, 0, {}], ["conv4_block8_2_conv", 0, 0, {}]]], "name": "conv4_block8_concat", "config": {"name": "conv4_block8_concat", "axis": 3, "trainable": false, "dtype": "float32"}}, {"class_name": "BatchNormalization", "inbound_nodes": [[["conv4_block8_concat", 0, 0, {}]]], "name": "conv4_block9_0_bn", "config": {"scale": true, "beta_initializer": {"class_name": "Zeros", "config": {}}, "gamma_regularizer": null, "gamma_constraint": null, "axis": [3], "trainable": false, "dtype": "float32", "momentum": 0.99, "beta_regularizer": null, "gamma_initializer": {"class_name": "Ones", "config": {}}, "epsilon": 1.001e-05, "moving_variance_initializer": {"class_name": "Ones", "config": {}}, "name": "conv4_block9_0_bn", "moving_mean_initializer": {"class_name": "Zeros", "config": {}}, "center": true, "beta_constraint": null}}, {"class_name": "Activation", "inbound_nodes": [[["conv4_block9_0_bn", 0, 0, {}]]], "name": "conv4_block9_0_relu", "config": {"activation": "relu", "name": "conv4_block9_0_relu", "trainable": false, "dtype": "float32"}}, {"class_name": "Conv2D", "inbound_nodes": [[["conv4_block9_0_relu", 0, 0, {}]]], "name": "conv4_block9_1_conv", "config": {"use_bias": false, "kernel_initializer": {"class_name": "GlorotUniform", "config": {"seed": null}}, "filters": 128, "bias_initializer": {"class_name": "Zeros", "config": {}}, "bias_regularizer": null, "dilation_rate": [1, 1], "strides": [1, 1], "data_format": "channels_last", "trainable": false, "dtype": "float32", "activation": "linear", "padding": "valid", "kernel_size": [1, 1], "bias_constraint": null, "kernel_regularizer": null, "name": "conv4_block9_1_conv", "activity_regularizer": null, "kernel_constraint": null}}, {"class_name": "BatchNormalization", "inbound_nodes": [[["conv4_block9_1_conv", 0, 0, {}]]], "name": "conv4_block9_1_bn", "config": {"scale": true, "beta_initializer": {"class_name": "Zeros", "config": {}}, "gamma_regularizer": null, "gamma_constraint": null, "axis": [3], "trainable": false, "dtype": "float32", "momentum": 0.99, "beta_regularizer": null, "gamma_initializer": {"class_name": "Ones", "config": {}}, "epsilon": 1.001e-05, "moving_variance_initializer": {"class_name": "Ones", "config": {}}, "name": "conv4_block9_1_bn", "moving_mean_initializer": {"class_name": "Zeros", "config": {}}, "center": true, "beta_constraint": null}}, {"class_name": "Activation", "inbound_nodes": [[["conv4_block9_1_bn", 0, 0, {}]]], "name": "conv4_block9_1_relu", "config": {"activation": "relu", "name": "conv4_block9_1_relu", "trainable": false, "dtype": "float32"}}, {"class_name": "Conv2D", "inbound_nodes": [[["conv4_block9_1_relu", 0, 0, {}]]], "name": "conv4_block9_2_conv", "config": {"use_bias": false, "kernel_initializer": {"class_name": "GlorotUniform", "config": {"seed": null}}, "filters": 32, "bias_initializer": {"class_name": "Zeros", "config": {}}, "bias_regularizer": null, "dilation_rate": [1, 1], "strides": [1, 1], "data_format": "channels_last", "trainable": false, "dtype": "float32", "activation": "linear", "padding": "same", "kernel_size": [3, 3], "bias_constraint": null, "kernel_regularizer": null, "name": "conv4_block9_2_conv", "activity_regularizer": null, "kernel_constraint": null}}, {"class_name": "Concatenate", "inbound_nodes": [[["conv4_block8_concat", 0, 0, {}], ["conv4_block9_2_conv", 0, 0, {}]]], "name": "conv4_block9_concat", "config": {"name": "conv4_block9_concat", "axis": 3, "trainable": false, "dtype": "float32"}}, {"class_name": "BatchNormalization", "inbound_nodes": [[["conv4_block9_concat", 0, 0, {}]]], "name": "conv4_block10_0_bn", "config": {"scale": true, "beta_initializer": {"class_name": "Zeros", "config": {}}, "gamma_regularizer": null, "gamma_constraint": null, "axis": [3], "trainable": false, "dtype": "float32", "momentum": 0.99, "beta_regularizer": null, "gamma_initializer": {"class_name": "Ones", "config": {}}, "epsilon": 1.001e-05, "moving_variance_initializer": {"class_name": "Ones", "config": {}}, "name": "conv4_block10_0_bn", "moving_mean_initializer": {"class_name": "Zeros", "config": {}}, "center": true, "beta_constraint": null}}, {"class_name": "Activation", "inbound_nodes": [[["conv4_block10_0_bn", 0, 0, {}]]], "name": "conv4_block10_0_relu", "config": {"activation": "relu", "name": "conv4_block10_0_relu", "trainable": false, "dtype": "float32"}}, {"class_name": "Conv2D", "inbound_nodes": [[["conv4_block10_0_relu", 0, 0, {}]]], "name": "conv4_block10_1_conv", "config": {"use_bias": false, "kernel_initializer": {"class_name": "GlorotUniform", "config": {"seed": null}}, "filters": 128, "bias_initializer": {"class_name": "Zeros", "config": {}}, "bias_regularizer": null, "dilation_rate": [1, 1], "strides": [1, 1], "data_format": "channels_last", "trainable": false, "dtype": "float32", "activation": "linear", "padding": "valid", "kernel_size": [1, 1], "bias_constraint": null, "kernel_regularizer": null, "name": "conv4_block10_1_conv", "activity_regularizer": null, "kernel_constraint": null}}, {"class_name": "BatchNormalization", "inbound_nodes": [[["conv4_block10_1_conv", 0, 0, {}]]], "name": "conv4_block10_1_bn", "config": {"scale": true, "beta_initializer": {"class_name": "Zeros", "config": {}}, "gamma_regularizer": null, "gamma_constraint": null, "axis": [3], "trainable": false, "dtype": "float32", "momentum": 0.99, "beta_regularizer": null, "gamma_initializer": {"class_name": "Ones", "config": {}}, "epsilon": 1.001e-05, "moving_variance_initializer": {"class_name": "Ones", "config": {}}, "name": "conv4_block10_1_bn", "moving_mean_initializer": {"class_name": "Zeros", "config": {}}, "center": true, "beta_constraint": null}}, {"class_name": "Activation", "inbound_nodes": [[["conv4_block10_1_bn", 0, 0, {}]]], "name": "conv4_block10_1_relu", "config": {"activation": "relu", "name": "conv4_block10_1_relu", "trainable": false, "dtype": "float32"}}, {"class_name": "Conv2D", "inbound_nodes": [[["conv4_block10_1_relu", 0, 0, {}]]], "name": "conv4_block10_2_conv", "config": {"use_bias": false, "kernel_initializer": {"class_name": "GlorotUniform", "config": {"seed": null}}, "filters": 32, "bias_initializer": {"class_name": "Zeros", "config": {}}, "bias_regularizer": null, "dilation_rate": [1, 1], "strides": [1, 1], "data_format": "channels_last", "trainable": false, "dtype": "float32", "activation": "linear", "padding": "same", "kernel_size": [3, 3], "bias_constraint": null, "kernel_regularizer": null, "name": "conv4_block10_2_conv", "activity_regularizer": null, "kernel_constraint": null}}, {"class_name": "Concatenate", "inbound_nodes": [[["conv4_block9_concat", 0, 0, {}], ["conv4_block10_2_conv", 0, 0, {}]]], "name": "conv4_block10_concat", "config": {"name": "conv4_block10_concat", "axis": 3, "trainable": false, "dtype": "float32"}}, {"class_name": "BatchNormalization", "inbound_nodes": [[["conv4_block10_concat", 0, 0, {}]]], "name": "conv4_block11_0_bn", "config": {"scale": true, "beta_initializer": {"class_name": "Zeros", "config": {}}, "gamma_regularizer": null, "gamma_constraint": null, "axis": [3], "trainable": false, "dtype": "float32", "momentum": 0.99, "beta_regularizer": null, "gamma_initializer": {"class_name": "Ones", "config": {}}, "epsilon": 1.001e-05, "moving_variance_initializer": {"class_name": "Ones", "config": {}}, "name": "conv4_block11_0_bn", "moving_mean_initializer": {"class_name": "Zeros", "config": {}}, "center": true, "beta_constraint": null}}, {"class_name": "Activation", "inbound_nodes": [[["conv4_block11_0_bn", 0, 0, {}]]], "name": "conv4_block11_0_relu", "config": {"activation": "relu", "name": "conv4_block11_0_relu", "trainable": false, "dtype": "float32"}}, {"class_name": "Conv2D", "inbound_nodes": [[["conv4_block11_0_relu", 0, 0, {}]]], "name": "conv4_block11_1_conv", "config": {"use_bias": false, "kernel_initializer": {"class_name": "GlorotUniform", "config": {"seed": null}}, "filters": 128, "bias_initializer": {"class_name": "Zeros", "config": {}}, "bias_regularizer": null, "dilation_rate": [1, 1], "strides": [1, 1], "data_format": "channels_last", "trainable": false, "dtype": "float32", "activation": "linear", "padding": "valid", "kernel_size": [1, 1], "bias_constraint": null, "kernel_regularizer": null, "name": "conv4_block11_1_conv", "activity_regularizer": null, "kernel_constraint": null}}, {"class_name": "BatchNormalization", "inbound_nodes": [[["conv4_block11_1_conv", 0, 0, {}]]], "name": "conv4_block11_1_bn", "config": {"scale": true, "beta_initializer": {"class_name": "Zeros", "config": {}}, "gamma_regularizer": null, "gamma_constraint": null, "axis": [3], "trainable": false, "dtype": "float32", "momentum": 0.99, "beta_regularizer": null, "gamma_initializer": {"class_name": "Ones", "config": {}}, "epsilon": 1.001e-05, "moving_variance_initializer": {"class_name": "Ones", "config": {}}, "name": "conv4_block11_1_bn", "moving_mean_initializer": {"class_name": "Zeros", "config": {}}, "center": true, "beta_constraint": null}}, {"class_name": "Activation", "inbound_nodes": [[["conv4_block11_1_bn", 0, 0, {}]]], "name": "conv4_block11_1_relu", "config": {"activation": "relu", "name": "conv4_block11_1_relu", "trainable": false, "dtype": "float32"}}, {"class_name": "Conv2D", "inbound_nodes": [[["conv4_block11_1_relu", 0, 0, {}]]], "name": "conv4_block11_2_conv", "config": {"use_bias": false, "kernel_initializer": {"class_name": "GlorotUniform", "config": {"seed": null}}, "filters": 32, "bias_initializer": {"class_name": "Zeros", "config": {}}, "bias_regularizer": null, "dilation_rate": [1, 1], "strides": [1, 1], "data_format": "channels_last", "trainable": false, "dtype": "float32", "activation": "linear", "padding": "same", "kernel_size": [3, 3], "bias_constraint": null, "kernel_regularizer": null, "name": "conv4_block11_2_conv", "activity_regularizer": null, "kernel_constraint": null}}, {"class_name": "Concatenate", "inbound_nodes": [[["conv4_block10_concat", 0, 0, {}], ["conv4_block11_2_conv", 0, 0, {}]]], "name": "conv4_block11_concat", "config": {"name": "conv4_block11_concat", "axis": 3, "trainable": false, "dtype": "float32"}}, {"class_name": "BatchNormalization", "inbound_nodes": [[["conv4_block11_concat", 0, 0, {}]]], "name": "conv4_block12_0_bn", "config": {"scale": true, "beta_initializer": {"class_name": "Zeros", "config": {}}, "gamma_regularizer": null, "gamma_constraint": null, "axis": [3], "trainable": false, "dtype": "float32", "momentum": 0.99, "beta_regularizer": null, "gamma_initializer": {"class_name": "Ones", "config": {}}, "epsilon": 1.001e-05, "moving_variance_initializer": {"class_name": "Ones", "config": {}}, "name": "conv4_block12_0_bn", "moving_mean_initializer": {"class_name": "Zeros", "config": {}}, "center": true, "beta_constraint": null}}, {"class_name": "Activation", "inbound_nodes": [[["conv4_block12_0_bn", 0, 0, {}]]], "name": "conv4_block12_0_relu", "config": {"activation": "relu", "name": "conv4_block12_0_relu", "trainable": false, "dtype": "float32"}}, {"class_name": "Conv2D", "inbound_nodes": [[["conv4_block12_0_relu", 0, 0, {}]]], "name": "conv4_block12_1_conv", "config": {"use_bias": false, "kernel_initializer": {"class_name": "GlorotUniform", "config": {"seed": null}}, "filters": 128, "bias_initializer": {"class_name": "Zeros", "config": {}}, "bias_regularizer": null, "dilation_rate": [1, 1], "strides": [1, 1], "data_format": "channels_last", "trainable": false, "dtype": "float32", "activation": "linear", "padding": "valid", "kernel_size": [1, 1], "bias_constraint": null, "kernel_regularizer": null, "name": "conv4_block12_1_conv", "activity_regularizer": null, "kernel_constraint": null}}, {"class_name": "BatchNormalization", "inbound_nodes": [[["conv4_block12_1_conv", 0, 0, {}]]], "name": "conv4_block12_1_bn", "config": {"scale": true, "beta_initializer": {"class_name": "Zeros", "config": {}}, "gamma_regularizer": null, "gamma_constraint": null, "axis": [3], "trainable": false, "dtype": "float32", "momentum": 0.99, "beta_regularizer": null, "gamma_initializer": {"class_name": "Ones", "config": {}}, "epsilon": 1.001e-05, "moving_variance_initializer": {"class_name": "Ones", "config": {}}, "name": "conv4_block12_1_bn", "moving_mean_initializer": {"class_name": "Zeros", "config": {}}, "center": true, "beta_constraint": null}}, {"class_name": "Activation", "inbound_nodes": [[["conv4_block12_1_bn", 0, 0, {}]]], "name": "conv4_block12_1_relu", "config": {"activation": "relu", "name": "conv4_block12_1_relu", "trainable": false, "dtype": "float32"}}, {"class_name": "Conv2D", "inbound_nodes": [[["conv4_block12_1_relu", 0, 0, {}]]], "name": "conv4_block12_2_conv", "config": {"use_bias": false, "kernel_initializer": {"class_name": "GlorotUniform", "config": {"seed": null}}, "filters": 32, "bias_initializer": {"class_name": "Zeros", "config": {}}, "bias_regularizer": null, "dilation_rate": [1, 1], "strides": [1, 1], "data_format": "channels_last", "trainable": false, "dtype": "float32", "activation": "linear", "padding": "same", "kernel_size": [3, 3], "bias_constraint": null, "kernel_regularizer": null, "name": "conv4_block12_2_conv", "activity_regularizer": null, "kernel_constraint": null}}, {"class_name": "Concatenate", "inbound_nodes": [[["conv4_block11_concat", 0, 0, {}], ["conv4_block12_2_conv", 0, 0, {}]]], "name": "conv4_block12_concat", "config": {"name": "conv4_block12_concat", "axis": 3, "trainable": false, "dtype": "float32"}}, {"class_name": "BatchNormalization", "inbound_nodes": [[["conv4_block12_concat", 0, 0, {}]]], "name": "conv4_block13_0_bn", "config": {"scale": true, "beta_initializer": {"class_name": "Zeros", "config": {}}, "gamma_regularizer": null, "gamma_constraint": null, "axis": [3], "trainable": false, "dtype": "float32", "momentum": 0.99, "beta_regularizer": null, "gamma_initializer": {"class_name": "Ones", "config": {}}, "epsilon": 1.001e-05, "moving_variance_initializer": {"class_name": "Ones", "config": {}}, "name": "conv4_block13_0_bn", "moving_mean_initializer": {"class_name": "Zeros", "config": {}}, "center": true, "beta_constraint": null}}, {"class_name": "Activation", "inbound_nodes": [[["conv4_block13_0_bn", 0, 0, {}]]], "name": "conv4_block13_0_relu", "config": {"activation": "relu", "name": "conv4_block13_0_relu", "trainable": false, "dtype": "float32"}}, {"class_name": "Conv2D", "inbound_nodes": [[["conv4_block13_0_relu", 0, 0, {}]]], "name": "conv4_block13_1_conv", "config": {"use_bias": false, "kernel_initializer": {"class_name": "GlorotUniform", "config": {"seed": null}}, "filters": 128, "bias_initializer": {"class_name": "Zeros", "config": {}}, "bias_regularizer": null, "dilation_rate": [1, 1], "strides": [1, 1], "data_format": "channels_last", "trainable": false, "dtype": "float32", "activation": "linear", "padding": "valid", "kernel_size": [1, 1], "bias_constraint": null, "kernel_regularizer": null, "name": "conv4_block13_1_conv", "activity_regularizer": null, "kernel_constraint": null}}, {"class_name": "BatchNormalization", "inbound_nodes": [[["conv4_block13_1_conv", 0, 0, {}]]], "name": "conv4_block13_1_bn", "config": {"scale": true, "beta_initializer": {"class_name": "Zeros", "config": {}}, "gamma_regularizer": null, "gamma_constraint": null, "axis": [3], "trainable": false, "dtype": "float32", "momentum": 0.99, "beta_regularizer": null, "gamma_initializer": {"class_name": "Ones", "config": {}}, "epsilon": 1.001e-05, "moving_variance_initializer": {"class_name": "Ones", "config": {}}, "name": "conv4_block13_1_bn", "moving_mean_initializer": {"class_name": "Zeros", "config": {}}, "center": true, "beta_constraint": null}}, {"class_name": "Activation", "inbound_nodes": [[["conv4_block13_1_bn", 0, 0, {}]]], "name": "conv4_block13_1_relu", "config": {"activation": "relu", "name": "conv4_block13_1_relu", "trainable": false, "dtype": "float32"}}, {"class_name": "Conv2D", "inbound_nodes": [[["conv4_block13_1_relu", 0, 0, {}]]], "name": "conv4_block13_2_conv", "config": {"use_bias": false, "kernel_initializer": {"class_name": "GlorotUniform", "config": {"seed": null}}, "filters": 32, "bias_initializer": {"class_name": "Zeros", "config": {}}, "bias_regularizer": null, "dilation_rate": [1, 1], "strides": [1, 1], "data_format": "channels_last", "trainable": false, "dtype": "float32", "activation": "linear", "padding": "same", "kernel_size": [3, 3], "bias_constraint": null, "kernel_regularizer": null, "name": "conv4_block13_2_conv", "activity_regularizer": null, "kernel_constraint": null}}, {"class_name": "Concatenate", "inbound_nodes": [[["conv4_block12_concat", 0, 0, {}], ["conv4_block13_2_conv", 0, 0, {}]]], "name": "conv4_block13_concat", "config": {"name": "conv4_block13_concat", "axis": 3, "trainable": false, "dtype": "float32"}}, {"class_name": "BatchNormalization", "inbound_nodes": [[["conv4_block13_concat", 0, 0, {}]]], "name": "conv4_block14_0_bn", "config": {"scale": true, "beta_initializer": {"class_name": "Zeros", "config": {}}, "gamma_regularizer": null, "gamma_constraint": null, "axis": [3], "trainable": false, "dtype": "float32", "momentum": 0.99, "beta_regularizer": null, "gamma_initializer": {"class_name": "Ones", "config": {}}, "epsilon": 1.001e-05, "moving_variance_initializer": {"class_name": "Ones", "config": {}}, "name": "conv4_block14_0_bn", "moving_mean_initializer": {"class_name": "Zeros", "config": {}}, "center": true, "beta_constraint": null}}, {"class_name": "Activation", "inbound_nodes": [[["conv4_block14_0_bn", 0, 0, {}]]], "name": "conv4_block14_0_relu", "config": {"activation": "relu", "name": "conv4_block14_0_relu", "trainable": false, "dtype": "float32"}}, {"class_name": "Conv2D", "inbound_nodes": [[["conv4_block14_0_relu", 0, 0, {}]]], "name": "conv4_block14_1_conv", "config": {"use_bias": false, "kernel_initializer": {"class_name": "GlorotUniform", "config": {"seed": null}}, "filters": 128, "bias_initializer": {"class_name": "Zeros", "config": {}}, "bias_regularizer": null, "dilation_rate": [1, 1], "strides": [1, 1], "data_format": "channels_last", "trainable": false, "dtype": "float32", "activation": "linear", "padding": "valid", "kernel_size": [1, 1], "bias_constraint": null, "kernel_regularizer": null, "name": "conv4_block14_1_conv", "activity_regularizer": null, "kernel_constraint": null}}, {"class_name": "BatchNormalization", "inbound_nodes": [[["conv4_block14_1_conv", 0, 0, {}]]], "name": "conv4_block14_1_bn", "config": {"scale": true, "beta_initializer": {"class_name": "Zeros", "config": {}}, "gamma_regularizer": null, "gamma_constraint": null, "axis": [3], "trainable": false, "dtype": "float32", "momentum": 0.99, "beta_regularizer": null, "gamma_initializer": {"class_name": "Ones", "config": {}}, "epsilon": 1.001e-05, "moving_variance_initializer": {"class_name": "Ones", "config": {}}, "name": "conv4_block14_1_bn", "moving_mean_initializer": {"class_name": "Zeros", "config": {}}, "center": true, "beta_constraint": null}}, {"class_name": "Activation", "inbound_nodes": [[["conv4_block14_1_bn", 0, 0, {}]]], "name": "conv4_block14_1_relu", "config": {"activation": "relu", "name": "conv4_block14_1_relu", "trainable": false, "dtype": "float32"}}, {"class_name": "Conv2D", "inbound_nodes": [[["conv4_block14_1_relu", 0, 0, {}]]], "name": "conv4_block14_2_conv", "config": {"use_bias": false, "kernel_initializer": {"class_name": "GlorotUniform", "config": {"seed": null}}, "filters": 32, "bias_initializer": {"class_name": "Zeros", "config": {}}, "bias_regularizer": null, "dilation_rate": [1, 1], "strides": [1, 1], "data_format": "channels_last", "trainable": false, "dtype": "float32", "activation": "linear", "padding": "same", "kernel_size": [3, 3], "bias_constraint": null, "kernel_regularizer": null, "name": "conv4_block14_2_conv", "activity_regularizer": null, "kernel_constraint": null}}, {"class_name": "Concatenate", "inbound_nodes": [[["conv4_block13_concat", 0, 0, {}], ["conv4_block14_2_conv", 0, 0, {}]]], "name": "conv4_block14_concat", "config": {"name": "conv4_block14_concat", "axis": 3, "trainable": false, "dtype": "float32"}}, {"class_name": "BatchNormalization", "inbound_nodes": [[["conv4_block14_concat", 0, 0, {}]]], "name": "conv4_block15_0_bn", "config": {"scale": true, "beta_initializer": {"class_name": "Zeros", "config": {}}, "gamma_regularizer": null, "gamma_constraint": null, "axis": [3], "trainable": false, "dtype": "float32", "momentum": 0.99, "beta_regularizer": null, "gamma_initializer": {"class_name": "Ones", "config": {}}, "epsilon": 1.001e-05, "moving_variance_initializer": {"class_name": "Ones", "config": {}}, "name": "conv4_block15_0_bn", "moving_mean_initializer": {"class_name": "Zeros", "config": {}}, "center": true, "beta_constraint": null}}, {"class_name": "Activation", "inbound_nodes": [[["conv4_block15_0_bn", 0, 0, {}]]], "name": "conv4_block15_0_relu", "config": {"activation": "relu", "name": "conv4_block15_0_relu", "trainable": false, "dtype": "float32"}}, {"class_name": "Conv2D", "inbound_nodes": [[["conv4_block15_0_relu", 0, 0, {}]]], "name": "conv4_block15_1_conv", "config": {"use_bias": false, "kernel_initializer": {"class_name": "GlorotUniform", "config": {"seed": null}}, "filters": 128, "bias_initializer": {"class_name": "Zeros", "config": {}}, "bias_regularizer": null, "dilation_rate": [1, 1], "strides": [1, 1], "data_format": "channels_last", "trainable": false, "dtype": "float32", "activation": "linear", "padding": "valid", "kernel_size": [1, 1], "bias_constraint": null, "kernel_regularizer": null, "name": "conv4_block15_1_conv", "activity_regularizer": null, "kernel_constraint": null}}, {"class_name": "BatchNormalization", "inbound_nodes": [[["conv4_block15_1_conv", 0, 0, {}]]], "name": "conv4_block15_1_bn", "config": {"scale": true, "beta_initializer": {"class_name": "Zeros", "config": {}}, "gamma_regularizer": null, "gamma_constraint": null, "axis": [3], "trainable": false, "dtype": "float32", "momentum": 0.99, "beta_regularizer": null, "gamma_initializer": {"class_name": "Ones", "config": {}}, "epsilon": 1.001e-05, "moving_variance_initializer": {"class_name": "Ones", "config": {}}, "name": "conv4_block15_1_bn", "moving_mean_initializer": {"class_name": "Zeros", "config": {}}, "center": true, "beta_constraint": null}}, {"class_name": "Activation", "inbound_nodes": [[["conv4_block15_1_bn", 0, 0, {}]]], "name": "conv4_block15_1_relu", "config": {"activation": "relu", "name": "conv4_block15_1_relu", "trainable": false, "dtype": "float32"}}, {"class_name": "Conv2D", "inbound_nodes": [[["conv4_block15_1_relu", 0, 0, {}]]], "name": "conv4_block15_2_conv", "config": {"use_bias": false, "kernel_initializer": {"class_name": "GlorotUniform", "config": {"seed": null}}, "filters": 32, "bias_initializer": {"class_name": "Zeros", "config": {}}, "bias_regularizer": null, "dilation_rate": [1, 1], "strides": [1, 1], "data_format": "channels_last", "trainable": false, "dtype": "float32", "activation": "linear", "padding": "same", "kernel_size": [3, 3], "bias_constraint": null, "kernel_regularizer": null, "name": "conv4_block15_2_conv", "activity_regularizer": null, "kernel_constraint": null}}, {"class_name": "Concatenate", "inbound_nodes": [[["conv4_block14_concat", 0, 0, {}], ["conv4_block15_2_conv", 0, 0, {}]]], "name": "conv4_block15_concat", "config": {"name": "conv4_block15_concat", "axis": 3, "trainable": false, "dtype": "float32"}}, {"class_name": "BatchNormalization", "inbound_nodes": [[["conv4_block15_concat", 0, 0, {}]]], "name": "conv4_block16_0_bn", "config": {"scale": true, "beta_initializer": {"class_name": "Zeros", "config": {}}, "gamma_regularizer": null, "gamma_constraint": null, "axis": [3], "trainable": false, "dtype": "float32", "momentum": 0.99, "beta_regularizer": null, "gamma_initializer": {"class_name": "Ones", "config": {}}, "epsilon": 1.001e-05, "moving_variance_initializer": {"class_name": "Ones", "config": {}}, "name": "conv4_block16_0_bn", "moving_mean_initializer": {"class_name": "Zeros", "config": {}}, "center": true, "beta_constraint": null}}, {"class_name": "Activation", "inbound_nodes": [[["conv4_block16_0_bn", 0, 0, {}]]], "name": "conv4_block16_0_relu", "config": {"activation": "relu", "name": "conv4_block16_0_relu", "trainable": false, "dtype": "float32"}}, {"class_name": "Conv2D", "inbound_nodes": [[["conv4_block16_0_relu", 0, 0, {}]]], "name": "conv4_block16_1_conv", "config": {"use_bias": false, "kernel_initializer": {"class_name": "GlorotUniform", "config": {"seed": null}}, "filters": 128, "bias_initializer": {"class_name": "Zeros", "config": {}}, "bias_regularizer": null, "dilation_rate": [1, 1], "strides": [1, 1], "data_format": "channels_last", "trainable": false, "dtype": "float32", "activation": "linear", "padding": "valid", "kernel_size": [1, 1], "bias_constraint": null, "kernel_regularizer": null, "name": "conv4_block16_1_conv", "activity_regularizer": null, "kernel_constraint": null}}, {"class_name": "BatchNormalization", "inbound_nodes": [[["conv4_block16_1_conv", 0, 0, {}]]], "name": "conv4_block16_1_bn", "config": {"scale": true, "beta_initializer": {"class_name": "Zeros", "config": {}}, "gamma_regularizer": null, "gamma_constraint": null, "axis": [3], "trainable": false, "dtype": "float32", "momentum": 0.99, "beta_regularizer": null, "gamma_initializer": {"class_name": "Ones", "config": {}}, "epsilon": 1.001e-05, "moving_variance_initializer": {"class_name": "Ones", "config": {}}, "name": "conv4_block16_1_bn", "moving_mean_initializer": {"class_name": "Zeros", "config": {}}, "center": true, "beta_constraint": null}}, {"class_name": "Activation", "inbound_nodes": [[["conv4_block16_1_bn", 0, 0, {}]]], "name": "conv4_block16_1_relu", "config": {"activation": "relu", "name": "conv4_block16_1_relu", "trainable": false, "dtype": "float32"}}, {"class_name": "Conv2D", "inbound_nodes": [[["conv4_block16_1_relu", 0, 0, {}]]], "name": "conv4_block16_2_conv", "config": {"use_bias": false, "kernel_initializer": {"class_name": "GlorotUniform", "config": {"seed": null}}, "filters": 32, "bias_initializer": {"class_name": "Zeros", "config": {}}, "bias_regularizer": null, "dilation_rate": [1, 1], "strides": [1, 1], "data_format": "channels_last", "trainable": false, "dtype": "float32", "activation": "linear", "padding": "same", "kernel_size": [3, 3], "bias_constraint": null, "kernel_regularizer": null, "name": "conv4_block16_2_conv", "activity_regularizer": null, "kernel_constraint": null}}, {"class_name": "Concatenate", "inbound_nodes": [[["conv4_block15_concat", 0, 0, {}], ["conv4_block16_2_conv", 0, 0, {}]]], "name": "conv4_block16_concat", "config": {"name": "conv4_block16_concat", "axis": 3, "trainable": false, "dtype": "float32"}}, {"class_name": "BatchNormalization", "inbound_nodes": [[["conv4_block16_concat", 0, 0, {}]]], "name": "conv4_block17_0_bn", "config": {"scale": true, "beta_initializer": {"class_name": "Zeros", "config": {}}, "gamma_regularizer": null, "gamma_constraint": null, "axis": [3], "trainable": false, "dtype": "float32", "momentum": 0.99, "beta_regularizer": null, "gamma_initializer": {"class_name": "Ones", "config": {}}, "epsilon": 1.001e-05, "moving_variance_initializer": {"class_name": "Ones", "config": {}}, "name": "conv4_block17_0_bn", "moving_mean_initializer": {"class_name": "Zeros", "config": {}}, "center": true, "beta_constraint": null}}, {"class_name": "Activation", "inbound_nodes": [[["conv4_block17_0_bn", 0, 0, {}]]], "name": "conv4_block17_0_relu", "config": {"activation": "relu", "name": "conv4_block17_0_relu", "trainable": false, "dtype": "float32"}}, {"class_name": "Conv2D", "inbound_nodes": [[["conv4_block17_0_relu", 0, 0, {}]]], "name": "conv4_block17_1_conv", "config": {"use_bias": false, "kernel_initializer": {"class_name": "GlorotUniform", "config": {"seed": null}}, "filters": 128, "bias_initializer": {"class_name": "Zeros", "config": {}}, "bias_regularizer": null, "dilation_rate": [1, 1], "strides": [1, 1], "data_format": "channels_last", "trainable": false, "dtype": "float32", "activation": "linear", "padding": "valid", "kernel_size": [1, 1], "bias_constraint": null, "kernel_regularizer": null, "name": "conv4_block17_1_conv", "activity_regularizer": null, "kernel_constraint": null}}, {"class_name": "BatchNormalization", "inbound_nodes": [[["conv4_block17_1_conv", 0, 0, {}]]], "name": "conv4_block17_1_bn", "config": {"scale": true, "beta_initializer": {"class_name": "Zeros", "config": {}}, "gamma_regularizer": null, "gamma_constraint": null, "axis": [3], "trainable": false, "dtype": "float32", "momentum": 0.99, "beta_regularizer": null, "gamma_initializer": {"class_name": "Ones", "config": {}}, "epsilon": 1.001e-05, "moving_variance_initializer": {"class_name": "Ones", "config": {}}, "name": "conv4_block17_1_bn", "moving_mean_initializer": {"class_name": "Zeros", "config": {}}, "center": true, "beta_constraint": null}}, {"class_name": "Activation", "inbound_nodes": [[["conv4_block17_1_bn", 0, 0, {}]]], "name": "conv4_block17_1_relu", "config": {"activation": "relu", "name": "conv4_block17_1_relu", "trainable": false, "dtype": "float32"}}, {"class_name": "Conv2D", "inbound_nodes": [[["conv4_block17_1_relu", 0, 0, {}]]], "name": "conv4_block17_2_conv", "config": {"use_bias": false, "kernel_initializer": {"class_name": "GlorotUniform", "config": {"seed": null}}, "filters": 32, "bias_initializer": {"class_name": "Zeros", "config": {}}, "bias_regularizer": null, "dilation_rate": [1, 1], "strides": [1, 1], "data_format": "channels_last", "trainable": false, "dtype": "float32", "activation": "linear", "padding": "same", "kernel_size": [3, 3], "bias_constraint": null, "kernel_regularizer": null, "name": "conv4_block17_2_conv", "activity_regularizer": null, "kernel_constraint": null}}, {"class_name": "Concatenate", "inbound_nodes": [[["conv4_block16_concat", 0, 0, {}], ["conv4_block17_2_conv", 0, 0, {}]]], "name": "conv4_block17_concat", "config": {"name": "conv4_block17_concat", "axis": 3, "trainable": false, "dtype": "float32"}}, {"class_name": "BatchNormalization", "inbound_nodes": [[["conv4_block17_concat", 0, 0, {}]]], "name": "conv4_block18_0_bn", "config": {"scale": true, "beta_initializer": {"class_name": "Zeros", "config": {}}, "gamma_regularizer": null, "gamma_constraint": null, "axis": [3], "trainable": false, "dtype": "float32", "momentum": 0.99, "beta_regularizer": null, "gamma_initializer": {"class_name": "Ones", "config": {}}, "epsilon": 1.001e-05, "moving_variance_initializer": {"class_name": "Ones", "config": {}}, "name": "conv4_block18_0_bn", "moving_mean_initializer": {"class_name": "Zeros", "config": {}}, "center": true, "beta_constraint": null}}, {"class_name": "Activation", "inbound_nodes": [[["conv4_block18_0_bn", 0, 0, {}]]], "name": "conv4_block18_0_relu", "config": {"activation": "relu", "name": "conv4_block18_0_relu", "trainable": false, "dtype": "float32"}}, {"class_name": "Conv2D", "inbound_nodes": [[["conv4_block18_0_relu", 0, 0, {}]]], "name": "conv4_block18_1_conv", "config": {"use_bias": false, "kernel_initializer": {"class_name": "GlorotUniform", "config": {"seed": null}}, "filters": 128, "bias_initializer": {"class_name": "Zeros", "config": {}}, "bias_regularizer": null, "dilation_rate": [1, 1], "strides": [1, 1], "data_format": "channels_last", "trainable": false, "dtype": "float32", "activation": "linear", "padding": "valid", "kernel_size": [1, 1], "bias_constraint": null, "kernel_regularizer": null, "name": "conv4_block18_1_conv", "activity_regularizer": null, "kernel_constraint": null}}, {"class_name": "BatchNormalization", "inbound_nodes": [[["conv4_block18_1_conv", 0, 0, {}]]], "name": "conv4_block18_1_bn", "config": {"scale": true, "beta_initializer": {"class_name": "Zeros", "config": {}}, "gamma_regularizer": null, "gamma_constraint": null, "axis": [3], "trainable": false, "dtype": "float32", "momentum": 0.99, "beta_regularizer": null, "gamma_initializer": {"class_name": "Ones", "config": {}}, "epsilon": 1.001e-05, "moving_variance_initializer": {"class_name": "Ones", "config": {}}, "name": "conv4_block18_1_bn", "moving_mean_initializer": {"class_name": "Zeros", "config": {}}, "center": true, "beta_constraint": null}}, {"class_name": "Activation", "inbound_nodes": [[["conv4_block18_1_bn", 0, 0, {}]]], "name": "conv4_block18_1_relu", "config": {"activation": "relu", "name": "conv4_block18_1_relu", "trainable": false, "dtype": "float32"}}, {"class_name": "Conv2D", "inbound_nodes": [[["conv4_block18_1_relu", 0, 0, {}]]], "name": "conv4_block18_2_conv", "config": {"use_bias": false, "kernel_initializer": {"class_name": "GlorotUniform", "config": {"seed": null}}, "filters": 32, "bias_initializer": {"class_name": "Zeros", "config": {}}, "bias_regularizer": null, "dilation_rate": [1, 1], "strides": [1, 1], "data_format": "channels_last", "trainable": false, "dtype": "float32", "activation": "linear", "padding": "same", "kernel_size": [3, 3], "bias_constraint": null, "kernel_regularizer": null, "name": "conv4_block18_2_conv", "activity_regularizer": null, "kernel_constraint": null}}, {"class_name": "Concatenate", "inbound_nodes": [[["conv4_block17_concat", 0, 0, {}], ["conv4_block18_2_conv", 0, 0, {}]]], "name": "conv4_block18_concat", "config": {"name": "conv4_block18_concat", "axis": 3, "trainable": false, "dtype": "float32"}}, {"class_name": "BatchNormalization", "inbound_nodes": [[["conv4_block18_concat", 0, 0, {}]]], "name": "conv4_block19_0_bn", "config": {"scale": true, "beta_initializer": {"class_name": "Zeros", "config": {}}, "gamma_regularizer": null, "gamma_constraint": null, "axis": [3], "trainable": false, "dtype": "float32", "momentum": 0.99, "beta_regularizer": null, "gamma_initializer": {"class_name": "Ones", "config": {}}, "epsilon": 1.001e-05, "moving_variance_initializer": {"class_name": "Ones", "config": {}}, "name": "conv4_block19_0_bn", "moving_mean_initializer": {"class_name": "Zeros", "config": {}}, "center": true, "beta_constraint": null}}, {"class_name": "Activation", "inbound_nodes": [[["conv4_block19_0_bn", 0, 0, {}]]], "name": "conv4_block19_0_relu", "config": {"activation": "relu", "name": "conv4_block19_0_relu", "trainable": false, "dtype": "float32"}}, {"class_name": "Conv2D", "inbound_nodes": [[["conv4_block19_0_relu", 0, 0, {}]]], "name": "conv4_block19_1_conv", "config": {"use_bias": false, "kernel_initializer": {"class_name": "GlorotUniform", "config": {"seed": null}}, "filters": 128, "bias_initializer": {"class_name": "Zeros", "config": {}}, "bias_regularizer": null, "dilation_rate": [1, 1], "strides": [1, 1], "data_format": "channels_last", "trainable": false, "dtype": "float32", "activation": "linear", "padding": "valid", "kernel_size": [1, 1], "bias_constraint": null, "kernel_regularizer": null, "name": "conv4_block19_1_conv", "activity_regularizer": null, "kernel_constraint": null}}, {"class_name": "BatchNormalization", "inbound_nodes": [[["conv4_block19_1_conv", 0, 0, {}]]], "name": "conv4_block19_1_bn", "config": {"scale": true, "beta_initializer": {"class_name": "Zeros", "config": {}}, "gamma_regularizer": null, "gamma_constraint": null, "axis": [3], "trainable": false, "dtype": "float32", "momentum": 0.99, "beta_regularizer": null, "gamma_initializer": {"class_name": "Ones", "config": {}}, "epsilon": 1.001e-05, "moving_variance_initializer": {"class_name": "Ones", "config": {}}, "name": "conv4_block19_1_bn", "moving_mean_initializer": {"class_name": "Zeros", "config": {}}, "center": true, "beta_constraint": null}}, {"class_name": "Activation", "inbound_nodes": [[["conv4_block19_1_bn", 0, 0, {}]]], "name": "conv4_block19_1_relu", "config": {"activation": "relu", "name": "conv4_block19_1_relu", "trainable": false, "dtype": "float32"}}, {"class_name": "Conv2D", "inbound_nodes": [[["conv4_block19_1_relu", 0, 0, {}]]], "name": "conv4_block19_2_conv", "config": {"use_bias": false, "kernel_initializer": {"class_name": "GlorotUniform", "config": {"seed": null}}, "filters": 32, "bias_initializer": {"class_name": "Zeros", "config": {}}, "bias_regularizer": null, "dilation_rate": [1, 1], "strides": [1, 1], "data_format": "channels_last", "trainable": false, "dtype": "float32", "activation": "linear", "padding": "same", "kernel_size": [3, 3], "bias_constraint": null, "kernel_regularizer": null, "name": "conv4_block19_2_conv", "activity_regularizer": null, "kernel_constraint": null}}, {"class_name": "Concatenate", "inbound_nodes": [[["conv4_block18_concat", 0, 0, {}], ["conv4_block19_2_conv", 0, 0, {}]]], "name": "conv4_block19_concat", "config": {"name": "conv4_block19_concat", "axis": 3, "trainable": false, "dtype": "float32"}}, {"class_name": "BatchNormalization", "inbound_nodes": [[["conv4_block19_concat", 0, 0, {}]]], "name": "conv4_block20_0_bn", "config": {"scale": true, "beta_initializer": {"class_name": "Zeros", "config": {}}, "gamma_regularizer": null, "gamma_constraint": null, "axis": [3], "trainable": false, "dtype": "float32", "momentum": 0.99, "beta_regularizer": null, "gamma_initializer": {"class_name": "Ones", "config": {}}, "epsilon": 1.001e-05, "moving_variance_initializer": {"class_name": "Ones", "config": {}}, "name": "conv4_block20_0_bn", "moving_mean_initializer": {"class_name": "Zeros", "config": {}}, "center": true, "beta_constraint": null}}, {"class_name": "Activation", "inbound_nodes": [[["conv4_block20_0_bn", 0, 0, {}]]], "name": "conv4_block20_0_relu", "config": {"activation": "relu", "name": "conv4_block20_0_relu", "trainable": false, "dtype": "float32"}}, {"class_name": "Conv2D", "inbound_nodes": [[["conv4_block20_0_relu", 0, 0, {}]]], "name": "conv4_block20_1_conv", "config": {"use_bias": false, "kernel_initializer": {"class_name": "GlorotUniform", "config": {"seed": null}}, "filters": 128, "bias_initializer": {"class_name": "Zeros", "config": {}}, "bias_regularizer": null, "dilation_rate": [1, 1], "strides": [1, 1], "data_format": "channels_last", "trainable": false, "dtype": "float32", "activation": "linear", "padding": "valid", "kernel_size": [1, 1], "bias_constraint": null, "kernel_regularizer": null, "name": "conv4_block20_1_conv", "activity_regularizer": null, "kernel_constraint": null}}, {"class_name": "BatchNormalization", "inbound_nodes": [[["conv4_block20_1_conv", 0, 0, {}]]], "name": "conv4_block20_1_bn", "config": {"scale": true, "beta_initializer": {"class_name": "Zeros", "config": {}}, "gamma_regularizer": null, "gamma_constraint": null, "axis": [3], "trainable": false, "dtype": "float32", "momentum": 0.99, "beta_regularizer": null, "gamma_initializer": {"class_name": "Ones", "config": {}}, "epsilon": 1.001e-05, "moving_variance_initializer": {"class_name": "Ones", "config": {}}, "name": "conv4_block20_1_bn", "moving_mean_initializer": {"class_name": "Zeros", "config": {}}, "center": true, "beta_constraint": null}}, {"class_name": "Activation", "inbound_nodes": [[["conv4_block20_1_bn", 0, 0, {}]]], "name": "conv4_block20_1_relu", "config": {"activation": "relu", "name": "conv4_block20_1_relu", "trainable": false, "dtype": "float32"}}, {"class_name": "Conv2D", "inbound_nodes": [[["conv4_block20_1_relu", 0, 0, {}]]], "name": "conv4_block20_2_conv", "config": {"use_bias": false, "kernel_initializer": {"class_name": "GlorotUniform", "config": {"seed": null}}, "filters": 32, "bias_initializer": {"class_name": "Zeros", "config": {}}, "bias_regularizer": null, "dilation_rate": [1, 1], "strides": [1, 1], "data_format": "channels_last", "trainable": false, "dtype": "float32", "activation": "linear", "padding": "same", "kernel_size": [3, 3], "bias_constraint": null, "kernel_regularizer": null, "name": "conv4_block20_2_conv", "activity_regularizer": null, "kernel_constraint": null}}, {"class_name": "Concatenate", "inbound_nodes": [[["conv4_block19_concat", 0, 0, {}], ["conv4_block20_2_conv", 0, 0, {}]]], "name": "conv4_block20_concat", "config": {"name": "conv4_block20_concat", "axis": 3, "trainable": false, "dtype": "float32"}}, {"class_name": "BatchNormalization", "inbound_nodes": [[["conv4_block20_concat", 0, 0, {}]]], "name": "conv4_block21_0_bn", "config": {"scale": true, "beta_initializer": {"class_name": "Zeros", "config": {}}, "gamma_regularizer": null, "gamma_constraint": null, "axis": [3], "trainable": false, "dtype": "float32", "momentum": 0.99, "beta_regularizer": null, "gamma_initializer": {"class_name": "Ones", "config": {}}, "epsilon": 1.001e-05, "moving_variance_initializer": {"class_name": "Ones", "config": {}}, "name": "conv4_block21_0_bn", "moving_mean_initializer": {"class_name": "Zeros", "config": {}}, "center": true, "beta_constraint": null}}, {"class_name": "Activation", "inbound_nodes": [[["conv4_block21_0_bn", 0, 0, {}]]], "name": "conv4_block21_0_relu", "config": {"activation": "relu", "name": "conv4_block21_0_relu", "trainable": false, "dtype": "float32"}}, {"class_name": "Conv2D", "inbound_nodes": [[["conv4_block21_0_relu", 0, 0, {}]]], "name": "conv4_block21_1_conv", "config": {"use_bias": false, "kernel_initializer": {"class_name": "GlorotUniform", "config": {"seed": null}}, "filters": 128, "bias_initializer": {"class_name": "Zeros", "config": {}}, "bias_regularizer": null, "dilation_rate": [1, 1], "strides": [1, 1], "data_format": "channels_last", "trainable": false, "dtype": "float32", "activation": "linear", "padding": "valid", "kernel_size": [1, 1], "bias_constraint": null, "kernel_regularizer": null, "name": "conv4_block21_1_conv", "activity_regularizer": null, "kernel_constraint": null}}, {"class_name": "BatchNormalization", "inbound_nodes": [[["conv4_block21_1_conv", 0, 0, {}]]], "name": "conv4_block21_1_bn", "config": {"scale": true, "beta_initializer": {"class_name": "Zeros", "config": {}}, "gamma_regularizer": null, "gamma_constraint": null, "axis": [3], "trainable": false, "dtype": "float32", "momentum": 0.99, "beta_regularizer": null, "gamma_initializer": {"class_name": "Ones", "config": {}}, "epsilon": 1.001e-05, "moving_variance_initializer": {"class_name": "Ones", "config": {}}, "name": "conv4_block21_1_bn", "moving_mean_initializer": {"class_name": "Zeros", "config": {}}, "center": true, "beta_constraint": null}}, {"class_name": "Activation", "inbound_nodes": [[["conv4_block21_1_bn", 0, 0, {}]]], "name": "conv4_block21_1_relu", "config": {"activation": "relu", "name": "conv4_block21_1_relu", "trainable": false, "dtype": "float32"}}, {"class_name": "Conv2D", "inbound_nodes": [[["conv4_block21_1_relu", 0, 0, {}]]], "name": "conv4_block21_2_conv", "config": {"use_bias": false, "kernel_initializer": {"class_name": "GlorotUniform", "config": {"seed": null}}, "filters": 32, "bias_initializer": {"class_name": "Zeros", "config": {}}, "bias_regularizer": null, "dilation_rate": [1, 1], "strides": [1, 1], "data_format": "channels_last", "trainable": false, "dtype": "float32", "activation": "linear", "padding": "same", "kernel_size": [3, 3], "bias_constraint": null, "kernel_regularizer": null, "name": "conv4_block21_2_conv", "activity_regularizer": null, "kernel_constraint": null}}, {"class_name": "Concatenate", "inbound_nodes": [[["conv4_block20_concat", 0, 0, {}], ["conv4_block21_2_conv", 0, 0, {}]]], "name": "conv4_block21_concat", "config": {"name": "conv4_block21_concat", "axis": 3, "trainable": false, "dtype": "float32"}}, {"class_name": "BatchNormalization", "inbound_nodes": [[["conv4_block21_concat", 0, 0, {}]]], "name": "conv4_block22_0_bn", "config": {"scale": true, "beta_initializer": {"class_name": "Zeros", "config": {}}, "gamma_regularizer": null, "gamma_constraint": null, "axis": [3], "trainable": false, "dtype": "float32", "momentum": 0.99, "beta_regularizer": null, "gamma_initializer": {"class_name": "Ones", "config": {}}, "epsilon": 1.001e-05, "moving_variance_initializer": {"class_name": "Ones", "config": {}}, "name": "conv4_block22_0_bn", "moving_mean_initializer": {"class_name": "Zeros", "config": {}}, "center": true, "beta_constraint": null}}, {"class_name": "Activation", "inbound_nodes": [[["conv4_block22_0_bn", 0, 0, {}]]], "name": "conv4_block22_0_relu", "config": {"activation": "relu", "name": "conv4_block22_0_relu", "trainable": false, "dtype": "float32"}}, {"class_name": "Conv2D", "inbound_nodes": [[["conv4_block22_0_relu", 0, 0, {}]]], "name": "conv4_block22_1_conv", "config": {"use_bias": false, "kernel_initializer": {"class_name": "GlorotUniform", "config": {"seed": null}}, "filters": 128, "bias_initializer": {"class_name": "Zeros", "config": {}}, "bias_regularizer": null, "dilation_rate": [1, 1], "strides": [1, 1], "data_format": "channels_last", "trainable": false, "dtype": "float32", "activation": "linear", "padding": "valid", "kernel_size": [1, 1], "bias_constraint": null, "kernel_regularizer": null, "name": "conv4_block22_1_conv", "activity_regularizer": null, "kernel_constraint": null}}, {"class_name": "BatchNormalization", "inbound_nodes": [[["conv4_block22_1_conv", 0, 0, {}]]], "name": "conv4_block22_1_bn", "config": {"scale": true, "beta_initializer": {"class_name": "Zeros", "config": {}}, "gamma_regularizer": null, "gamma_constraint": null, "axis": [3], "trainable": false, "dtype": "float32", "momentum": 0.99, "beta_regularizer": null, "gamma_initializer": {"class_name": "Ones", "config": {}}, "epsilon": 1.001e-05, "moving_variance_initializer": {"class_name": "Ones", "config": {}}, "name": "conv4_block22_1_bn", "moving_mean_initializer": {"class_name": "Zeros", "config": {}}, "center": true, "beta_constraint": null}}, {"class_name": "Activation", "inbound_nodes": [[["conv4_block22_1_bn", 0, 0, {}]]], "name": "conv4_block22_1_relu", "config": {"activation": "relu", "name": "conv4_block22_1_relu", "trainable": false, "dtype": "float32"}}, {"class_name": "Conv2D", "inbound_nodes": [[["conv4_block22_1_relu", 0, 0, {}]]], "name": "conv4_block22_2_conv", "config": {"use_bias": false, "kernel_initializer": {"class_name": "GlorotUniform", "config": {"seed": null}}, "filters": 32, "bias_initializer": {"class_name": "Zeros", "config": {}}, "bias_regularizer": null, "dilation_rate": [1, 1], "strides": [1, 1], "data_format": "channels_last", "trainable": false, "dtype": "float32", "activation": "linear", "padding": "same", "kernel_size": [3, 3], "bias_constraint": null, "kernel_regularizer": null, "name": "conv4_block22_2_conv", "activity_regularizer": null, "kernel_constraint": null}}, {"class_name": "Concatenate", "inbound_nodes": [[["conv4_block21_concat", 0, 0, {}], ["conv4_block22_2_conv", 0, 0, {}]]], "name": "conv4_block22_concat", "config": {"name": "conv4_block22_concat", "axis": 3, "trainable": false, "dtype": "float32"}}, {"class_name": "BatchNormalization", "inbound_nodes": [[["conv4_block22_concat", 0, 0, {}]]], "name": "conv4_block23_0_bn", "config": {"scale": true, "beta_initializer": {"class_name": "Zeros", "config": {}}, "gamma_regularizer": null, "gamma_constraint": null, "axis": [3], "trainable": false, "dtype": "float32", "momentum": 0.99, "beta_regularizer": null, "gamma_initializer": {"class_name": "Ones", "config": {}}, "epsilon": 1.001e-05, "moving_variance_initializer": {"class_name": "Ones", "config": {}}, "name": "conv4_block23_0_bn", "moving_mean_initializer": {"class_name": "Zeros", "config": {}}, "center": true, "beta_constraint": null}}, {"class_name": "Activation", "inbound_nodes": [[["conv4_block23_0_bn", 0, 0, {}]]], "name": "conv4_block23_0_relu", "config": {"activation": "relu", "name": "conv4_block23_0_relu", "trainable": false, "dtype": "float32"}}, {"class_name": "Conv2D", "inbound_nodes": [[["conv4_block23_0_relu", 0, 0, {}]]], "name": "conv4_block23_1_conv", "config": {"use_bias": false, "kernel_initializer": {"class_name": "GlorotUniform", "config": {"seed": null}}, "filters": 128, "bias_initializer": {"class_name": "Zeros", "config": {}}, "bias_regularizer": null, "dilation_rate": [1, 1], "strides": [1, 1], "data_format": "channels_last", "trainable": false, "dtype": "float32", "activation": "linear", "padding": "valid", "kernel_size": [1, 1], "bias_constraint": null, "kernel_regularizer": null, "name": "conv4_block23_1_conv", "activity_regularizer": null, "kernel_constraint": null}}, {"class_name": "BatchNormalization", "inbound_nodes": [[["conv4_block23_1_conv", 0, 0, {}]]], "name": "conv4_block23_1_bn", "config": {"scale": true, "beta_initializer": {"class_name": "Zeros", "config": {}}, "gamma_regularizer": null, "gamma_constraint": null, "axis": [3], "trainable": false, "dtype": "float32", "momentum": 0.99, "beta_regularizer": null, "gamma_initializer": {"class_name": "Ones", "config": {}}, "epsilon": 1.001e-05, "moving_variance_initializer": {"class_name": "Ones", "config": {}}, "name": "conv4_block23_1_bn", "moving_mean_initializer": {"class_name": "Zeros", "config": {}}, "center": true, "beta_constraint": null}}, {"class_name": "Activation", "inbound_nodes": [[["conv4_block23_1_bn", 0, 0, {}]]], "name": "conv4_block23_1_relu", "config": {"activation": "relu", "name": "conv4_block23_1_relu", "trainable": false, "dtype": "float32"}}, {"class_name": "Conv2D", "inbound_nodes": [[["conv4_block23_1_relu", 0, 0, {}]]], "name": "conv4_block23_2_conv", "config": {"use_bias": false, "kernel_initializer": {"class_name": "GlorotUniform", "config": {"seed": null}}, "filters": 32, "bias_initializer": {"class_name": "Zeros", "config": {}}, "bias_regularizer": null, "dilation_rate": [1, 1], "strides": [1, 1], "data_format": "channels_last", "trainable": false, "dtype": "float32", "activation": "linear", "padding": "same", "kernel_size": [3, 3], "bias_constraint": null, "kernel_regularizer": null, "name": "conv4_block23_2_conv", "activity_regularizer": null, "kernel_constraint": null}}, {"class_name": "Concatenate", "inbound_nodes": [[["conv4_block22_concat", 0, 0, {}], ["conv4_block23_2_conv", 0, 0, {}]]], "name": "conv4_block23_concat", "config": {"name": "conv4_block23_concat", "axis": 3, "trainable": false, "dtype": "float32"}}, {"class_name": "BatchNormalization", "inbound_nodes": [[["conv4_block23_concat", 0, 0, {}]]], "name": "conv4_block24_0_bn", "config": {"scale": true, "beta_initializer": {"class_name": "Zeros", "config": {}}, "gamma_regularizer": null, "gamma_constraint": null, "axis": [3], "trainable": false, "dtype": "float32", "momentum": 0.99, "beta_regularizer": null, "gamma_initializer": {"class_name": "Ones", "config": {}}, "epsilon": 1.001e-05, "moving_variance_initializer": {"class_name": "Ones", "config": {}}, "name": "conv4_block24_0_bn", "moving_mean_initializer": {"class_name": "Zeros", "config": {}}, "center": true, "beta_constraint": null}}, {"class_name": "Activation", "inbound_nodes": [[["conv4_block24_0_bn", 0, 0, {}]]], "name": "conv4_block24_0_relu", "config": {"activation": "relu", "name": "conv4_block24_0_relu", "trainable": false, "dtype": "float32"}}, {"class_name": "Conv2D", "inbound_nodes": [[["conv4_block24_0_relu", 0, 0, {}]]], "name": "conv4_block24_1_conv", "config": {"use_bias": false, "kernel_initializer": {"class_name": "GlorotUniform", "config": {"seed": null}}, "filters": 128, "bias_initializer": {"class_name": "Zeros", "config": {}}, "bias_regularizer": null, "dilation_rate": [1, 1], "strides": [1, 1], "data_format": "channels_last", "trainable": false, "dtype": "float32", "activation": "linear", "padding": "valid", "kernel_size": [1, 1], "bias_constraint": null, "kernel_regularizer": null, "name": "conv4_block24_1_conv", "activity_regularizer": null, "kernel_constraint": null}}, {"class_name": "BatchNormalization", "inbound_nodes": [[["conv4_block24_1_conv", 0, 0, {}]]], "name": "conv4_block24_1_bn", "config": {"scale": true, "beta_initializer": {"class_name": "Zeros", "config": {}}, "gamma_regularizer": null, "gamma_constraint": null, "axis": [3], "trainable": false, "dtype": "float32", "momentum": 0.99, "beta_regularizer": null, "gamma_initializer": {"class_name": "Ones", "config": {}}, "epsilon": 1.001e-05, "moving_variance_initializer": {"class_name": "Ones", "config": {}}, "name": "conv4_block24_1_bn", "moving_mean_initializer": {"class_name": "Zeros", "config": {}}, "center": true, "beta_constraint": null}}, {"class_name": "Activation", "inbound_nodes": [[["conv4_block24_1_bn", 0, 0, {}]]], "name": "conv4_block24_1_relu", "config": {"activation": "relu", "name": "conv4_block24_1_relu", "trainable": false, "dtype": "float32"}}, {"class_name": "Conv2D", "inbound_nodes": [[["conv4_block24_1_relu", 0, 0, {}]]], "name": "conv4_block24_2_conv", "config": {"use_bias": false, "kernel_initializer": {"class_name": "GlorotUniform", "config": {"seed": null}}, "filters": 32, "bias_initializer": {"class_name": "Zeros", "config": {}}, "bias_regularizer": null, "dilation_rate": [1, 1], "strides": [1, 1], "data_format": "channels_last", "trainable": false, "dtype": "float32", "activation": "linear", "padding": "same", "kernel_size": [3, 3], "bias_constraint": null, "kernel_regularizer": null, "name": "conv4_block24_2_conv", "activity_regularizer": null, "kernel_constraint": null}}, {"class_name": "Concatenate", "inbound_nodes": [[["conv4_block23_concat", 0, 0, {}], ["conv4_block24_2_conv", 0, 0, {}]]], "name": "conv4_block24_concat", "config": {"name": "conv4_block24_concat", "axis": 3, "trainable": false, "dtype": "float32"}}, {"class_name": "BatchNormalization", "inbound_nodes": [[["conv4_block24_concat", 0, 0, {}]]], "name": "conv4_block25_0_bn", "config": {"scale": true, "beta_initializer": {"class_name": "Zeros", "config": {}}, "gamma_regularizer": null, "gamma_constraint": null, "axis": [3], "trainable": false, "dtype": "float32", "momentum": 0.99, "beta_regularizer": null, "gamma_initializer": {"class_name": "Ones", "config": {}}, "epsilon": 1.001e-05, "moving_variance_initializer": {"class_name": "Ones", "config": {}}, "name": "conv4_block25_0_bn", "moving_mean_initializer": {"class_name": "Zeros", "config": {}}, "center": true, "beta_constraint": null}}, {"class_name": "Activation", "inbound_nodes": [[["conv4_block25_0_bn", 0, 0, {}]]], "name": "conv4_block25_0_relu", "config": {"activation": "relu", "name": "conv4_block25_0_relu", "trainable": false, "dtype": "float32"}}, {"class_name": "Conv2D", "inbound_nodes": [[["conv4_block25_0_relu", 0, 0, {}]]], "name": "conv4_block25_1_conv", "config": {"use_bias": false, "kernel_initializer": {"class_name": "GlorotUniform", "config": {"seed": null}}, "filters": 128, "bias_initializer": {"class_name": "Zeros", "config": {}}, "bias_regularizer": null, "dilation_rate": [1, 1], "strides": [1, 1], "data_format": "channels_last", "trainable": false, "dtype": "float32", "activation": "linear", "padding": "valid", "kernel_size": [1, 1], "bias_constraint": null, "kernel_regularizer": null, "name": "conv4_block25_1_conv", "activity_regularizer": null, "kernel_constraint": null}}, {"class_name": "BatchNormalization", "inbound_nodes": [[["conv4_block25_1_conv", 0, 0, {}]]], "name": "conv4_block25_1_bn", "config": {"scale": true, "beta_initializer": {"class_name": "Zeros", "config": {}}, "gamma_regularizer": null, "gamma_constraint": null, "axis": [3], "trainable": false, "dtype": "float32", "momentum": 0.99, "beta_regularizer": null, "gamma_initializer": {"class_name": "Ones", "config": {}}, "epsilon": 1.001e-05, "moving_variance_initializer": {"class_name": "Ones", "config": {}}, "name": "conv4_block25_1_bn", "moving_mean_initializer": {"class_name": "Zeros", "config": {}}, "center": true, "beta_constraint": null}}, {"class_name": "Activation", "inbound_nodes": [[["conv4_block25_1_bn", 0, 0, {}]]], "name": "conv4_block25_1_relu", "config": {"activation": "relu", "name": "conv4_block25_1_relu", "trainable": false, "dtype": "float32"}}, {"class_name": "Conv2D", "inbound_nodes": [[["conv4_block25_1_relu", 0, 0, {}]]], "name": "conv4_block25_2_conv", "config": {"use_bias": false, "kernel_initializer": {"class_name": "GlorotUniform", "config": {"seed": null}}, "filters": 32, "bias_initializer": {"class_name": "Zeros", "config": {}}, "bias_regularizer": null, "dilation_rate": [1, 1], "strides": [1, 1], "data_format": "channels_last", "trainable": false, "dtype": "float32", "activation": "linear", "padding": "same", "kernel_size": [3, 3], "bias_constraint": null, "kernel_regularizer": null, "name": "conv4_block25_2_conv", "activity_regularizer": null, "kernel_constraint": null}}, {"class_name": "Concatenate", "inbound_nodes": [[["conv4_block24_concat", 0, 0, {}], ["conv4_block25_2_conv", 0, 0, {}]]], "name": "conv4_block25_concat", "config": {"name": "conv4_block25_concat", "axis": 3, "trainable": false, "dtype": "float32"}}, {"class_name": "BatchNormalization", "inbound_nodes": [[["conv4_block25_concat", 0, 0, {}]]], "name": "conv4_block26_0_bn", "config": {"scale": true, "beta_initializer": {"class_name": "Zeros", "config": {}}, "gamma_regularizer": null, "gamma_constraint": null, "axis": [3], "trainable": false, "dtype": "float32", "momentum": 0.99, "beta_regularizer": null, "gamma_initializer": {"class_name": "Ones", "config": {}}, "epsilon": 1.001e-05, "moving_variance_initializer": {"class_name": "Ones", "config": {}}, "name": "conv4_block26_0_bn", "moving_mean_initializer": {"class_name": "Zeros", "config": {}}, "center": true, "beta_constraint": null}}, {"class_name": "Activation", "inbound_nodes": [[["conv4_block26_0_bn", 0, 0, {}]]], "name": "conv4_block26_0_relu", "config": {"activation": "relu", "name": "conv4_block26_0_relu", "trainable": false, "dtype": "float32"}}, {"class_name": "Conv2D", "inbound_nodes": [[["conv4_block26_0_relu", 0, 0, {}]]], "name": "conv4_block26_1_conv", "config": {"use_bias": false, "kernel_initializer": {"class_name": "GlorotUniform", "config": {"seed": null}}, "filters": 128, "bias_initializer": {"class_name": "Zeros", "config": {}}, "bias_regularizer": null, "dilation_rate": [1, 1], "strides": [1, 1], "data_format": "channels_last", "trainable": false, "dtype": "float32", "activation": "linear", "padding": "valid", "kernel_size": [1, 1], "bias_constraint": null, "kernel_regularizer": null, "name": "conv4_block26_1_conv", "activity_regularizer": null, "kernel_constraint": null}}, {"class_name": "BatchNormalization", "inbound_nodes": [[["conv4_block26_1_conv", 0, 0, {}]]], "name": "conv4_block26_1_bn", "config": {"scale": true, "beta_initializer": {"class_name": "Zeros", "config": {}}, "gamma_regularizer": null, "gamma_constraint": null, "axis": [3], "trainable": false, "dtype": "float32", "momentum": 0.99, "beta_regularizer": null, "gamma_initializer": {"class_name": "Ones", "config": {}}, "epsilon": 1.001e-05, "moving_variance_initializer": {"class_name": "Ones", "config": {}}, "name": "conv4_block26_1_bn", "moving_mean_initializer": {"class_name": "Zeros", "config": {}}, "center": true, "beta_constraint": null}}, {"class_name": "Activation", "inbound_nodes": [[["conv4_block26_1_bn", 0, 0, {}]]], "name": "conv4_block26_1_relu", "config": {"activation": "relu", "name": "conv4_block26_1_relu", "trainable": false, "dtype": "float32"}}, {"class_name": "Conv2D", "inbound_nodes": [[["conv4_block26_1_relu", 0, 0, {}]]], "name": "conv4_block26_2_conv", "config": {"use_bias": false, "kernel_initializer": {"class_name": "GlorotUniform", "config": {"seed": null}}, "filters": 32, "bias_initializer": {"class_name": "Zeros", "config": {}}, "bias_regularizer": null, "dilation_rate": [1, 1], "strides": [1, 1], "data_format": "channels_last", "trainable": false, "dtype": "float32", "activation": "linear", "padding": "same", "kernel_size": [3, 3], "bias_…
elu", "config": {"activation": "relu", "name": "conv5_block20_0_relu", "trainable": false, "dtype": "float32"}}, {"class_name": "Conv2D", "inbound_nodes": [[["conv5_block20_0_relu", 0, 0, {}]]], "name": "conv5_block20_1_conv", "config": {"use_bias": false, "kernel_initializer": {"class_name": "GlorotUniform", "config": {"seed": null}}, "filters": 128, "bias_initializer": {"class_name": "Zeros", "config": {}}, "bias_regularizer": null, "dilation_rate": [1, 1], "strides": [1, 1], "data_format": "channels_last", "trainable": false, "dtype": "float32", "activation": "linear", "padding": "valid", "kernel_size": [1, 1], "bias_constraint": null, "kernel_regularizer": null, "name": "conv5_block20_1_conv", "activity_regularizer": null, "kernel_constraint": null}}, {"class_name": "BatchNormalization", "inbound_nodes": [[["conv5_block20_1_conv", 0, 0, {}]]], "name": "conv5_block20_1_bn", "config": {"scale": true, "beta_initializer": {"class_name": "Zeros", "config": {}}, "gamma_regularizer": null, "gamma_constraint": null, "axis": [3], "trainable": false, "dtype": "float32", "momentum": 0.99, "beta_regularizer": null, "gamma_initializer": {"class_name": "Ones", "config": {}}, "epsilon": 1.001e-05, "moving_variance_initializer": {"class_name": "Ones", "config": {}}, "name": "conv5_block20_1_bn", "moving_mean_initializer": {"class_name": "Zeros", "config": {}}, "center": true, "beta_constraint": null}}, {"class_name": "Activation", "inbound_nodes": [[["conv5_block20_1_bn", 0, 0, {}]]], "name": "conv5_block20_1_relu", "config": {"activation": "relu", "name": "conv5_block20_1_relu", "trainable": false, "dtype": "float32"}}, {"class_name": "Conv2D", "inbound_nodes": [[["conv5_block20_1_relu", 0, 0, {}]]], "name": "conv5_block20_2_conv", "config": {"use_bias": false, "kernel_initializer": {"class_name": "GlorotUniform", "config": {"seed": null}}, "filters": 32, "bias_initializer": {"class_name": "Zeros", "config": {}}, "bias_regularizer": null, "dilation_rate": [1, 1], "strides": [1, 1], "data_format": "channels_last", "trainable": false, "dtype": "float32", "activation": "linear", "padding": "same", "kernel_size": [3, 3], "bias_constraint": null, "kernel_regularizer": null, "name": "conv5_block20_2_conv", "activity_regularizer": null, "kernel_constraint": null}}, {"class_name": "Concatenate", "inbound_nodes": [[["conv5_block19_concat", 0, 0, {}], ["conv5_block20_2_conv", 0, 0, {}]]], "name": "conv5_block20_concat", "config": {"name": "conv5_block20_concat", "axis": 3, "trainable": false, "dtype": "float32"}}, {"class_name": "BatchNormalization", "inbound_nodes": [[["conv5_block20_concat", 0, 0, {}]]], "name": "conv5_block21_0_bn", "config": {"scale": true, "beta_initializer": {"class_name": "Zeros", "config": {}}, "gamma_regularizer": null, "gamma_constraint": null, "axis": [3], "trainable": false, "dtype": "float32", "momentum": 0.99, "beta_regularizer": null, "gamma_initializer": {"class_name": "Ones", "config": {}}, "epsilon": 1.001e-05, "moving_variance_initializer": {"class_name": "Ones", "config": {}}, "name": "conv5_block21_0_bn", "moving_mean_initializer": {"class_name": "Zeros", "config": {}}, "center": true, "beta_constraint": null}}, {"class_name": "Activation", "inbound_nodes": [[["conv5_block21_0_bn", 0, 0, {}]]], "name": "conv5_block21_0_relu", "config": {"activation": "relu", "name": "conv5_block21_0_relu", "trainable": false, "dtype": "float32"}}, {"class_name": "Conv2D", "inbound_nodes": [[["conv5_block21_0_relu", 0, 0, {}]]], "name": "conv5_block21_1_conv", "config": {"use_bias": false, "kernel_initializer": {"class_name": "GlorotUniform", "config": {"seed": null}}, "filters": 128, "bias_initializer": {"class_name": "Zeros", "config": {}}, "bias_regularizer": null, "dilation_rate": [1, 1], "strides": [1, 1], "data_format": "channels_last", "trainable": false, "dtype": "float32", "activation": "linear", "padding": "valid", "kernel_size": [1, 1], "bias_constraint": null, "kernel_regularizer": null, "name": "conv5_block21_1_conv", "activity_regularizer": null, "kernel_constraint": null}}, {"class_name": "BatchNormalization", "inbound_nodes": [[["conv5_block21_1_conv", 0, 0, {}]]], "name": "conv5_block21_1_bn", "config": {"scale": true, "beta_initializer": {"class_name": "Zeros", "config": {}}, "gamma_regularizer": null, "gamma_constraint": null, "axis": [3], "trainable": false, "dtype": "float32", "momentum": 0.99, "beta_regularizer": null, "gamma_initializer": {"class_name": "Ones", "config": {}}, "epsilon": 1.001e-05, "moving_variance_initializer": {"class_name": "Ones", "config": {}}, "name": "conv5_block21_1_bn", "moving_mean_initializer": {"class_name": "Zeros", "config": {}}, "center": true, "beta_constraint": null}}, {"class_name": "Activation", "inbound_nodes": [[["conv5_block21_1_bn", 0, 0, {}]]], "name": "conv5_block21_1_relu", "config": {"activation": "relu", "name": "conv5_block21_1_relu", "trainable": false, "dtype": "float32"}}, {"class_name": "Conv2D", "inbound_nodes": [[["conv5_block21_1_relu", 0, 0, {}]]], "name": "conv5_block21_2_conv", "config": {"use_bias": false, "kernel_initializer": {"class_name": "GlorotUniform", "config": {"seed": null}}, "filters": 32, "bias_initializer": {"class_name": "Zeros", "config": {}}, "bias_regularizer": null, "dilation_rate": [1, 1], "strides": [1, 1], "data_format": "channels_last", "trainable": false, "dtype": "float32", "activation": "linear", "padding": "same", "kernel_size": [3, 3], "bias_constraint": null, "kernel_regularizer": null, "name": "conv5_block21_2_conv", "activity_regularizer": null, "kernel_constraint": null}}, {"class_name": "Concatenate", "inbound_nodes": [[["conv5_block20_concat", 0, 0, {}], ["conv5_block21_2_conv", 0, 0, {}]]], "name": "conv5_block21_concat", "config": {"name": "conv5_block21_concat", "axis": 3, "trainable": false, "dtype": "float32"}}, {"class_name": "BatchNormalization", "inbound_nodes": [[["conv5_block21_concat", 0, 0, {}]]], "name": "conv5_block22_0_bn", "config": {"scale": true, "beta_initializer": {"class_name": "Zeros", "config": {}}, "gamma_regularizer": null, "gamma_constraint": null, "axis": [3], "trainable": false, "dtype": "float32", "momentum": 0.99, "beta_regularizer": null, "gamma_initializer": {"class_name": "Ones", "config": {}}, "epsilon": 1.001e-05, "moving_variance_initializer": {"class_name": "Ones", "config": {}}, "name": "conv5_block22_0_bn", "moving_mean_initializer": {"class_name": "Zeros", "config": {}}, "center": true, "beta_constraint": null}}, {"class_name": "Activation", "inbound_nodes": [[["conv5_block22_0_bn", 0, 0, {}]]], "name": "conv5_block22_0_relu", "config": {"activation": "relu", "name": "conv5_block22_0_relu", "trainable": false, "dtype": "float32"}}, {"class_name": "Conv2D", "inbound_nodes": [[["conv5_block22_0_relu", 0, 0, {}]]], "name": "conv5_block22_1_conv", "config": {"use_bias": false, "kernel_initializer": {"class_name": "GlorotUniform", "config": {"seed": null}}, "filters": 128, "bias_initializer": {"class_name": "Zeros", "config": {}}, "bias_regularizer": null, "dilation_rate": [1, 1], "strides": [1, 1], "data_format": "channels_last", "trainable": false, "dtype": "float32", "activation": "linear", "padding": "valid", "kernel_size": [1, 1], "bias_constraint": null, "kernel_regularizer": null, "name": "conv5_block22_1_conv", "activity_regularizer": null, "kernel_constraint": null}}, {"class_name": "BatchNormalization", "inbound_nodes": [[["conv5_block22_1_conv", 0, 0, {}]]], "name": "conv5_block22_1_bn", "config": {"scale": true, "beta_initializer": {"class_name": "Zeros", "config": {}}, "gamma_regularizer": null, "gamma_constraint": null, "axis": [3], "trainable": false, "dtype": "float32", "momentum": 0.99, "beta_regularizer": null, "gamma_initializer": {"class_name": "Ones", "config": {}}, "epsilon": 1.001e-05, "moving_variance_initializer": {"class_name": "Ones", "config": {}}, "name": "conv5_block22_1_bn", "moving_mean_initializer": {"class_name": "Zeros", "config": {}}, "center": true, "beta_constraint": null}}, {"class_name": "Activation", "inbound_nodes": [[["conv5_block22_1_bn", 0, 0, {}]]], "name": "conv5_block22_1_relu", "config": {"activation": "relu", "name": "conv5_block22_1_relu", "trainable": false, "dtype": "float32"}}, {"class_name": "Conv2D", "inbound_nodes": [[["conv5_block22_1_relu", 0, 0, {}]]], "name": "conv5_block22_2_conv", "config": {"use_bias": false, "kernel_initializer": {"class_name": "GlorotUniform", "config": {"seed": null}}, "filters": 32, "bias_initializer": {"class_name": "Zeros", "config": {}}, "bias_regularizer": null, "dilation_rate": [1, 1], "strides": [1, 1], "data_format": "channels_last", "trainable": false, "dtype": "float32", "activation": "linear", "padding": "same", "kernel_size": [3, 3], "bias_constraint": null, "kernel_regularizer": null, "name": "conv5_block22_2_conv", "activity_regularizer": null, "kernel_constraint": null}}, {"class_name": "Concatenate", "inbound_nodes": [[["conv5_block21_concat", 0, 0, {}], ["conv5_block22_2_conv", 0, 0, {}]]], "name": "conv5_block22_concat", "config": {"name": "conv5_block22_concat", "axis": 3, "trainable": false, "dtype": "float32"}}, {"class_name": "BatchNormalization", "inbound_nodes": [[["conv5_block22_concat", 0, 0, {}]]], "name": "conv5_block23_0_bn", "config": {"scale": true, "beta_initializer": {"class_name": "Zeros", "config": {}}, "gamma_regularizer": null, "gamma_constraint": null, "axis": [3], "trainable": false, "dtype": "float32", "momentum": 0.99, "beta_regularizer": null, "gamma_initializer": {"class_name": "Ones", "config": {}}, "epsilon": 1.001e-05, "moving_variance_initializer": {"class_name": "Ones", "config": {}}, "name": "conv5_block23_0_bn", "moving_mean_initializer": {"class_name": "Zeros", "config": {}}, "center": true, "beta_constraint": null}}, {"class_name": "Activation", "inbound_nodes": [[["conv5_block23_0_bn", 0, 0, {}]]], "name": "conv5_block23_0_relu", "config": {"activation": "relu", "name": "conv5_block23_0_relu", "trainable": false, "dtype": "float32"}}, {"class_name": "Conv2D", "inbound_nodes": [[["conv5_block23_0_relu", 0, 0, {}]]], "name": "conv5_block23_1_conv", "config": {"use_bias": false, "kernel_initializer": {"class_name": "GlorotUniform", "config": {"seed": null}}, "filters": 128, "bias_initializer": {"class_name": "Zeros", "config": {}}, "bias_regularizer": null, "dilation_rate": [1, 1], "strides": [1, 1], "data_format": "channels_last", "trainable": false, "dtype": "float32", "activation": "linear", "padding": "valid", "kernel_size": [1, 1], "bias_constraint": null, "kernel_regularizer": null, "name": "conv5_block23_1_conv", "activity_regularizer": null, "kernel_constraint": null}}, {"class_name": "BatchNormalization", "inbound_nodes": [[["conv5_block23_1_conv", 0, 0, {}]]], "name": "conv5_block23_1_bn", "config": {"scale": true, "beta_initializer": {"class_name": "Zeros", "config": {}}, "gamma_regularizer": null, "gamma_constraint": null, "axis": [3], "trainable": false, "dtype": "float32", "momentum": 0.99, "beta_regularizer": null, "gamma_initializer": {"class_name": "Ones", "config": {}}, "epsilon": 1.001e-05, "moving_variance_initializer": {"class_name": "Ones", "config": {}}, "name": "conv5_block23_1_bn", "moving_mean_initializer": {"class_name": "Zeros", "config": {}}, "center": true, "beta_constraint": null}}, {"class_name": "Activation", "inbound_nodes": [[["conv5_block23_1_bn", 0, 0, {}]]], "name": "conv5_block23_1_relu", "config": {"activation": "relu", "name": "conv5_block23_1_relu", "trainable": false, "dtype": "float32"}}, {"class_name": "Conv2D", "inbound_nodes": [[["conv5_block23_1_relu", 0, 0, {}]]], "name": "conv5_block23_2_conv", "config": {"use_bias": false, "kernel_initializer": {"class_name": "GlorotUniform", "config": {"seed": null}}, "filters": 32, "bias_initializer": {"class_name": "Zeros", "config": {}}, "bias_regularizer": null, "dilation_rate": [1, 1], "strides": [1, 1], "data_format": "channels_last", "trainable": false, "dtype": "float32", "activation": "linear", "padding": "same", "kernel_size": [3, 3], "bias_constraint": null, "kernel_regularizer": null, "name": "conv5_block23_2_conv", "activity_regularizer": null, "kernel_constraint": null}}, {"class_name": "Concatenate", "inbound_nodes": [[["conv5_block22_concat", 0, 0, {}], ["conv5_block23_2_conv", 0, 0, {}]]], "name": "conv5_block23_concat", "config": {"name": "conv5_block23_concat", "axis": 3, "trainable": false, "dtype": "float32"}}, {"class_name": "BatchNormalization", "inbound_nodes": [[["conv5_block23_concat", 0, 0, {}]]], "name": "conv5_block24_0_bn", "config": {"scale": true, "beta_initializer": {"class_name": "Zeros", "config": {}}, "gamma_regularizer": null, "gamma_constraint": null, "axis": [3], "trainable": false, "dtype": "float32", "momentum": 0.99, "beta_regularizer": null, "gamma_initializer": {"class_name": "Ones", "config": {}}, "epsilon": 1.001e-05, "moving_variance_initializer": {"class_name": "Ones", "config": {}}, "name": "conv5_block24_0_bn", "moving_mean_initializer": {"class_name": "Zeros", "config": {}}, "center": true, "beta_constraint": null}}, {"class_name": "Activation", "inbound_nodes": [[["conv5_block24_0_bn", 0, 0, {}]]], "name": "conv5_block24_0_relu", "config": {"activation": "relu", "name": "conv5_block24_0_relu", "trainable": false, "dtype": "float32"}}, {"class_name": "Conv2D", "inbound_nodes": [[["conv5_block24_0_relu", 0, 0, {}]]], "name": "conv5_block24_1_conv", "config": {"use_bias": false, "kernel_initializer": {"class_name": "GlorotUniform", "config": {"seed": null}}, "filters": 128, "bias_initializer": {"class_name": "Zeros", "config": {}}, "bias_regularizer": null, "dilation_rate": [1, 1], "strides": [1, 1], "data_format": "channels_last", "trainable": false, "dtype": "float32", "activation": "linear", "padding": "valid", "kernel_size": [1, 1], "bias_constraint": null, "kernel_regularizer": null, "name": "conv5_block24_1_conv", "activity_regularizer": null, "kernel_constraint": null}}, {"class_name": "BatchNormalization", "inbound_nodes": [[["conv5_block24_1_conv", 0, 0, {}]]], "name": "conv5_block24_1_bn", "config": {"scale": true, "beta_initializer": {"class_name": "Zeros", "config": {}}, "gamma_regularizer": null, "gamma_constraint": null, "axis": [3], "trainable": false, "dtype": "float32", "momentum": 0.99, "beta_regularizer": null, "gamma_initializer": {"class_name": "Ones", "config": {}}, "epsilon": 1.001e-05, "moving_variance_initializer": {"class_name": "Ones", "config": {}}, "name": "conv5_block24_1_bn", "moving_mean_initializer": {"class_name": "Zeros", "config": {}}, "center": true, "beta_constraint": null}}, {"class_name": "Activation", "inbound_nodes": [[["conv5_block24_1_bn", 0, 0, {}]]], "name": "conv5_block24_1_relu", "config": {"activation": "relu", "name": "conv5_block24_1_relu", "trainable": false, "dtype": "float32"}}, {"class_name": "Conv2D", "inbound_nodes": [[["conv5_block24_1_relu", 0, 0, {}]]], "name": "conv5_block24_2_conv", "config": {"use_bias": false, "kernel_initializer": {"class_name": "GlorotUniform", "config": {"seed": null}}, "filters": 32, "bias_initializer": {"class_name": "Zeros", "config": {}}, "bias_regularizer": null, "dilation_rate": [1, 1], "strides": [1, 1], "data_format": "channels_last", "trainable": false, "dtype": "float32", "activation": "linear", "padding": "same", "kernel_size": [3, 3], "bias_constraint": null, "kernel_regularizer": null, "name": "conv5_block24_2_conv", "activity_regularizer": null, "kernel_constraint": null}}, {"class_name": "Concatenate", "inbound_nodes": [[["conv5_block23_concat", 0, 0, {}], ["conv5_block24_2_conv", 0, 0, {}]]], "name": "conv5_block24_concat", "config": {"name": "conv5_block24_concat", "axis": 3, "trainable": false, "dtype": "float32"}}, {"class_name": "BatchNormalization", "inbound_nodes": [[["conv5_block24_concat", 0, 0, {}]]], "name": "conv5_block25_0_bn", "config": {"scale": true, "beta_initializer": {"class_name": "Zeros", "config": {}}, "gamma_regularizer": null, "gamma_constraint": null, "axis": [3], "trainable": false, "dtype": "float32", "momentum": 0.99, "beta_regularizer": null, "gamma_initializer": {"class_name": "Ones", "config": {}}, "epsilon": 1.001e-05, "moving_variance_initializer": {"class_name": "Ones", "config": {}}, "name": "conv5_block25_0_bn", "moving_mean_initializer": {"class_name": "Zeros", "config": {}}, "center": true, "beta_constraint": null}}, {"class_name": "Activation", "inbound_nodes": [[["conv5_block25_0_bn", 0, 0, {}]]], "name": "conv5_block25_0_relu", "config": {"activation": "relu", "name": "conv5_block25_0_relu", "trainable": false, "dtype": "float32"}}, {"class_name": "Conv2D", "inbound_nodes": [[["conv5_block25_0_relu", 0, 0, {}]]], "name": "conv5_block25_1_conv", "config": {"use_bias": false, "kernel_initializer": {"class_name": "GlorotUniform", "config": {"seed": null}}, "filters": 128, "bias_initializer": {"class_name": "Zeros", "config": {}}, "bias_regularizer": null, "dilation_rate": [1, 1], "strides": [1, 1], "data_format": "channels_last", "trainable": false, "dtype": "float32", "activation": "linear", "padding": "valid", "kernel_size": [1, 1], "bias_constraint": null, "kernel_regularizer": null, "name": "conv5_block25_1_conv", "activity_regularizer": null, "kernel_constraint": null}}, {"class_name": "BatchNormalization", "inbound_nodes": [[["conv5_block25_1_conv", 0, 0, {}]]], "name": "conv5_block25_1_bn", "config": {"scale": true, "beta_initializer": {"class_name": "Zeros", "config": {}}, "gamma_regularizer": null, "gamma_constraint": null, "axis": [3], "trainable": false, "dtype": "float32", "momentum": 0.99, "beta_regularizer": null, "gamma_initializer": {"class_name": "Ones", "config": {}}, "epsilon": 1.001e-05, "moving_variance_initializer": {"class_name": "Ones", "config": {}}, "name": "conv5_block25_1_bn", "moving_mean_initializer": {"class_name": "Zeros", "config": {}}, "center": true, "beta_constraint": null}}, {"class_name": "Activation", "inbound_nodes": [[["conv5_block25_1_bn", 0, 0, {}]]], "name": "conv5_block25_1_relu", "config": {"activation": "relu", "name": "conv5_block25_1_relu", "trainable": false, "dtype": "float32"}}, {"class_name": "Conv2D", "inbound_nodes": [[["conv5_block25_1_relu", 0, 0, {}]]], "name": "conv5_block25_2_conv", "config": {"use_bias": false, "kernel_initializer": {"class_name": "GlorotUniform", "config": {"seed": null}}, "filters": 32, "bias_initializer": {"class_name": "Zeros", "config": {}}, "bias_regularizer": null, "dilation_rate": [1, 1], "strides": [1, 1], "data_format": "channels_last", "trainable": false, "dtype": "float32", "activation": "linear", "padding": "same", "kernel_size": [3, 3], "bias_constraint": null, "kernel_regularizer": null, "name": "conv5_block25_2_conv", "activity_regularizer": null, "kernel_constraint": null}}, {"class_name": "Concatenate", "inbound_nodes": [[["conv5_block24_concat", 0, 0, {}], ["conv5_block25_2_conv", 0, 0, {}]]], "name": "conv5_block25_concat", "config": {"name": "conv5_block25_concat", "axis": 3, "trainable": false, "dtype": "float32"}}, {"class_name": "BatchNormalization", "inbound_nodes": [[["conv5_block25_concat", 0, 0, {}]]], "name": "conv5_block26_0_bn", "config": {"scale": true, "beta_initializer": {"class_name": "Zeros", "config": {}}, "gamma_regularizer": null, "gamma_constraint": null, "axis": [3], "trainable": false, "dtype": "float32", "momentum": 0.99, "beta_regularizer": null, "gamma_initializer": {"class_name": "Ones", "config": {}}, "epsilon": 1.001e-05, "moving_variance_initializer": {"class_name": "Ones", "config": {}}, "name": "conv5_block26_0_bn", "moving_mean_initializer": {"class_name": "Zeros", "config": {}}, "center": true, "beta_constraint": null}}, {"class_name": "Activation", "inbound_nodes": [[["conv5_block26_0_bn", 0, 0, {}]]], "name": "conv5_block26_0_relu", "config": {"activation": "relu", "name": "conv5_block26_0_relu", "trainable": false, "dtype": "float32"}}, {"class_name": "Conv2D", "inbound_nodes": [[["conv5_block26_0_relu", 0, 0, {}]]], "name": "conv5_block26_1_conv", "config": {"use_bias": false, "kernel_initializer": {"class_name": "GlorotUniform", "config": {"seed": null}}, "filters": 128, "bias_initializer": {"class_name": "Zeros", "config": {}}, "bias_regularizer": null, "dilation_rate": [1, 1], "strides": [1, 1], "data_format": "channels_last", "trainable": false, "dtype": "float32", "activation": "linear", "padding": "valid", "kernel_size": [1, 1], "bias_constraint": null, "kernel_regularizer": null, "name": "conv5_block26_1_conv", "activity_regularizer": null, "kernel_constraint": null}}, {"class_name": "BatchNormalization", "inbound_nodes": [[["conv5_block26_1_conv", 0, 0, {}]]], "name": "conv5_block26_1_bn", "config": {"scale": true, "beta_initializer": {"class_name": "Zeros", "config": {}}, "gamma_regularizer": null, "gamma_constraint": null, "axis": [3], "trainable": false, "dtype": "float32", "momentum": 0.99, "beta_regularizer": null, "gamma_initializer": {"class_name": "Ones", "config": {}}, "epsilon": 1.001e-05, "moving_variance_initializer": {"class_name": "Ones", "config": {}}, "name": "conv5_block26_1_bn", "moving_mean_initializer": {"class_name": "Zeros", "config": {}}, "center": true, "beta_constraint": null}}, {"class_name": "Activation", "inbound_nodes": [[["conv5_block26_1_bn", 0, 0, {}]]], "name": "conv5_block26_1_relu", "config": {"activation": "relu", "name": "conv5_block26_1_relu", "trainable": false, "dtype": "float32"}}, {"class_name": "Conv2D", "inbound_nodes": [[["conv5_block26_1_relu", 0, 0, {}]]], "name": "conv5_block26_2_conv", "config": {"use_bias": false, "kernel_initializer": {"class_name": "GlorotUniform", "config": {"seed": null}}, "filters": 32, "bias_initializer": {"class_name": "Zeros", "config": {}}, "bias_regularizer": null, "dilation_rate": [1, 1], "strides": [1, 1], "data_format": "channels_last", "trainable": false, "dtype": "float32", "activation": "linear", "padding": "same", "kernel_size": [3, 3], "bias_constraint": null, "kernel_regularizer": null, "name": "conv5_block26_2_conv", "activity_regularizer": null, "kernel_constraint": null}}, {"class_name": "Concatenate", "inbound_nodes": [[["conv5_block25_concat", 0, 0, {}], ["conv5_block26_2_conv", 0, 0, {}]]], "name": "conv5_block26_concat", "config": {"name": "conv5_block26_concat", "axis": 3, "trainable": false, "dtype": "float32"}}, {"class_name": "BatchNormalization", "inbound_nodes": [[["conv5_block26_concat", 0, 0, {}]]], "name": "conv5_block27_0_bn", "config": {"scale": true, "beta_initializer": {"class_name": "Zeros", "config": {}}, "gamma_regularizer": null, "gamma_constraint": null, "axis": [3], "trainable": false, "dtype": "float32", "momentum": 0.99, "beta_regularizer": null, "gamma_initializer": {"class_name": "Ones", "config": {}}, "epsilon": 1.001e-05, "moving_variance_initializer": {"class_name": "Ones", "config": {}}, "name": "conv5_block27_0_bn", "moving_mean_initializer": {"class_name": "Zeros", "config": {}}, "center": true, "beta_constraint": null}}, {"class_name": "Activation", "inbound_nodes": [[["conv5_block27_0_bn", 0, 0, {}]]], "name": "conv5_block27_0_relu", "config": {"activation": "relu", "name": "conv5_block27_0_relu", "trainable": false, "dtype": "float32"}}, {"class_name": "Conv2D", "inbound_nodes": [[["conv5_block27_0_relu", 0, 0, {}]]], "name": "conv5_block27_1_conv", "config": {"use_bias": false, "kernel_initializer": {"class_name": "GlorotUniform", "config": {"seed": null}}, "filters": 128, "bias_initializer": {"class_name": "Zeros", "config": {}}, "bias_regularizer": null, "dilation_rate": [1, 1], "strides": [1, 1], "data_format": "channels_last", "trainable": false, "dtype": "float32", "activation": "linear", "padding": "valid", "kernel_size": [1, 1], "bias_constraint": null, "kernel_regularizer": null, "name": "conv5_block27_1_conv", "activity_regularizer": null, "kernel_constraint": null}}, {"class_name": "BatchNormalization", "inbound_nodes": [[["conv5_block27_1_conv", 0, 0, {}]]], "name": "conv5_block27_1_bn", "config": {"scale": true, "beta_initializer": {"class_name": "Zeros", "config": {}}, "gamma_regularizer": null, "gamma_constraint": null, "axis": [3], "trainable": false, "dtype": "float32", "momentum": 0.99, "beta_regularizer": null, "gamma_initializer": {"class_name": "Ones", "config": {}}, "epsilon": 1.001e-05, "moving_variance_initializer": {"class_name": "Ones", "config": {}}, "name": "conv5_block27_1_bn", "moving_mean_initializer": {"class_name": "Zeros", "config": {}}, "center": true, "beta_constraint": null}}, {"class_name": "Activation", "inbound_nodes": [[["conv5_block27_1_bn", 0, 0, {}]]], "name": "conv5_block27_1_relu", "config": {"activation": "relu", "name": "conv5_block27_1_relu", "trainable": false, "dtype": "float32"}}, {"class_name": "Conv2D", "inbound_nodes": [[["conv5_block27_1_relu", 0, 0, {}]]], "name": "conv5_block27_2_conv", "config": {"use_bias": false, "kernel_initializer": {"class_name": "GlorotUniform", "config": {"seed": null}}, "filters": 32, "bias_initializer": {"class_name": "Zeros", "config": {}}, "bias_regularizer": null, "dilation_rate": [1, 1], "strides": [1, 1], "data_format": "channels_last", "trainable": false, "dtype": "float32", "activation": "linear", "padding": "same", "kernel_size": [3, 3], "bias_constraint": null, "kernel_regularizer": null, "name": "conv5_block27_2_conv", "activity_regularizer": null, "kernel_constraint": null}}, {"class_name": "Concatenate", "inbound_nodes": [[["conv5_block26_concat", 0, 0, {}], ["conv5_block27_2_conv", 0, 0, {}]]], "name": "conv5_block27_concat", "config": {"name": "conv5_block27_concat", "axis": 3, "trainable": false, "dtype": "float32"}}, {"class_name": "BatchNormalization", "inbound_nodes": [[["conv5_block27_concat", 0, 0, {}]]], "name": "conv5_block28_0_bn", "config": {"scale": true, "beta_initializer": {"class_name": "Zeros", "config": {}}, "gamma_regularizer": null, "gamma_constraint": null, "axis": [3], "trainable": false, "dtype": "float32", "momentum": 0.99, "beta_regularizer": null, "gamma_initializer": {"class_name": "Ones", "config": {}}, "epsilon": 1.001e-05, "moving_variance_initializer": {"class_name": "Ones", "config": {}}, "name": "conv5_block28_0_bn", "moving_mean_initializer": {"class_name": "Zeros", "config": {}}, "center": true, "beta_constraint": null}}, {"class_name": "Activation", "inbound_nodes": [[["conv5_block28_0_bn", 0, 0, {}]]], "name": "conv5_block28_0_relu", "config": {"activation": "relu", "name": "conv5_block28_0_relu", "trainable": false, "dtype": "float32"}}, {"class_name": "Conv2D", "inbound_nodes": [[["conv5_block28_0_relu", 0, 0, {}]]], "name": "conv5_block28_1_conv", "config": {"use_bias": false, "kernel_initializer": {"class_name": "GlorotUniform", "config": {"seed": null}}, "filters": 128, "bias_initializer": {"class_name": "Zeros", "config": {}}, "bias_regularizer": null, "dilation_rate": [1, 1], "strides": [1, 1], "data_format": "channels_last", "trainable": false, "dtype": "float32", "activation": "linear", "padding": "valid", "kernel_size": [1, 1], "bias_constraint": null, "kernel_regularizer": null, "name": "conv5_block28_1_conv", "activity_regularizer": null, "kernel_constraint": null}}, {"class_name": "BatchNormalization", "inbound_nodes": [[["conv5_block28_1_conv", 0, 0, {}]]], "name": "conv5_block28_1_bn", "config": {"scale": true, "beta_initializer": {"class_name": "Zeros", "config": {}}, "gamma_regularizer": null, "gamma_constraint": null, "axis": [3], "trainable": false, "dtype": "float32", "momentum": 0.99, "beta_regularizer": null, "gamma_initializer": {"class_name": "Ones", "config": {}}, "epsilon": 1.001e-05, "moving_variance_initializer": {"class_name": "Ones", "config": {}}, "name": "conv5_block28_1_bn", "moving_mean_initializer": {"class_name": "Zeros", "config": {}}, "center": true, "beta_constraint": null}}, {"class_name": "Activation", "inbound_nodes": [[["conv5_block28_1_bn", 0, 0, {}]]], "name": "conv5_block28_1_relu", "config": {"activation": "relu", "name": "conv5_block28_1_relu", "trainable": false, "dtype": "float32"}}, {"class_name": "Conv2D", "inbound_nodes": [[["conv5_block28_1_relu", 0, 0, {}]]], "name": "conv5_block28_2_conv", "config": {"use_bias": false, "kernel_initializer": {"class_name": "GlorotUniform", "config": {"seed": null}}, "filters": 32, "bias_initializer": {"class_name": "Zeros", "config": {}}, "bias_regularizer": null, "dilation_rate": [1, 1], "strides": [1, 1], "data_format": "channels_last", "trainable": false, "dtype": "float32", "activation": "linear", "padding": "same", "kernel_size": [3, 3], "bias_constraint": null, "kernel_regularizer": null, "name": "conv5_block28_2_conv", "activity_regularizer": null, "kernel_constraint": null}}, {"class_name": "Concatenate", "inbound_nodes": [[["conv5_block27_concat", 0, 0, {}], ["conv5_block28_2_conv", 0, 0, {}]]], "name": "conv5_block28_concat", "config": {"name": "conv5_block28_concat", "axis": 3, "trainable": false, "dtype": "float32"}}, {"class_name": "BatchNormalization", "inbound_nodes": [[["conv5_block28_concat", 0, 0, {}]]], "name": "conv5_block29_0_bn", "config": {"scale": true, "beta_initializer": {"class_name": "Zeros", "config": {}}, "gamma_regularizer": null, "gamma_constraint": null, "axis": [3], "trainable": false, "dtype": "float32", "momentum": 0.99, "beta_regularizer": null, "gamma_initializer": {"class_name": "Ones", "config": {}}, "epsilon": 1.001e-05, "moving_variance_initializer": {"class_name": "Ones", "config": {}}, "name": "conv5_block29_0_bn", "moving_mean_initializer": {"class_name": "Zeros", "config": {}}, "center": true, "beta_constraint": null}}, {"class_name": "Activation", "inbound_nodes": [[["conv5_block29_0_bn", 0, 0, {}]]], "name": "conv5_block29_0_relu", "config": {"activation": "relu", "name": "conv5_block29_0_relu", "trainable": false, "dtype": "float32"}}, {"class_name": "Conv2D", "inbound_nodes": [[["conv5_block29_0_relu", 0, 0, {}]]], "name": "conv5_block29_1_conv", "config": {"use_bias": false, "kernel_initializer": {"class_name": "GlorotUniform", "config": {"seed": null}}, "filters": 128, "bias_initializer": {"class_name": "Zeros", "config": {}}, "bias_regularizer": null, "dilation_rate": [1, 1], "strides": [1, 1], "data_format": "channels_last", "trainable": false, "dtype": "float32", "activation": "linear", "padding": "valid", "kernel_size": [1, 1], "bias_constraint": null, "kernel_regularizer": null, "name": "conv5_block29_1_conv", "activity_regularizer": null, "kernel_constraint": null}}, {"class_name": "BatchNormalization", "inbound_nodes": [[["conv5_block29_1_conv", 0, 0, {}]]], "name": "conv5_block29_1_bn", "config": {"scale": true, "beta_initializer": {"class_name": "Zeros", "config": {}}, "gamma_regularizer": null, "gamma_constraint": null, "axis": [3], "trainable": false, "dtype": "float32", "momentum": 0.99, "beta_regularizer": null, "gamma_initializer": {"class_name": "Ones", "config": {}}, "epsilon": 1.001e-05, "moving_variance_initializer": {"class_name": "Ones", "config": {}}, "name": "conv5_block29_1_bn", "moving_mean_initializer": {"class_name": "Zeros", "config": {}}, "center": true, "beta_constraint": null}}, {"class_name": "Activation", "inbound_nodes": [[["conv5_block29_1_bn", 0, 0, {}]]], "name": "conv5_block29_1_relu", "config": {"activation": "relu", "name": "conv5_block29_1_relu", "trainable": false, "dtype": "float32"}}, {"class_name": "Conv2D", "inbound_nodes": [[["conv5_block29_1_relu", 0, 0, {}]]], "name": "conv5_block29_2_conv", "config": {"use_bias": false, "kernel_initializer": {"class_name": "GlorotUniform", "config": {"seed": null}}, "filters": 32, "bias_initializer": {"class_name": "Zeros", "config": {}}, "bias_regularizer": null, "dilation_rate": [1, 1], "strides": [1, 1], "data_format": "channels_last", "trainable": false, "dtype": "float32", "activation": "linear", "padding": "same", "kernel_size": [3, 3], "bias_constraint": null, "kernel_regularizer": null, "name": "conv5_block29_2_conv", "activity_regularizer": null, "kernel_constraint": null}}, {"class_name": "Concatenate", "inbound_nodes": [[["conv5_block28_concat", 0, 0, {}], ["conv5_block29_2_conv", 0, 0, {}]]], "name": "conv5_block29_concat", "config": {"name": "conv5_block29_concat", "axis": 3, "trainable": false, "dtype": "float32"}}, {"class_name": "BatchNormalization", "inbound_nodes": [[["conv5_block29_concat", 0, 0, {}]]], "name": "conv5_block30_0_bn", "config": {"scale": true, "beta_initializer": {"class_name": "Zeros", "config": {}}, "gamma_regularizer": null, "gamma_constraint": null, "axis": [3], "trainable": false, "dtype": "float32", "momentum": 0.99, "beta_regularizer": null, "gamma_initializer": {"class_name": "Ones", "config": {}}, "epsilon": 1.001e-05, "moving_variance_initializer": {"class_name": "Ones", "config": {}}, "name": "conv5_block30_0_bn", "moving_mean_initializer": {"class_name": "Zeros", "config": {}}, "center": true, "beta_constraint": null}}, {"class_name": "Activation", "inbound_nodes": [[["conv5_block30_0_bn", 0, 0, {}]]], "name": "conv5_block30_0_relu", "config": {"activation": "relu", "name": "conv5_block30_0_relu", "trainable": false, "dtype": "float32"}}, {"class_name": "Conv2D", "inbound_nodes": [[["conv5_block30_0_relu", 0, 0, {}]]], "name": "conv5_block30_1_conv", "config": {"use_bias": false, "kernel_initializer": {"class_name": "GlorotUniform", "config": {"seed": null}}, "filters": 128, "bias_initializer": {"class_name": "Zeros", "config": {}}, "bias_regularizer": null, "dilation_rate": [1, 1], "strides": [1, 1], "data_format": "channels_last", "trainable": false, "dtype": "float32", "activation": "linear", "padding": "valid", "kernel_size": [1, 1], "bias_constraint": null, "kernel_regularizer": null, "name": "conv5_block30_1_conv", "activity_regularizer": null, "kernel_constraint": null}}, {"class_name": "BatchNormalization", "inbound_nodes": [[["conv5_block30_1_conv", 0, 0, {}]]], "name": "conv5_block30_1_bn", "config": {"scale": true, "beta_initializer": {"class_name": "Zeros", "config": {}}, "gamma_regularizer": null, "gamma_constraint": null, "axis": [3], "trainable": false, "dtype": "float32", "momentum": 0.99, "beta_regularizer": null, "gamma_initializer": {"class_name": "Ones", "config": {}}, "epsilon": 1.001e-05, "moving_variance_initializer": {"class_name": "Ones", "config": {}}, "name": "conv5_block30_1_bn", "moving_mean_initializer": {"class_name": "Zeros", "config": {}}, "center": true, "beta_constraint": null}}, {"class_name": "Activation", "inbound_nodes": [[["conv5_block30_1_bn", 0, 0, {}]]], "name": "conv5_block30_1_relu", "config": {"activation": "relu", "name": "conv5_block30_1_relu", "trainable": false, "dtype": "float32"}}, {"class_name": "Conv2D", "inbound_nodes": [[["conv5_block30_1_relu", 0, 0, {}]]], "name": "conv5_block30_2_conv", "config": {"use_bias": false, "kernel_initializer": {"class_name": "GlorotUniform", "config": {"seed": null}}, "filters": 32, "bias_initializer": {"class_name": "Zeros", "config": {}}, "bias_regularizer": null, "dilation_rate": [1, 1], "strides": [1, 1], "data_format": "channels_last", "trainable": false, "dtype": "float32", "activation": "linear", "padding": "same", "kernel_size": [3, 3], "bias_constraint": null, "kernel_regularizer": null, "name": "conv5_block30_2_conv", "activity_regularizer": null, "kernel_constraint": null}}, {"class_name": "Concatenate", "inbound_nodes": [[["conv5_block29_concat", 0, 0, {}], ["conv5_block30_2_conv", 0, 0, {}]]], "name": "conv5_block30_concat", "config": {"name": "conv5_block30_concat", "axis": 3, "trainable": false, "dtype": "float32"}}, {"class_name": "BatchNormalization", "inbound_nodes": [[["conv5_block30_concat", 0, 0, {}]]], "name": "conv5_block31_0_bn", "config": {"scale": true, "beta_initializer": {"class_name": "Zeros", "config": {}}, "gamma_regularizer": null, "gamma_constraint": null, "axis": [3], "trainable": false, "dtype": "float32", "momentum": 0.99, "beta_regularizer": null, "gamma_initializer": {"class_name": "Ones", "config": {}}, "epsilon": 1.001e-05, "moving_variance_initializer": {"class_name": "Ones", "config": {}}, "name": "conv5_block31_0_bn", "moving_mean_initializer": {"class_name": "Zeros", "config": {}}, "center": true, "beta_constraint": null}}, {"class_name": "Activation", "inbound_nodes": [[["conv5_block31_0_bn", 0, 0, {}]]], "name": "conv5_block31_0_relu", "config": {"activation": "relu", "name": "conv5_block31_0_relu", "trainable": false, "dtype": "float32"}}, {"class_name": "Conv2D", "inbound_nodes": [[["conv5_block31_0_relu", 0, 0, {}]]], "name": "conv5_block31_1_conv", "config": {"use_bias": false, "kernel_initializer": {"class_name": "GlorotUniform", "config": {"seed": null}}, "filters": 128, "bias_initializer": {"class_name": "Zeros", "config": {}}, "bias_regularizer": null, "dilation_rate": [1, 1], "strides": [1, 1], "data_format": "channels_last", "trainable": false, "dtype": "float32", "activation": "linear", "padding": "valid", "kernel_size": [1, 1], "bias_constraint": null, "kernel_regularizer": null, "name": "conv5_block31_1_conv", "activity_regularizer": null, "kernel_constraint": null}}, {"class_name": "BatchNormalization", "inbound_nodes": [[["conv5_block31_1_conv", 0, 0, {}]]], "name": "conv5_block31_1_bn", "config": {"scale": true, "beta_initializer": {"class_name": "Zeros", "config": {}}, "gamma_regularizer": null, "gamma_constraint": null, "axis": [3], "trainable": false, "dtype": "float32", "momentum": 0.99, "beta_regularizer": null, "gamma_initializer": {"class_name": "Ones", "config": {}}, "epsilon": 1.001e-05, "moving_variance_initializer": {"class_name": "Ones", "config": {}}, "name": "conv5_block31_1_bn", "moving_mean_initializer": {"class_name": "Zeros", "config": {}}, "center": true, "beta_constraint": null}}, {"class_name": "Activation", "inbound_nodes": [[["conv5_block31_1_bn", 0, 0, {}]]], "name": "conv5_block31_1_relu", "config": {"activation": "relu", "name": "conv5_block31_1_relu", "trainable": false, "dtype": "float32"}}, {"class_name": "Conv2D", "inbound_nodes": [[["conv5_block31_1_relu", 0, 0, {}]]], "name": "conv5_block31_2_conv", "config": {"use_bias": false, "kernel_initializer": {"class_name": "GlorotUniform", "config": {"seed": null}}, "filters": 32, "bias_initializer": {"class_name": "Zeros", "config": {}}, "bias_regularizer": null, "dilation_rate": [1, 1], "strides": [1, 1], "data_format": "channels_last", "trainable": false, "dtype": "float32", "activation": "linear", "padding": "same", "kernel_size": [3, 3], "bias_constraint": null, "kernel_regularizer": null, "name": "conv5_block31_2_conv", "activity_regularizer": null, "kernel_constraint": null}}, {"class_name": "Concatenate", "inbound_nodes": [[["conv5_block30_concat", 0, 0, {}], ["conv5_block31_2_conv", 0, 0, {}]]], "name": "conv5_block31_concat", "config": {"name": "conv5_block31_concat", "axis": 3, "trainable": false, "dtype": "float32"}}, {"class_name": "BatchNormalization", "inbound_nodes": [[["conv5_block31_concat", 0, 0, {}]]], "name": "conv5_block32_0_bn", "config": {"scale": true, "beta_initializer": {"class_name": "Zeros", "config": {}}, "gamma_regularizer": null, "gamma_constraint": null, "axis": [3], "trainable": false, "dtype": "float32", "momentum": 0.99, "beta_regularizer": null, "gamma_initializer": {"class_name": "Ones", "config": {}}, "epsilon": 1.001e-05, "moving_variance_initializer": {"class_name": "Ones", "config": {}}, "name": "conv5_block32_0_bn", "moving_mean_initializer": {"class_name": "Zeros", "config": {}}, "center": true, "beta_constraint": null}}, {"class_name": "Activation", "inbound_nodes": [[["conv5_block32_0_bn", 0, 0, {}]]], "name": "conv5_block32_0_relu", "config": {"activation": "relu", "name": "conv5_block32_0_relu", "trainable": false, "dtype": "float32"}}, {"class_name": "Conv2D", "inbound_nodes": [[["conv5_block32_0_relu", 0, 0, {}]]], "name": "conv5_block32_1_conv", "config": {"use_bias": false, "kernel_initializer": {"class_name": "GlorotUniform", "config": {"seed": null}}, "filters": 128, "bias_initializer": {"class_name": "Zeros", "config": {}}, "bias_regularizer": null, "dilation_rate": [1, 1], "strides": [1, 1], "data_format": "channels_last", "trainable": false, "dtype": "float32", "activation": "linear", "padding": "valid", "kernel_size": [1, 1], "bias_constraint": null, "kernel_regularizer": null, "name": "conv5_block32_1_conv", "activity_regularizer": null, "kernel_constraint": null}}, {"class_name": "BatchNormalization", "inbound_nodes": [[["conv5_block32_1_conv", 0, 0, {}]]], "name": "conv5_block32_1_bn", "config": {"scale": true, "beta_initializer": {"class_name": "Zeros", "config": {}}, "gamma_regularizer": null, "gamma_constraint": null, "axis": [3], "trainable": false, "dtype": "float32", "momentum": 0.99, "beta_regularizer": null, "gamma_initializer": {"class_name": "Ones", "config": {}}, "epsilon": 1.001e-05, "moving_variance_initializer": {"class_name": "Ones", "config": {}}, "name": "conv5_block32_1_bn", "moving_mean_initializer": {"class_name": "Zeros", "config": {}}, "center": true, "beta_constraint": null}}, {"class_name": "Activation", "inbound_nodes": [[["conv5_block32_1_bn", 0, 0, {}]]], "name": "conv5_block32_1_relu", "config": {"activation": "relu", "name": "conv5_block32_1_relu", "trainable": false, "dtype": "float32"}}, {"class_name": "Conv2D", "inbound_nodes": [[["conv5_block32_1_relu", 0, 0, {}]]], "name": "conv5_block32_2_conv", "config": {"use_bias": false, "kernel_initializer": {"class_name": "GlorotUniform", "config": {"seed": null}}, "filters": 32, "bias_initializer": {"class_name": "Zeros", "config": {}}, "bias_regularizer": null, "dilation_rate": [1, 1], "strides": [1, 1], "data_format": "channels_last", "trainable": false, "dtype": "float32", "activation": "linear", "padding": "same", "kernel_size": [3, 3], "bias_constraint": null, "kernel_regularizer": null, "name": "conv5_block32_2_conv", "activity_regularizer": null, "kernel_constraint": null}}, {"class_name": "Concatenate", "inbound_nodes": [[["conv5_block31_concat", 0, 0, {}], ["conv5_block32_2_conv", 0, 0, {}]]], "name": "conv5_block32_concat", "config": {"name": "conv5_block32_concat", "axis": 3, "trainable": false, "dtype": "float32"}}, {"class_name": "BatchNormalization", "inbound_nodes": [[["conv5_block32_concat", 0, 0, {}]]], "name": "bn", "config": {"scale": true, "beta_initializer": {"class_name": "Zeros", "config": {}}, "gamma_regularizer": null, "gamma_constraint": null, "axis": [3], "trainable": false, "dtype": "float32", "momentum": 0.99, "beta_regularizer": null, "gamma_initializer": {"class_name": "Ones", "config": {}}, "epsilon": 1.001e-05, "moving_variance_initializer": {"class_name": "Ones", "config": {}}, "name": "bn", "moving_mean_initializer": {"class_name": "Zeros", "config": {}}, "center": true, "beta_constraint": null}}, {"class_name": "Activation", "inbound_nodes": [[["bn", 0, 0, {}]]], "name": "relu", "config": {"activation": "relu", "name": "relu", "trainable": false, "dtype": "float32"}}, {"class_name": "Conv2D", "inbound_nodes": [[["relu", 0, 0, {}]]], "name": "conv2d", "config": {"use_bias": true, "kernel_initializer": {"class_name": "GlorotUniform", "config": {"seed": null}}, "filters": 1024, "bias_initializer": {"class_name": "Zeros", "config": {}}, "bias_regularizer": null, "dilation_rate": [1, 1], "strides": [1, 1], "data_format": "channels_last", "trainable": true, "dtype": "float32", "activation": "relu", "padding": "same", "kernel_size": [3, 3], "bias_constraint": null, "kernel_regularizer": {"class_name": "L1L2", "config": {"l1": 0.0, "l2": 0.009999999776482582}}, "name": "conv2d", "activity_regularizer": {"class_name": "L1L2", "config": {"l1": 0.009999999776482582, "l2": 0.0}}, "kernel_constraint": null}}, {"class_name": "Concatenate", "inbound_nodes": [[["conv2d", 0, 0, {}], ["pool4_pool", 0, 0, {}]]], "name": "concatenate", "config": {"name": "concatenate", "axis": -1, "trainable": true, "dtype": "float32"}}, {"class_name": "Conv2D", "inbound_nodes": [[["concatenate", 0, 0, {}]]], "name": "conv2d_1", "config": {"use_bias": true, "kernel_initializer": {"class_name": "GlorotUniform", "config": {"seed": null}}, "filters": 512, "bias_initializer": {"class_name": "Zeros", "config": {}}, "bias_regularizer": null, "dilation_rate": [1, 1], "strides": [1, 1], "data_format": "channels_last", "trainable": true, "dtype": "float32", "activation": "relu", "padding": "same", "kernel_size": [3, 3], "bias_constraint": null, "kernel_regularizer": {"class_name": "L1L2", "config": {"l1": 0.0, "l2": 0.009999999776482582}}, "name": "conv2d_1", "activity_regularizer": {"class_name": "L1L2", "config": {"l1": 0.009999999776482582, "l2": 0.0}}, "kernel_constraint": null}}, {"class_name": "UpSampling2D", "inbound_nodes": [[["conv2d_1", 0, 0, {}]]], "name": "up_sampling2d", "config": {"size": [2, 2], "interpolation": "bilinear", "name": "up_sampling2d", "data_format": "channels_last", "trainable": true, "dtype": "float32"}}, {"class_name": "Concatenate", "inbound_nodes": [[["up_sampling2d", 0, 0, {}], ["pool3_pool", 0, 0, {}]]], "name": "concatenate_1", "config": {"name": "concatenate_1", "axis": -1, "trainable": true, "dtype": "float32"}}, {"class_name": "Conv2D", "inbound_nodes": [[["concatenate_1", 0, 0, {}]]], "name": "conv2d_2", "config": {"use_bias": true, "kernel_initializer": {"class_name": "GlorotUniform", "config": {"seed": null}}, "filters": 256, "bias_initializer": {"class_name": "Zeros", "config": {}}, "bias_regularizer": null, "dilation_rate": [1, 1], "strides": [1, 1], "data_format": "channels_last", "trainable": true, "dtype": "float32", "activation": "relu", "padding": "same", "kernel_size": [3, 3], "bias_constraint": null, "kernel_regularizer": {"class_name": "L1L2", "config": {"l1": 0.0, "l2": 0.009999999776482582}}, "name": "conv2d_2", "activity_regularizer": {"class_name": "L1L2", "config": {"l1": 0.009999999776482582, "l2": 0.0}}, "kernel_constraint": null}}, {"class_name": "UpSampling2D", "inbound_nodes": [[["conv2d_2", 0, 0, {}]]], "name": "up_sampling2d_1", "config": {"size": [2, 2], "interpolation": "bilinear", "name": "up_sampling2d_1", "data_format": "channels_last", "trainable": true, "dtype": "float32"}}, {"class_name": "Concatenate", "inbound_nodes": [[["up_sampling2d_1", 0, 0, {}], ["pool2_pool", 0, 0, {}]]], "name": "concatenate_2", "config": {"name": "concatenate_2", "axis": -1, "trainable": true, "dtype": "float32"}}, {"class_name": "Conv2D", "inbound_nodes": [[["concatenate_2", 0, 0, {}]]], "name": "conv2d_3", "config": {"use_bias": true, "kernel_initializer": {"class_name": "GlorotUniform", "config": {"seed": null}}, "filters": 128, "bias_initializer": {"class_name": "Zeros", "config": {}}, "bias_regularizer": null, "dilation_rate": [1, 1], "strides": [1, 1], "data_format": "channels_last", "trainable": true, "dtype": "float32", "activation": "relu", "padding": "same", "kernel_size": [3, 3], "bias_constraint": null, "kernel_regularizer": {"class_name": "L1L2", "config": {"l1": 0.0, "l2": 0.009999999776482582}}, "name": "conv2d_3", "activity_regularizer": {"class_name": "L1L2", "config": {"l1": 0.009999999776482582, "l2": 0.0}}, "kernel_constraint": null}}, {"class_name": "UpSampling2D", "inbound_nodes": [[["conv2d_3", 0, 0, {}]]], "name": "up_sampling2d_2", "config": {"size": [2, 2], "interpolation": "bilinear", "name": "up_sampling2d_2", "data_format": "channels_last", "trainable": true, "dtype": "float32"}}, {"class_name": "Concatenate", "inbound_nodes": [[["up_sampling2d_2", 0, 0, {}], ["pool1", 0, 0, {}]]], "name": "concatenate_3", "config": {"name": "concatenate_3", "axis": -1, "trainable": true, "dtype": "float32"}}, {"class_name": "Conv2D", "inbound_nodes": [[["concatenate_3", 0, 0, {}]]], "name": "conv2d_4", "config": {"use_bias": true, "kernel_initializer": {"class_name": "GlorotUniform", "config": {"seed": null}}, "filters": 64, "bias_initializer": {"class_name": "Zeros", "config": {}}, "bias_regularizer": null, "dilation_rate": [1, 1], "strides": [1, 1], "data_format": "channels_last", "trainable": true, "dtype": "float32", "activation": "relu", "padding": "same", "kernel_size": [3, 3], "bias_constraint": null, "kernel_regularizer": {"class_name": "L1L2", "config": {"l1": 0.0, "l2": 0.009999999776482582}}, "name": "conv2d_4", "activity_regularizer": {"class_name": "L1L2", "config": {"l1": 0.009999999776482582, "l2": 0.0}}, "kernel_constraint": null}}, {"class_name": "UpSampling2D", "inbound_nodes": [[["conv2d_4", 0, 0, {}]]], "name": "up_sampling2d_3", "config": {"size": [4, 4], "interpolation": "bilinear", "name": "up_sampling2d_3", "data_format": "channels_last", "trainable": true, "dtype": "float32"}}, {"class_name": "Conv2D", "inbound_nodes": [[["up_sampling2d_3", 0, 0, {}]]], "name": "conv2d_5", "config": {"use_bias": true, "kernel_initializer": {"class_name": "GlorotUniform", "config": {"seed": null}}, "filters": 64, "bias_initializer": {"class_name": "Zeros", "config": {}}, "bias_regularizer": null, "dilation_rate": [1, 1], "strides": [1, 1], "data_format": "channels_last", "trainable": true, "dtype": "float32", "activation": "relu", "padding": "same", "kernel_size": [3, 3], "bias_constraint": null, "kernel_regularizer": {"class_name": "L1L2", "config": {"l1": 0.0, "l2": 0.009999999776482582}}, "name": "conv2d_5", "activity_regularizer": {"class_name": "L1L2", "config": {"l1": 0.009999999776482582, "l2": 0.0}}, "kernel_constraint": null}}, {"class_name": "Conv2D", "inbound_nodes": [[["conv2d_5", 0, 0, {}]]], "name": "conv2d_6", "config": {"use_bias": true, "kernel_initializer": {"class_name": "GlorotUniform", "config": {"seed": null}}, "filters": 2, "bias_initializer": {"class_name": "Zeros", "config": {}}, "bias_regularizer": null, "dilation_rate": [1, 1], "strides": [1, 1], "data_format": "channels_last", "trainable": true, "dtype": "float32", "activation": "softmax", "padding": "same", "kernel_size": [3, 3], "bias_constraint": null, "kernel_regularizer": null, "name": "conv2d_6", "activity_regularizer": null, "kernel_constraint": null}}], "input_layers": [["input_1", 0, 0]], "output_layers": [["conv2d_6", 0, 0]]}}