{"class_name": "Model", "backend": "tensorflow", "config": {"layers": [{"class_name": "InputLayer", "inbound_nodes": [], "config": {"sparse": false, "batch_input_shape": [null, 256, 256, 3], "dtype": "float32", "name": "input_1"}, "name": "input_1"}, {"class_name": "ZeroPadding2D", "inbound_nodes": [[["input_1", 0, 0, {}]]], "config": {"padding": [[3, 3], [3, 3]], "name": "conv1_pad", "dtype": "float32", "trainable": false, "data_format": "channels_last"}, "name": "conv1_pad"}, {"class_name": "Conv2D", "inbound_nodes": [[["conv1_pad", 0, 0, {}]]], "config": {"strides": [2, 2], "kernel_constraint": null, "padding": "valid", "dtype": "float32", "dilation_rate": [1, 1], "bias_regularizer": null, "kernel_initializer": {"class_name": "GlorotUniform", "config": {"seed": null}}, "activation": "linear", "kernel_size": [7, 7], "bias_constraint": null, "bias_initializer": {"class_name": "Zeros", "config": {}}, "activity_regularizer": null, "trainable": false, "data_format": "channels_last", "kernel_regularizer": null, "name": "conv1_conv", "use_bias": true, "filters": 64}, "name": "conv1_conv"}, {"class_name": "ZeroPadding2D", "inbound_nodes": [[["conv1_conv", 0, 0, {}]]], "config": {"padding": [[1, 1], [1, 1]], "name": "pool1_pad", "dtype": "float32", "trainable": false, "data_format": "channels_last"}, "name": "pool1_pad"}, {"class_name": "MaxPooling2D", "inbound_nodes": [[["pool1_pad", 0, 0, {}]]], "config": {"strides": [2, 2], "padding": "valid", "dtype": "float32", "trainable": false, "data_format": "channels_last", "pool_size": [3, 3], "name": "pool1_pool"}, "name": "pool1_pool"}, {"class_name": "BatchNormalization", "inbound_nodes": [[["pool1_pool", 0, 0, {}]]], "config": {"moving_mean_initializer": {"class_name": "Zeros", "config": {}}, "dtype": "float32", "beta_constraint": null, "gamma_regularizer": null, "gamma_initializer": {"class_name": "Ones", "config": {}}, "beta_regularizer": null, "moving_variance_initializer": {"class_name": "Ones", "config": {}}, "epsilon": 1.001e-05, "name": "conv2_block1_preact_bn", "center": true, "gamma_constraint": null, "scale": true, "trainable": false, "beta_initializer": {"class_name": "Zeros", "config": {}}, "axis": [3], "momentum": 0.99}, "name": "conv2_block1_preact_bn"}, {"class_name": "Activation", "inbound_nodes": [[["conv2_block1_preact_bn", 0, 0, {}]]], "config": {"dtype": "float32", "trainable": false, "activation": "relu", "name": "conv2_block1_preact_relu"}, "name": "conv2_block1_preact_relu"}, {"class_name": "Conv2D", "inbound_nodes": [[["conv2_block1_preact_relu", 0, 0, {}]]], "config": {"strides": [1, 1], "kernel_constraint": null, "padding": "valid", "dtype": "float32", "dilation_rate": [1, 1], "bias_regularizer": null, "kernel_initializer": {"class_name": "GlorotUniform", "config": {"seed": null}}, "activation": "linear", "kernel_size": [1, 1], "bias_constraint": null, "bias_initializer": {"class_name": "Zeros", "config": {}}, "activity_regularizer": null, "trainable": false, "data_format": "channels_last", "kernel_regularizer": null, "name": "conv2_block1_1_conv", "use_bias": false, "filters": 64}, "name": "conv2_block1_1_conv"}, {"class_name": "BatchNormalization", "inbound_nodes": [[["conv2_block1_1_conv", 0, 0, {}]]], "config": {"moving_mean_initializer": {"class_name": "Zeros", "config": {}}, "dtype": "float32", "beta_constraint": null, "gamma_regularizer": null, "gamma_initializer": {"class_name": "Ones", "config": {}}, "beta_regularizer": null, "moving_variance_initializer": {"class_name": "Ones", "config": {}}, "epsilon": 1.001e-05, "name": "conv2_block1_1_bn", "center": true, "gamma_constraint": null, "scale": true, "trainable": false, "beta_initializer": {"class_name": "Zeros", "config": {}}, "axis": [3], "momentum": 0.99}, "name": "conv2_block1_1_bn"}, {"class_name": "Activation", "inbound_nodes": [[["conv2_block1_1_bn", 0, 0, {}]]], "config": {"dtype": "float32", "trainable": false, "activation": "relu", "name": "conv2_block1_1_relu"}, "name": "conv2_block1_1_relu"}, {"class_name": "ZeroPadding2D", "inbound_nodes": [[["conv2_block1_1_relu", 0, 0, {}]]], "config": {"padding": [[1, 1], [1, 1]], "name": "conv2_block1_2_pad", "dtype": "float32", "trainable": false, "data_format": "channels_last"}, "name": "conv2_block1_2_pad"}, {"class_name": "Conv2D", "inbound_nodes": [[["conv2_block1_2_pad", 0, 0, {}]]], "config": {"strides": [1, 1], "kernel_constraint": null, "padding": "valid", "dtype": "float32", "dilation_rate": [1, 1], "bias_regularizer": null, "kernel_initializer": {"class_name": "GlorotUniform", "config": {"seed": null}}, "activation": "linear", "kernel_size": [3, 3], "bias_constraint": null, "bias_initializer": {"class_name": "Zeros", "config": {}}, "activity_regularizer": null, "trainable": false, "data_format": "channels_last", "kernel_regularizer": null, "name": "conv2_block1_2_conv", "use_bias": false, "filters": 64}, "name": "conv2_block1_2_conv"}, {"class_name": "BatchNormalization", "inbound_nodes": [[["conv2_block1_2_conv", 0, 0, {}]]], "config": {"moving_mean_initializer": {"class_name": "Zeros", "config": {}}, "dtype": "float32", "beta_constraint": null, "gamma_regularizer": null, "gamma_initializer": {"class_name": "Ones", "config": {}}, "beta_regularizer": null, "moving_variance_initializer": {"class_name": "Ones", "config": {}}, "epsilon": 1.001e-05, "name": "conv2_block1_2_bn", "center": true, "gamma_constraint": null, "scale": true, "trainable": false, "beta_initializer": {"class_name": "Zeros", "config": {}}, "axis": [3], "momentum": 0.99}, "name": "conv2_block1_2_bn"}, {"class_name": "Activation", "inbound_nodes": [[["conv2_block1_2_bn", 0, 0, {}]]], "config": {"dtype": "float32", "trainable": false, "activation": "relu", "name": "conv2_block1_2_relu"}, "name": "conv2_block1_2_relu"}, {"class_name": "Conv2D", "inbound_nodes": [[["conv2_block1_preact_relu", 0, 0, {}]]], "config": {"strides": [1, 1], "kernel_constraint": null, "padding": "valid", "dtype": "float32", "dilation_rate": [1, 1], "bias_regularizer": null, "kernel_initializer": {"class_name": "GlorotUniform", "config": {"seed": null}}, "activation": "linear", "kernel_size": [1, 1], "bias_constraint": null, "bias_initializer": {"class_name": "Zeros", "config": {}}, "activity_regularizer": null, "trainable": false, "data_format": "channels_last", "kernel_regularizer": null, "name": "conv2_block1_0_conv", "use_bias": true, "filters": 256}, "name": "conv2_block1_0_conv"}, {"class_name": "Conv2D", "inbound_nodes": [[["conv2_block1_2_relu", 0, 0, {}]]], "config": {"strides": [1, 1], "kernel_constraint": null, "padding": "valid", "dtype": "float32", "dilation_rate": [1, 1], "bias_regularizer": null, "kernel_initializer": {"class_name": "GlorotUniform", "config": {"seed": null}}, "activation": "linear", "kernel_size": [1, 1], "bias_constraint": null, "bias_initializer": {"class_name": "Zeros", "config": {}}, "activity_regularizer": null, "trainable": true, "data_format": "channels_last", "kernel_regularizer": null, "name": "conv2_block1_3_conv", "use_bias": true, "filters": 256}, "name": "conv2_block1_3_conv"}, {"class_name": "Add", "inbound_nodes": [[["conv2_block1_0_conv", 0, 0, {}], ["conv2_block1_3_conv", 0, 0, {}]]], "config": {"trainable": true, "dtype": "float32", "name": "conv2_block1_out"}, "name": "conv2_block1_out"}, {"class_name": "BatchNormalization", "inbound_nodes": [[["conv2_block1_out", 0, 0, {}]]], "config": {"moving_mean_initializer": {"class_name": "Zeros", "config": {}}, "dtype": "float32", "beta_constraint": null, "gamma_regularizer": null, "gamma_initializer": {"class_name": "Ones", "config": {}}, "beta_regularizer": null, "moving_variance_initializer": {"class_name": "Ones", "config": {}}, "epsilon": 1.001e-05, "name": "conv2_block2_preact_bn", "center": true, "gamma_constraint": null, "scale": true, "trainable": true, "beta_initializer": {"class_name": "Zeros", "config": {}}, "axis": [3], "momentum": 0.99}, "name": "conv2_block2_preact_bn"}, {"class_name": "Activation", "inbound_nodes": [[["conv2_block2_preact_bn", 0, 0, {}]]], "config": {"dtype": "float32", "trainable": true, "activation": "relu", "name": "conv2_block2_preact_relu"}, "name": "conv2_block2_preact_relu"}, {"class_name": "Conv2D", "inbound_nodes": [[["conv2_block2_preact_relu", 0, 0, {}]]], "config": {"strides": [1, 1], "kernel_constraint": null, "padding": "valid", "dtype": "float32", "dilation_rate": [1, 1], "bias_regularizer": null, "kernel_initializer": {"class_name": "GlorotUniform", "config": {"seed": null}}, "activation": "linear", "kernel_size": [1, 1], "bias_constraint": null, "bias_initializer": {"class_name": "Zeros", "config": {}}, "activity_regularizer": null, "trainable": true, "data_format": "channels_last", "kernel_regularizer": null, "name": "conv2_block2_1_conv", "use_bias": false, "filters": 64}, "name": "conv2_block2_1_conv"}, {"class_name": "BatchNormalization", "inbound_nodes": [[["conv2_block2_1_conv", 0, 0, {}]]], "config": {"moving_mean_initializer": {"class_name": "Zeros", "config": {}}, "dtype": "float32", "beta_constraint": null, "gamma_regularizer": null, "gamma_initializer": {"class_name": "Ones", "config": {}}, "beta_regularizer": null, "moving_variance_initializer": {"class_name": "Ones", "config": {}}, "epsilon": 1.001e-05, "name": "conv2_block2_1_bn", "center": true, "gamma_constraint": null, "scale": true, "trainable": true, "beta_initializer": {"class_name": "Zeros", "config": {}}, "axis": [3], "momentum": 0.99}, "name": "conv2_block2_1_bn"}, {"class_name": "Activation", "inbound_nodes": [[["conv2_block2_1_bn", 0, 0, {}]]], "config": {"dtype": "float32", "trainable": true, "activation": "relu", "name": "conv2_block2_1_relu"}, "name": "conv2_block2_1_relu"}, {"class_name": "ZeroPadding2D", "inbound_nodes": [[["conv2_block2_1_relu", 0, 0, {}]]], "config": {"padding": [[1, 1], [1, 1]], "name": "conv2_block2_2_pad", "dtype": "float32", "trainable": true, "data_format": "channels_last"}, "name": "conv2_block2_2_pad"}, {"class_name": "Conv2D", "inbound_nodes": [[["conv2_block2_2_pad", 0, 0, {}]]], "config": {"strides": [1, 1], "kernel_constraint": null, "padding": "valid", "dtype": "float32", "dilation_rate": [1, 1], "bias_regularizer": null, "kernel_initializer": {"class_name": "GlorotUniform", "config": {"seed": null}}, "activation": "linear", "kernel_size": [3, 3], "bias_constraint": null, "bias_initializer": {"class_name": "Zeros", "config": {}}, "activity_regularizer": null, "trainable": true, "data_format": "channels_last", "kernel_regularizer": null, "name": "conv2_block2_2_conv", "use_bias": false, "filters": 64}, "name": "conv2_block2_2_conv"}, {"class_name": "BatchNormalization", "inbound_nodes": [[["conv2_block2_2_conv", 0, 0, {}]]], "config": {"moving_mean_initializer": {"class_name": "Zeros", "config": {}}, "dtype": "float32", "beta_constraint": null, "gamma_regularizer": null, "gamma_initializer": {"class_name": "Ones", "config": {}}, "beta_regularizer": null, "moving_variance_initializer": {"class_name": "Ones", "config": {}}, "epsilon": 1.001e-05, "name": "conv2_block2_2_bn", "center": true, "gamma_constraint": null, "scale": true, "trainable": true, "beta_initializer": {"class_name": "Zeros", "config": {}}, "axis": [3], "momentum": 0.99}, "name": "conv2_block2_2_bn"}, {"class_name": "Activation", "inbound_nodes": [[["conv2_block2_2_bn", 0, 0, {}]]], "config": {"dtype": "float32", "trainable": true, "activation": "relu", "name": "conv2_block2_2_relu"}, "name": "conv2_block2_2_relu"}, {"class_name": "Conv2D", "inbound_nodes": [[["conv2_block2_2_relu", 0, 0, {}]]], "config": {"strides": [1, 1], "kernel_constraint": null, "padding": "valid", "dtype": "float32", "dilation_rate": [1, 1], "bias_regularizer": null, "kernel_initializer": {"class_name": "GlorotUniform", "config": {"seed": null}}, "activation": "linear", "kernel_size": [1, 1], "bias_constraint": null, "bias_initializer": {"class_name": "Zeros", "config": {}}, "activity_regularizer": null, "trainable": true, "data_format": "channels_last", "kernel_regularizer": null, "name": "conv2_block2_3_conv", "use_bias": true, "filters": 256}, "name": "conv2_block2_3_conv"}, {"class_name": "Add", "inbound_nodes": [[["conv2_block1_out", 0, 0, {}], ["conv2_block2_3_conv", 0, 0, {}]]], "config": {"trainable": true, "dtype": "float32", "name": "conv2_block2_out"}, "name": "conv2_block2_out"}, {"class_name": "BatchNormalization", "inbound_nodes": [[["conv2_block2_out", 0, 0, {}]]], "config": {"moving_mean_initializer": {"class_name": "Zeros", "config": {}}, "dtype": "float32", "beta_constraint": null, "gamma_regularizer": null, "gamma_initializer": {"class_name": "Ones", "config": {}}, "beta_regularizer": null, "moving_variance_initializer": {"class_name": "Ones", "config": {}}, "epsilon": 1.001e-05, "name": "conv2_block3_preact_bn", "center": true, "gamma_constraint": null, "scale": true, "trainable": true, "beta_initializer": {"class_name": "Zeros", "config": {}}, "axis": [3], "momentum": 0.99}, "name": "conv2_block3_preact_bn"}, {"class_name": "Activation", "inbound_nodes": [[["conv2_block3_preact_bn", 0, 0, {}]]], "config": {"dtype": "float32", "trainable": true, "activation": "relu", "name": "conv2_block3_preact_relu"}, "name": "conv2_block3_preact_relu"}, {"class_name": "Conv2D", "inbound_nodes": [[["conv2_block3_preact_relu", 0, 0, {}]]], "config": {"strides": [1, 1], "kernel_constraint": null, "padding": "valid", "dtype": "float32", "dilation_rate": [1, 1], "bias_regularizer": null, "kernel_initializer": {"class_name": "GlorotUniform", "config": {"seed": null}}, "activation": "linear", "kernel_size": [1, 1], "bias_constraint": null, "bias_initializer": {"class_name": "Zeros", "config": {}}, "activity_regularizer": null, "trainable": true, "data_format": "channels_last", "kernel_regularizer": null, "name": "conv2_block3_1_conv", "use_bias": false, "filters": 64}, "name": "conv2_block3_1_conv"}, {"class_name": "BatchNormalization", "inbound_nodes": [[["conv2_block3_1_conv", 0, 0, {}]]], "config": {"moving_mean_initializer": {"class_name": "Zeros", "config": {}}, "dtype": "float32", "beta_constraint": null, "gamma_regularizer": null, "gamma_initializer": {"class_name": "Ones", "config": {}}, "beta_regularizer": null, "moving_variance_initializer": {"class_name": "Ones", "config": {}}, "epsilon": 1.001e-05, "name": "conv2_block3_1_bn", "center": true, "gamma_constraint": null, "scale": true, "trainable": true, "beta_initializer": {"class_name": "Zeros", "config": {}}, "axis": [3], "momentum": 0.99}, "name": "conv2_block3_1_bn"}, {"class_name": "Activation", "inbound_nodes": [[["conv2_block3_1_bn", 0, 0, {}]]], "config": {"dtype": "float32", "trainable": true, "activation": "relu", "name": "conv2_block3_1_relu"}, "name": "conv2_block3_1_relu"}, {"class_name": "ZeroPadding2D", "inbound_nodes": [[["conv2_block3_1_relu", 0, 0, {}]]], "config": {"padding": [[1, 1], [1, 1]], "name": "conv2_block3_2_pad", "dtype": "float32", "trainable": true, "data_format": "channels_last"}, "name": "conv2_block3_2_pad"}, {"class_name": "Conv2D", "inbound_nodes": [[["conv2_block3_2_pad", 0, 0, {}]]], "config": {"strides": [2, 2], "kernel_constraint": null, "padding": "valid", "dtype": "float32", "dilation_rate": [1, 1], "bias_regularizer": null, "kernel_initializer": {"class_name": "GlorotUniform", "config": {"seed": null}}, "activation": "linear", "kernel_size": [3, 3], "bias_constraint": null, "bias_initializer": {"class_name": "Zeros", "config": {}}, "activity_regularizer": null, "trainable": true, "data_format": "channels_last", "kernel_regularizer": null, "name": "conv2_block3_2_conv", "use_bias": false, "filters": 64}, "name": "conv2_block3_2_conv"}, {"class_name": "BatchNormalization", "inbound_nodes": [[["conv2_block3_2_conv", 0, 0, {}]]], "config": {"moving_mean_initializer": {"class_name": "Zeros", "config": {}}, "dtype": "float32", "beta_constraint": null, "gamma_regularizer": null, "gamma_initializer": {"class_name": "Ones", "config": {}}, "beta_regularizer": null, "moving_variance_initializer": {"class_name": "Ones", "config": {}}, "epsilon": 1.001e-05, "name": "conv2_block3_2_bn", "center": true, "gamma_constraint": null, "scale": true, "trainable": true, "beta_initializer": {"class_name": "Zeros", "config": {}}, "axis": [3], "momentum": 0.99}, "name": "conv2_block3_2_bn"}, {"class_name": "Activation", "inbound_nodes": [[["conv2_block3_2_bn", 0, 0, {}]]], "config": {"dtype": "float32", "trainable": true, "activation": "relu", "name": "conv2_block3_2_relu"}, "name": "conv2_block3_2_relu"}, {"class_name": "MaxPooling2D", "inbound_nodes": [[["conv2_block2_out", 0, 0, {}]]], "config": {"strides": [2, 2], "padding": "valid", "dtype": "float32", "trainable": true, "data_format": "channels_last", "pool_size": [1, 1], "name": "max_pooling2d"}, "name": "max_pooling2d"}, {"class_name": "Conv2D", "inbound_nodes": [[["conv2_block3_2_relu", 0, 0, {}]]], "config": {"strides": [1, 1], "kernel_constraint": null, "padding": "valid", "dtype": "float32", "dilation_rate": [1, 1], "bias_regularizer": null, "kernel_initializer": {"class_name": "GlorotUniform", "config": {"seed": null}}, "activation": "linear", "kernel_size": [1, 1], "bias_constraint": null, "bias_initializer": {"class_name": "Zeros", "config": {}}, "activity_regularizer": null, "trainable": true, "data_format": "channels_last", "kernel_regularizer": null, "name": "conv2_block3_3_conv", "use_bias": true, "filters": 256}, "name": "conv2_block3_3_conv"}, {"class_name": "Add", "inbound_nodes": [[["max_pooling2d", 0, 0, {}], ["conv2_block3_3_conv", 0, 0, {}]]], "config": {"trainable": true, "dtype": "float32", "name": "conv2_block3_out"}, "name": "conv2_block3_out"}, {"class_name": "BatchNormalization", "inbound_nodes": [[["conv2_block3_out", 0, 0, {}]]], "config": {"moving_mean_initializer": {"class_name": "Zeros", "config": {}}, "dtype": "float32", "beta_constraint": null, "gamma_regularizer": null, "gamma_initializer": {"class_name": "Ones", "config": {}}, "beta_regularizer": null, "moving_variance_initializer": {"class_name": "Ones", "config": {}}, "epsilon": 1.001e-05, "name": "conv3_block1_preact_bn", "center": true, "gamma_constraint": null, "scale": true, "trainable": true, "beta_initializer": {"class_name": "Zeros", "config": {}}, "axis": [3], "momentum": 0.99}, "name": "conv3_block1_preact_bn"}, {"class_name": "Activation", "inbound_nodes": [[["conv3_block1_preact_bn", 0, 0, {}]]], "config": {"dtype": "float32", "trainable": true, "activation": "relu", "name": "conv3_block1_preact_relu"}, "name": "conv3_block1_preact_relu"}, {"class_name": "Conv2D", "inbound_nodes": [[["conv3_block1_preact_relu", 0, 0, {}]]], "config": {"strides": [1, 1], "kernel_constraint": null, "padding": "valid", "dtype": "float32", "dilation_rate": [1, 1], "bias_regularizer": null, "kernel_initializer": {"class_name": "GlorotUniform", "config": {"seed": null}}, "activation": "linear", "kernel_size": [1, 1], "bias_constraint": null, "bias_initializer": {"class_name": "Zeros", "config": {}}, "activity_regularizer": null, "trainable": true, "data_format": "channels_last", "kernel_regularizer": null, "name": "conv3_block1_1_conv", "use_bias": false, "filters": 128}, "name": "conv3_block1_1_conv"}, {"class_name": "BatchNormalization", "inbound_nodes": [[["conv3_block1_1_conv", 0, 0, {}]]], "config": {"moving_mean_initializer": {"class_name": "Zeros", "config": {}}, "dtype": "float32", "beta_constraint": null, "gamma_regularizer": null, "gamma_initializer": {"class_name": "Ones", "config": {}}, "beta_regularizer": null, "moving_variance_initializer": {"class_name": "Ones", "config": {}}, "epsilon": 1.001e-05, "name": "conv3_block1_1_bn", "center": true, "gamma_constraint": null, "scale": true, "trainable": true, "beta_initializer": {"class_name": "Zeros", "config": {}}, "axis": [3], "momentum": 0.99}, "name": "conv3_block1_1_bn"}, {"class_name": "Activation", "inbound_nodes": [[["conv3_block1_1_bn", 0, 0, {}]]], "config": {"dtype": "float32", "trainable": true, "activation": "relu", "name": "conv3_block1_1_relu"}, "name": "conv3_block1_1_relu"}, {"class_name": "ZeroPadding2D", "inbound_nodes": [[["conv3_block1_1_relu", 0, 0, {}]]], "config": {"padding": [[1, 1], [1, 1]], "name": "conv3_block1_2_pad", "dtype": "float32", "trainable": true, "data_format": "channels_last"}, "name": "conv3_block1_2_pad"}, {"class_name": "Conv2D", "inbound_nodes": [[["conv3_block1_2_pad", 0, 0, {}]]], "config": {"strides": [1, 1], "kernel_constraint": null, "padding": "valid", "dtype": "float32", "dilation_rate": [1, 1], "bias_regularizer": null, "kernel_initializer": {"class_name": "GlorotUniform", "config": {"seed": null}}, "activation": "linear", "kernel_size": [3, 3], "bias_constraint": null, "bias_initializer": {"class_name": "Zeros", "config": {}}, "activity_regularizer": null, "trainable": true, "data_format": "channels_last", "kernel_regularizer": null, "name": "conv3_block1_2_conv", "use_bias": false, "filters": 128}, "name": "conv3_block1_2_conv"}, {"class_name": "BatchNormalization", "inbound_nodes": [[["conv3_block1_2_conv", 0, 0, {}]]], "config": {"moving_mean_initializer": {"class_name": "Zeros", "config": {}}, "dtype": "float32", "beta_constraint": null, "gamma_regularizer": null, "gamma_initializer": {"class_name": "Ones", "config": {}}, "beta_regularizer": null, "moving_variance_initializer": {"class_name": "Ones", "config": {}}, "epsilon": 1.001e-05, "name": "conv3_block1_2_bn", "center": true, "gamma_constraint": null, "scale": true, "trainable": true, "beta_initializer": {"class_name": "Zeros", "config": {}}, "axis": [3], "momentum": 0.99}, "name": "conv3_block1_2_bn"}, {"class_name": "Activation", "inbound_nodes": [[["conv3_block1_2_bn", 0, 0, {}]]], "config": {"dtype": "float32", "trainable": true, "activation": "relu", "name": "conv3_block1_2_relu"}, "name": "conv3_block1_2_relu"}, {"class_name": "Conv2D", "inbound_nodes": [[["conv3_block1_preact_relu", 0, 0, {}]]], "config": {"strides": [1, 1], "kernel_constraint": null, "padding": "valid", "dtype": "float32", "dilation_rate": [1, 1], "bias_regularizer": null, "kernel_initializer": {"class_name": "GlorotUniform", "config": {"seed": null}}, "activation": "linear", "kernel_size": [1, 1], "bias_constraint": null, "bias_initializer": {"class_name": "Zeros", "config": {}}, "activity_regularizer": null, "trainable": true, "data_format": "channels_last", "kernel_regularizer": null, "name": "conv3_block1_0_conv", "use_bias": true, "filters": 512}, "name": "conv3_block1_0_conv"}, {"class_name": "Conv2D", "inbound_nodes": [[["conv3_block1_2_relu", 0, 0, {}]]], "config": {"strides": [1, 1], "kernel_constraint": null, "padding": "valid", "dtype": "float32", "dilation_rate": [1, 1], "bias_regularizer": null, "kernel_initializer": {"class_name": "GlorotUniform", "config": {"seed": null}}, "activation": "linear", "kernel_size": [1, 1], "bias_constraint": null, "bias_initializer": {"class_name": "Zeros", "config": {}}, "activity_regularizer": null, "trainable": true, "data_format": "channels_last", "kernel_regularizer": null, "name": "conv3_block1_3_conv", "use_bias": true, "filters": 512}, "name": "conv3_block1_3_conv"}, {"class_name": "Add", "inbound_nodes": [[["conv3_block1_0_conv", 0, 0, {}], ["conv3_block1_3_conv", 0, 0, {}]]], "config": {"trainable": true, "dtype": "float32", "name": "conv3_block1_out"}, "name": "conv3_block1_out"}, {"class_name": "BatchNormalization", "inbound_nodes": [[["conv3_block1_out", 0, 0, {}]]], "config": {"moving_mean_initializer": {"class_name": "Zeros", "config": {}}, "dtype": "float32", "beta_constraint": null, "gamma_regularizer": null, "gamma_initializer": {"class_name": "Ones", "config": {}}, "beta_regularizer": null, "moving_variance_initializer": {"class_name": "Ones", "config": {}}, "epsilon": 1.001e-05, "name": "conv3_block2_preact_bn", "center": true, "gamma_constraint": null, "scale": true, "trainable": true, "beta_initializer": {"class_name": "Zeros", "config": {}}, "axis": [3], "momentum": 0.99}, "name": "conv3_block2_preact_bn"}, {"class_name": "Activation", "inbound_nodes": [[["conv3_block2_preact_bn", 0, 0, {}]]], "config": {"dtype": "float32", "trainable": true, "activation": "relu", "name": "conv3_block2_preact_relu"}, "name": "conv3_block2_preact_relu"}, {"class_name": "Conv2D", "inbound_nodes": [[["conv3_block2_preact_relu", 0, 0, {}]]], "config": {"strides": [1, 1], "kernel_constraint": null, "padding": "valid", "dtype": "float32", "dilation_rate": [1, 1], "bias_regularizer": null, "kernel_initializer": {"class_name": "GlorotUniform", "config": {"seed": null}}, "activation": "linear", "kernel_size": [1, 1], "bias_constraint": null, "bias_initializer": {"class_name": "Zeros", "config": {}}, "activity_regularizer": null, "trainable": true, "data_format": "channels_last", "kernel_regularizer": null, "name": "conv3_block2_1_conv", "use_bias": false, "filters": 128}, "name": "conv3_block2_1_conv"}, {"class_name": "BatchNormalization", "inbound_nodes": [[["conv3_block2_1_conv", 0, 0, {}]]], "config": {"moving_mean_initializer": {"class_name": "Zeros", "config": {}}, "dtype": "float32", "beta_constraint": null, "gamma_regularizer": null, "gamma_initializer": {"class_name": "Ones", "config": {}}, "beta_regularizer": null, "moving_variance_initializer": {"class_name": "Ones", "config": {}}, "epsilon": 1.001e-05, "name": "conv3_block2_1_bn", "center": true, "gamma_constraint": null, "scale": true, "trainable": true, "beta_initializer": {"class_name": "Zeros", "config": {}}, "axis": [3], "momentum": 0.99}, "name": "conv3_block2_1_bn"}, {"class_name": "Activation", "inbound_nodes": [[["conv3_block2_1_bn", 0, 0, {}]]], "config": {"dtype": "float32", "trainable": true, "activation": "relu", "name": "conv3_block2_1_relu"}, "name": "conv3_block2_1_relu"}, {"class_name": "ZeroPadding2D", "inbound_nodes": [[["conv3_block2_1_relu", 0, 0, {}]]], "config": {"padding": [[1, 1], [1, 1]], "name": "conv3_block2_2_pad", "dtype": "float32", "trainable": true, "data_format": "channels_last"}, "name": "conv3_block2_2_pad"}, {"class_name": "Conv2D", "inbound_nodes": [[["conv3_block2_2_pad", 0, 0, {}]]], "config": {"strides": [1, 1], "kernel_constraint": null, "padding": "valid", "dtype": "float32", "dilation_rate": [1, 1], "bias_regularizer": null, "kernel_initializer": {"class_name": "GlorotUniform", "config": {"seed": null}}, "activation": "linear", "kernel_size": [3, 3], "bias_constraint": null, "bias_initializer": {"class_name": "Zeros", "config": {}}, "activity_regularizer": null, "trainable": true, "data_format": "channels_last", "kernel_regularizer": null, "name": "conv3_block2_2_conv", "use_bias": false, "filters": 128}, "name": "conv3_block2_2_conv"}, {"class_name": "BatchNormalization", "inbound_nodes": [[["conv3_block2_2_conv", 0, 0, {}]]], "config": {"moving_mean_initializer": {"class_name": "Zeros", "config": {}}, "dtype": "float32", "beta_constraint": null, "gamma_regularizer": null, "gamma_initializer": {"class_name": "Ones", "config": {}}, "beta_regularizer": null, "moving_variance_initializer": {"class_name": "Ones", "config": {}}, "epsilon": 1.001e-05, "name": "conv3_block2_2_bn", "center": true, "gamma_constraint": null, "scale": true, "trainable": true, "beta_initializer": {"class_name": "Zeros", "config": {}}, "axis": [3], "momentum": 0.99}, "name": "conv3_block2_2_bn"}, {"class_name": "Activation", "inbound_nodes": [[["conv3_block2_2_bn", 0, 0, {}]]], "config": {"dtype": "float32", "trainable": true, "activation": "relu", "name": "conv3_block2_2_relu"}, "name": "conv3_block2_2_relu"}, {"class_name": "Conv2D", "inbound_nodes": [[["conv3_block2_2_relu", 0, 0, {}]]], "config": {"strides": [1, 1], "kernel_constraint": null, "padding": "valid", "dtype": "float32", "dilation_rate": [1, 1], "bias_regularizer": null, "kernel_initializer": {"class_name": "GlorotUniform", "config": {"seed": null}}, "activation": "linear", "kernel_size": [1, 1], "bias_constraint": null, "bias_initializer": {"class_name": "Zeros", "config": {}}, "activity_regularizer": null, "trainable": true, "data_format": "channels_last", "kernel_regularizer": null, "name": "conv3_block2_3_conv", "use_bias": true, "filters": 512}, "name": "conv3_block2_3_conv"}, {"class_name": "Add", "inbound_nodes": [[["conv3_block1_out", 0, 0, {}], ["conv3_block2_3_conv", 0, 0, {}]]], "config": {"trainable": true, "dtype": "float32", "name": "conv3_block2_out"}, "name": "conv3_block2_out"}, {"class_name": "BatchNormalization", "inbound_nodes": [[["conv3_block2_out", 0, 0, {}]]], "config": {"moving_mean_initializer": {"class_name": "Zeros", "config": {}}, "dtype": "float32", "beta_constraint": null, "gamma_regularizer": null, "gamma_initializer": {"class_name": "Ones", "config": {}}, "beta_regularizer": null, "moving_variance_initializer": {"class_name": "Ones", "config": {}}, "epsilon": 1.001e-05, "name": "conv3_block3_preact_bn", "center": true, "gamma_constraint": null, "scale": true, "trainable": true, "beta_initializer": {"class_name": "Zeros", "config": {}}, "axis": [3], "momentum": 0.99}, "name": "conv3_block3_preact_bn"}, {"class_name": "Activation", "inbound_nodes": [[["conv3_block3_preact_bn", 0, 0, {}]]], "config": {"dtype": "float32", "trainable": true, "activation": "relu", "name": "conv3_block3_preact_relu"}, "name": "conv3_block3_preact_relu"}, {"class_name": "Conv2D", "inbound_nodes": [[["conv3_block3_preact_relu", 0, 0, {}]]], "config": {"strides": [1, 1], "kernel_constraint": null, "padding": "valid", "dtype": "float32", "dilation_rate": [1, 1], "bias_regularizer": null, "kernel_initializer": {"class_name": "GlorotUniform", "config": {"seed": null}}, "activation": "linear", "kernel_size": [1, 1], "bias_constraint": null, "bias_initializer": {"class_name": "Zeros", "config": {}}, "activity_regularizer": null, "trainable": true, "data_format": "channels_last", "kernel_regularizer": null, "name": "conv3_block3_1_conv", "use_bias": false, "filters": 128}, "name": "conv3_block3_1_conv"}, {"class_name": "BatchNormalization", "inbound_nodes": [[["conv3_block3_1_conv", 0, 0, {}]]], "config": {"moving_mean_initializer": {"class_name": "Zeros", "config": {}}, "dtype": "float32", "beta_constraint": null, "gamma_regularizer": null, "gamma_initializer": {"class_name": "Ones", "config": {}}, "beta_regularizer": null, "moving_variance_initializer": {"class_name": "Ones", "config": {}}, "epsilon": 1.001e-05, "name": "conv3_block3_1_bn", "center": true, "gamma_constraint": null, "scale": true, "trainable": true, "beta_initializer": {"class_name": "Zeros", "config": {}}, "axis": [3], "momentum": 0.99}, "name": "conv3_block3_1_bn"}, {"class_name": "Activation", "inbound_nodes": [[["conv3_block3_1_bn", 0, 0, {}]]], "config": {"dtype": "float32", "trainable": true, "activation": "relu", "name": "conv3_block3_1_relu"}, "name": "conv3_block3_1_relu"}, {"class_name": "ZeroPadding2D", "inbound_nodes": [[["conv3_block3_1_relu", 0, 0, {}]]], "config": {"padding": [[1, 1], [1, 1]], "name": "conv3_block3_2_pad", "dtype": "float32", "trainable": true, "data_format": "channels_last"}, "name": "conv3_block3_2_pad"}, {"class_name": "Conv2D", "inbound_nodes": [[["conv3_block3_2_pad", 0, 0, {}]]], "config": {"strides": [1, 1], "kernel_constraint": null, "padding": "valid", "dtype": "float32", "dilation_rate": [1, 1], "bias_regularizer": null, "kernel_initializer": {"class_name": "GlorotUniform", "config": {"seed": null}}, "activation": "linear", "kernel_size": [3, 3], "bias_constraint": null, "bias_initializer": {"class_name": "Zeros", "config": {}}, "activity_regularizer": null, "trainable": true, "data_format": "channels_last", "kernel_regularizer": null, "name": "conv3_block3_2_conv", "use_bias": false, "filters": 128}, "name": "conv3_block3_2_conv"}, {"class_name": "BatchNormalization", "inbound_nodes": [[["conv3_block3_2_conv", 0, 0, {}]]], "config": {"moving_mean_initializer": {"class_name": "Zeros", "config": {}}, "dtype": "float32", "beta_constraint": null, "gamma_regularizer": null, "gamma_initializer": {"class_name": "Ones", "config": {}}, "beta_regularizer": null, "moving_variance_initializer": {"class_name": "Ones", "config": {}}, "epsilon": 1.001e-05, "name": "conv3_block3_2_bn", "center": true, "gamma_constraint": null, "scale": true, "trainable": true, "beta_initializer": {"class_name": "Zeros", "config": {}}, "axis": [3], "momentum": 0.99}, "name": "conv3_block3_2_bn"}, {"class_name": "Activation", "inbound_nodes": [[["conv3_block3_2_bn", 0, 0, {}]]], "config": {"dtype": "float32", "trainable": true, "activation": "relu", "name": "conv3_block3_2_relu"}, "name": "conv3_block3_2_relu"}, {"class_name": "Conv2D", "inbound_nodes": [[["conv3_block3_2_relu", 0, 0, {}]]], "config": {"strides": [1, 1], "kernel_constraint": null, "padding": "valid", "dtype": "float32", "dilation_rate": [1, 1], "bias_regularizer": null, "kernel_initializer": {"class_name": "GlorotUniform", "config": {"seed": null}}, "activation": "linear", "kernel_size": [1, 1], "bias_constraint": null, "bias_initializer": {"class_name": "Zeros", "config": {}}, "activity_regularizer": null, "trainable": true, "data_format": "channels_last", "kernel_regularizer": null, "name": "conv3_block3_3_conv", "use_bias": true, "filters": 512}, "name": "conv3_block3_3_conv"}, {"class_name": "Add", "inbound_nodes": [[["conv3_block2_out", 0, 0, {}], ["conv3_block3_3_conv", 0, 0, {}]]], "config": {"trainable": true, "dtype": "float32", "name": "conv3_block3_out"}, "name": "conv3_block3_out"}, {"class_name": "BatchNormalization", "inbound_nodes": [[["conv3_block3_out", 0, 0, {}]]], "config": {"moving_mean_initializer": {"class_name": "Zeros", "config": {}}, "dtype": "float32", "beta_constraint": null, "gamma_regularizer": null, "gamma_initializer": {"class_name": "Ones", "config": {}}, "beta_regularizer": null, "moving_variance_initializer": {"class_name": "Ones", "config": {}}, "epsilon": 1.001e-05, "name": "conv3_block4_preact_bn", "center": true, "gamma_constraint": null, "scale": true, "trainable": true, "beta_initializer": {"class_name": "Zeros", "config": {}}, "axis": [3], "momentum": 0.99}, "name": "conv3_block4_preact_bn"}, {"class_name": "Activation", "inbound_nodes": [[["conv3_block4_preact_bn", 0, 0, {}]]], "config": {"dtype": "float32", "trainable": true, "activation": "relu", "name": "conv3_block4_preact_relu"}, "name": "conv3_block4_preact_relu"}, {"class_name": "Conv2D", "inbound_nodes": [[["conv3_block4_preact_relu", 0, 0, {}]]], "config": {"strides": [1, 1], "kernel_constraint": null, "padding": "valid", "dtype": "float32", "dilation_rate": [1, 1], "bias_regularizer": null, "kernel_initializer": {"class_name": "GlorotUniform", "config": {"seed": null}}, "activation": "linear", "kernel_size": [1, 1], "bias_constraint": null, "bias_initializer": {"class_name": "Zeros", "config": {}}, "activity_regularizer": null, "trainable": true, "data_format": "channels_last", "kernel_regularizer": null, "name": "conv3_block4_1_conv", "use_bias": false, "filters": 128}, "name": "conv3_block4_1_conv"}, {"class_name": "BatchNormalization", "inbound_nodes": [[["conv3_block4_1_conv", 0, 0, {}]]], "config": {"moving_mean_initializer": {"class_name": "Zeros", "config": {}}, "dtype": "float32", "beta_constraint": null, "gamma_regularizer": null, "gamma_initializer": {"class_name": "Ones", "config": {}}, "beta_regularizer": null, "moving_variance_initializer": {"class_name": "Ones", "config": {}}, "epsilon": 1.001e-05, "name": "conv3_block4_1_bn", "center": true, "gamma_constraint": null, "scale": true, "trainable": true, "beta_initializer": {"class_name": "Zeros", "config": {}}, "axis": [3], "momentum": 0.99}, "name": "conv3_block4_1_bn"}, {"class_name": "Activation", "inbound_nodes": [[["conv3_block4_1_bn", 0, 0, {}]]], "config": {"dtype": "float32", "trainable": true, "activation": "relu", "name": "conv3_block4_1_relu"}, "name": "conv3_block4_1_relu"}, {"class_name": "ZeroPadding2D", "inbound_nodes": [[["conv3_block4_1_relu", 0, 0, {}]]], "config": {"padding": [[1, 1], [1, 1]], "name": "conv3_block4_2_pad", "dtype": "float32", "trainable": true, "data_format": "channels_last"}, "name": "conv3_block4_2_pad"}, {"class_name": "Conv2D", "inbound_nodes": [[["conv3_block4_2_pad", 0, 0, {}]]], "config": {"strides": [1, 1], "kernel_constraint": null, "padding": "valid", "dtype": "float32", "dilation_rate": [1, 1], "bias_regularizer": null, "kernel_initializer": {"class_name": "GlorotUniform", "config": {"seed": null}}, "activation": "linear", "kernel_size": [3, 3], "bias_constraint": null, "bias_initializer": {"class_name": "Zeros", "config": {}}, "activity_regularizer": null, "trainable": true, "data_format": "channels_last", "kernel_regularizer": null, "name": "conv3_block4_2_conv", "use_bias": false, "filters": 128}, "name": "conv3_block4_2_conv"}, {"class_name": "BatchNormalization", "inbound_nodes": [[["conv3_block4_2_conv", 0, 0, {}]]], "config": {"moving_mean_initializer": {"class_name": "Zeros", "config": {}}, "dtype": "float32", "beta_constraint": null, "gamma_regularizer": null, "gamma_initializer": {"class_name": "Ones", "config": {}}, "beta_regularizer": null, "moving_variance_initializer": {"class_name": "Ones", "config": {}}, "epsilon": 1.001e-05, "name": "conv3_block4_2_bn", "center": true, "gamma_constraint": null, "scale": true, "trainable": true, "beta_initializer": {"class_name": "Zeros", "config": {}}, "axis": [3], "momentum": 0.99}, "name": "conv3_block4_2_bn"}, {"class_name": "Activation", "inbound_nodes": [[["conv3_block4_2_bn", 0, 0, {}]]], "config": {"dtype": "float32", "trainable": true, "activation": "relu", "name": "conv3_block4_2_relu"}, "name": "conv3_block4_2_relu"}, {"class_name": "Conv2D", "inbound_nodes": [[["conv3_block4_2_relu", 0, 0, {}]]], "config": {"strides": [1, 1], "kernel_constraint": null, "padding": "valid", "dtype": "float32", "dilation_rate": [1, 1], "bias_regularizer": null, "kernel_initializer": {"class_name": "GlorotUniform", "config": {"seed": null}}, "activation": "linear", "kernel_size": [1, 1], "bias_constraint": null, "bias_initializer": {"class_name": "Zeros", "config": {}}, "activity_regularizer": null, "trainable": true, "data_format": "channels_last", "kernel_regularizer": null, "name": "conv3_block4_3_conv", "use_bias": true, "filters": 512}, "name": "conv3_block4_3_conv"}, {"class_name": "Add", "inbound_nodes": [[["conv3_block3_out", 0, 0, {}], ["conv3_block4_3_conv", 0, 0, {}]]], "config": {"trainable": true, "dtype": "float32", "name": "conv3_block4_out"}, "name": "conv3_block4_out"}, {"class_name": "BatchNormalization", "inbound_nodes": [[["conv3_block4_out", 0, 0, {}]]], "config": {"moving_mean_initializer": {"class_name": "Zeros", "config": {}}, "dtype": "float32", "beta_constraint": null, "gamma_regularizer": null, "gamma_initializer": {"class_name": "Ones", "config": {}}, "beta_regularizer": null, "moving_variance_initializer": {"class_name": "Ones", "config": {}}, "epsilon": 1.001e-05, "name": "conv3_block5_preact_bn", "center": true, "gamma_constraint": null, "scale": true, "trainable": true, "beta_initializer": {"class_name": "Zeros", "config": {}}, "axis": [3], "momentum": 0.99}, "name": "conv3_block5_preact_bn"}, {"class_name": "Activation", "inbound_nodes": [[["conv3_block5_preact_bn", 0, 0, {}]]], "config": {"dtype": "float32", "trainable": true, "activation": "relu", "name": "conv3_block5_preact_relu"}, "name": "conv3_block5_preact_relu"}, {"class_name": "Conv2D", "inbound_nodes": [[["conv3_block5_preact_relu", 0, 0, {}]]], "config": {"strides": [1, 1], "kernel_constraint": null, "padding": "valid", "dtype": "float32", "dilation_rate": [1, 1], "bias_regularizer": null, "kernel_initializer": {"class_name": "GlorotUniform", "config": {"seed": null}}, "activation": "linear", "kernel_size": [1, 1], "bias_constraint": null, "bias_initializer": {"class_name": "Zeros", "config": {}}, "activity_regularizer": null, "trainable": true, "data_format": "channels_last", "kernel_regularizer": null, "name": "conv3_block5_1_conv", "use_bias": false, "filters": 128}, "name": "conv3_block5_1_conv"}, {"class_name": "BatchNormalization", "inbound_nodes": [[["conv3_block5_1_conv", 0, 0, {}]]], "config": {"moving_mean_initializer": {"class_name": "Zeros", "config": {}}, "dtype": "float32", "beta_constraint": null, "gamma_regularizer": null, "gamma_initializer": {"class_name": "Ones", "config": {}}, "beta_regularizer": null, "moving_variance_initializer": {"class_name": "Ones", "config": {}}, "epsilon": 1.001e-05, "name": "conv3_block5_1_bn", "center": true, "gamma_constraint": null, "scale": true, "trainable": true, "beta_initializer": {"class_name": "Zeros", "config": {}}, "axis": [3], "momentum": 0.99}, "name": "conv3_block5_1_bn"}, {"class_name": "Activation", "inbound_nodes": [[["conv3_block5_1_bn", 0, 0, {}]]], "config": {"dtype": "float32", "trainable": true, "activation": "relu", "name": "conv3_block5_1_relu"}, "name": "conv3_block5_1_relu"}, {"class_name": "ZeroPadding2D", "inbound_nodes": [[["conv3_block5_1_relu", 0, 0, {}]]], "config": {"padding": [[1, 1], [1, 1]], "name": "conv3_block5_2_pad", "dtype": "float32", "trainable": true, "data_format": "channels_last"}, "name": "conv3_block5_2_pad"}, {"class_name": "Conv2D", "inbound_nodes": [[["conv3_block5_2_pad", 0, 0, {}]]], "config": {"strides": [1, 1], "kernel_constraint": null, "padding": "valid", "dtype": "float32", "dilation_rate": [1, 1], "bias_regularizer": null, "kernel_initializer": {"class_name": "GlorotUniform", "config": {"seed": null}}, "activation": "linear", "kernel_size": [3, 3], "bias_constraint": null, "bias_initializer": {"class_name": "Zeros", "config": {}}, "activity_regularizer": null, "trainable": true, "data_format": "channels_last", "kernel_regularizer": null, "name": "conv3_block5_2_conv", "use_bias": false, "filters": 128}, "name": "conv3_block5_2_conv"}, {"class_name": "BatchNormalization", "inbound_nodes": [[["conv3_block5_2_conv", 0, 0, {}]]], "config": {"moving_mean_initializer": {"class_name": "Zeros", "config": {}}, "dtype": "float32", "beta_constraint": null, "gamma_regularizer": null, "gamma_initializer": {"class_name": "Ones", "config": {}}, "beta_regularizer": null, "moving_variance_initializer": {"class_name": "Ones", "config": {}}, "epsilon": 1.001e-05, "name": "conv3_block5_2_bn", "center": true, "gamma_constraint": null, "scale": true, "trainable": true, "beta_initializer": {"class_name": "Zeros", "config": {}}, "axis": [3], "momentum": 0.99}, "name": "conv3_block5_2_bn"}, {"class_name": "Activation", "inbound_nodes": [[["conv3_block5_2_bn", 0, 0, {}]]], "config": {"dtype": "float32", "trainable": true, "activation": "relu", "name": "conv3_block5_2_relu"}, "name": "conv3_block5_2_relu"}, {"class_name": "Conv2D", "inbound_nodes": [[["conv3_block5_2_relu", 0, 0, {}]]], "config": {"strides": [1, 1], "kernel_constraint": null, "padding": "valid", "dtype": "float32", "dilation_rate": [1, 1], "bias_regularizer": null, "kernel_initializer": {"class_name": "GlorotUniform", "config": {"seed": null}}, "activation": "linear", "kernel_size": [1, 1], "bias_constraint": null, "bias_initializer": {"class_name": "Zeros", "config": {}}, "activity_regularizer": null, "trainable": true, "data_format": "channels_last", "kernel_regularizer": null, "name": "conv3_block5_3_conv", "use_bias": true, "filters": 512}, "name": "conv3_block5_3_conv"}, {"class_name": "Add", "inbound_nodes": [[["conv3_block4_out", 0, 0, {}], ["conv3_block5_3_conv", 0, 0, {}]]], "config": {"trainable": true, "dtype": "float32", "name": "conv3_block5_out"}, "name": "conv3_block5_out"}, {"class_name": "BatchNormalization", "inbound_nodes": [[["conv3_block5_out", 0, 0, {}]]], "config": {"moving_mean_initializer": {"class_name": "Zeros", "config": {}}, "dtype": "float32", "beta_constraint": null, "gamma_regularizer": null, "gamma_initializer": {"class_name": "Ones", "config": {}}, "beta_regularizer": null, "moving_variance_initializer": {"class_name": "Ones", "config": {}}, "epsilon": 1.001e-05, "name": "conv3_block6_preact_bn", "center": true, "gamma_constraint": null, "scale": true, "trainable": true, "beta_initializer": {"class_name": "Zeros", "config": {}}, "axis": [3], "momentum": 0.99}, "name": "conv3_block6_preact_bn"}, {"class_name": "Activation", "inbound_nodes": [[["conv3_block6_preact_bn", 0, 0, {}]]], "config": {"dtype": "float32", "trainable": true, "activation": "relu", "name": "conv3_block6_preact_relu"}, "name": "conv3_block6_preact_relu"}, {"class_name": "Conv2D", "inbound_nodes": [[["conv3_block6_preact_relu", 0, 0, {}]]], "config": {"strides": [1, 1], "kernel_constraint": null, "padding": "valid", "dtype": "float32", "dilation_rate": [1, 1], "bias_regularizer": null, "kernel_initializer": {"class_name": "GlorotUniform", "config": {"seed": null}}, "activation": "linear", "kernel_size": [1, 1], "bias_constraint": null, "bias_initializer": {"class_name": "Zeros", "config": {}}, "activity_regularizer": null, "trainable": true, "data_format": "channels_last", "kernel_regularizer": null, "name": "conv3_block6_1_conv", "use_bias": false, "filters": 128}, "name": "conv3_block6_1_conv"}, {"class_name": "BatchNormalization", "inbound_nodes": [[["conv3_block6_1_conv", 0, 0, {}]]], "config": {"moving_mean_initializer": {"class_name": "Zeros", "config": {}}, "dtype": "float32", "beta_constraint": null, "gamma_regularizer": null, "gamma_initializer": {"class_name": "Ones", "config": {}}, "beta_regularizer": null, "moving_variance_initializer": {"class_name": "Ones", "config": {}}, "epsilon": 1.001e-05, "name": "conv3_block6_1_bn", "center": true, "gamma_constraint": null, "scale": true, "trainable": true, "beta_initializer": {"class_name": "Zeros", "config": {}}, "axis": [3], "momentum": 0.99}, "name": "conv3_block6_1_bn"}, {"class_name": "Activation", "inbound_nodes": [[["conv3_block6_1_bn", 0, 0, {}]]], "config": {"dtype": "float32", "trainable": true, "activation": "relu", "name": "conv3_block6_1_relu"}, "name": "conv3_block6_1_relu"}, {"class_name": "ZeroPadding2D", "inbound_nodes": [[["conv3_block6_1_relu", 0, 0, {}]]], "config": {"padding": [[1, 1], [1, 1]], "name": "conv3_block6_2_pad", "dtype": "float32", "trainable": true, "data_format": "channels_last"}, "name": "conv3_block6_2_pad"}, {"class_name": "Conv2D", "inbound_nodes": [[["conv3_block6_2_pad", 0, 0, {}]]], "config": {"strides": [1, 1], "kernel_constraint": null, "padding": "valid", "dtype": "float32", "dilation_rate": [1, 1], "bias_regularizer": null, "kernel_initializer": {"class_name": "GlorotUniform", "config": {"seed": null}}, "activation": "linear", "kernel_size": [3, 3], "bias_constraint": null, "bias_initializer": {"class_name": "Zeros", "config": {}}, "activity_regularizer": null, "trainable": true, "data_format": "channels_last", "kernel_regularizer": null, "name": "conv3_block6_2_conv", "use_bias": false, "filters": 128}, "name": "conv3_block6_2_conv"}, {"class_name": "BatchNormalization", "inbound_nodes": [[["conv3_block6_2_conv", 0, 0, {}]]], "config": {"moving_mean_initializer": {"class_name": "Zeros", "config": {}}, "dtype": "float32", "beta_constraint": null, "gamma_regularizer": null, "gamma_initializer": {"class_name": "Ones", "config": {}}, "beta_regularizer": null, "moving_variance_initializer": {"class_name": "Ones", "config": {}}, "epsilon": 1.001e-05, "name": "conv3_block6_2_bn", "center": true, "gamma_constraint": null, "scale": true, "trainable": true, "beta_initializer": {"class_name": "Zeros", "config": {}}, "axis": [3], "momentum": 0.99}, "name": "conv3_block6_2_bn"}, {"class_name": "Activation", "inbound_nodes": [[["conv3_block6_2_bn", 0, 0, {}]]], "config": {"dtype": "float32", "trainable": true, "activation": "relu", "name": "conv3_block6_2_relu"}, "name": "conv3_block6_2_relu"}, {"class_name": "Conv2D", "inbound_nodes": [[["conv3_block6_2_relu", 0, 0, {}]]], "config": {"strides": [1, 1], "kernel_constraint": null, "padding": "valid", "dtype": "float32", "dilation_rate": [1, 1], "bias_regularizer": null, "kernel_initializer": {"class_name": "GlorotUniform", "config": {"seed": null}}, "activation": "linear", "kernel_size": [1, 1], "bias_constraint": null, "bias_initializer": {"class_name": "Zeros", "config": {}}, "activity_regularizer": null, "trainable": true, "data_format": "channels_last", "kernel_regularizer": null, "name": "conv3_block6_3_conv", "use_bias": true, "filters": 512}, "name": "conv3_block6_3_conv"}, {"class_name": "Add", "inbound_nodes": [[["conv3_block5_out", 0, 0, {}], ["conv3_block6_3_conv", 0, 0, {}]]], "config": {"trainable": true, "dtype": "float32", "name": "conv3_block6_out"}, "name": "conv3_block6_out"}, {"class_name": "BatchNormalization", "inbound_nodes": [[["conv3_block6_out", 0, 0, {}]]], "config": {"moving_mean_initializer": {"class_name": "Zeros", "config": {}}, "dtype": "float32", "beta_constraint": null, "gamma_regularizer": null, "gamma_initializer": {"class_name": "Ones", "config": {}}, "beta_regularizer": null, "moving_variance_initializer": {"class_name": "Ones", "config": {}}, "epsilon": 1.001e-05, "name": "conv3_block7_preact_bn", "center": true, "gamma_constraint": null, "scale": true, "trainable": true, "beta_initializer": {"class_name": "Zeros", "config": {}}, "axis": [3], "momentum": 0.99}, "name": "conv3_block7_preact_bn"}, {"class_name": "Activation", "inbound_nodes": [[["conv3_block7_preact_bn", 0, 0, {}]]], "config": {"dtype": "float32", "trainable": true, "activation": "relu", "name": "conv3_block7_preact_relu"}, "name": "conv3_block7_preact_relu"}, {"class_name": "Conv2D", "inbound_nodes": [[["conv3_block7_preact_relu", 0, 0, {}]]], "config": {"strides": [1, 1], "kernel_constraint": null, "padding": "valid", "dtype": "float32", "dilation_rate": [1, 1], "bias_regularizer": null, "kernel_initializer": {"class_name": "GlorotUniform", "config": {"seed": null}}, "activation": "linear", "kernel_size": [1, 1], "bias_constraint": null, "bias_initializer": {"class_name": "Zeros", "config": {}}, "activity_regularizer": null, "trainable": true, "data_format": "channels_last", "kernel_regularizer": null, "name": "conv3_block7_1_conv", "use_bias": false, "filters": 128}, "name": "conv3_block7_1_conv"}, {"class_name": "BatchNormalization", "inbound_nodes": [[["conv3_block7_1_conv", 0, 0, {}]]], "config": {"moving_mean_initializer": {"class_name": "Zeros", "config": {}}, "dtype": "float32", "beta_constraint": null, "gamma_regularizer": null, "gamma_initializer": {"class_name": "Ones", "config": {}}, "beta_regularizer": null, "moving_variance_initializer": {"class_name": "Ones", "config": {}}, "epsilon": 1.001e-05, "name": "conv3_block7_1_bn", "center": true, "gamma_constraint": null, "scale": true, "trainable": true, "beta_initializer": {"class_name": "Zeros", "config": {}}, "axis": [3], "momentum": 0.99}, "name": "conv3_block7_1_bn"}, {"class_name": "Activation", "inbound_nodes": [[["conv3_block7_1_bn", 0, 0, {}]]], "config": {"dtype": "float32", "trainable": true, "activation": "relu", "name": "conv3_block7_1_relu"}, "name": "conv3_block7_1_relu"}, {"class_name": "ZeroPadding2D", "inbound_nodes": [[["conv3_block7_1_relu", 0, 0, {}]]], "config": {"padding": [[1, 1], [1, 1]], "name": "conv3_block7_2_pad", "dtype": "float32", "trainable": true, "data_format": "channels_last"}, "name": "conv3_block7_2_pad"}, {"class_name": "Conv2D", "inbound_nodes": [[["conv3_block7_2_pad", 0, 0, {}]]], "config": {"strides": [1, 1], "kernel_constraint": null, "padding": "valid", "dtype": "float32", "dilation_rate": [1, 1], "bias_regularizer": null, "kernel_initializer": {"class_name": "GlorotUniform", "config": {"seed": null}}, "activation": "linear", "kernel_size": [3, 3], "bias_constraint": null, "bias_initializer": {"class_name": "Zeros", "config": {}}, "activity_regularizer": null, "trainable": true, "data_format": "channels_last", "kernel_regularizer": null, "name": "conv3_block7_2_conv", "use_bias": false, "filters": 128}, "name": "conv3_block7_2_conv"}, {"class_name": "BatchNormalization", "inbound_nodes": [[["conv3_block7_2_conv", 0, 0, {}]]], "config": {"moving_mean_initializer": {"class_name": "Zeros", "config": {}}, "dtype": "float32", "beta_constraint": null, "gamma_regularizer": null, "gamma_initializer": {"class_name": "Ones", "config": {}}, "beta_regularizer": null, "moving_variance_initializer": {"class_name": "Ones", "config": {}}, "epsilon": 1.001e-05, "name": "conv3_block7_2_bn", "center": true, "gamma_constraint": null, "scale": true, "trainable": true, "beta_initializer": {"class_name": "Zeros", "config": {}}, "axis": [3], "momentum": 0.99}, "name": "conv3_block7_2_bn"}, {"class_name": "Activation", "inbound_nodes": [[["conv3_block7_2_bn", 0, 0, {}]]], "config": {"dtype": "float32", "trainable": true, "activation": "relu", "name": "conv3_block7_2_relu"}, "name": "conv3_block7_2_relu"}, {"class_name": "Conv2D", "inbound_nodes": [[["conv3_block7_2_relu", 0, 0, {}]]], "config": {"strides": [1, 1], "kernel_constraint": null, "padding": "valid", "dtype": "float32", "dilation_rate": [1, 1], "bias_regularizer": null, "kernel_initializer": {"class_name": "GlorotUniform", "config": {"seed": null}}, "activation": "linear", "kernel_size": [1, 1], "bias_constraint": null, "bias_initializer": {"class_name": "Zeros", "config": {}}, "activity_regularizer": null, "trainable": true, "data_format": "channels_last", "kernel_regularizer": null, "name": "conv3_block7_3_conv", "use_bias": true, "filters": 512}, "name": "conv3_block7_3_conv"}, {"class_name": "Add", "inbound_nodes": [[["conv3_block6_out", 0, 0, {}], ["conv3_block7_3_conv", 0, 0, {}]]], "config": {"trainable": true, "dtype": "float32", "name": "conv3_block7_out"}, "name": "conv3_block7_out"}, {"class_name": "BatchNormalization", "inbound_nodes": [[["conv3_block7_out", 0, 0, {}]]], "config": {"moving_mean_initializer": {"class_name": "Zeros", "config": {}}, "dtype": "float32", "beta_constraint": null, "gamma_regularizer": null, "gamma_initializer": {"class_name": "Ones", "config": {}}, "beta_regularizer": null, "moving_variance_initializer": {"class_name": "Ones", "config": {}}, "epsilon": 1.001e-05, "name": "conv3_block8_preact_bn", "center": true, "gamma_constraint": null, "scale": true, "trainable": true, "beta_initializer": {"class_name": "Zeros", "config": {}}, "axis": [3], "momentum": 0.99}, "name": "conv3_block8_preact_bn"}, {"class_name": "Activation", "inbound_nodes": [[["conv3_block8_preact_bn", 0, 0, {}]]], "config": {"dtype": "float32", "trainable": true, "activation": "relu", "name": "conv3_block8_preact_relu"}, "name": "conv3_block8_preact_relu"}, {"class_name": "Conv2D", "inbound_nodes": [[["conv3_block8_preact_relu", 0, 0, {}]]], "config": {"strides": [1, 1], "kernel_constraint": null, "padding": "valid", "dtype": "float32", "dilation_rate": [1, 1], "bias_regularizer": null, "kernel_initializer": {"class_name": "GlorotUniform", "config": {"seed": null}}, "activation": "linear", "kernel_size": [1, 1], "bias_constraint": null, "bias_initializer": {"class_name": "Zeros", "config": {}}, "activity_regularizer": null, "trainable": true, "data_format": "channels_last", "kernel_regularizer": null, "name": "conv3_block8_1_conv", "use_bias": false, "filters": 128}, "name": "conv3_block8_1_conv"}, {"class_name": "BatchNormalization", "inbound_nodes": [[["conv3_block8_1_conv", 0, 0, {}]]], "config": {"moving_mean_initializer": {"class_name": "Zeros", "config": {}}, "dtype": "float32", "beta_constraint": null, "gamma_regularizer": null, "gamma_initializer": {"class_name": "Ones", "config": {}}, "beta_regularizer": null, "moving_variance_initializer": {"class_name": "Ones", "config": {}}, "epsilon": 1.001e-05, "name": "conv3_block8_1_bn", "center": true, "gamma_constraint": null, "scale": true, "trainable": true, "beta_initializer": {"class_name": "Zeros", "config": {}}, "axis": [3], "momentum": 0.99}, "name": "conv3_block8_1_bn"}, {"class_name": "Activation", "inbound_nodes": [[["conv3_block8_1_bn", 0, 0, {}]]], "config": {"dtype": "float32", "trainable": true, "activation": "relu", "name": "conv3_block8_1_relu"}, "name": "conv3_block8_1_relu"}, {"class_name": "ZeroPadding2D", "inbound_nodes": [[["conv3_block8_1_relu", 0, 0, {}]]], "config": {"padding": [[1, 1], [1, 1]], "name": "conv3_block8_2_pad", "dtype": "float32", "trainable": true, "data_format": "channels_last"}, "name": "conv3_block8_2_pad"}, {"class_name": "Conv2D", "inbound_nodes": [[["conv3_block8_2_pad", 0, 0, {}]]], "config": {"strides": [2, 2], "kernel_constraint": null, "padding": "valid", "dtype": "float32", "dilation_rate": [1, 1], "bias_regularizer": null, "kernel_initializer": {"class_name": "GlorotUniform", "config": {"seed": null}}, "activation": "linear", "kernel_size": [3, 3], "bias_constraint": null, "bias_initializer": {"class_name": "Zeros", "config": {}}, "activity_regularizer": null, "trainable": true, "data_format": "channels_last", "kernel_regularizer": null, "name": "conv3_block8_2_conv", "use_bias": false, "filters": 128}, "name": "conv3_block8_2_conv"}, {"class_name": "BatchNormalization", "inbound_nodes": [[["conv3_block8_2_conv", 0, 0, {}]]], "config": {"moving_mean_initializer": {"class_name": "Zeros", "config": {}}, "dtype": "float32", "beta_constraint": null, "gamma_regularizer": null, "gamma_initializer": {"class_name": "Ones", "config": {}}, "beta_regularizer": null, "moving_variance_initializer": {"class_name": "Ones", "config": {}}, "epsilon": 1.001e-05, "name": "conv3_block8_2_bn", "center": true, "gamma_constraint": null, "scale": true, "trainable": true, "beta_initializer": {"class_name": "Zeros", "config": {}}, "axis": [3], "momentum": 0.99}, "name": "conv3_block8_2_bn"}, {"class_name": "Activation", "inbound_nodes": [[["conv3_block8_2_bn", 0, 0, {}]]], "config": {"dtype": "float32", "trainable": true, "activation": "relu", "name": "conv3_block8_2_relu"}, "name": "conv3_block8_2_relu"}, {"class_name": "MaxPooling2D", "inbound_nodes": [[["conv3_block7_out", 0, 0, {}]]], "config": {"strides": [2, 2], "padding": "valid", "dtype": "float32", "trainable": true, "data_format": "channels_last", "pool_size": [1, 1], "name": "max_pooling2d_1"}, "name": "max_pooling2d_1"}, {"class_name": "Conv2D", "inbound_nodes": [[["conv3_block8_2_relu", 0, 0, {}]]], "config": {"strides": [1, 1], "kernel_constraint": null, "padding": "valid", "dtype": "float32", "dilation_rate": [1, 1], "bias_regularizer": null, "kernel_initializer": {"class_name": "GlorotUniform", "config": {"seed": null}}, "activation": "linear", "kernel_size": [1, 1], "bias_constraint": null, "bias_initializer": {"class_name": "Zeros", "config": {}}, "activity_regularizer": null, "trainable": true, "data_format": "channels_last", "kernel_regularizer": null, "name": "conv3_block8_3_conv", "use_bias": true, "filters": 512}, "name": "conv3_block8_3_conv"}, {"class_name": "Add", "inbound_nodes": [[["max_pooling2d_1", 0, 0, {}], ["conv3_block8_3_conv", 0, 0, {}]]], "config": {"trainable": true, "dtype": "float32", "name": "conv3_block8_out"}, "name": "conv3_block8_out"}, {"class_name": "BatchNormalization", "inbound_nodes": [[["conv3_block8_out", 0, 0, {}]]], "config": {"moving_mean_initializer": {"class_name": "Zeros", "config": {}}, "dtype": "float32", "beta_constraint": null, "gamma_regularizer": null, "gamma_initializer": {"class_name": "Ones", "config": {}}, "beta_regularizer": null, "moving_variance_initializer": {"class_name": "Ones", "config": {}}, "epsilon": 1.001e-05, "name": "conv4_block1_preact_bn", "center": true, "gamma_constraint": null, "scale": true, "trainable": true, "beta_initializer": {"class_name": "Zeros", "config": {}}, "axis": [3], "momentum": 0.99}, "name": "conv4_block1_preact_bn"}, {"class_name": "Activation", "inbound_nodes": [[["conv4_block1_preact_bn", 0, 0, {}]]], "config": {"dtype": "float32", "trainable": true, "activation": "relu", "name": "conv4_block1_preact_relu"}, "name": "conv4_block1_preact_relu"}, {"class_name": "Conv2D", "inbound_nodes": [[["conv4_block1_preact_relu", 0, 0, {}]]], "config": {"strides": [1, 1], "kernel_constraint": null, "padding": "valid", "dtype": "float32", "dilation_rate": [1, 1], "bias_regularizer": null, "kernel_initializer": {"class_name": "GlorotUniform", "config": {"seed": null}}, "activation": "linear", "kernel_size": [1, 1], "bias_constraint": null, "bias_initializer": {"class_name": "Zeros", "config": {}}, "activity_regularizer": null, "trainable": true, "data_format": "channels_last", "kernel_regularizer": null, "name": "conv4_block1_1_conv", "use_bias": false, "filters": 256}, "name": "conv4_block1_1_conv"}, {"class_name": "BatchNormalization", "inbound_nodes": [[["conv4_block1_1_conv", 0, 0, {}]]], "config": {"moving_mean_initializer": {"class_name": "Zeros", "config": {}}, "dtype": "float32", "beta_constraint": null, "gamma_regularizer": null, "gamma_initializer": {"class_name": "Ones", "config": {}}, "beta_regularizer": null, "moving_variance_initializer": {"class_name": "Ones", "config": {}}, "epsilon": 1.001e-05, "name": "conv4_block1_1_bn", "center": true, "gamma_constraint": null, "scale": true, "trainable": true, "beta_initializer": {"class_name": "Zeros", "config": {}}, "axis": [3], "momentum": 0.99}, "name": "conv4_block1_1_bn"}, {"class_name": "Activation", "inbound_nodes": [[["conv4_block1_1_bn", 0, 0, {}]]], "config": {"dtype": "float32", "trainable": true, "activation": "relu", "name": "conv4_block1_1_relu"}, "name": "conv4_block1_1_relu"}, {"class_name": "ZeroPadding2D", "inbound_nodes": [[["conv4_block1_1_relu", 0, 0, {}]]], "config": {"padding": [[1, 1], [1, 1]], "name": "conv4_block1_2_pad", "dtype": "float32", "trainable": true, "data_format": "channels_last"}, "name": "conv4_block1_2_pad"}, {"class_name": "Conv2D", "inbound_nodes": [[["conv4_block1_2_pad", 0, 0, {}]]], "config": {"strides": [1, 1], "kernel_constraint": null, "padding": "valid", "dtype": "float32", "dilation_rate": [1, 1], "bias_regularizer": null, "kernel_initializer": {"class_name": "GlorotUniform", "config": {"seed": null}}, "activation": "linear", "kernel_size": [3, 3], "bias_constraint": null, "bias_initializer": {"class_name": "Zeros", "config": {}}, "activity_regularizer": null, "trainable": true, "data_format": "channels_last", "kernel_regularizer": null, "name": "conv4_block1_2_conv", "use_bias": false, "filters": 256}, "name": "conv4_block1_2_conv"}, {"class_name": "BatchNormalization", "inbound_nodes": [[["conv4_block1_2_conv", 0, 0, {}]]], "config": {"moving_mean_initializer": {"class_name": "Zeros", "config": {}}, "dtype": "float32", "beta_constraint": null, "gamma_regularizer": null, "gamma_initializer": {"class_name": "Ones", "config": {}}, "beta_regularizer": null, "moving_variance_initializer": {"class_name": "Ones", "config": {}}, "epsilon": 1.001e-05, "name": "conv4_block1_2_bn", "center": true, "gamma_constraint": null, "scale": true, "trainable": true, "beta_initializer": {"class_name": "Zeros", "config": {}}, "axis": [3], "momentum": 0.99}, "name": "conv4_block1_2_bn"}, {"class_name": "Activation", "inbound_nodes": [[["conv4_block1_2_bn", 0, 0, {}]]], "config": {"dtype": "float32", "trainable": true, "activation": "relu", "name": "conv4_block1_2_relu"}, "name": "conv4_block1_2_relu"}, {"class_name": "Conv2D", "inbound_nodes": [[["conv4_block1_preact_relu", 0, 0, {}]]], "config": {"strides": [1, 1], "kernel_constraint": null, "padding": "valid", "dtype": "float32", "dilation_rate": [1, 1], "bias_regularizer": null, "kernel_initializer": {"class_name": "GlorotUniform", "config": {"seed": null}}, "activation": "linear", "kernel_size": [1, 1], "bias_constraint": null, "bias_initializer": {"class_name": "Zeros", "config": {}}, "activity_regularizer": null, "trainable": true, "data_format": "channels_last", "kernel_regularizer": null, "name": "conv4_block1_0_conv", "use_bias": true, "filters": 1024}, "name": "conv4_block1_0_conv"}, {"class_name": "Conv2D", "inbound_nodes": [[["conv4_block1_2_relu", 0, 0, {}]]], "config": {"strides": [1, 1], "kernel_constraint": null, "padding": "valid", "dtype": "float32", "dilation_rate": [1, 1], "bias_regularizer": null, "kernel_initializer": {"class_name": "GlorotUniform", "config": {"seed": null}}, "activation": "linear", "kernel_size": [1, 1], "bias_constraint": null, "bias_initializer": {"class_name": "Zeros", "config": {}}, "activity_regularizer": null, "trainable": true, "data_format": "channels_last", "kernel_regularizer": null, "name": "conv4_block1_3_conv", "use_bias": true, "filters": 1024}, "name": "conv4_block1_3_conv"}, {"class_name": "Add", "inbound_nodes": [[["conv4_block1_0_conv", 0, 0, {}], ["conv4_block1_3_conv", 0, 0, {}]]], "config": {"trainable": true, "dtype": "float32", "name": "conv4_block1_out"}, "name": "conv4_block1_out"}, {"class_name": "BatchNormalization", "inbound_nodes": [[["conv4_block1_out", 0, 0, {}]]], "config": {"moving_mean_initializer": {"class_name": "Zeros", "config": {}}, "dtype": "float32", "beta_constraint": null, "gamma_regularizer": null, "gamma_initializer": {"class_name": "Ones", "config": {}}, "beta_regularizer": null, "moving_variance_initializer": {"class_name": "Ones", "config": {}}, "epsilon": 1.001e-05, "name": "conv4_block2_preact_bn", "center": true, "gamma_constraint": null, "scale": true, "trainable": true, "beta_initializer": {"class_name": "Zeros", "config": {}}, "axis": [3], "momentum": 0.99}, "name": "conv4_block2_preact_bn"}, {"class_name": "Activation", "inbound_nodes": [[["conv4_block2_preact_bn", 0, 0, {}]]], "config": {"dtype": "float32", "trainable": true, "activation": "relu", "name": "conv4_block2_preact_relu"}, "name": "conv4_block2_preact_relu"}, {"class_name": "Conv2D", "inbound_nodes": [[["conv4_block2_preact_relu", 0, 0, {}]]], "config": {"strides": [1, 1], "kernel_constraint": null, "padding": "valid", "dtype": "float32", "dilation_rate": [1, 1], "bias_regularizer": null, "kernel_initializer": {"class_name": "GlorotUniform", "config": {"seed": null}}, "activation": "linear", "kernel_size": [1, 1], "bias_constraint": null, "bias_initializer": {"class_name": "Zeros", "config": {}}, "activity_regularizer": null, "trainable": true, "data_format": "channels_last", "kernel_regularizer": null, "name": "conv4_block2_1_conv", "use_bias": false, "filters": 256}, "name": "conv4_block2_1_conv"}, {"class_name": "BatchNormalization", "inbound_nodes": [[["conv4_block2_1_conv", 0, 0, {}]]], "config": {"moving_mean_initializer": {"class_name": "Zeros", "config": {}}, "dtype": "float32", "beta_constraint": null, "gamma_regularizer": null, "gamma_initializer": {"class_name": "Ones", "config": {}}, "beta_regularizer": null, "moving_variance_initializer": {"class_name": "Ones", "config": {}}, "epsilon": 1.001e-05, "name": "conv4_block2_1_bn", "center": true, "gamma_constraint": null, "scale": true, "trainable": true, "beta_initializer": {"class_name": "Zeros", "config": {}}, "axis": [3], "momentum": 0.99}, "name": "conv4_block2_1_bn"}, {"class_name": "Activation", "inbound_nodes": [[["conv4_block2_1_bn", 0, 0, {}]]], "config": {"dtype": "float32", "trainable": true, "activation": "relu", "name": "conv4_block2_1_relu"}, "name": "conv4_block2_1_relu"}, {"class_name": "ZeroPadding2D", "inbound_nodes": [[["conv4_block2_1_relu", 0, 0, {}]]], "config": {"padding": [[1, 1], [1, 1]], "name": "conv4_block2_2_pad", "dtype": "float32", "trainable": true, "data_format": "channels_last"}, "name": "conv4_block2_2_pad"}, {"class_name": "Conv2D", "inbound_nodes": [[["conv4_block2_2_pad", 0, 0, {}]]], "config": {"strides": [1, 1], "kernel_constraint": null, "padding": "valid", "dtype": "float32", "dilation_rate": [1, 1], "bias_regularizer": null, "kernel_initializer": {"class_name": "GlorotUniform", "config": {"seed": null}}, "activation": "linear", "kernel_size": [3, 3], "bias_constraint": null, "bias_initializer": {"class_name": "Zeros", "config": {}}, "activity_regularizer": null, "trainable": true, "data_format": "channels_last", "kernel_regularizer": null, "name": "conv4_block2_2_conv", "use_bias": false, "filters": 256}, "name": "conv4_block2_2_conv"}, {"class_name": "BatchNormalization", "inbound_nodes": [[["conv4_block2_2_conv", 0, 0, {}]]], "config": {"moving_mean_initializer": {"class_name": "Zeros", "config": {}}, "dtype": "float32", "beta_constraint": null, "gamma_regularizer": null, "gamma_initializer": {"class_name": "Ones", "config": {}}, "beta_regularizer": null, "moving_variance_initializer": {"class_name": "Ones", "config": {}}, "epsilon": 1.001e-05, "name": "conv4_block2_2_bn", "center": true, "gamma_constraint": null, "scale": true, "trainable": true, "beta_initializer": {"class_name": "Zeros", "config": {}}, "axis": [3], "momentum": 0.99}, "name": "conv4_block2_2_bn"}, {"class_name": "Activation", "inbound_nodes": [[["conv4_block2_2_bn", 0, 0, {}]]], "config": {"dtype": "float32", "trainable": true, "activation": "relu", "name": "conv4_block2_2_relu"}, "name": "conv4_block2_2_relu"}, {"class_name": "Conv2D", "inbound_nodes": [[["conv4_block2_2_relu", 0, 0, {}]]], "config": {"strides": [1, 1], "kernel_constraint": null, "padding": "valid", "dtype": "float32", "dilation_rate": [1, 1], "bias_regularizer": null, "kernel_initializer": {"class_name": "GlorotUniform", "config": {"seed": null}}, "activation": "linear", "kernel_size": [1, 1], "bias_constraint": null, "bias_initializer": {"class_name": "Zeros", "config": {}}, "activity_regularizer": null, "trainable": true, "data_format": "channels_last", "kernel_regularizer": null, "name": "conv4_block2_3_conv", "use_bias": true, "filters": 1024}, "name": "conv4_block2_3_conv"}, {"class_name": "Add", "inbound_nodes": [[["conv4_block1_out", 0, 0, {}], ["conv4_block2_3_conv", 0, 0, {}]]], "config": {"trainable": true, "dtype": "float32", "name": "conv4_block2_out"}, "name": "conv4_block2_out"}, {"class_name": "BatchNormalization", "inbound_nodes": [[["conv4_block2_out", 0, 0, {}]]], "config": {"moving_mean_initializer": {"class_name": "Zeros", "config": {}}, "dtype": "float32", "beta_constraint": null, "gamma_regularizer": null, "gamma_initializer": {"class_name": "Ones", "config": {}}, "beta_regularizer": null, "moving_variance_initializer": {"class_name": "Ones", "config": {}}, "epsilon": 1.001e-05, "name": "conv4_block3_preact_bn", "center": true, "gamma_constraint": null, "scale": true, "trainable": true, "beta_initializer": {"class_name": "Zeros", "config": {}}, "axis": [3], "momentum": 0.99}, "name": "conv4_block3_preact_bn"}, {"class_name": "Activation", "inbound_nodes": [[["conv4_block3_preact_bn", 0, 0, {}]]], "config": {"dtype": "float32", "trainable": true, "activation": "relu", "name": "conv4_block3_preact_relu"}, "name": "conv4_block3_preact_relu"}, {"class_name": "Conv2D", "inbound_nodes": [[["conv4_block3_preact_relu", 0, 0, {}]]], "config": {"strides": [1, 1], "kernel_constraint": null, "padding": "valid", "dtype": "float32", "dilation_rate": [1, 1], "bias_regularizer": null, "kernel_initializer": {"class_name": "GlorotUniform", "config": {"seed": null}}, "activation": "linear", "kernel_size": [1, 1], "bias_constraint": null, "bias_initializer": {"class_name": "Zeros", "config": {}}, "activity_regularizer": null, "trainable": true, "data_format": "channels_last", "kernel_regularizer": null, "name": "conv4_block3_1_conv", "use_bias": false, "filters": 256}, "name": "conv4_block3_1_conv"}, {"class_name": "BatchNormalization", "inbound_nodes": [[["conv4_block3_1_conv", 0, 0, {}]]], "config": {"moving_mean_initializer": {"class_name": "Zeros", "config": {}}, "dtype": "float32", "beta_constraint": null, "gamma_regularizer": null, "gamma_initializer": {"class_name": "Ones", "config": {}}, "beta_regularizer": null, "moving_variance_initializer": {"class_name": "Ones", "config": {}}, "epsilon": 1.001e-05, "name": "conv4_block3_1_bn", "center": true, "gamma_constraint": null, "scale": true, "trainable": true, "beta_initializer": {"class_name": "Zeros", "config": {}}, "axis": [3], "momentum": 0.99}, "name": "conv4_block3_1_bn"}, {"class_name": "Activation", "inbound_nodes": [[["conv4_block3_1_bn", 0, 0, {}]]], "config": {"dtype": "float32", "trainable": true, "activation": "relu", "name": "conv4_block3_1_relu"}, "name": "conv4_block3_1_relu"}, {"class_name": "ZeroPadding2D", "inbound_nodes": [[["conv4_block3_1_relu", 0, 0, {}]]], "config": {"padding": [[1, 1], [1, 1]], "name": "conv4_block3_2_pad", "dtype": "float32", "trainable": true, "data_format": "channels_last"}, "name": "conv4_block3_2_pad"}, {"class_name": "Conv2D", "inbound_nodes": [[["conv4_block3_2_pad", 0, 0, {}]]], "config": {"strides": [1, 1], "kernel_constraint": null, "padding": "valid", "dtype": "float32", "dilation_rate": [1, 1], "bias_regularizer": null, "kernel_initializer": {"class_name": "GlorotUniform", "config": {"seed": null}}, "activation": "linear", "kernel_size": [3, 3], "bias_constraint": null, "bias_initializer": {"class_name": "Zeros", "config": {}}, "activity_regularizer": null, "trainable": true, "data_format": "channels_last", "kernel_regularizer": null, "name": "conv4_block3_2_conv", "use_bias": false, "filters": 256}, "name": "conv4_block3_2_conv"}, {"class_name": "BatchNormalization", "inbound_nodes": [[["conv4_block3_2_conv", 0, 0, {}]]], "config": {"moving_mean_initializer": {"class_name": "Zeros", "config": {}}, "dtype": "float32", "beta_constraint": null, "gamma_regularizer": null, "gamma_initializer": {"class_name": "Ones", "config": {}}, "beta_regularizer": null, "moving_variance_initializer": {"class_name": "Ones", "config": {}}, "epsilon": 1.001e-05, "name": "conv4_block3_2_bn", "center": true, "gamma_constraint": null, "scale": true, "trainable": true, "beta_initializer": {"class_name": "Zeros", "config": {}}, "axis": [3], "momentum": 0.99}, "name": "conv4_block3_2_bn"}, {"class_name": "Activation", "inbound_nodes": [[["conv4_block3_2_bn", 0, 0, {}]]], "config": {"dtype": "float32", "trainable": true, "activation": "relu", "name": "conv4_block3_2_relu"}, "name": "conv4_block3_2_relu"}, {"class_name": "Conv2D", "inbound_nodes": [[["conv4_block3_2_relu", 0, 0, {}]]], "config": {"strides": [1, 1], "kernel_constraint": null, "padding": "valid", "dtype": "float32", "dilation_rate": [1, 1], "bias_regularizer": null, "kernel_initializer": {"class_name": "GlorotUniform", "config": {"seed": null}}, "activation": "linear", "kernel_size": [1, 1], "bias_constraint": null, "bias_initializer": {"class_name": "Zeros", "config": {}}, "activity_regularizer": null, "trainable": true, "data_format": "channels_last", "kernel_regularizer": null, "name": "conv4_block3_3_conv", "use_bias": true, "filters": 1024}, "name": "conv4_block3_3_conv"}, {"class_name": "Add", "inbound_nodes": [[["conv4_block2_out", 0, 0, {}], ["conv4_block3_3_conv", 0, 0, {}]]], "config": {"trainable": true, "dtype": "float32", "name": "conv4_block3_out"}, "name": "conv4_block3_out"}, {"class_name": "BatchNormalization", "inbound_nodes": [[["conv4_block3_out", 0, 0, {}]]], "config": {"moving_mean_initializer": {"class_name": "Zeros", "config": {}}, "dtype": "float32", "beta_constraint": null, "gamma_regularizer": null, "gamma_initializer": {"class_name": "Ones", "config": {}}, "beta_regularizer": null, "moving_variance_initializer": {"class_name": "Ones", "config": {}}, "epsilon": 1.001e-05, "name": "conv4_block4_preact_bn", "center": true, "gamma_constraint": null, "scale": true, "trainable": true, "beta_initializer": {"class_name": "Zeros", "config": {}}, "axis": [3], "momentum": 0.99}, "name": "conv4_block4_preact_bn"}, {"class_name": "Activation", "inbound_nodes": [[["conv4_block4_preact_bn", 0, 0, {}]]], "config": {"dtype": "float32", "trainable": true, "activation": "relu", "name": "conv4_block4_preact_relu"}, "name": "conv4_block4_preact_relu"}, {"class_name": "Conv2D", "inbound_nodes": [[["conv4_block4_preact_relu", 0, 0, {}]]], "config": {"strides": [1, 1], "kernel_constraint": null, "padding": "valid", "dtype": "float32", "dilation_rate": [1, 1], "bias_regularizer": null, "kernel_initializer": {"class_name": "GlorotUniform", "config": {"seed": null}}, "activation": "linear", "kernel_size": [1, 1], "bias_constraint": null, "bias_initializer": {"class_name": "Zeros", "config": {}}, "activity_regularizer": null, "trainable": true, "data_format": "channels_last", "kernel_regularizer": null, "name": "conv4_block4_1_conv", "use_bias": false, "filters": 256}, "name": "conv4_block4_1_conv"}, {"class_name": "BatchNormalization", "inbound_nodes": [[["conv4_block4_1_conv", 0, 0, {}]]], "config": {"moving_mean_initializer": {"class_name": "Zeros", "config": {}}, "dtype": "float32", "beta_constraint": null, "gamma_regularizer": null, "gamma_initializer": {"class_name": "Ones", "config": {}}, "beta_regularizer": null, "moving_variance_initializer": {"class_name": "Ones", "config": {}}, "epsilon": 1.001e-05, "name": "conv4_block4_1_bn", "center": true, "gamma_constraint": null, "scale": true, "trainable": true, "beta_initializer": {"class_name": "Zeros", "config": {}}, "axis": [3], "momentum": 0.99}, "name": "conv4_block4_1_bn"}, {"class_name": "Activation", "inbound_nodes": [[["conv4_block4_1_bn", 0, 0, {}]]], "config": {"dtype": "float32", "trainable": true, "activation": "relu", "name": "conv4_block4_1_relu"}, "name": "conv4_block4_1_relu"}, {"class_name": "ZeroPadding2D", "inbound_nodes": [[["conv4_block4_1_relu", 0, 0, {}]]], "config": {"padding": [[1, 1], [1, 1]], "name": "conv4_block4_2_pad", "dtype": "float32", "trainable": true, "data_format": "channels_last"}, "name": "conv4_block4_2_pad"}, {"class_name": "Conv2D", "inbound_nodes": [[["conv4_block4_2_pad", 0, 0, {}]]], "config": {"strides": [1, 1], "kernel_constraint": null, "padding": "valid", "dtype": "float32", "dilation_rate": [1, 1], "bias_regularizer": null, "kernel_initializer": {"class_name": "GlorotUniform", "config": {"seed": null}}, "activation": "linear", "kernel_size": [3, 3], "bias_constraint": null, "bias_initializer": {"class_name": "Zeros", "config": {}}, "activity_regularizer": null, "trainable": true, "data_format": "channels_last", "kernel_regularizer": null, "name": "conv4_block4_2_conv", "use_bias": false, "filters": 256}, "name": "conv4_block4_2_conv"}, {"class_name": "BatchNormalization", "inbound_nodes": [[["conv4_block4_2_conv", 0, 0, {}]]], "config": {"moving_mean_initializer": {"class_name": "Zeros", "config": {}}, "dtype": "float32", "beta_constraint": null, "gamma_regularizer": null, "gamma_initializer": {"class_name": "Ones", "config": {}}, "beta_regularizer": null, "moving_variance_initializer": {"class_name": "Ones", "config": {}}, "epsilon": 1.001e-05, "name": "conv4_block4_2_bn", "center": true, "gamma_constraint": null, "scale": true, "trainable": true, "beta_initializer": {"class_name": "Zeros", "config": {}}, "axis": [3], "momentum": 0.99}, "name": "conv4_block4_2_bn"}, {"class_name": "Activation", "inbound_nodes": [[["conv4_block4_2_bn", 0, 0, {}]]], "config": {"dtype": "float32", "trainable": true, "activation": "relu", "name": "conv4_block4_2_relu"}, "name": "conv4_block4_2_relu"}, {"class_name": "Conv2D", "inbound_nodes": [[["conv4_block4_2_relu", 0, 0, {}]]], "config": {"strides": [1, 1], "kernel_constraint": null, "padding": "valid", "dtype": "float32", "dilation_rate": [1, 1], "bias_regularizer": null, "kernel_initializer": {"class_name": "GlorotUniform", "config": {"seed": null}}, "activation": "linear", "kernel_size": [1, 1], "bias_constraint": null, "bias_initializer": {"class_name": "Zeros", "config": {}}, "activity_regularizer": null, "trainable": true, "data_format": "channels_last", "kernel_regularizer": null, "name": "conv4_block4_3_conv", "use_bias": true, "filters": 1024}, "name": "conv4_block4_3_conv"}, {"class_name": "Add", "inbound_nodes": [[["conv4_block3_out", 0, 0, {}], ["conv4_block4_3_conv", 0, 0, {}]]], "config": {"trainable": true, "dtype": "float32", "name": "conv4_block4_out"}, "name": "conv4_block4_out"}, {"class_name": "BatchNormalization", "inbound_nodes": [[["conv4_block4_out", 0, 0, {}]]], "config": {"moving_mean_initializer": {"class_name": "Zeros", "config": {}}, "dtype": "float32", "beta_constraint": null, "gamma_regularizer": null, "gamma_initializer": {"class_name": "Ones", "config": {}}, "beta_regularizer": null, "moving_variance_initializer": {"class_name": "Ones", "config": {}}, "epsilon": 1.001e-05, "name": "conv4_block5_preact_bn", "center": true, "gamma_constraint": null, "scale": true, "trainable": true, "beta_initializer": {"class_name": "Zeros", "config": {}}, "axis": [3], "momentum": 0.99}, "name": "conv4_block5_preact_bn"}, {"class_name": "Activation", "inbound_nodes": [[["conv4_block5_preact_bn", 0, 0, {}]]], "config": {"dtype": "float32", "trainable": true, "activation": "relu", "name": "conv4_block5_preact_relu"}, "name": "conv4_block5_preact_relu"}, {"class_name": "Conv2D", "inbound_nodes": [[["conv4_block5_preact_relu", 0, 0, {}]]], "config": {"strides": [1, 1], "kernel_constraint": null, "padding": "valid", "dtype": "float32", "dilation_rate": [1, 1], "bias_regularizer": null, "kernel_initializer": {"class_name": "GlorotUniform", "config": {"seed": null}}, "activation": "linear", "kernel_size": [1, 1], "bias_constraint": null, "bias_initializer": {"class_name": "Zeros", "config": {}}, "activity_regularizer": null, "trainable": true, "data_format": "channels_last", "kernel_regularizer": null, "name": "conv4_block5_1_conv", "use_bias": false, "filters": 256}, "name": "conv4_block5_1_conv"}, {"class_name": "BatchNormalization", "inbound_nodes": [[["conv4_block5_1_conv", 0, 0, {}]]], "config": {"moving_mean_initializer": {"class_name": "Zeros", "config": {}}, "dtype": "float32", "beta_constraint": null, "gamma_regularizer": null, "gamma_initializer": {"class_name": "Ones", "config": {}}, "beta_regularizer": null, "moving_variance_initializer": {"class_name": "Ones", "config": {}}, "epsilon": 1.001e-05, "name": "conv4_block5_1_bn", "center": true, "gamma_constraint": null, "scale": true, "trainable": true, "beta_initializer": {"class_name": "Zeros", "config": {}}, "axis": [3], "momentum": 0.99}, "name": "conv4_block5_1_bn"}, {"class_name": "Activation", "inbound_nodes": [[["conv4_block5_1_bn", 0, 0, {}]]], "config": {"dtype": "float32", "trainable": true, "activation": "relu", "name": "conv4_block5_1_relu"}, "name": "conv4_block5_1_relu"}, {"class_name": "ZeroPadding2D", "inbound_nodes": [[["conv4_block5_1_relu", 0, 0, {}]]], "config": {"padding": [[1, 1], [1, 1]], "name": "conv4_block5_2_pad", "dtype": "float32", "trainable": true, "data_format": "channels_last"}, "name": "conv4_block5_2_pad"}, {"class_name": "Conv2D", "inbound_nodes": [[["conv4_block5_2_pad", 0, 0, {}]]], "config": {"strides": [1, 1], "kernel_constraint": null, "padding": "valid", "dtype": "float32", "dilation_rate": [1, 1], "bias_regularizer": null, "kernel_initializer": {"class_name": "GlorotUniform", "config": {"seed": null}}, "activation": "linear", "kernel_size": [3, 3], "bias_constraint": null, "bias_initializer": {"class_name": "Zeros", "config": {}}, "activity_regularizer": null, "trainable": true, "data_format": "channels_last", "kernel_regularizer": null, "name": "conv4_block5_2_conv", "use_bias": false, "filters": 256}, "name": "conv4_block5_2_conv"}, {"class_name": "BatchNormalization", "inbound_nodes": [[["conv4_block5_2_conv", 0, 0, {}]]], "config": {"moving_mean_initializer": {"class_name": "Zeros", "config": {}}, "dtype": "float32", "beta_constraint": null, "gamma_regularizer": null, "gamma_initializer": {"class_name": "Ones", "config": {}}, "beta_regularizer": null, "moving_variance_initializer": {"class_name": "Ones", "config": {}}, "epsilon": 1.001e-05, "name": "conv4_block5_2_bn", "center": true, "gamma_constraint": null, "scale": true, "trainable": true, "beta_initializer": {"class_name": "Zeros", "config": {}}, "axis": [3], "momentum": 0.99}, "name": "conv4_block5_2_bn"}, {"class_name": "Activation", "inbound_nodes": [[["conv4_block5_2_bn", 0, 0, {}]]], "config": {"dtype": "float32", "trainable": true, "activation": "relu", "name": "conv4_block5_2_relu"}, "name": "conv4_block5_2_relu"}, {"class_name": "Conv2D", "inbound_nodes": [[["conv4_block5_2_relu", 0, 0, {}]]], "config": {"strides": [1, 1], "kernel_constraint": null, "padding": "valid", "dtype": "float32", "dilation_rate": [1, 1], "bias_regularizer": null, "kernel_initializer": {"class_name": "GlorotUniform", "config": {"seed": null}}, "activation": "linear", "kernel_size": [1, 1], "bias_constraint": null, "bias_initializer": {"class_name": "Zeros", "config": {}}, "activity_regularizer": null, "trainable": true, "data_format": "channels_last", "kernel_regularizer": null, "name": "conv4_block5_3_conv", "use_bias": true, "filters": 1024}, "name": "conv4_block5_3_conv"}, {"class_name": "Add", "inbound_nodes": [[["conv4_block4_out", 0, 0, {}], ["conv4_block5_3_conv", 0, 0, {}]]], "config": {"trainable": true, "dtype": "float32", "name": "conv4_block5_out"}, "name": "conv4_block5_out"}, {"class_name": "BatchNormalization", "inbound_nodes": [[["conv4_block5_out", 0, 0, {}]]], "config": {"moving_mean_initializer": {"class_name": "Zeros", "config": {}}, "dtype": "float32", "beta_constraint": null, "gamma_regularizer": null, "gamma_initializer": {"class_name": "Ones", "config": {}}, "beta_regularizer": null, "moving_variance_initializer": {"class_name": "Ones", "config": {}}, "epsilon": 1.001e-05, "name": "conv4_block6_preact_bn", "center": true, "gamma_constraint": null, "scale": true, "trainable": true, "beta_initializer": {"class_name": "Zeros", "config": {}}, "axis": [3], "momentum": 0.99}, "name": "conv4_block6_preact_bn"}, {"class_name": "Activation", "inbound_nodes": [[["conv4_block6_preact_bn", 0, 0, {}]]], "config": {"dtype": "float32", "trainable": true, "activation": "relu", "name": "conv4_block6_preact_relu"}, "name": "conv4_block6_preact_relu"}, {"class_name": "Conv2D", "inbound_nodes": [[["conv4_block6_preact_relu", 0, 0, {}]]], "config": {"strides": [1, 1], "kernel_constraint": null, "padding": "valid", "dtype": "float32", "dilation_rate": [1, 1], "bias_regularizer": null, "kernel_initializer": {"class_name": "GlorotUniform", "config": {"seed": null}}, "activation": "linear", "kernel_size": [1, 1], "bias_constraint": null, "bias_initializer": {"class_name": "Zeros", "config": {}}, "activity_regularizer": null, "trainable": true, "data_format": "channels_last", "kernel_regularizer": null, "name": "conv4_block6_1_conv", "use_bias": false, "filters": 256}, "name": "conv4_block6_1_conv"}, {"class_name": "BatchNormalization", "inbound_nodes": [[["conv4_block6_1_conv", 0, 0, {}]]], "config": {"moving_mean_initializer": {"class_name": "Zeros", "config": {}}, "dtype": "float32", "beta_constraint": null, "gamma_regularizer": null, "gamma_initializer": {"class_name": "Ones", "config": {}}, "beta_regularizer": null, "moving_variance_initializer": {"class_name": "Ones", "config": {}}, "epsilon": 1.001e-05, "name": "conv4_block6_1_bn", "center": true, "gamma_constraint": null, "scale": true, "trainable": true, "beta_initializer": {"class_name": "Zeros", "config": {}}, "axis": [3], "momentum": 0.99}, "name": "conv4_block6_1_bn"}, {"class_name": "Activation", "inbound_nodes": [[["conv4_block6_1_bn", 0, 0, {}]]], "config": {"dtype": "float32", "trainable": true, "activation": "relu", "name": "conv4_block6_1_relu"}, "name": "conv4_block6_1_relu"}, {"class_name": "ZeroPadding2D", "inbound_nodes": [[["conv4_block6_1_relu", 0, 0, {}]]], "config": {"padding": [[1, 1], [1, 1]], "name": "conv4_block6_2_pad", "dtype": "float32", "trainable": true, "data_format": "channels_last"}, "name": "conv4_block6_2_pad"}, {"class_name": "Conv2D", "inbound_nodes": [[["conv4_block6_2_pad", 0, 0, {}]]], "config": {"strides": [1, 1], "kernel_constraint": null, "padding": "valid", "dtype": "float32", "dilation_rate": [1, 1], "bias_regularizer": null, "kernel_initializer": {"class_name": "GlorotUniform", "config": {"seed": null}}, "activation": "linear", "kernel_size": [3, 3], "bias_constraint": null, "bias_initializer": {"class_name": "Zeros", "config": {}}, "activity_regularizer": null, "trainable": true, "data_format": "channels_last", "kernel_regularizer": null, "name": "conv4_block6_2_conv", "use_bias": false, "filters": 256}, "name": "conv4_block6_2_conv"}, {"class_name": "BatchNormalization", "inbound_nodes": [[["conv4_block6_2_conv", 0, 0, {}]]], "config": {"moving_mean_initializer": {"class_name": "Zeros", "config": {}}, "dtype": "float32", "beta_constraint": null, "gamma_regularizer": null, "gamma_initializer": {"class_name": "Ones", "config": {}}, "beta_regularizer": null, "moving_variance_initializer": {"class_name": "Ones", "config": {}}, "epsilon": 1.001e-05, "name": "conv4_block6_2_bn", "center": true, "gamma_constraint": null, "scale": true, "trainable": true, "beta_initializer": {"class_name": "Zeros", "config": {}}, "axis": [3], "momentum": 0.99}, "name": "conv4_block6_2_bn"}, {"class_name": "Activation", "inbound_nodes": [[["conv4_block6_2_bn", 0, 0, {}]]], "config": {"dtype": "float32", "trainable": true, "activation": "relu", "name": "conv4_block6_2_relu"}, "name": "conv4_block6_2_relu"}, {"class_name": "Conv2D", "inbound_nodes": [[["conv4_block6_2_relu", 0, 0, {}]]], "config": {"strides": [1, 1], "kernel_constraint": null, "padding": "valid", "dtype": "float32", "dilation_rate": [1, 1], "bias_regularizer": null, "kernel_initializer": {"class_name": "GlorotUniform", "config": {"seed": null}}, "activation": "linear", "kernel_size": [1, 1], "bias_constraint": null, "bias_initializer": {"class_name": "Zeros", "config": {}}, "activity_regularizer": null, "trainable": true, "data_format": "channels_last", "kernel_regularizer": null, "name": "conv4_block6_3_conv", "use_bias": true, "filters": 1024}, "name": "conv4_block6_3_conv"}, {"class_name": "Add", "inbound_nodes": [[["conv4_block5_out", 0, 0, {}], ["conv4_block6_3_conv", 0, 0, {}]]], "config": {"trainable": true, "dtype": "float32", "name": "conv4_block6_out"}, "name": "conv4_block6_out"}, {"class_name": "BatchNormalization", "inbound_nodes": [[["conv4_block6_out", 0, 0, {}]]], "config": {"moving_mean_initializer": {"class_name": "Zeros", "config": {}}, "dtype": "float32", "beta_constraint": null, "gamma_regularizer": null, "gamma_initializer": {"class_name": "Ones", "config": {}}, "beta_regularizer": null, "moving_variance_initializer": {"class_name": "Ones", "config": {}}, "epsilon": 1.001e-05, "name": "conv4_block7_preact_bn", "center": true, "gamma_constraint": null, "scale": true, "trainable": true, "beta_initializer": {"class_name": "Zeros", "config": {}}, "axis": [3], "momentum": 0.99}, "name": "conv4_block7_preact_bn"}, {"class_name": "Activation", "inbound_nodes": [[["conv4_block7_preact_bn", 0, 0, {}]]], "config": {"dtype": "float32", "trainable": true, "activation": "relu", "name": "conv4_block7_preact_relu"}, "name": "conv4_block7_preact_relu"}, {"class_name": "Conv2D", "inbound_nodes": [[["conv4_block7_preact_relu", 0, 0, {}]]], "config": {"strides": [1, 1], "kernel_constraint": null, "padding": "valid", "dtype": "float32", "dilation_rate": [1, 1], "bias_regularizer": null, "kernel_initializer": {"class_name": "GlorotUniform", "config": {"seed": null}}, "activation": "linear", "kernel_size": [1, 1], "bias_constraint": null, "bias_initializer": {"class_name": "Zeros", "config": {}}, "activity_regularizer": null, "trainable": true, "data_format": "channels_last", "kernel_regularizer": null, "name": "conv4_block7_1_conv", "use_bias": false, "filters": 256}, "name": "conv4_block7_1_conv"}, {"class_name": "BatchNormalization", "inbound_nodes": [[["conv4_block7_1_conv", 0, 0, {}]]], "config": {"moving_mean_initializer": {"class_name": "Zeros", "config": {}}, "dtype": "float32", "beta_constraint": null, "gamma_regularizer": null, "gamma_initializer": {"class_name": "Ones", "config": {}}, "beta_regularizer": null, "moving_variance_initializer": {"class_name": "Ones", "config": {}}, "epsilon": 1.001e-05, "name": "conv4_block7_1_bn", "center": true, "gamma_constraint": null, "scale": true, "trainable": true, "beta_initializer": {"class_name": "Zeros", "config": {}}, "axis": [3], "momentum": 0.99}, "name": "conv4_block7_1_bn"}, {"class_name": "Activation", "inbound_nodes": [[["conv4_block7_1_bn", 0, 0, {}]]], "config": {"dtype": "float32", "trainable": true, "activation": "relu", "name": "conv4_block7_1_relu"}, "name": "conv4_block7_1_relu"}, {"class_name": "ZeroPadding2D", "inbound_nodes": [[["conv4_block7_1_relu", 0, 0, {}]]], "config": {"padding": [[1, 1], [1, 1]], "name": "conv4_block7_2_pad", "dtype": "float32", "trainable": true, "data_format": "channels_last"}, "name": "conv4_block7_2_pad"}, {"class_name": "Conv2D", "inbound_nodes": [[["conv4_block7_2_pad", 0, 0, {}]]], "config": {"strides": [1, 1], "kernel_constraint": null, "padding": "valid", "dtype": "float32", "dilation_rate": [1, 1], "bias_regularizer": null, "kernel_initializer": {"class_name": "GlorotUniform", "config": {"seed": null}}, "activation": "linear", "kernel_size": [3, 3], "bias_constraint": null, "bias_initializer": {"class_name": "Zeros", "config": {}}, "activity_regularizer": null, "trainable": true, "data_format": "channels_last", "kernel_regularizer": null, "name": "conv4_block7_2_conv", "use_bias": false, "filters": 256}, "name": "conv4_block7_2_conv"}, {"class_name": "BatchNormalization", "inbound_nodes": [[["conv4_block7_2_conv", 0, 0, {}]]], "config": {"moving_mean_initializer": {"class_name": "Zeros", "config": {}}, "dtype": "float32", "beta_constraint": null, "gamma_regularizer": null, "gamma_initializer": {"class_name": "Ones", "config": {}}, "beta_regularizer": null, "moving_variance_initializer": {"class_name": "Ones", "config": {}}, "epsilon": 1.001e-05, "name": "conv4_block7_2_bn", "center": true, "gamma_constraint": null, "scale": true, "trainable": true, "beta_initializer": {"class_name": "Zeros", "config": {}}, "axis": [3], "momentum": 0.99}, "name": "conv4_block7_2_bn"}, {"class_name": "Activation", "inbound_nodes": [[["conv4_block7_2_bn", 0, 0, {}]]], "config": {"dtype": "float32", "trainable": true, "activation": "relu", "name": "conv4_block7_2_relu"}, "name": "conv4_block7_2_relu"}, {"class_name": "Conv2D", "inbound_nodes": [[["conv4_block7_2_relu", 0, 0, {}]]], "config": {"strides": [1, 1], "kernel_constraint": null, "padding": "valid", "dtype": "float32", "dilation_rate": [1, 1], "bias_regularizer": null, "kernel_initializer": {"class_name": "GlorotUniform", "config": {"seed": null}}, "activation": "linear", "kernel_size": [1, 1], "bias_constraint": null, "bias_initializer": {"class_name": "Zeros", "config": {}}, "activity_regularizer": null, "trainable": true, "data_format": "channels_last", "kernel_regularizer": null, "name": "conv4_block7_3_conv", "use_bias": true, "filters": 1024}, "name": "conv4_block7_3_conv"}, {"class_name": "Add", "inbound_nodes": [[["conv4_block6_out", 0, 0, {}], ["conv4_block7_3_conv", 0, 0, {}]]], "config": {"trainable": true, "dtype": "float32", "name": "conv4_block7_out"}, "name": "conv4_block7_out"}, {"class_name": "BatchNormalization", "inbound_nodes": [[["conv4_block7_out", 0, 0, {}]]], "config": {"moving_mean_initializer": {"class_name": "Zeros", "config": {}}, "dtype": "float32", "beta_constraint": null, "gamma_regularizer": null, "gamma_initializer": {"class_name": "Ones", "config": {}}, "beta_regularizer": null, "moving_variance_initializer": {"class_name": "Ones", "config": {}}, "epsilon": 1.001e-05, "name": "conv4_block8_preact_bn", "center": true, "gamma_constraint": null, "scale": true, "trainable": true, "beta_initializer": {"class_name": "Zeros", "config": {}}, "axis": [3], "momentum": 0.99}, "name": "conv4_block8_preact_bn"}, {"class_name": "Activation", "inbound_nodes": [[["conv4_block8_preact_bn", 0, 0, {}]]], "config": {"dtype": "float32", "trainable": true, "activation": "relu", "name": "conv4_block8_preact_relu"}, "name": "conv4_block8_preact_relu"}, {"class_name": "Conv2D", "inbound_nodes": [[["conv4_block8_preact_relu", 0, 0, {}]]], "config": {"strides": [1, 1], "kernel_constraint": null, "padding": "valid", "dtype": "float32", "dilation_rate": [1, 1], "bias_regularizer": null, "kernel_initializer": {"class_name": "GlorotUniform", "config": {"seed": null}}, "activation": "linear", "kernel_size": [1, 1], "bias_constraint": null, "bias_initializer": {"class_name": "Zeros", "config": {}}, "activity_regularizer": null, "trainable": true, "data_format": "channels_last", "kernel_regularizer": null, "name": "conv4_block8_1_conv", "use_bias": false, "filters": 256}, "name": "conv4_block8_1_conv"}, {"class_name": "BatchNormalization", "inbound_nodes": [[["conv4_block8_1_conv", 0, 0, {}]]], "config": {"moving_mean_initializer": {"class_name": "Zeros", "config": {}}, "dtype": "float32", "beta_constraint": null, "gamma_regularizer": null, "gamma_initializer": {"class_name": "Ones", "config": {}}, "beta_regularizer": null, "moving_variance_initializer": {"class_name": "Ones", "config": {}}, "epsilon": 1.001e-05, "name": "conv4_block8_1_bn", "center": true, "gamma_constraint": null, "scale": true, "trainable": true, "beta_initializer": {"class_name": "Zeros", "config": {}}, "axis": [3], "momentum": 0.99}, "name": "conv4_block8_1_bn"}, {"class_name": "Activation", "inbound_nodes": [[["conv4_block8_1_bn", 0, 0, {}]]], "config": {"dtype": "float32", "trainable": true, "activation": "relu", "name": "conv4_block8_1_relu"}, "name": "conv4_block8_1_relu"}, {"class_name": "ZeroPadding2D", "inbound_nodes": [[["conv4_block8_1_relu", 0, 0, {}]]], "config": {"padding": [[1, 1], [1, 1]], "name": "conv4_block8_2_pad", "dtype": "float32", "trainable": true, "data_format": "channels_last"}, "name": "conv4_block8_2_pad"}, {"class_name": "Conv2D", "inbound_nodes": [[["conv4_block8_2_pad", 0, 0, {}]]], "config": {"strides": [1, 1], "kernel_constraint": null, "padding": "valid", "dtype": "float32", "dilation_rate": [1, 1], "bias_regularizer": null, "kernel_initializer": {"class_name": "GlorotUniform", "config": {"seed": null}}, "activation": "linear", "kernel_size": [3, 3], "bias_constraint": null, "bias_initializer": {"class_name": "Zeros", "config": {}}, "activity_regularizer": null, "trainable": true, "data_format": "channels_last", "kernel_regularizer": null, "name": "conv4_block8_2_conv", "use_bias": false, "filters": 256}, "name": "conv4_block8_2_conv"}, {"class_name": "BatchNormalization", "inbound_nodes": [[["conv4_block8_2_conv", 0, 0, {}]]], "config": {"moving_mean_initializer": {"class_name": "Zeros", "config": {}}, "dtype": "float32", "beta_constraint": null, "gamma_regularizer": null, "gamma_initializer": {"class_name": "Ones", "config": {}}, "beta_regularizer": null, "moving_variance_initializer": {"class_name": "Ones", "config": {}}, "epsilon": 1.001e-05, "name": "conv4_block8_2_bn", "center": true, "gamma_constraint": null, "scale": true, "trainable": true, "beta_initializer": {"class_name": "Zeros", "config": {}}, "axis": [3], "momentum": 0.99}, "name": "conv4_block8_2_bn"}, {"class_name": "Activation", "inbound_nodes": [[["conv4_block8_2_bn", 0, 0, {}]]], "config": {"dtype": "float32", "trainable": true, "activation": "relu", "name": "conv4_block8_2_relu"}, "name": "conv4_block8_2_relu"}, {"class_name": "Conv2D", "inbound_nodes": [[["conv4_block8_2_relu", 0, 0, {}]]], "config": {"strides": [1, 1], "kernel_constraint": null, "padding": "valid", "dtype": "float32", "dilation_rate": [1, 1], "bias_regularizer": null, "kernel_initializer": {"class_name": "GlorotUniform", "config": {"seed": null}}, "activation": "linear", "kernel_size": [1, 1], "bias_constraint": null, "bias_initializer": {"class_name": "Zeros", "config": {}}, "activity_regularizer": null, "trainable": true, "data_format": "channels_last", "kernel_regularizer": null, "name": "conv4_block8_3_conv", "use_bias": true, "filters": 1024}, "name": "conv4_block8_3_conv"}, {"class_name": "Add", "inbound_nodes": [[["conv4_block7_out", 0, 0, {}], ["conv4_block8_3_conv", 0, 0, {}]]], "config": {"trainable": true, "dtype": "float32", "name": "conv4_block8_out"}, "name": "conv4_block8_out"}, {"class_name": "BatchNormalization", "inbound_nodes": [[["conv4_block8_out", 0, 0, {}]]], "config": {"moving_mean_initializer": {"class_name": "Zeros", "config": {}}, "dtype": "float32", "beta_constraint": null, "gamma_regularizer": null, "gamma_initializer": {"class_name": "Ones", "config": {}}, "beta_regularizer": null, "moving_variance_initializer": {"class_name": "Ones", "config": {}}, "epsilon": 1.001e-05, "name": "conv4_block9_preact_bn", "center": true, "gamma_constraint": null, "scale": true, "trainable": true, "beta_initializer": {"class_name": "Zeros", "config": {}}, "axis": [3], "momentum": 0.99}, "name": "conv4_block9_preact_bn"}, {"class_name": "Activation", "inbound_nodes": [[["conv4_block9_preact_bn", 0, 0, {}]]], "config": {"dtype": "float32", "trainable": true, "activation": "relu", "name": "conv4_block9_preact_relu"}, "name": "conv4_block9_preact_relu"}, {"class_name": "Conv2D", "inbound_nodes": [[["conv4_block9_preact_relu", 0, 0, {}]]], "config": {"strides": [1, 1], "kernel_constraint": null, "padding": "valid", "dtype": "float32", "dilation_rate": [1, 1], "bias_regularizer": null, "kernel_initializer": {"class_name": "GlorotUniform", "config": {"seed": null}}, "activation": "linear", "kernel_size": [1, 1], "bias_constraint": null, "bias_initializer": {"class_name": "Zeros", "config": {}}, "activity_regularizer": null, "trainable": true, "data_format": "channels_last", "kernel_regularizer": null, "name": "conv4_block9_1_conv", "use_bias": false, "filters": 256}, "name": "conv4_block9_1_conv"}, {"class_name": "BatchNormalization", "inbound_nodes": [[["conv4_block9_1_conv", 0, 0, {}]]], "config": {"moving_mean_initializer": {"class_name": "Zeros", "config": {}}, "dtype": "float32", "beta_constraint": null, "gamma_regularizer": null, "gamma_initializer": {"class_name": "Ones", "config": {}}, "beta_regularizer": null, "moving_variance_initializer": {"class_name": "Ones", "config": {}}, "epsilon": 1.001e-05, "name": "conv4_block9_1_bn", "center": true, "gamma_constraint": null, "scale": true, "trainable": true, "beta_initializer": {"class_name": "Zeros", "config": {}}, "axis": [3], "momentum": 0.99}, "name": "conv4_block9_1_bn"}, {"class_name": "Activation", "inbound_nodes": [[["conv4_block9_1_bn", 0, 0, {}]]], "config": {"dtype": "float32", "trainable": true, "activation": "relu", "name": "conv4_block9_1_relu"}, "name": "conv4_block9_1_relu"}, {"class_name": "ZeroPadding2D", "inbound_nodes": [[["conv4_block9_1_relu", 0, 0, {}]]], "config": {"padding": [[1, 1], [1, 1]], "name": "conv4_block9_2_pad", "dtype": "float32", "trainable": true, "data_format": "channels_last"}, "name": "conv4_block9_2_pad"}, {"class_name": "Conv2D", "inbound_nodes": [[["conv4_block9_2_pad", 0, 0, {}]]], "config": {"strides": [1, 1], "kernel_constraint": null, "padding": "valid", "dtype": "float32", "dilation_rate": [1, 1], "bias_regularizer": null, "kernel_initializer": {"class_name": "GlorotUniform", "config": {"seed": null}}, "activation": "linear", "kernel_size": [3, 3], "bias_constraint": null, "bias_initializer": {"class_name": "Zeros", "config": {}}, "activity_regularizer": null, "trainable": true, "data_format": "channels_last", "kernel_regularizer": null, "name": "conv4_block9_2_conv", "use_bias": false, "filters": 256}, "name": "conv4_block9_2_conv"}, {"class_name": "BatchNormalization", "inbound_nodes": [[["conv4_block9_2_conv", 0, 0, {}]]], "config": {"moving_mean_initializer": {"class_name": "Zeros", "config": {}}, "dtype": "float32", "beta_constraint": null, "gamma_regularizer": null, "gamma_initializer": {"class_name": "Ones", "config": {}}, "beta_regularizer": null, "moving_variance_initializer": {"class_name": "Ones", "config": {}}, "epsilon": 1.001e-05, "name": "conv4_block9_2_bn", "center": true, "gamma_constraint": null, "scale": true, "trainable": true, "beta_initializer": {"class_name": "Zeros", "config": {}}, "axis": [3], "momentum": 0.99}, "name": "conv4_block9_2_bn"}, {"class_name": "Activation", "inbound_nodes": [[["conv4_block9_2_bn", 0, 0, {}]]], "config": {"dtype": "float32", "trainable": true, "activation": "relu", "name": "conv4_block9_2_relu"}, "name": "conv4_block9_2_relu"}, {"class_name": "Conv2D", "inbound_nodes": [[["conv4_block9_2_relu", 0, 0, {}]]], "config": {"strides": [1, 1], "kernel_constraint": null, "padding": "valid", "dtype": "float32", "dilation_rate": [1, 1], "bias_regularizer": null, "kernel_initializer": {"class_name": "GlorotUniform", "config": {"seed": null}}, "activation": "linear", "kernel_size": [1, 1], "bias_constraint": null, "bias_initializer": {"class_name": "Zeros", "config": {}}, "activity_regularizer": null, "trainable": true, "data_format": "channels_last", "kernel_regularizer": null, "name": "conv4_block9_3_conv", "use_bias": true, "filters": 1024}, "name": "conv4_block9_3_conv"}, {"class_name": "Add", "inbound_nodes": [[["conv4_block8_out", 0, 0, {}], ["conv4_block9_3_conv", 0, 0, {}]]], "config": {"trainable": true, "dtype": "float32", "name": "conv4_block9_out"}, "name": "conv4_block9_out"}, {"class_name": "BatchNormalization", "inbound_nodes": [[["conv4_block9_out", 0, 0, {}]]], "config": {"moving_mean_initializer": {"class_name": "Zeros", "config": {}}, "dtype": "float32", "beta_constraint": null, "gamma_regularizer": null, "gamma_initializer": {"class_name": "Ones", "config": {}}, "beta_regularizer": null, "moving_variance_initializer": {"class_name": "Ones", "config": {}}, "epsilon": 1.001e-05, "name": "conv4_block10_preact_bn", "center": true, "gamma_constraint": null, "scale": true, "trainable": true, "beta_initializer": {"class_name": "Zeros", "config": {}}, "axis": [3], "momentum": 0.99}, "name": "conv4_block10_preact_bn"}, {"class_name": "Activation", "inbound_nodes": [[["conv4_block10_preact_bn", 0, 0, {}]]], "config": {"dtype": "float32", "trainable": true, "activation": "relu", "name": "conv4_block10_preact_relu"}, "name": "conv4_block10_preact_relu"}, {"class_name": "Conv2D", "inbound_nodes": [[["conv4_block10_preact_relu", 0, 0, {}]]], "config": {"strides": [1, 1], "kernel_constraint": null, "padding": "valid", "dtype": "float32", "dilation_rate": [1, 1], "bias_regularizer": null, "kernel_initializer": {"class_name": "GlorotUniform", "config": {"seed": null}}, "activation": "linear", "kernel_size": [1, 1], "bias_constraint": null, "bias_initializer": {"class_name": "Zeros", "config": {}}, "activity_regularizer": null, "trainable": true, "data_format": "channels_last", "kernel_regularizer": null, "name": "conv4_block10_1_conv", "use_bias": false, "filters": 256}, "name": "conv4_block10_1_conv"}, {"class_name": "BatchNormalization", "inbound_nodes": [[["conv4_block10_1_conv", 0, 0, {}]]], "config": {"moving_mean_initializer": {"class_name": "Zeros", "config": {}}, "dtype": "float32", "beta_constraint": null, "gamma_regularizer": null, "gamma_initializer": {"class_name": "Ones", "config": {}}, "beta_regularizer": null, "moving_variance_initializer": {"class_name": "Ones", "config": {}}, "epsilon": 1.001e-05, "name": "conv4_block10_1_bn", "center": true, "gamma_constraint": null, "scale": true, "trainable": true, "beta_initializer": {"class_name": "Zeros", "config": {}}, "axis": [3], "momentum": 0.99}, "name": "conv4_block10_1_bn"}, {"class_name": "Activation", "inbound_nodes": [[["conv4_block10_1_bn", 0, 0, {}]]], "config": {"dtype": "float32", "trainable": true, "activation": "relu", "name": "conv4_block10_1_relu"}, "name": "conv4_block10_1_relu"}, {"class_name": "ZeroPadding2D", "inbound_nodes": [[["conv4_block10_1_relu", 0, 0, {}]]], "config": {"padding": [[1, 1], [1, 1]], "name": "conv4_block10_2_pad", "dtype": "float32", "trainable": true, "data_format": "channels_last"}, "name": "conv4_block10_2_pad"}, {"class_name": "Conv2D", "inbound_nodes": [[["conv4_block10_2_pad", 0, 0, {}]]], "config": {"strides": [1, 1], "kernel_constraint": null, "padding": "valid", "dtype": "float32", "dilation_rate": [1, 1], "bias_regularizer": null, "kernel_initializer": {"class_name": "GlorotUniform", "config": {"seed": null}}, "activation": "linear", "kernel_size": [3, 3], "bias_constraint": null, "bias_initializer": {"class_name": "Zeros", "config": {}}, "activity_regularizer": null, "trainable": true, "data_format": "channels_last", "kernel_regularizer": null, "name": "conv4_block10_2_conv", "use_bias": false, "filters": 256}, "name": "conv4_block10_2_conv"}, {"class_name": "BatchNormalization", "inbound_nodes": [[["conv4_block10_2_conv", 0, 0, {}]]], "config": {"moving_mean_initializer": {"class_name": "Zeros", "config": {}}, "dtype": "float32", "beta_constraint": null, "gamma_regularizer": null, "gamma_initializer": {"class_name": "Ones", "config": {}}, "beta_regularizer": null, "moving_variance_initializer": {"class_name": "Ones", "config": {}}, "epsilon": 1.001e-05, "name": "conv4_block10_2_bn", "center": true, "gamma_constraint": null, "scale": true, "trainable": true, "beta_initializer": {"class_name": "Zeros", "config": {}}, "axis": [3], "momentum": 0.99}, "name": "conv4_block10_2_bn"}, {"class_name": "Activation", "inbound_nodes": [[["conv4_block10_2_bn", 0, 0, {}]]], "config": {"dtype": "float32", "trainable": true, "activation": "relu", "name": "conv4_block10_2_relu"}, "name": "conv4_block10_2_relu"}, {"class_name": "Conv2D", "inbound_nodes": [[["conv4_block10_2_relu", 0, 0, {}]]], "config": {"strides": [1, 1], "kernel_constraint": null, "padding": "valid", "dtype": "float32", "dilation_rate": [1, 1], "bias_regularizer": null, "kernel_initializer": {"class_name": "GlorotUniform", "config": {"seed": null}}, "activation": "linear", "kernel_size": [1, 1], "bias_constraint": null, "bias_initializer": {"class_name": "Zeros", "config": {}}, "activity_regularizer": null, "trainable": true, "data_format": "channels_last", "kernel_regularizer": null, "name": "conv4_block10_3_conv", "use_bias": true, "filters": 1024}, "name": "conv4_block10_3_conv"}, {"class_name": "Add", "inbound_nodes": [[["conv4_block9_out", 0, 0, {}], ["conv4_block10_3_conv", 0, 0, {}]]], "config": {"trainable": true, "dtype": "float32", "name": "conv4_block10_out"}, "name": "conv4_block10_out"}, {"class_name": "BatchNormalization", "inbound_nodes": [[["conv4_block10_out", 0, 0, {}]]], "config": {"moving_mean_initializer": {"class_name": "Zeros", "config": {}}, "dtype": "float32", "beta_constraint": null, "gamma_regularizer": null, "gamma_initializer": {"class_name": "Ones", "config": {}}, "beta_regularizer": null, "moving_variance_initializer": {"class_name": "Ones", "config": {}}, "epsilon": 1.001e-05, "name": "conv4_block11_preact_bn", "center": true, "gamma_constraint": null, "scale": true, "trainable": true, "beta_initializer": {"class_name": "Zeros", "config": {}}, "axis": [3], "momentum": 0.99}, "name": "conv4_block11_preact_bn"}, {"class_name": "Activation", "inbound_nodes": [[["conv4_block11_preact_bn", 0, 0, {}]]], "config": {"dtype": "float32", "trainable": true, "activation": "relu", "name": "conv4_block11_preact_relu"}, "name": "conv4_block11_preact_relu"}, {"class_name": "Conv2D", "inbound_nodes": [[["conv4_block11_preact_relu", 0, 0, {}]]], "config": {"strides": [1, 1], "kernel_constraint": null, "padding": "valid", "dtype": "float32", "dilation_rate": [1, 1], "bias_regularizer": null, "kernel_initializer": {"class_name": "GlorotUniform", "config": {"seed": null}}, "activation": "linear", "kernel_size": [1, 1], "bias_constraint": null, "bias_initializer": {"class_name": "Zeros", "config": {}}, "activity_regularizer": null, "trainable": true, "data_format": "channels_last", "kernel_regularizer": null, "name": "conv4_block11_1_conv", "use_bias": false, "filters": 256}, "name": "conv4_block11_1_conv"}, {"class_name": "BatchNormalization", "inbound_nodes": [[["conv4_block11_1_conv", 0, 0, {}]]], "config": {"moving_mean_initializer": {"class_name": "Zeros", "config": {}}, "dtype": "float32", "beta_constraint": null, "gamma_regularizer": null, "gamma_initializer": {"class_name": "Ones", "config": {}}, "beta_regularizer": null, "moving_variance_initializer": {"class_name": "Ones", "config": {}}, "epsilon": 1.001e-05, "name": "conv4_block11_1_bn", "center": true, "gamma_constraint": null, "scale": true, "trainable": true, "beta_initializer": {"class_name": "Zeros", "config": {}}, "axis": [3], "momentum": 0.99}, "name": "conv4_block11_1_bn"}, {"class_name": "Activation", "inbound_nodes": [[["conv4_block11_1_bn", 0, 0, {}]]], "config": {"dtype": "float32", "trainable": true, "activation": "relu", "name": "conv4_block11_1_relu"}, "name": "conv4_block11_1_relu"}, {"class_name": "ZeroPadding2D", "inbound_nodes": [[["conv4_block11_1_relu", 0, 0, {}]]], "config": {"padding": [[1, 1], [1, 1]], "name": "conv4_block11_2_pad", "dtype": "float32", "trainable": true, "data_format": "channels_last"}, "name": "conv4_block11_2_pad"}, {"class_name": "Conv2D", "inbound_nodes": [[["conv4_block11_2_pad", 0, 0, {}]]], "config": {"strides": [1, 1], "kernel_constraint": null, "padding": "valid", "dtype": "float32", "dilation_rate": [1, 1], "bias_regularizer": null, "kernel_initializer": {"class_name": "GlorotUniform", "config": {"seed": null}}, "activation": "linear", "kernel_size": [3, 3], "bias_constraint": null, "bias_initializer": {"class_name": "Zeros", "config": {}}, "activity_regularizer": null, "trainable": true, "data_format": "channels_last", "kernel_regularizer": null, "name": "conv4_block11_2_conv", "use_bias": false, "filters": 256}, "name": "conv4_block11_2_conv"}, {"class_name": "BatchNormalization", "inbound_nodes": [[["conv4_block11_2_conv", 0, 0, {}]]], "config": {"moving_mean_initializer": {"class_name": "Zeros", "config": {}}, "dtype": "float32", "beta_constraint": null, "gamma_regularizer": null, "gamma_initializer": {"class_name": "Ones", "config": {}}, "beta_regularizer": null, "moving_variance_initializer": {"class_name": "Ones", "config": {}}, "epsilon": 1.001e-05, "name": "conv4_block11_2_bn", "center": true, "gamma_constraint": null, "scale": true, "trainable": true, "beta_initializer": {"class_name": "Zeros", "config": {}}, "axis": [3], "momentum": 0.99}, "name": "conv4_block11_2_bn"}, {"class_name": "Activation", "inbound_nodes": [[["conv4_block11_2_bn", 0, 0, {}]]], "config": {"dtype": "float32", "trainable": true, "activation": "relu", "name": "conv4_block11_2_relu"}, "name": "conv4_block11_2_relu"}, {"class_name": "Conv2D", "inbound_nodes": [[["conv4_block11_2_relu", 0, 0, {}]]], "config": {"strides": [1, 1], "kernel_constraint": null, "padding": "valid", "dtype": "float32", "dilation_rate": [1, 1], "bias_regularizer": null, "kernel_initializer": {"class_name": "GlorotUniform", "config": {"seed": null}}, "activation": "linear", "kernel_size": [1, 1], "bias_constraint": null, "bias_initializer": {"class_name": "Zeros", "config": {}}, "activity_regularizer": null, "trainable": true, "data_format": "channels_last", "kernel_regularizer": null, "name": "conv4_block11_3_conv", "use_bias": true, "filters": 1024}, "name": "conv4_block11_3_conv"}, {"class_name": "Add", "inbound_nodes": [[["conv4_block10_out", 0, 0, {}], ["conv4_block11_3_conv", 0, 0, {}]]], "config": {"trainable": true, "dtype": "float32", "name": "conv4_block11_out"}, "name": "conv4_block11_out"}, {"class_name": "BatchNormalization", "inbound_nodes": [[["conv4_block11_out", 0, 0, {}]]], "config": {"moving_mean_initializer": {"class_name": "Zeros", "config": {}}, "dtype": "float32", "beta_constraint": null, "gamma_regularizer": null, "gamma_initializer": {"class_name": "Ones", "config": {}}, "beta_regularizer": null, "moving_variance_initializer": {"class_name": "Ones", "config": {}}, "epsilon": 1.001e-05, "name": "conv4_block12_preact_bn", "center": true, "gamma_constraint": null, "scale": true, "trainable": true, "beta_initializer": {"class_name": "Zeros", "config": {}}, "axis": [3], "momentum": 0.99}, "name": "conv4_block12_preact_bn"}, {"class_name": "Activation", "inbound_nodes": [[["conv4_block12_preact_bn", 0, 0, {}]]], "config": {"dtype": "float32", "trainable": true, "activation": "relu", "name": "conv4_block12_preact_relu"}, "name": "conv4_block12_preact_relu"}, {"class_name": "Conv2D", "inbound_nodes": [[["conv4_block12_preact_relu", 0, 0, {}]]], "config": {"strides": [1, 1], "kernel_constraint": null, "padding": "valid", "dtype": "float32", "dilation_rate": [1, 1], "bias_regularizer": null, "kernel_initializer": {"class_name": "GlorotUniform", "config": {"seed": null}}, "activation": "linear", "kernel_size": [1, 1], "bias_constraint": null, "bias_initializer": {"class_name": "Zeros", "config": {}}, "activity_regularizer": null, "trainable": true, "data_format": "channels_last", "kernel_regularizer": null, "name": "conv4_block12_1_conv", "use_bias": false, "filters": 256}, "name": "conv4_block12_1_conv"}, {"class_name": "BatchNormalization", "inbound_nodes": [[["conv4_block12_1_conv", 0, 0, {}]]], "config": {"moving_mean_initializer": {"class_name": "Zeros", "config": {}}, "dtype": "float32", "beta_constraint": null, "gamma_regularizer": null, "gamma_initializer": {"class_name": "Ones", "config": {}}, "beta_regularizer": null, "moving_variance_initializer": {"class_name": "Ones", "config": {}}, "epsilon": 1.001e-05, "name": "conv4_block12_1_bn", "center": true, "gamma_constraint": null, "scale": true, "trainable": true, "beta_initializer": {"class_name": "Zeros", "config": {}}, "axis": [3], "momentum": 0.99}, "name": "conv4_block12_1_bn"}, {"class_name": "Activation", "inbound_nodes": [[["conv4_block12_1_bn", 0, 0, {}]]], "config": {"dtype": "float32", "trainable": true, "activation": "relu", "name": "conv4_block12_1_relu"}, "name": "conv4_block12_1_relu"}, {"class_name": "ZeroPadding2D", "inbound_nodes": [[["conv4_block12_1_relu", 0, 0, {}]]], "config": {"padding": [[1, 1], [1, 1]], "name": "conv4_block12_2_pad", "dtype": "float32", "trainable": true, "data_format": "channels_last"}, "name": "conv4_block12_2_pad"}, {"class_name": "Conv2D", "inbound_nodes": [[["conv4_block12_2_pad", 0, 0, {}]]], "config": {"strides": [1, 1], "kernel_constraint": null, "padding": "valid", "dtype": "float32", "dilation_rate": [1, 1], "bias_regularizer": null, "kernel_initializer": {"class_name": "GlorotUniform", "config": {"seed": null}}, "activation": "linear", "kernel_size": [3, 3], "bias_constraint": null, "bias_initializer": {"class_name": "Zeros", "config": {}}, "activity_regularizer": null, "trainable": true, "data_format": "channels_last", "kernel_regularizer": null, "name": "conv4_block12_2_conv", "use_bias": false, "filters": 256}, "name": "conv4_block12_2_conv"}, {"class_name": "BatchNormalization", "inbound_nodes": [[["conv4_block12_2_conv", 0, 0, {}]]], "config": {"moving_mean_initializer": {"class_name": "Zeros", "config": {}}, "dtype": "float32", "beta_constraint": null, "gamma_regularizer": null, "gamma_initializer": {"class_name": "Ones", "config": {}}, "beta_regularizer": null, "moving_variance_initializer": {"class_name": "Ones", "config": {}}, "epsilon": 1.001e-05, "name": "conv4_block12_2_bn", "center": true, "gamma_constraint": null, "scale": true, "trainable": true, "beta_initializer": {"class_name": "Zeros", "config": {}}, "axis": [3], "momentum": 0.99}, "name": "conv4_block12_2_bn"}, {"class_name": "Activation", "inbound_nodes": [[["conv4_block12_2_bn", 0, 0, {}]]], "config": {"dtype": "float32", "trainable": true, "activation": "relu", "name": "conv4_block12_2_relu"}, "name": "conv4_block12_2_relu"}, {"class_name": "Conv2D", "inbound_nodes": [[["conv4_block12_2_relu", 0, 0, {}]]], "config": {"strides": [1, 1], "kernel_constraint": null, "padding": "valid", "dtype": "float32", "dilation_rate": [1, 1], "bias_regularizer": null, "kernel_initializer": {"class_name": "GlorotUniform", "config": {"seed": null}}, "activation": "linear", "kernel_size": [1, 1], "bias_constraint": null, "bias_initializer": {"class_name": "Zeros", "config": {}}, "activity_regularizer": null, "trainable": true, "data_format": "channels_last", "kernel_regularizer": null, "name": "conv4_block12_3_conv", "use_bias": true, "filters": 1024}, "name": "conv4_block12_3_conv"}, {"class_name": "Add", "inbound_nodes": [[["conv4_block11_out", 0, 0, {}], ["conv4_block12_3_conv", 0, 0, {}]]], "config": {"trainable": true, "dtype": "float32", "name": "conv4_block12_out"}, "name": "conv4_block12_out"}, {"class_name": "BatchNormalization", "inbound_nodes": [[["conv4_block12_out", 0, 0, {}]]], "config": {"moving_mean_initializer": {"class_name": "Zeros", "config": {}}, "dtype": "float32", "beta_constraint": null, "gamma_regularizer": null, "gamma_initializer": {"class_name": "Ones", "config": {}}, "beta_regularizer": null, "moving_variance_initializer": {"class_name": "Ones", "config": {}}, "epsilon": 1.001e-05, "name": "conv4_block13_preact_bn", "center": true, "gamma_constraint": null, "scale": true, "trainable": true, "beta_initializer": {"class_name": "Zeros", "config": {}}, "axis": [3], "momentum": 0.99}, "name": "conv4_block13_preact_bn"}, {"class_name": "Activation", "inbound_nodes": [[["conv4_block13_preact_bn", 0, 0, {}]]], "config": {"dtype": "float32", "trainable": true, "activation": "relu", "name": "conv4_block13_preact_relu"}, "name": "conv4_block13_preact_relu"}, {"class_name": "Conv2D", "inbound_nodes": [[["conv4_block13_preact_relu", 0, 0, {}]]], "config": {"strides": [1, 1], "kernel_constraint": null, "padding": "valid", "dtype": "float32", "dilation_rate": [1, 1], "bias_regularizer": null, "kernel_initializer": {"class_name": "GlorotUniform", "config": {"seed": null}}, "activation": "linear", "kernel_size": [1, 1], "bias_constraint": null, "bias_initializer": {"class_name": "Zeros", "config": {}}, "activity_regularizer": null, "trainable": true, "data_format": "channels_last", "kernel_regularizer": null, "name": "conv4_block13_1_conv", "use_bias": false, "filters": 256}, "name": "conv4_block13_1_conv"}, {"class_name": "BatchNormalization", "inbound_nodes": [[["conv4_block13_1_conv", 0, 0, {}]]], "config": {"moving_mean_initializer": {"class_name": "Zeros", "config": {}}, "dtype": "float32", "beta_constraint": null, "gamma_regularizer": null, "gamma_initializer": {"class_name": "Ones", "config": {}}, "beta_regularizer": null, "moving_variance_initializer": {"class_name": "Ones", "config": {}}, "epsilon": 1.001e-05, "name": "conv4_block13_1_bn", "center": true, "gamma_constraint": null, "scale": true, "trainable": true, "beta_initializer": {"class_name": "Zeros", "config": {}}, "axis": [3], "momentum": 0.99}, "name": "conv4_block13_1_bn"}, {"class_name": "Activation", "inbound_nodes": [[["conv4_block13_1_bn", 0, 0, {}]]], "config": {"dtype": "float32", "trainable": true, "activation": "relu", "name": "conv4_block13_1_relu"}, "name": "conv4_block13_1_relu"}, {"class_name": "ZeroPadding2D", "inbound_nodes": [[["conv4_block13_1_relu", 0, 0, {}]]], "config": {"padding": [[1, 1], [1, 1]], "name": "conv4_block13_2_pad", "dtype": "float32", "trainable": true, "data_format": "channels_last"}, "name": "conv4_block13_2_pad"}, {"class_name": "Conv2D", "inbound_nodes": [[["conv4_block13_2_pad", 0, 0, {}]]], "config": {"strides": [1, 1], "kernel_constraint": null, "padding": "valid", "dtype": "float32", "dilation_rate": [1, 1], "bias_regularizer": null, "kernel_initializer": {"class_name": "GlorotUniform", "config": {"seed": null}}, "activation": "linear", "kernel_size": [3, 3], "bias_constraint": null, "bias_initializer": {"class_name": "Zeros", "config": {}}, "activity_regularizer": null, "trainable": true, "data_format": "channels_last", "kernel_regularizer": null, "name": "conv4_block13_2_conv", "use_bias": false, "filters": 256}, "name": "conv4_block13_2_conv"}, {"class_name": "BatchNormalization", "inbound_nodes": [[["conv4_block13_2_conv", 0, 0, {}]]], "config": {"moving_mean_initializer": {"class_name": "Zeros", "config": {}}, "dtype": "float32", "beta_constraint": null, "gamma_regularizer": null, "gamma_initializer": {"class_name": "Ones", "config": {}}, "beta_regularizer": null, "moving_variance_initializer": {"class_name": "Ones", "config": {}}, "epsilon": 1.001e-05, "name": "conv4_block13_2_bn", "center": true, "gamma_constraint": null, "scale": true, "trainable": true, "beta_initializer": {"class_name": "Zeros", "config": {}}, "axis": [3], "momentum": 0.99}, "name": "conv4_block13_2_bn"}, {"class_name": "Activation", "inbound_nodes": [[["conv4_block13_2_bn", 0, 0, {}]]], "config": {"dtype": "float32", "trainable": true, "activation": "relu", "name": "conv4_block13_2_relu"}, "name": "conv4_block13_2_relu"}, {"class_name": "Conv2D", "inbound_nodes": [[["conv4_block13_2_relu", 0, 0, {}]]], "config": {"strides": [1, 1], "kernel_constraint": null, "padding": "valid", "dtype": "float32", "dilation_rate": [1, 1], "bias_regularizer": null, "kernel_initializer": {"class_name": "GlorotUniform", "config": {"seed": null}}, "activation": "linear", "kernel_size": [1, 1], "bias_constraint": null, "bias_initializer": {"class_name": "Zeros", "config": {}}, "activity_regularizer": null, "trainable": true, "data_format": "channels_last", "kernel_regularizer": null, "name": "conv4_block13_3_conv", "use_bias": true, "filters": 1024}, "name": "conv4_block13_3_conv"}, {"class_name": "Add", "inbound_nodes": [[["conv4_block12_out", 0, 0, {}], ["conv4_block13_3_conv", 0, 0, {}]]], "config": {"trainable": true, "dtype": "float32", "name": "conv4_block13_out"}, "name": "conv4_block13_out"}, {"class_name": "BatchNormalization", "inbound_nodes": [[["conv4_block13_out", 0, 0, {}]]], "config": {"moving_mean_initializer": {"class_name": "Zeros", "config": {}}, "dtype": "float32", "beta_constraint": null, "gamma_regularizer": null, "gamma_initializer": {"class_name": "Ones", "config": {}}, "beta_regularizer": null, "moving_variance_initializer": {"class_name": "Ones", "config": {}}, "epsilon": 1.001e-05, "name": "conv4_block14_preact_bn", "center": true, "gamma_constraint": null, "scale": true, "trainable": true, "beta_initializer": {"class_name": "Zeros", "config": {}}, "axis": [3], "momentum": 0.99}, "name": "conv4_block14_preact_bn"}, {"class_name": "Activation", "inbound_nodes": [[["conv4_block14_preact_bn", 0, 0, {}]]], "config": {"dtype": "float32", "trainable": true, "activation": "relu", "name": "conv4_block14_preact_relu"}, "name": "conv4_block14_preact_relu"}, {"class_name": "Conv2D", "inbound_nodes": [[["conv4_block14_preact_relu", 0, 0, {}]]], "config": {"strides": [1, 1], "kernel_constraint": null, "padding": "valid", "dtype": "float32", "dilation_rate": [1, 1], "bias_regularizer": null, "kernel_initializer": {"class_name": "GlorotUniform", "config": {"seed": null}}, "activation": "linear", "kernel_size": [1, 1], "bias_constraint": null, "bias_initializer": {"class_name": "Zeros", "config": {}}, "activity_regularizer": null, "trainable": true, "data_format": "channels_last", "kernel_regularizer": null, "name": "conv4_block14_1_conv", "use_bias": false, "filters": 256}, "name": "conv4_block14_1_conv"}, {"class_name": "BatchNormalization", "inbound_nodes": [[["conv4_block14_1_conv", 0, 0, {}]]], "config": {"moving_mean_initializer": {"class_name": "Zeros", "config": {}}, "dtype": "float32", "beta_constraint": null, "gamma_regularizer": null, "gamma_initializer": {"class_name": "Ones", "config": {}}, "beta_regularizer": null, "moving_variance_initializer": {"class_name": "Ones", "config": {}}, "epsilon": 1.001e-05, "name": "conv4_block14_1_bn", "center": true, "gamma_constraint": null, "scale": true, "trainable": true, "beta_initializer": {"class_name": "Zeros", "config": {}}, "axis": [3], "momentum": 0.99}, "name": "conv4_block14_1_bn"}, {"class_name": "Activation", "inbound_nodes": [[["conv4_block14_1_bn", 0, 0, {}]]], "config": {"dtype": "float32", "trainable": true, "activation": "relu", "name": "conv4_block14_1_relu"}, "name": "conv4_block14_1_relu"}, {"class_name": "ZeroPadding2D", "inbound_nodes": [[["conv4_block14_1_relu", 0, 0, {}]]], "config": {"padding": [[1, 1], [1, 1]], "name": "conv4_block14_2_pad", "dtype": "float32", "trainable": true, "data_format": "channels_last"}, "name": "conv4_block14_2_pad"}, {"class_name": "Conv2D", "inbound_nodes": [[["conv4_block14_2_pad", 0, 0, {}]]], "config": {"strides": [1, 1], "kernel_constraint": null, "padding": "valid", "dtype": "float32", "dilation_rate": [1, 1], "bias_regularizer": null, "kernel_initializer": {"class_name": "GlorotUniform", "config": {"seed": null}}, "activation": "linear", "kernel_size": [3, 3], "bias_constraint": null, "bias_initializer": {"class_name": "Zeros", "config": {}}, "activity_regularizer": null, "trainable": true, "data_format": "channels_last", "kernel_regularizer": null, "name": "conv4_block14_2_conv", "use_bias": false, "filters": 256}, "name": "conv4_block14_2_conv"}, {"class_name": "BatchNormalization", "inbound_nodes": [[["conv4_block14_2_conv", 0, 0, {}]]], "config": {"moving_mean_initializer": {"class_name": "Zeros", "config": {}}, "dtype": "float32", "beta_constraint": null, "gamma_regularizer": null, "gamma_initializer": {"class_name": "Ones", "config": {}}, "beta_regularizer": null, "moving_variance_initializer": {"class_name": "Ones", "config": {}}, "epsilon": 1.001e-05, "name": "conv4_block14_2_bn", "center": true, "gamma_constraint": null, "scale": true, "trainable": true, "beta_initializer": {"class_name": "Zeros", "config": {}}, "axis": [3], "momentum": 0.99}, "name": "conv4_block14_2_bn"}, {"class_name": "Activation", "inbound_nodes": [[["conv4_block14_2_bn", 0, 0, {}]]], "config": {"dtype": "float32", "trainable": true, "activation": "relu", "name": "conv4_block14_2_relu"}, "name": "conv4_block14_2_relu"}, {"class_name": "Conv2D", "inbound_nodes": [[["conv4_block14_2_relu", 0, 0, {}]]], "config": {"strides": [1, 1], "kernel_constraint": null, "padding": "valid", "dtype": "float32", "dilation_rate": [1, 1], "bias_regularizer": null, "kernel_initializer": {"class_name": "GlorotUniform", "config": {"seed": null}}, "activation": "linear", "kernel_size": [1, 1], "bias_constraint": null, "bias_initializer": {"class_name": "Zeros", "config": {}}, "activity_regularizer": null, "trainable": true, "data_format": "channels_last", "kernel_regularizer": null, "name": "conv4_block14_3_conv", "use_bias": true, "filters": 1024}, "name": "conv4_block14_3_conv"}, {"class_name": "Add", "inbound_nodes": [[["conv4_block13_out", 0, 0, {}], ["conv4_block14_3_conv", 0, 0, {}]]], "config": {"trainable": true, "dtype": "float32", "name": "conv4_block14_out"}, "name": "conv4_block14_out"}, {"class_name": "BatchNormalization", "inbound_nodes": [[["conv4_block14_out", 0, 0, {}]]], "config": {"moving_mean_initializer": {"class_name": "Zeros", "config": {}}, "dtype": "float32", "beta_constraint": null, "gamma_regularizer": null, "gamma_initializer": {"class_name": "Ones", "config": {}}, "beta_regularizer": null, "moving_variance_initializer": {"class_name": "Ones", "config": {}}, "epsilon": 1.001e-05, "name": "conv4_block15_preact_bn", "center": true, "gamma_constraint": null, "scale": true, "trainable": true, "beta_initializer": {"class_name": "Zeros", "config": {}}, "axis": [3], "momentum": 0.99}, "name": "conv4_block15_preact_bn"}, {"class_name": "Activation", "inbound_nodes": [[["conv4_block15_preact_bn", 0, 0, {}]]], "config": {"dtype": "float32", "trainable": true, "activation": "relu", "name": "conv4_block15_preact_relu"}, "name": "conv4_block15_preact_relu"}, {"class_name": "Conv2D", "inbound_nodes": [[["conv4_block15_preact_relu", 0, 0, {}]]], "config": {"strides": [1, 1], "kernel_constraint": null, "padding": "valid", "dtype": "float32", "dilation_rate": [1, 1], "bias_regularizer": null, "kernel_initializer": {"class_name": "GlorotUniform", "config": {"seed": null}}, "activation": "linear", "kernel_size": [1, 1], "bias_constraint": null, "bias_initializer": {"class_name": "Zeros", "config": {}}, "activity_regularizer": null, "trainable": true, "data_format": "channels_last", "kernel_regularizer": null, "name": "conv4_block15_1_conv", "use_bias": false, "filters": 256}, "name": "conv4_block15_1_conv"}, {"class_name": "BatchNormalization", "inbound_nodes": [[["conv4_block15_1_conv", 0, 0, {}]]], "config": {"moving_mean_initializer": {"class_name": "Zeros", "config": {}}, "dtype": "float32", "beta_constraint": null, "gamma_regularizer": null, "gamma_initializer": {"class_name": "Ones", "config": {}}, "beta_regularizer": null, "moving_variance_initializer": {"class_name": "Ones", "config": {}}, "epsilon": 1.001e-05, "name": "conv4_block15_1_bn", "center": true, "gamma_constraint": null, "scale": true, "trainable": true, "beta_initializer": {"class_name": "Zeros", "config": {}}, "axis": [3], "momentum": 0.99}, "name": "conv4_block15_1_bn"}, {"class_name": "Activation", "inbound_nodes": [[["conv4_block15_1_bn", 0, 0, {}]]], "config": {"dtype": "float32", "trainable": true, "activation": "relu", "name": "conv4_block15_1_relu"}, "name": "conv4_block15_1_relu"}, {"class_name": "ZeroPadding2D", "inbound_nodes": [[["conv4_block15_1_relu", 0, 0, {}]]], "config": {"padding": [[1, 1], [1, 1]], "name": "conv4_block15_2_pad", "dtype": "float32", "trainable": true, "data_format": "channels_last"}, "name": "conv4_block15_2_pad"}, {"class_name": "Conv2D", "inbound_nodes": [[["conv4_block15_2_pad", 0, 0, {}]]], "config": {"strides": [1, 1], "kernel_constraint": null, "padding": "valid", "dtype": "float32", "dilation_rate": [1, 1], "bias_regularizer": null, "kernel_initializer": {"class_name": "GlorotUniform", "config": {"seed": null}}, "activation": "linear", "kernel_size": [3, 3], "bias_constraint": null, "bias_initializer": {"class_name": "Zeros", "config": {}}, "activity_regularizer": null, "trainable": true, "data_format": "channels_last", "kernel_regularizer": null, "name": "conv4_block15_2_conv", "use_bias": false, "filters": 256}, "name": "conv4_block15_2_conv"}, {"class_name": "BatchNormalization", "inbound_nodes": [[["conv4_block15_2_conv", 0, 0, {}]]], "config": {"moving_mean_initializer": {"class_name": "Zeros", "config": {}}, "dtype": "float32", "beta_constraint": null, "gamma_regularizer": null, "gamma_initializer": {"class_name": "Ones", "config": {}}, "beta_regularizer": null, "moving_variance_initializer": {"class_name": "Ones", "config": {}}, "epsilon": 1.001e-05, "name": "conv4_block15_2_bn", "center": true, "gamma_constraint": null, "scale": true, "trainable": true, "beta_initializer": {"class_name": "Zeros", "config": {}}, "axis": [3], "momentum": 0.99}, "name": "conv4_block15_2_bn"}, {"class_name": "Activation", "inbound_nodes": [[["conv4_block15_2_bn", 0, 0, {}]]], "config": {"dtype": "float32", "trainable": true, "activation": "relu", "name": "conv4_block15_2_relu"}, "name": "conv4_block15_2_relu"}, {"class_name": "Conv2D", "inbound_nodes": [[["conv4_block15_2_relu", 0, 0, {}]]], "config": {"strides": [1, 1], "kernel_constraint": null, "padding": "valid", "dtype": "float32", "dilation_rate": [1, 1], "bias_regularizer": null, "kernel_initializer": {"class_name": "GlorotUniform", "config": {"seed": null}}, "activation": "linear", "kernel_size": [1, 1], "bias_constraint": null, "bias_initializer": {"class_name": "Zeros", "config": {}}, "activity_regularizer": null, "trainable": true, "data_format": "channels_last", "kernel_regularizer": null, "name": "conv4_block15_3_conv", "use_bias": true, "filters": 1024}, "name": "conv4_block15_3_conv"}, {"class_name": "Add", "inbound_nodes": [[["conv4_block14_out", 0, 0, {}], ["conv4_block15_3_conv", 0, 0, {}]]], "config": {"trainable": true, "dtype": "float32", "name": "conv4_block15_out"}, "name": "conv4_block15_out"}, {"class_name": "BatchNormalization", "inbound_nodes": [[["conv4_block15_out", 0, 0, {}]]], "config": {"moving_mean_initializer": {"class_name": "Zeros", "config": {}}, "dtype": "float32", "beta_constraint": null, "gamma_regularizer": null, "gamma_initializer": {"class_name": "Ones", "config": {}}, "beta_regularizer": null, "moving_variance_initializer": {"class_name": "Ones", "config": {}}, "epsilon": 1.001e-05, "name": "conv4_block16_preact_bn", "center": true, "gamma_constraint": null, "scale": true, "trainable": true, "beta_initializer": {"class_name": "Zeros", "config": {}}, "axis": [3], "momentum": 0.99}, "name": "conv4_block16_preact_bn"}, {"class_name": "Activation", "inbound_nodes": [[["conv4_block16_preact_bn", 0, 0, {}]]], "config": {"dtype": "float32", "trainable": true, "activation": "relu", "name": "conv4_block16_preact_relu"}, "name": "conv4_block16_preact_relu"}, {"class_name": "Conv2D", "inbound_nodes": [[["conv4_block16_preact_relu", 0, 0, {}]]], "config": {"strides": [1, 1], "kernel_constraint": null, "padding": "valid", "dtype": "float32", "dilation_rate": [1, 1], "bias_regularizer": null, "kernel_initializer": {"class_name": "GlorotUniform", "config": {"seed": null}}, "activation": "linear", "kernel_size": [1, 1], "bias_constraint": null, "bias_initializer": {"class_name": "Zeros", "config": {}}, "activity_regularizer": null, "trainable": true, "data_format": "channels_last", "kernel_regularizer": null, "name": "conv4_block16_1_conv", "use_bias": false, "filters": 256}, "name": "conv4_block16_1_conv"}, {"class_name": "BatchNormalization", "inbound_nodes": [[["conv4_block16_1_conv", 0, 0, {}]]], "config": {"moving_mean_initializer": {"class_name": "Zeros", "config": {}}, "dtype": "float32", "beta_constraint": null, "gamma_regularizer": null, "gamma_initializer": {"class_name": "Ones", "config": {}}, "beta_regularizer": null, "moving_variance_initializer": {"class_name": "Ones", "config": {}}, "epsilon": 1.001e-05, "name": "conv4_block16_1_bn", "center": true, "gamma_constraint": null, "scale": true, "trainable": true, "beta_initializer": {"class_name": "Zeros", "config": {}}, "axis": [3], "momentum": 0.99}, "name": "conv4_block16_1_bn"}, {"class_name": "Activation", "inbound_nodes": [[["conv4_block16_1_bn", 0, 0, {}]]], "config": {"dtype": "float32", "trainable": true, "activation": "relu", "name": "conv4_block16_1_relu"}, "name": "conv4_block16_1_relu"}, {"class_name": "ZeroPadding2D", "inbound_nodes": [[["conv4_block16_1_relu", 0, 0, {}]]], "config": {"padding": [[1, 1], [1, 1]], "name": "conv4_block16_2_pad", "dtype": "float32", "trainable": true, "data_format": "channels_last"}, "name": "conv4_block16_2_pad"}, {"class_name": "Conv2D", "inbound_nodes": [[["conv4_block16_2_pad", 0, 0, {}]]], "config": {"strides": [1, 1], "kernel_constraint": null, "padding": "valid", "dtype": "float32", "dilation_rate": [1, 1], "bias_regularizer": null, "kernel_initializer": {"class_name": "GlorotUniform", "config": {"seed": null}}, "activation": "linear", "kernel_size": [3, 3], "bias_constraint": null, "bias_initializer": {"class_name": "Zeros", "config": {}}, "activity_regularizer": null, "trainable": true, "data_format": "channels_last", "kernel_regularizer": null, "name": "conv4_block16_2_conv", "use_bias": false, "filters": 256}, "name": "conv4_block16_2_conv"}, {"class_name": "BatchNormalization", "inbound_nodes": [[["conv4_block16_2_conv", 0, 0, {}]]], "config": {"moving_mean_initializer": {"class_name": "Zeros", "config": {}}, "dtype": "float32", "beta_constraint": null, "gamma_regularizer": null, "gamma_initializer": {"class_name": "Ones", "config": {}}, "beta_regularizer": null, "moving_variance_initializer": {"class_name": "Ones", "config": {}}, "epsilon": 1.001e-05, "name": "conv4_block16_2_bn", "center": true, "gamma_constraint": null, "scale": true, "trainable": true, "beta_initializer": {"class_name": "Zeros", "config": {}}, "axis": [3], "momentum": 0.99}, "name": "conv4_block16_2_bn"}, {"class_name": "Activation", "inbound_nodes": [[["conv4_block16_2_bn", 0, 0, {}]]], "config": {"dtype": "float32", "trainable": true, "activation": "relu", "name": "conv4_block16_2_relu"}, "name": "conv4_block16_2_relu"}, {"class_name": "Conv2D", "inbound_nodes": [[["conv4_block16_2_relu", 0, 0, {}]]], "config": {"strides": [1, 1], "kernel_constraint": null, "padding": "valid", "dtype": "float32", "dilation_rate": [1, 1], "bias_regularizer": null, "kernel_initializer": {"class_name": "GlorotUniform", "config": {"seed": null}}, "activation": "linear", "kernel_size": [1, 1], "bias_constraint": null, "bias_initializer": {"class_name": "Zeros", "config": {}}, "activity_regularizer": null, "trainable": true, "data_format": "channels_last", "kernel_regularizer": null, "name": "conv4_block16_3_conv", "use_bias": true, "filters": 1024}, "name": "conv4_block16_3_conv"}, {"class_name": "Add", "inbound_nodes": [[["conv4_block15_out", 0, 0, {}], ["conv4_block16_3_conv", 0, 0, {}]]], "config": {"trainable": true, "dtype": "float32", "name": "conv4_block16_out"}, "name": "conv4_block16_out"}, {"class_name": "BatchNormalization", "inbound_nodes": [[["conv4_block16_out", 0, 0, {}]]], "config": {"moving_mean_initializer": {"class_name": "Zeros", "config": {}}, "dtype": "float32", "beta_constraint": null, "gamma_regularizer": null, "gamma_initializer": {"class_name": "Ones", "config": {}}, "beta_regularizer": null, "moving_variance_initializer": {"class_name": "Ones", "config": {}}, "epsilon": 1.001e-05, "name": "conv4_block17_preact_bn", "center": true, "gamma_constraint": null, "scale": true, "trainable": true, "beta_initializer": {"class_name": "Zeros", "config": {}}, "axis": [3], "momentum": 0.99}, "name": "conv4_block17_preact_bn"}, {"class_name": "Activation", "inbound_nodes": [[["conv4_block17_preact_bn", 0, 0, {}]]], "config": {"dtype": "float32", "trainable": true, "activation": "relu", "name": "conv4_block17_preact_relu"}, "name": "conv4_block17_preact_relu"}, {"class_name": "Conv2D", "inbound_nodes": [[["conv4_block17_preact_relu", 0, 0, {}]]], "config": {"strides": [1, 1], "kernel_constraint": null, "padding": "valid", "dtype": "float32", "dilation_rate": [1, 1], "bias_regularizer": null, "kernel_initializer": {"class_name": "GlorotUniform", "config": {"seed": null}}, "activation": "linear", "kernel_size": [1, 1], "bias_constraint": null, "bias_initializer": {"class_name": "Zeros", "config": {}}, "activity_regularizer": null, "trainable": true, "data_format": "channels_last", "kernel_regularizer": null, "name": "conv4_block17_1_conv", "use_bias": false, "filters": 256}, "name": "conv4_block17_1_conv"}, {"class_name": "BatchNormalization", "inbound_nodes": [[["conv4_block17_1_conv", 0, 0, {}]]], "config": {"moving_mean_initializer": {"class_name": "Zeros", "config": {}}, "dtype": "float32", "beta_constraint": null, "gamma_regularizer": null, "gamma_initializer": {"class_name": "Ones", "config": {}}, "beta_regularizer": null, "moving_variance_initializer": {"class_name": "Ones", "config": {}}, "epsilon": 1.001e-05, "name": "conv4_block17_1_bn", "center": true, "gamma_constraint": null, "scale": true, "trainable": true, "beta_initializer": {"class_name": "Zeros", "config": {}}, "axis": [3], "momentum": 0.99}, "name": "conv4_block17_1_bn"}, {"class_name": "Activation", "inbound_nodes": [[["conv4_block17_1_bn", 0, 0, {}]]], "config": {"dtype": "float32", "trainable": true, "activation": "relu", "name": "conv4_block17_1_relu"}, "name": "conv4_block17_1_relu"}, {"class_name": "ZeroPadding2D", "inbound_nodes": [[["conv4_block17_1_relu", 0, 0, {}]]], "config": {"padding": [[1, 1], [1, 1]], "name": "conv4_block17_2_pad", "dtype": "float32", "trainable": true, "data_format": "channels_last"}, "name": "conv4_block17_2_pad"}, {"class_name": "Conv2D", "inbound_nodes": [[["conv4_block17_2_pad", 0, 0, {}]]], "config": {"strides": [1, 1], "kernel_constraint": null, "padding": "valid", "dtype": "float32", "dilation_rate": [1, 1], "bias_regularizer": null, "kernel_initializer": {"class_name": "GlorotUniform", "config": {"seed": null}}, "activation": "linear", "kernel_size": [3, 3], "bias_constraint": null, "bias_initializer": {"class_name": "Zeros", "config": {}}, "activity_regularizer": null, "trainable": true, "data_format": "channels_last", "kernel_regularizer": null, "name": "conv4_block17_2_conv", "use_bias": false, "filters": 256}, "name": "conv4_block17_2_conv"}, {"class_name": "BatchNormalization", "inbound_nodes": [[["conv4_block17_2_conv", 0, 0, {}]]], "config": {"moving_mean_initializer": {"class_name": "Zeros", "config": {}}, "dtype": "float32", "beta_constraint": null, "gamma_regularizer": null, "gamma_initializer": {"class_name": "Ones", "config": {}}, "beta_regularizer": null, "moving_variance_initializer": {"class_name": "Ones", "config": {}}, "epsilon": 1.001e-05, "name": "conv4_block17_2_bn", "center": true, "gamma_constraint": null, "scale": true, "trainable": true, "beta_initializer": {"class_name": "Zeros", "config": {}}, "axis": [3], "momentum": 0.99}, "name": "conv4_block17_2_bn"}, {"class_name": "Activation", "inbound_nodes": [[["conv4_block17_2_bn", 0, 0, {}]]], "config": {"dtype": "float32", "trainable": true, "activation": "relu", "name": "conv4_block17_2_relu"}, "name": "conv4_block17_2_relu"}, {"class_name": "Conv2D", "inbound_nodes": [[["conv4_block17_2_relu", 0, 0, {}]]], "config": {"strides": [1, 1], "kernel_constraint": null, "padding": "valid", "dtype": "float32", "dilation_rate": [1, 1], "bias_regularizer": null, "kernel_initializer": {"class_name": "GlorotUniform", "config": {"seed": null}}, "activation": "linear", "kernel_size": [1, 1], "bias_constraint": null, "bias_initializer": {"class_name": "Zeros", "config": {}}, "activity_regularizer": null, "trainable": true, "data_format": "channels_last", "kernel_regularizer": null, "name": "conv4_block17_3_conv", "use_bias": true, "filters": 1024}, "name": "conv4_block17_3_conv"}, {"class_name": "Add", "inbound_nodes": [[["conv4_block16_out", 0, 0, {}], ["conv4_block17_3_conv", 0, 0, {}]]], "config": {"trainable": true, "dtype": "float32", "name": "conv4_block17_out"}, "name": "conv4_block17_out"}, {"class_name": "BatchNormalization", "inbound_nodes": [[["conv4_block17_out", 0, 0, {}]]], "config": {"moving_mean_initializer": {"class_name": "Zeros", "config": {}}, "dtype": "float32", "beta_constraint": null, "gamma_regularizer": null, "gamma_initializer": {"class_name": "Ones", "config": {}}, "beta_regularizer": null, "moving_variance_initializer": {"class_name": "Ones", "config": {}}, "epsilon": 1.001e-05, "name": "conv4_block18_preact_bn", "center": true, "gamma_constraint": null, "scale": true, "trainable": true, "beta_initializer": {"class_name": "Zeros", "config": {}}, "axis": [3], "momentum": 0.99}, "name": "conv4_block18_preact_bn"}, {"class_name": "Activation", "inbound_nodes": [[["conv4_block18_preact_bn", 0, 0, {}]]], "config": {"dtype": "float32", "trainable": true, "activation": "relu", "name": "conv4_block18_preact_relu"}, "name": "conv4_block18_preact_relu"}, {"class_name": "Conv2D", "inbound_nodes": [[["conv4_block18_preact_relu", 0, 0, {}]]], "config": {"strides": [1, 1], "kernel_constraint": null, "padding": "valid", "dtype": "float32", "dilation_rate": [1, 1], "bias_regularizer": null, "kernel_initializer": {"class_name": "GlorotUniform", "config": {"seed": null}}, "activation": "linear", "kernel_size": [1, 1], "bias_constraint": null, "bias_initializer": {"class_name": "Zeros", "config": {}}, "activity_regularizer": null, "trainable": true, "data_format": "channels_last", "kernel_regularizer": null, "name": "conv4_block18_1_conv", "use_bias": false, "filters": 256}, "name": "conv4_block18_1_conv"}, {"class_name": "BatchNormalization", "inbound_nodes": [[["conv4_block18_1_conv", 0, 0, {}]]], "config": {"moving_mean_initializer": {"class_name": "Zeros", "config": {}}, "dtype": "float32", "beta_constraint": null, "gamma_regularizer": null, "gamma_initializer": {"class_name": "Ones", "config": {}}, "beta_regularizer": null, "moving_variance_initializer": {"class_name": "Ones", "config": {}}, "epsilon": 1.001e-05, "name": "conv4_block18_1_bn", "center": true, "gamma_constraint": null, "scale": true, "trainable": true, "beta_initializer": {"class_name": "Zeros", "config": {}}, "axis": [3], "momentum": 0.99}, "name": "conv4_block18_1_bn"}, {"class_name": "Activation", "inbound_nodes": [[["conv4_block18_1_bn", 0, 0, {}]]], "config": {"dtype": "float32", "trainable": true, "activation": "relu", "name": "conv4_block18_1_relu"}, "name": "conv4_block18_1_relu"}, {"class_name": "ZeroPadding2D", "inbound_nodes": [[["conv4_block18_1_relu", 0, 0, {}]]], "config": {"padding": [[1, 1], [1, 1]], "name": "conv4_block18_2_pad", "dtype": "float32", "trainable": true, "data_format": "channels_last"}, "name": "conv4_block18_2_pad"}, {"class_name": "Conv2D", "inbound_nodes": [[["conv4_block18_2_pad", 0, 0, {}]]], "config": {"strides": [1, 1], "kernel_constraint": null, "padding": "valid", "dtype": "float32", "dilation_rate": [1, 1], "bias_regularizer": null, "kernel_initializer": {"class_name": "GlorotUniform", "config": {"seed": null}}, "activation": "linear", "kernel_size": [3, 3], "bias_constraint": null, "bias_initializer": {"class_name": "Zeros", "config": {}}, "activity_regularizer": null, "trainable": true, "data_format": "channels_last", "kernel_regularizer": null, "name": "conv4_block18_2_conv", "use_bias": false, "filters": 256}, "name": "conv4_block18_2_conv"}, {"class_name": "BatchNormalization", "inbound_nodes": [[["conv4_block18_2_conv", 0, 0, {}]]], "config": {"moving_mean_initializer": {"class_name": "Zeros", "config": {}}, "dtype": "float32", "beta_constraint": null, "gamma_regularizer": null, "gamma_initializer": {"class_name": "Ones", "config": {}}, "beta_regularizer": null, "moving_variance_initializer": {"class_name": "Ones", "config": {}}, "epsilon": 1.001e-05, "name": "conv4_block18_2_bn", "center": true, "gamma_constraint": null, "scale": true, "trainable": true, "beta_initializer": {"class_name": "Zeros", "config": {}}, "axis": [3], "momentum": 0.99}, "name": "conv4_block18_2_bn"}, {"class_name": "Activation", "inbound_nodes": [[["conv4_block18_2_bn", 0, 0, {}]]], "config": {"dtype": "float32", "trainable": true, "activation": "relu", "name": "conv4_block18_2_relu"}, "name": "conv4_block18_2_relu"}, {"class_name": "Conv2D", "inbound_nodes": [[["conv4_block18_2_relu", 0, 0, {}]]], "config": {"strides": [1, 1], "kernel_constraint": null, "padding": "valid", "dtype": "float32", "dilation_rate": [1, 1], "bias_regularizer": null, "kernel_initializer": {"class_name"…
izer": null, "moving_variance_initializer": {"class_name": "Ones", "config": {}}, "epsilon": 1.001e-05, "name": "conv4_block33_preact_bn", "center": true, "gamma_constraint": null, "scale": true, "trainable": true, "beta_initializer": {"class_name": "Zeros", "config": {}}, "axis": [3], "momentum": 0.99}, "name": "conv4_block33_preact_bn"}, {"class_name": "Activation", "inbound_nodes": [[["conv4_block33_preact_bn", 0, 0, {}]]], "config": {"dtype": "float32", "trainable": true, "activation": "relu", "name": "conv4_block33_preact_relu"}, "name": "conv4_block33_preact_relu"}, {"class_name": "Conv2D", "inbound_nodes": [[["conv4_block33_preact_relu", 0, 0, {}]]], "config": {"strides": [1, 1], "kernel_constraint": null, "padding": "valid", "dtype": "float32", "dilation_rate": [1, 1], "bias_regularizer": null, "kernel_initializer": {"class_name": "GlorotUniform", "config": {"seed": null}}, "activation": "linear", "kernel_size": [1, 1], "bias_constraint": null, "bias_initializer": {"class_name": "Zeros", "config": {}}, "activity_regularizer": null, "trainable": true, "data_format": "channels_last", "kernel_regularizer": null, "name": "conv4_block33_1_conv", "use_bias": false, "filters": 256}, "name": "conv4_block33_1_conv"}, {"class_name": "BatchNormalization", "inbound_nodes": [[["conv4_block33_1_conv", 0, 0, {}]]], "config": {"moving_mean_initializer": {"class_name": "Zeros", "config": {}}, "dtype": "float32", "beta_constraint": null, "gamma_regularizer": null, "gamma_initializer": {"class_name": "Ones", "config": {}}, "beta_regularizer": null, "moving_variance_initializer": {"class_name": "Ones", "config": {}}, "epsilon": 1.001e-05, "name": "conv4_block33_1_bn", "center": true, "gamma_constraint": null, "scale": true, "trainable": true, "beta_initializer": {"class_name": "Zeros", "config": {}}, "axis": [3], "momentum": 0.99}, "name": "conv4_block33_1_bn"}, {"class_name": "Activation", "inbound_nodes": [[["conv4_block33_1_bn", 0, 0, {}]]], "config": {"dtype": "float32", "trainable": true, "activation": "relu", "name": "conv4_block33_1_relu"}, "name": "conv4_block33_1_relu"}, {"class_name": "ZeroPadding2D", "inbound_nodes": [[["conv4_block33_1_relu", 0, 0, {}]]], "config": {"padding": [[1, 1], [1, 1]], "name": "conv4_block33_2_pad", "dtype": "float32", "trainable": true, "data_format": "channels_last"}, "name": "conv4_block33_2_pad"}, {"class_name": "Conv2D", "inbound_nodes": [[["conv4_block33_2_pad", 0, 0, {}]]], "config": {"strides": [1, 1], "kernel_constraint": null, "padding": "valid", "dtype": "float32", "dilation_rate": [1, 1], "bias_regularizer": null, "kernel_initializer": {"class_name": "GlorotUniform", "config": {"seed": null}}, "activation": "linear", "kernel_size": [3, 3], "bias_constraint": null, "bias_initializer": {"class_name": "Zeros", "config": {}}, "activity_regularizer": null, "trainable": true, "data_format": "channels_last", "kernel_regularizer": null, "name": "conv4_block33_2_conv", "use_bias": false, "filters": 256}, "name": "conv4_block33_2_conv"}, {"class_name": "BatchNormalization", "inbound_nodes": [[["conv4_block33_2_conv", 0, 0, {}]]], "config": {"moving_mean_initializer": {"class_name": "Zeros", "config": {}}, "dtype": "float32", "beta_constraint": null, "gamma_regularizer": null, "gamma_initializer": {"class_name": "Ones", "config": {}}, "beta_regularizer": null, "moving_variance_initializer": {"class_name": "Ones", "config": {}}, "epsilon": 1.001e-05, "name": "conv4_block33_2_bn", "center": true, "gamma_constraint": null, "scale": true, "trainable": true, "beta_initializer": {"class_name": "Zeros", "config": {}}, "axis": [3], "momentum": 0.99}, "name": "conv4_block33_2_bn"}, {"class_name": "Activation", "inbound_nodes": [[["conv4_block33_2_bn", 0, 0, {}]]], "config": {"dtype": "float32", "trainable": true, "activation": "relu", "name": "conv4_block33_2_relu"}, "name": "conv4_block33_2_relu"}, {"class_name": "Conv2D", "inbound_nodes": [[["conv4_block33_2_relu", 0, 0, {}]]], "config": {"strides": [1, 1], "kernel_constraint": null, "padding": "valid", "dtype": "float32", "dilation_rate": [1, 1], "bias_regularizer": null, "kernel_initializer": {"class_name": "GlorotUniform", "config": {"seed": null}}, "activation": "linear", "kernel_size": [1, 1], "bias_constraint": null, "bias_initializer": {"class_name": "Zeros", "config": {}}, "activity_regularizer": null, "trainable": true, "data_format": "channels_last", "kernel_regularizer": null, "name": "conv4_block33_3_conv", "use_bias": true, "filters": 1024}, "name": "conv4_block33_3_conv"}, {"class_name": "Add", "inbound_nodes": [[["conv4_block32_out", 0, 0, {}], ["conv4_block33_3_conv", 0, 0, {}]]], "config": {"trainable": true, "dtype": "float32", "name": "conv4_block33_out"}, "name": "conv4_block33_out"}, {"class_name": "BatchNormalization", "inbound_nodes": [[["conv4_block33_out", 0, 0, {}]]], "config": {"moving_mean_initializer": {"class_name": "Zeros", "config": {}}, "dtype": "float32", "beta_constraint": null, "gamma_regularizer": null, "gamma_initializer": {"class_name": "Ones", "config": {}}, "beta_regularizer": null, "moving_variance_initializer": {"class_name": "Ones", "config": {}}, "epsilon": 1.001e-05, "name": "conv4_block34_preact_bn", "center": true, "gamma_constraint": null, "scale": true, "trainable": true, "beta_initializer": {"class_name": "Zeros", "config": {}}, "axis": [3], "momentum": 0.99}, "name": "conv4_block34_preact_bn"}, {"class_name": "Activation", "inbound_nodes": [[["conv4_block34_preact_bn", 0, 0, {}]]], "config": {"dtype": "float32", "trainable": true, "activation": "relu", "name": "conv4_block34_preact_relu"}, "name": "conv4_block34_preact_relu"}, {"class_name": "Conv2D", "inbound_nodes": [[["conv4_block34_preact_relu", 0, 0, {}]]], "config": {"strides": [1, 1], "kernel_constraint": null, "padding": "valid", "dtype": "float32", "dilation_rate": [1, 1], "bias_regularizer": null, "kernel_initializer": {"class_name": "GlorotUniform", "config": {"seed": null}}, "activation": "linear", "kernel_size": [1, 1], "bias_constraint": null, "bias_initializer": {"class_name": "Zeros", "config": {}}, "activity_regularizer": null, "trainable": true, "data_format": "channels_last", "kernel_regularizer": null, "name": "conv4_block34_1_conv", "use_bias": false, "filters": 256}, "name": "conv4_block34_1_conv"}, {"class_name": "BatchNormalization", "inbound_nodes": [[["conv4_block34_1_conv", 0, 0, {}]]], "config": {"moving_mean_initializer": {"class_name": "Zeros", "config": {}}, "dtype": "float32", "beta_constraint": null, "gamma_regularizer": null, "gamma_initializer": {"class_name": "Ones", "config": {}}, "beta_regularizer": null, "moving_variance_initializer": {"class_name": "Ones", "config": {}}, "epsilon": 1.001e-05, "name": "conv4_block34_1_bn", "center": true, "gamma_constraint": null, "scale": true, "trainable": true, "beta_initializer": {"class_name": "Zeros", "config": {}}, "axis": [3], "momentum": 0.99}, "name": "conv4_block34_1_bn"}, {"class_name": "Activation", "inbound_nodes": [[["conv4_block34_1_bn", 0, 0, {}]]], "config": {"dtype": "float32", "trainable": true, "activation": "relu", "name": "conv4_block34_1_relu"}, "name": "conv4_block34_1_relu"}, {"class_name": "ZeroPadding2D", "inbound_nodes": [[["conv4_block34_1_relu", 0, 0, {}]]], "config": {"padding": [[1, 1], [1, 1]], "name": "conv4_block34_2_pad", "dtype": "float32", "trainable": true, "data_format": "channels_last"}, "name": "conv4_block34_2_pad"}, {"class_name": "Conv2D", "inbound_nodes": [[["conv4_block34_2_pad", 0, 0, {}]]], "config": {"strides": [1, 1], "kernel_constraint": null, "padding": "valid", "dtype": "float32", "dilation_rate": [1, 1], "bias_regularizer": null, "kernel_initializer": {"class_name": "GlorotUniform", "config": {"seed": null}}, "activation": "linear", "kernel_size": [3, 3], "bias_constraint": null, "bias_initializer": {"class_name": "Zeros", "config": {}}, "activity_regularizer": null, "trainable": true, "data_format": "channels_last", "kernel_regularizer": null, "name": "conv4_block34_2_conv", "use_bias": false, "filters": 256}, "name": "conv4_block34_2_conv"}, {"class_name": "BatchNormalization", "inbound_nodes": [[["conv4_block34_2_conv", 0, 0, {}]]], "config": {"moving_mean_initializer": {"class_name": "Zeros", "config": {}}, "dtype": "float32", "beta_constraint": null, "gamma_regularizer": null, "gamma_initializer": {"class_name": "Ones", "config": {}}, "beta_regularizer": null, "moving_variance_initializer": {"class_name": "Ones", "config": {}}, "epsilon": 1.001e-05, "name": "conv4_block34_2_bn", "center": true, "gamma_constraint": null, "scale": true, "trainable": true, "beta_initializer": {"class_name": "Zeros", "config": {}}, "axis": [3], "momentum": 0.99}, "name": "conv4_block34_2_bn"}, {"class_name": "Activation", "inbound_nodes": [[["conv4_block34_2_bn", 0, 0, {}]]], "config": {"dtype": "float32", "trainable": true, "activation": "relu", "name": "conv4_block34_2_relu"}, "name": "conv4_block34_2_relu"}, {"class_name": "Conv2D", "inbound_nodes": [[["conv4_block34_2_relu", 0, 0, {}]]], "config": {"strides": [1, 1], "kernel_constraint": null, "padding": "valid", "dtype": "float32", "dilation_rate": [1, 1], "bias_regularizer": null, "kernel_initializer": {"class_name": "GlorotUniform", "config": {"seed": null}}, "activation": "linear", "kernel_size": [1, 1], "bias_constraint": null, "bias_initializer": {"class_name": "Zeros", "config": {}}, "activity_regularizer": null, "trainable": true, "data_format": "channels_last", "kernel_regularizer": null, "name": "conv4_block34_3_conv", "use_bias": true, "filters": 1024}, "name": "conv4_block34_3_conv"}, {"class_name": "Add", "inbound_nodes": [[["conv4_block33_out", 0, 0, {}], ["conv4_block34_3_conv", 0, 0, {}]]], "config": {"trainable": true, "dtype": "float32", "name": "conv4_block34_out"}, "name": "conv4_block34_out"}, {"class_name": "BatchNormalization", "inbound_nodes": [[["conv4_block34_out", 0, 0, {}]]], "config": {"moving_mean_initializer": {"class_name": "Zeros", "config": {}}, "dtype": "float32", "beta_constraint": null, "gamma_regularizer": null, "gamma_initializer": {"class_name": "Ones", "config": {}}, "beta_regularizer": null, "moving_variance_initializer": {"class_name": "Ones", "config": {}}, "epsilon": 1.001e-05, "name": "conv4_block35_preact_bn", "center": true, "gamma_constraint": null, "scale": true, "trainable": true, "beta_initializer": {"class_name": "Zeros", "config": {}}, "axis": [3], "momentum": 0.99}, "name": "conv4_block35_preact_bn"}, {"class_name": "Activation", "inbound_nodes": [[["conv4_block35_preact_bn", 0, 0, {}]]], "config": {"dtype": "float32", "trainable": true, "activation": "relu", "name": "conv4_block35_preact_relu"}, "name": "conv4_block35_preact_relu"}, {"class_name": "Conv2D", "inbound_nodes": [[["conv4_block35_preact_relu", 0, 0, {}]]], "config": {"strides": [1, 1], "kernel_constraint": null, "padding": "valid", "dtype": "float32", "dilation_rate": [1, 1], "bias_regularizer": null, "kernel_initializer": {"class_name": "GlorotUniform", "config": {"seed": null}}, "activation": "linear", "kernel_size": [1, 1], "bias_constraint": null, "bias_initializer": {"class_name": "Zeros", "config": {}}, "activity_regularizer": null, "trainable": true, "data_format": "channels_last", "kernel_regularizer": null, "name": "conv4_block35_1_conv", "use_bias": false, "filters": 256}, "name": "conv4_block35_1_conv"}, {"class_name": "BatchNormalization", "inbound_nodes": [[["conv4_block35_1_conv", 0, 0, {}]]], "config": {"moving_mean_initializer": {"class_name": "Zeros", "config": {}}, "dtype": "float32", "beta_constraint": null, "gamma_regularizer": null, "gamma_initializer": {"class_name": "Ones", "config": {}}, "beta_regularizer": null, "moving_variance_initializer": {"class_name": "Ones", "config": {}}, "epsilon": 1.001e-05, "name": "conv4_block35_1_bn", "center": true, "gamma_constraint": null, "scale": true, "trainable": true, "beta_initializer": {"class_name": "Zeros", "config": {}}, "axis": [3], "momentum": 0.99}, "name": "conv4_block35_1_bn"}, {"class_name": "Activation", "inbound_nodes": [[["conv4_block35_1_bn", 0, 0, {}]]], "config": {"dtype": "float32", "trainable": true, "activation": "relu", "name": "conv4_block35_1_relu"}, "name": "conv4_block35_1_relu"}, {"class_name": "ZeroPadding2D", "inbound_nodes": [[["conv4_block35_1_relu", 0, 0, {}]]], "config": {"padding": [[1, 1], [1, 1]], "name": "conv4_block35_2_pad", "dtype": "float32", "trainable": true, "data_format": "channels_last"}, "name": "conv4_block35_2_pad"}, {"class_name": "Conv2D", "inbound_nodes": [[["conv4_block35_2_pad", 0, 0, {}]]], "config": {"strides": [1, 1], "kernel_constraint": null, "padding": "valid", "dtype": "float32", "dilation_rate": [1, 1], "bias_regularizer": null, "kernel_initializer": {"class_name": "GlorotUniform", "config": {"seed": null}}, "activation": "linear", "kernel_size": [3, 3], "bias_constraint": null, "bias_initializer": {"class_name": "Zeros", "config": {}}, "activity_regularizer": null, "trainable": true, "data_format": "channels_last", "kernel_regularizer": null, "name": "conv4_block35_2_conv", "use_bias": false, "filters": 256}, "name": "conv4_block35_2_conv"}, {"class_name": "BatchNormalization", "inbound_nodes": [[["conv4_block35_2_conv", 0, 0, {}]]], "config": {"moving_mean_initializer": {"class_name": "Zeros", "config": {}}, "dtype": "float32", "beta_constraint": null, "gamma_regularizer": null, "gamma_initializer": {"class_name": "Ones", "config": {}}, "beta_regularizer": null, "moving_variance_initializer": {"class_name": "Ones", "config": {}}, "epsilon": 1.001e-05, "name": "conv4_block35_2_bn", "center": true, "gamma_constraint": null, "scale": true, "trainable": true, "beta_initializer": {"class_name": "Zeros", "config": {}}, "axis": [3], "momentum": 0.99}, "name": "conv4_block35_2_bn"}, {"class_name": "Activation", "inbound_nodes": [[["conv4_block35_2_bn", 0, 0, {}]]], "config": {"dtype": "float32", "trainable": true, "activation": "relu", "name": "conv4_block35_2_relu"}, "name": "conv4_block35_2_relu"}, {"class_name": "Conv2D", "inbound_nodes": [[["conv4_block35_2_relu", 0, 0, {}]]], "config": {"strides": [1, 1], "kernel_constraint": null, "padding": "valid", "dtype": "float32", "dilation_rate": [1, 1], "bias_regularizer": null, "kernel_initializer": {"class_name": "GlorotUniform", "config": {"seed": null}}, "activation": "linear", "kernel_size": [1, 1], "bias_constraint": null, "bias_initializer": {"class_name": "Zeros", "config": {}}, "activity_regularizer": null, "trainable": true, "data_format": "channels_last", "kernel_regularizer": null, "name": "conv4_block35_3_conv", "use_bias": true, "filters": 1024}, "name": "conv4_block35_3_conv"}, {"class_name": "Add", "inbound_nodes": [[["conv4_block34_out", 0, 0, {}], ["conv4_block35_3_conv", 0, 0, {}]]], "config": {"trainable": true, "dtype": "float32", "name": "conv4_block35_out"}, "name": "conv4_block35_out"}, {"class_name": "BatchNormalization", "inbound_nodes": [[["conv4_block35_out", 0, 0, {}]]], "config": {"moving_mean_initializer": {"class_name": "Zeros", "config": {}}, "dtype": "float32", "beta_constraint": null, "gamma_regularizer": null, "gamma_initializer": {"class_name": "Ones", "config": {}}, "beta_regularizer": null, "moving_variance_initializer": {"class_name": "Ones", "config": {}}, "epsilon": 1.001e-05, "name": "conv4_block36_preact_bn", "center": true, "gamma_constraint": null, "scale": true, "trainable": true, "beta_initializer": {"class_name": "Zeros", "config": {}}, "axis": [3], "momentum": 0.99}, "name": "conv4_block36_preact_bn"}, {"class_name": "Activation", "inbound_nodes": [[["conv4_block36_preact_bn", 0, 0, {}]]], "config": {"dtype": "float32", "trainable": true, "activation": "relu", "name": "conv4_block36_preact_relu"}, "name": "conv4_block36_preact_relu"}, {"class_name": "Conv2D", "inbound_nodes": [[["conv4_block36_preact_relu", 0, 0, {}]]], "config": {"strides": [1, 1], "kernel_constraint": null, "padding": "valid", "dtype": "float32", "dilation_rate": [1, 1], "bias_regularizer": null, "kernel_initializer": {"class_name": "GlorotUniform", "config": {"seed": null}}, "activation": "linear", "kernel_size": [1, 1], "bias_constraint": null, "bias_initializer": {"class_name": "Zeros", "config": {}}, "activity_regularizer": null, "trainable": true, "data_format": "channels_last", "kernel_regularizer": null, "name": "conv4_block36_1_conv", "use_bias": false, "filters": 256}, "name": "conv4_block36_1_conv"}, {"class_name": "BatchNormalization", "inbound_nodes": [[["conv4_block36_1_conv", 0, 0, {}]]], "config": {"moving_mean_initializer": {"class_name": "Zeros", "config": {}}, "dtype": "float32", "beta_constraint": null, "gamma_regularizer": null, "gamma_initializer": {"class_name": "Ones", "config": {}}, "beta_regularizer": null, "moving_variance_initializer": {"class_name": "Ones", "config": {}}, "epsilon": 1.001e-05, "name": "conv4_block36_1_bn", "center": true, "gamma_constraint": null, "scale": true, "trainable": true, "beta_initializer": {"class_name": "Zeros", "config": {}}, "axis": [3], "momentum": 0.99}, "name": "conv4_block36_1_bn"}, {"class_name": "Activation", "inbound_nodes": [[["conv4_block36_1_bn", 0, 0, {}]]], "config": {"dtype": "float32", "trainable": true, "activation": "relu", "name": "conv4_block36_1_relu"}, "name": "conv4_block36_1_relu"}, {"class_name": "ZeroPadding2D", "inbound_nodes": [[["conv4_block36_1_relu", 0, 0, {}]]], "config": {"padding": [[1, 1], [1, 1]], "name": "conv4_block36_2_pad", "dtype": "float32", "trainable": true, "data_format": "channels_last"}, "name": "conv4_block36_2_pad"}, {"class_name": "Conv2D", "inbound_nodes": [[["conv4_block36_2_pad", 0, 0, {}]]], "config": {"strides": [2, 2], "kernel_constraint": null, "padding": "valid", "dtype": "float32", "dilation_rate": [1, 1], "bias_regularizer": null, "kernel_initializer": {"class_name": "GlorotUniform", "config": {"seed": null}}, "activation": "linear", "kernel_size": [3, 3], "bias_constraint": null, "bias_initializer": {"class_name": "Zeros", "config": {}}, "activity_regularizer": null, "trainable": true, "data_format": "channels_last", "kernel_regularizer": null, "name": "conv4_block36_2_conv", "use_bias": false, "filters": 256}, "name": "conv4_block36_2_conv"}, {"class_name": "BatchNormalization", "inbound_nodes": [[["conv4_block36_2_conv", 0, 0, {}]]], "config": {"moving_mean_initializer": {"class_name": "Zeros", "config": {}}, "dtype": "float32", "beta_constraint": null, "gamma_regularizer": null, "gamma_initializer": {"class_name": "Ones", "config": {}}, "beta_regularizer": null, "moving_variance_initializer": {"class_name": "Ones", "config": {}}, "epsilon": 1.001e-05, "name": "conv4_block36_2_bn", "center": true, "gamma_constraint": null, "scale": true, "trainable": true, "beta_initializer": {"class_name": "Zeros", "config": {}}, "axis": [3], "momentum": 0.99}, "name": "conv4_block36_2_bn"}, {"class_name": "Activation", "inbound_nodes": [[["conv4_block36_2_bn", 0, 0, {}]]], "config": {"dtype": "float32", "trainable": true, "activation": "relu", "name": "conv4_block36_2_relu"}, "name": "conv4_block36_2_relu"}, {"class_name": "MaxPooling2D", "inbound_nodes": [[["conv4_block35_out", 0, 0, {}]]], "config": {"strides": [2, 2], "padding": "valid", "dtype": "float32", "trainable": true, "data_format": "channels_last", "pool_size": [1, 1], "name": "max_pooling2d_2"}, "name": "max_pooling2d_2"}, {"class_name": "Conv2D", "inbound_nodes": [[["conv4_block36_2_relu", 0, 0, {}]]], "config": {"strides": [1, 1], "kernel_constraint": null, "padding": "valid", "dtype": "float32", "dilation_rate": [1, 1], "bias_regularizer": null, "kernel_initializer": {"class_name": "GlorotUniform", "config": {"seed": null}}, "activation": "linear", "kernel_size": [1, 1], "bias_constraint": null, "bias_initializer": {"class_name": "Zeros", "config": {}}, "activity_regularizer": null, "trainable": true, "data_format": "channels_last", "kernel_regularizer": null, "name": "conv4_block36_3_conv", "use_bias": true, "filters": 1024}, "name": "conv4_block36_3_conv"}, {"class_name": "Add", "inbound_nodes": [[["max_pooling2d_2", 0, 0, {}], ["conv4_block36_3_conv", 0, 0, {}]]], "config": {"trainable": true, "dtype": "float32", "name": "conv4_block36_out"}, "name": "conv4_block36_out"}, {"class_name": "BatchNormalization", "inbound_nodes": [[["conv4_block36_out", 0, 0, {}]]], "config": {"moving_mean_initializer": {"class_name": "Zeros", "config": {}}, "dtype": "float32", "beta_constraint": null, "gamma_regularizer": null, "gamma_initializer": {"class_name": "Ones", "config": {}}, "beta_regularizer": null, "moving_variance_initializer": {"class_name": "Ones", "config": {}}, "epsilon": 1.001e-05, "name": "conv5_block1_preact_bn", "center": true, "gamma_constraint": null, "scale": true, "trainable": true, "beta_initializer": {"class_name": "Zeros", "config": {}}, "axis": [3], "momentum": 0.99}, "name": "conv5_block1_preact_bn"}, {"class_name": "Activation", "inbound_nodes": [[["conv5_block1_preact_bn", 0, 0, {}]]], "config": {"dtype": "float32", "trainable": true, "activation": "relu", "name": "conv5_block1_preact_relu"}, "name": "conv5_block1_preact_relu"}, {"class_name": "Conv2D", "inbound_nodes": [[["conv5_block1_preact_relu", 0, 0, {}]]], "config": {"strides": [1, 1], "kernel_constraint": null, "padding": "valid", "dtype": "float32", "dilation_rate": [1, 1], "bias_regularizer": null, "kernel_initializer": {"class_name": "GlorotUniform", "config": {"seed": null}}, "activation": "linear", "kernel_size": [1, 1], "bias_constraint": null, "bias_initializer": {"class_name": "Zeros", "config": {}}, "activity_regularizer": null, "trainable": true, "data_format": "channels_last", "kernel_regularizer": null, "name": "conv5_block1_1_conv", "use_bias": false, "filters": 512}, "name": "conv5_block1_1_conv"}, {"class_name": "BatchNormalization", "inbound_nodes": [[["conv5_block1_1_conv", 0, 0, {}]]], "config": {"moving_mean_initializer": {"class_name": "Zeros", "config": {}}, "dtype": "float32", "beta_constraint": null, "gamma_regularizer": null, "gamma_initializer": {"class_name": "Ones", "config": {}}, "beta_regularizer": null, "moving_variance_initializer": {"class_name": "Ones", "config": {}}, "epsilon": 1.001e-05, "name": "conv5_block1_1_bn", "center": true, "gamma_constraint": null, "scale": true, "trainable": true, "beta_initializer": {"class_name": "Zeros", "config": {}}, "axis": [3], "momentum": 0.99}, "name": "conv5_block1_1_bn"}, {"class_name": "Activation", "inbound_nodes": [[["conv5_block1_1_bn", 0, 0, {}]]], "config": {"dtype": "float32", "trainable": true, "activation": "relu", "name": "conv5_block1_1_relu"}, "name": "conv5_block1_1_relu"}, {"class_name": "ZeroPadding2D", "inbound_nodes": [[["conv5_block1_1_relu", 0, 0, {}]]], "config": {"padding": [[1, 1], [1, 1]], "name": "conv5_block1_2_pad", "dtype": "float32", "trainable": true, "data_format": "channels_last"}, "name": "conv5_block1_2_pad"}, {"class_name": "Conv2D", "inbound_nodes": [[["conv5_block1_2_pad", 0, 0, {}]]], "config": {"strides": [1, 1], "kernel_constraint": null, "padding": "valid", "dtype": "float32", "dilation_rate": [1, 1], "bias_regularizer": null, "kernel_initializer": {"class_name": "GlorotUniform", "config": {"seed": null}}, "activation": "linear", "kernel_size": [3, 3], "bias_constraint": null, "bias_initializer": {"class_name": "Zeros", "config": {}}, "activity_regularizer": null, "trainable": true, "data_format": "channels_last", "kernel_regularizer": null, "name": "conv5_block1_2_conv", "use_bias": false, "filters": 512}, "name": "conv5_block1_2_conv"}, {"class_name": "BatchNormalization", "inbound_nodes": [[["conv5_block1_2_conv", 0, 0, {}]]], "config": {"moving_mean_initializer": {"class_name": "Zeros", "config": {}}, "dtype": "float32", "beta_constraint": null, "gamma_regularizer": null, "gamma_initializer": {"class_name": "Ones", "config": {}}, "beta_regularizer": null, "moving_variance_initializer": {"class_name": "Ones", "config": {}}, "epsilon": 1.001e-05, "name": "conv5_block1_2_bn", "center": true, "gamma_constraint": null, "scale": true, "trainable": true, "beta_initializer": {"class_name": "Zeros", "config": {}}, "axis": [3], "momentum": 0.99}, "name": "conv5_block1_2_bn"}, {"class_name": "Activation", "inbound_nodes": [[["conv5_block1_2_bn", 0, 0, {}]]], "config": {"dtype": "float32", "trainable": true, "activation": "relu", "name": "conv5_block1_2_relu"}, "name": "conv5_block1_2_relu"}, {"class_name": "Conv2D", "inbound_nodes": [[["conv5_block1_preact_relu", 0, 0, {}]]], "config": {"strides": [1, 1], "kernel_constraint": null, "padding": "valid", "dtype": "float32", "dilation_rate": [1, 1], "bias_regularizer": null, "kernel_initializer": {"class_name": "GlorotUniform", "config": {"seed": null}}, "activation": "linear", "kernel_size": [1, 1], "bias_constraint": null, "bias_initializer": {"class_name": "Zeros", "config": {}}, "activity_regularizer": null, "trainable": true, "data_format": "channels_last", "kernel_regularizer": null, "name": "conv5_block1_0_conv", "use_bias": true, "filters": 2048}, "name": "conv5_block1_0_conv"}, {"class_name": "Conv2D", "inbound_nodes": [[["conv5_block1_2_relu", 0, 0, {}]]], "config": {"strides": [1, 1], "kernel_constraint": null, "padding": "valid", "dtype": "float32", "dilation_rate": [1, 1], "bias_regularizer": null, "kernel_initializer": {"class_name": "GlorotUniform", "config": {"seed": null}}, "activation": "linear", "kernel_size": [1, 1], "bias_constraint": null, "bias_initializer": {"class_name": "Zeros", "config": {}}, "activity_regularizer": null, "trainable": true, "data_format": "channels_last", "kernel_regularizer": null, "name": "conv5_block1_3_conv", "use_bias": true, "filters": 2048}, "name": "conv5_block1_3_conv"}, {"class_name": "Add", "inbound_nodes": [[["conv5_block1_0_conv", 0, 0, {}], ["conv5_block1_3_conv", 0, 0, {}]]], "config": {"trainable": true, "dtype": "float32", "name": "conv5_block1_out"}, "name": "conv5_block1_out"}, {"class_name": "BatchNormalization", "inbound_nodes": [[["conv5_block1_out", 0, 0, {}]]], "config": {"moving_mean_initializer": {"class_name": "Zeros", "config": {}}, "dtype": "float32", "beta_constraint": null, "gamma_regularizer": null, "gamma_initializer": {"class_name": "Ones", "config": {}}, "beta_regularizer": null, "moving_variance_initializer": {"class_name": "Ones", "config": {}}, "epsilon": 1.001e-05, "name": "conv5_block2_preact_bn", "center": true, "gamma_constraint": null, "scale": true, "trainable": true, "beta_initializer": {"class_name": "Zeros", "config": {}}, "axis": [3], "momentum": 0.99}, "name": "conv5_block2_preact_bn"}, {"class_name": "Activation", "inbound_nodes": [[["conv5_block2_preact_bn", 0, 0, {}]]], "config": {"dtype": "float32", "trainable": true, "activation": "relu", "name": "conv5_block2_preact_relu"}, "name": "conv5_block2_preact_relu"}, {"class_name": "Conv2D", "inbound_nodes": [[["conv5_block2_preact_relu", 0, 0, {}]]], "config": {"strides": [1, 1], "kernel_constraint": null, "padding": "valid", "dtype": "float32", "dilation_rate": [1, 1], "bias_regularizer": null, "kernel_initializer": {"class_name": "GlorotUniform", "config": {"seed": null}}, "activation": "linear", "kernel_size": [1, 1], "bias_constraint": null, "bias_initializer": {"class_name": "Zeros", "config": {}}, "activity_regularizer": null, "trainable": true, "data_format": "channels_last", "kernel_regularizer": null, "name": "conv5_block2_1_conv", "use_bias": false, "filters": 512}, "name": "conv5_block2_1_conv"}, {"class_name": "BatchNormalization", "inbound_nodes": [[["conv5_block2_1_conv", 0, 0, {}]]], "config": {"moving_mean_initializer": {"class_name": "Zeros", "config": {}}, "dtype": "float32", "beta_constraint": null, "gamma_regularizer": null, "gamma_initializer": {"class_name": "Ones", "config": {}}, "beta_regularizer": null, "moving_variance_initializer": {"class_name": "Ones", "config": {}}, "epsilon": 1.001e-05, "name": "conv5_block2_1_bn", "center": true, "gamma_constraint": null, "scale": true, "trainable": true, "beta_initializer": {"class_name": "Zeros", "config": {}}, "axis": [3], "momentum": 0.99}, "name": "conv5_block2_1_bn"}, {"class_name": "Activation", "inbound_nodes": [[["conv5_block2_1_bn", 0, 0, {}]]], "config": {"dtype": "float32", "trainable": true, "activation": "relu", "name": "conv5_block2_1_relu"}, "name": "conv5_block2_1_relu"}, {"class_name": "ZeroPadding2D", "inbound_nodes": [[["conv5_block2_1_relu", 0, 0, {}]]], "config": {"padding": [[1, 1], [1, 1]], "name": "conv5_block2_2_pad", "dtype": "float32", "trainable": true, "data_format": "channels_last"}, "name": "conv5_block2_2_pad"}, {"class_name": "Conv2D", "inbound_nodes": [[["conv5_block2_2_pad", 0, 0, {}]]], "config": {"strides": [1, 1], "kernel_constraint": null, "padding": "valid", "dtype": "float32", "dilation_rate": [1, 1], "bias_regularizer": null, "kernel_initializer": {"class_name": "GlorotUniform", "config": {"seed": null}}, "activation": "linear", "kernel_size": [3, 3], "bias_constraint": null, "bias_initializer": {"class_name": "Zeros", "config": {}}, "activity_regularizer": null, "trainable": true, "data_format": "channels_last", "kernel_regularizer": null, "name": "conv5_block2_2_conv", "use_bias": false, "filters": 512}, "name": "conv5_block2_2_conv"}, {"class_name": "BatchNormalization", "inbound_nodes": [[["conv5_block2_2_conv", 0, 0, {}]]], "config": {"moving_mean_initializer": {"class_name": "Zeros", "config": {}}, "dtype": "float32", "beta_constraint": null, "gamma_regularizer": null, "gamma_initializer": {"class_name": "Ones", "config": {}}, "beta_regularizer": null, "moving_variance_initializer": {"class_name": "Ones", "config": {}}, "epsilon": 1.001e-05, "name": "conv5_block2_2_bn", "center": true, "gamma_constraint": null, "scale": true, "trainable": true, "beta_initializer": {"class_name": "Zeros", "config": {}}, "axis": [3], "momentum": 0.99}, "name": "conv5_block2_2_bn"}, {"class_name": "Activation", "inbound_nodes": [[["conv5_block2_2_bn", 0, 0, {}]]], "config": {"dtype": "float32", "trainable": true, "activation": "relu", "name": "conv5_block2_2_relu"}, "name": "conv5_block2_2_relu"}, {"class_name": "Conv2D", "inbound_nodes": [[["conv5_block2_2_relu", 0, 0, {}]]], "config": {"strides": [1, 1], "kernel_constraint": null, "padding": "valid", "dtype": "float32", "dilation_rate": [1, 1], "bias_regularizer": null, "kernel_initializer": {"class_name": "GlorotUniform", "config": {"seed": null}}, "activation": "linear", "kernel_size": [1, 1], "bias_constraint": null, "bias_initializer": {"class_name": "Zeros", "config": {}}, "activity_regularizer": null, "trainable": true, "data_format": "channels_last", "kernel_regularizer": null, "name": "conv5_block2_3_conv", "use_bias": true, "filters": 2048}, "name": "conv5_block2_3_conv"}, {"class_name": "Add", "inbound_nodes": [[["conv5_block1_out", 0, 0, {}], ["conv5_block2_3_conv", 0, 0, {}]]], "config": {"trainable": true, "dtype": "float32", "name": "conv5_block2_out"}, "name": "conv5_block2_out"}, {"class_name": "BatchNormalization", "inbound_nodes": [[["conv5_block2_out", 0, 0, {}]]], "config": {"moving_mean_initializer": {"class_name": "Zeros", "config": {}}, "dtype": "float32", "beta_constraint": null, "gamma_regularizer": null, "gamma_initializer": {"class_name": "Ones", "config": {}}, "beta_regularizer": null, "moving_variance_initializer": {"class_name": "Ones", "config": {}}, "epsilon": 1.001e-05, "name": "conv5_block3_preact_bn", "center": true, "gamma_constraint": null, "scale": true, "trainable": true, "beta_initializer": {"class_name": "Zeros", "config": {}}, "axis": [3], "momentum": 0.99}, "name": "conv5_block3_preact_bn"}, {"class_name": "Activation", "inbound_nodes": [[["conv5_block3_preact_bn", 0, 0, {}]]], "config": {"dtype": "float32", "trainable": true, "activation": "relu", "name": "conv5_block3_preact_relu"}, "name": "conv5_block3_preact_relu"}, {"class_name": "Conv2D", "inbound_nodes": [[["conv5_block3_preact_relu", 0, 0, {}]]], "config": {"strides": [1, 1], "kernel_constraint": null, "padding": "valid", "dtype": "float32", "dilation_rate": [1, 1], "bias_regularizer": null, "kernel_initializer": {"class_name": "GlorotUniform", "config": {"seed": null}}, "activation": "linear", "kernel_size": [1, 1], "bias_constraint": null, "bias_initializer": {"class_name": "Zeros", "config": {}}, "activity_regularizer": null, "trainable": true, "data_format": "channels_last", "kernel_regularizer": null, "name": "conv5_block3_1_conv", "use_bias": false, "filters": 512}, "name": "conv5_block3_1_conv"}, {"class_name": "BatchNormalization", "inbound_nodes": [[["conv5_block3_1_conv", 0, 0, {}]]], "config": {"moving_mean_initializer": {"class_name": "Zeros", "config": {}}, "dtype": "float32", "beta_constraint": null, "gamma_regularizer": null, "gamma_initializer": {"class_name": "Ones", "config": {}}, "beta_regularizer": null, "moving_variance_initializer": {"class_name": "Ones", "config": {}}, "epsilon": 1.001e-05, "name": "conv5_block3_1_bn", "center": true, "gamma_constraint": null, "scale": true, "trainable": true, "beta_initializer": {"class_name": "Zeros", "config": {}}, "axis": [3], "momentum": 0.99}, "name": "conv5_block3_1_bn"}, {"class_name": "Activation", "inbound_nodes": [[["conv5_block3_1_bn", 0, 0, {}]]], "config": {"dtype": "float32", "trainable": true, "activation": "relu", "name": "conv5_block3_1_relu"}, "name": "conv5_block3_1_relu"}, {"class_name": "ZeroPadding2D", "inbound_nodes": [[["conv5_block3_1_relu", 0, 0, {}]]], "config": {"padding": [[1, 1], [1, 1]], "name": "conv5_block3_2_pad", "dtype": "float32", "trainable": true, "data_format": "channels_last"}, "name": "conv5_block3_2_pad"}, {"class_name": "Conv2D", "inbound_nodes": [[["conv5_block3_2_pad", 0, 0, {}]]], "config": {"strides": [1, 1], "kernel_constraint": null, "padding": "valid", "dtype": "float32", "dilation_rate": [1, 1], "bias_regularizer": null, "kernel_initializer": {"class_name": "GlorotUniform", "config": {"seed": null}}, "activation": "linear", "kernel_size": [3, 3], "bias_constraint": null, "bias_initializer": {"class_name": "Zeros", "config": {}}, "activity_regularizer": null, "trainable": true, "data_format": "channels_last", "kernel_regularizer": null, "name": "conv5_block3_2_conv", "use_bias": false, "filters": 512}, "name": "conv5_block3_2_conv"}, {"class_name": "BatchNormalization", "inbound_nodes": [[["conv5_block3_2_conv", 0, 0, {}]]], "config": {"moving_mean_initializer": {"class_name": "Zeros", "config": {}}, "dtype": "float32", "beta_constraint": null, "gamma_regularizer": null, "gamma_initializer": {"class_name": "Ones", "config": {}}, "beta_regularizer": null, "moving_variance_initializer": {"class_name": "Ones", "config": {}}, "epsilon": 1.001e-05, "name": "conv5_block3_2_bn", "center": true, "gamma_constraint": null, "scale": true, "trainable": true, "beta_initializer": {"class_name": "Zeros", "config": {}}, "axis": [3], "momentum": 0.99}, "name": "conv5_block3_2_bn"}, {"class_name": "Activation", "inbound_nodes": [[["conv5_block3_2_bn", 0, 0, {}]]], "config": {"dtype": "float32", "trainable": true, "activation": "relu", "name": "conv5_block3_2_relu"}, "name": "conv5_block3_2_relu"}, {"class_name": "Conv2D", "inbound_nodes": [[["conv5_block3_2_relu", 0, 0, {}]]], "config": {"strides": [1, 1], "kernel_constraint": null, "padding": "valid", "dtype": "float32", "dilation_rate": [1, 1], "bias_regularizer": null, "kernel_initializer": {"class_name": "GlorotUniform", "config": {"seed": null}}, "activation": "linear", "kernel_size": [1, 1], "bias_constraint": null, "bias_initializer": {"class_name": "Zeros", "config": {}}, "activity_regularizer": null, "trainable": true, "data_format": "channels_last", "kernel_regularizer": null, "name": "conv5_block3_3_conv", "use_bias": true, "filters": 2048}, "name": "conv5_block3_3_conv"}, {"class_name": "Add", "inbound_nodes": [[["conv5_block2_out", 0, 0, {}], ["conv5_block3_3_conv", 0, 0, {}]]], "config": {"trainable": true, "dtype": "float32", "name": "conv5_block3_out"}, "name": "conv5_block3_out"}, {"class_name": "BatchNormalization", "inbound_nodes": [[["conv5_block3_out", 0, 0, {}]]], "config": {"moving_mean_initializer": {"class_name": "Zeros", "config": {}}, "dtype": "float32", "beta_constraint": null, "gamma_regularizer": null, "gamma_initializer": {"class_name": "Ones", "config": {}}, "beta_regularizer": null, "moving_variance_initializer": {"class_name": "Ones", "config": {}}, "epsilon": 1.001e-05, "name": "post_bn", "center": true, "gamma_constraint": null, "scale": true, "trainable": true, "beta_initializer": {"class_name": "Zeros", "config": {}}, "axis": [3], "momentum": 0.99}, "name": "post_bn"}, {"class_name": "Activation", "inbound_nodes": [[["post_bn", 0, 0, {}]]], "config": {"dtype": "float32", "trainable": true, "activation": "relu", "name": "post_relu"}, "name": "post_relu"}, {"class_name": "Conv2D", "inbound_nodes": [[["post_relu", 0, 0, {}]]], "config": {"strides": [1, 1], "kernel_constraint": null, "padding": "same", "dtype": "float32", "dilation_rate": [1, 1], "bias_regularizer": null, "kernel_initializer": {"class_name": "GlorotUniform", "config": {"seed": null}}, "activation": "linear", "kernel_size": [3, 3], "bias_constraint": null, "bias_initializer": {"class_name": "Zeros", "config": {}}, "activity_regularizer": null, "trainable": true, "data_format": "channels_last", "kernel_regularizer": null, "name": "conv2d", "use_bias": true, "filters": 1024}, "name": "conv2d"}, {"class_name": "ELU", "inbound_nodes": [[["conv2d", 0, 0, {}]]], "config": {"name": "elu", "dtype": "float32", "trainable": true, "alpha": 1.0}, "name": "elu"}, {"class_name": "BatchNormalization", "inbound_nodes": [[["elu", 0, 0, {}]]], "config": {"moving_mean_initializer": {"class_name": "Zeros", "config": {}}, "dtype": "float32", "beta_constraint": null, "gamma_regularizer": null, "gamma_initializer": {"class_name": "Ones", "config": {}}, "beta_regularizer": null, "moving_variance_initializer": {"class_name": "Ones", "config": {}}, "epsilon": 0.001, "name": "batch_normalization", "center": true, "gamma_constraint": null, "scale": true, "trainable": true, "beta_initializer": {"class_name": "Zeros", "config": {}}, "axis": [3], "momentum": 0.99}, "name": "batch_normalization"}, {"class_name": "Concatenate", "inbound_nodes": [[["batch_normalization", 0, 0, {}], ["conv4_block36_out", 0, 0, {}]]], "config": {"axis": -1, "dtype": "float32", "trainable": true, "name": "concatenate"}, "name": "concatenate"}, {"class_name": "Conv2D", "inbound_nodes": [[["concatenate", 0, 0, {}]]], "config": {"strides": [1, 1], "kernel_constraint": null, "padding": "same", "dtype": "float32", "dilation_rate": [1, 1], "bias_regularizer": null, "kernel_initializer": {"class_name": "GlorotUniform", "config": {"seed": null}}, "activation": "linear", "kernel_size": [3, 3], "bias_constraint": null, "bias_initializer": {"class_name": "Zeros", "config": {}}, "activity_regularizer": null, "trainable": true, "data_format": "channels_last", "kernel_regularizer": null, "name": "conv2d_1", "use_bias": true, "filters": 512}, "name": "conv2d_1"}, {"class_name": "ELU", "inbound_nodes": [[["conv2d_1", 0, 0, {}]]], "config": {"name": "elu_1", "dtype": "float32", "trainable": true, "alpha": 1.0}, "name": "elu_1"}, {"class_name": "BatchNormalization", "inbound_nodes": [[["elu_1", 0, 0, {}]]], "config": {"moving_mean_initializer": {"class_name": "Zeros", "config": {}}, "dtype": "float32", "beta_constraint": null, "gamma_regularizer": null, "gamma_initializer": {"class_name": "Ones", "config": {}}, "beta_regularizer": null, "moving_variance_initializer": {"class_name": "Ones", "config": {}}, "epsilon": 0.001, "name": "batch_normalization_1", "center": true, "gamma_constraint": null, "scale": true, "trainable": true, "beta_initializer": {"class_name": "Zeros", "config": {}}, "axis": [3], "momentum": 0.99}, "name": "batch_normalization_1"}, {"class_name": "Conv2DTranspose", "inbound_nodes": [[["batch_normalization_1", 0, 0, {}]]], "config": {"strides": [2, 2], "kernel_constraint": null, "padding": "same", "dtype": "float32", "dilation_rate": [1, 1], "bias_regularizer": null, "kernel_initializer": {"class_name": "GlorotUniform", "config": {"seed": null}}, "activation": "linear", "kernel_size": [2, 2], "bias_constraint": null, "bias_initializer": {"class_name": "Zeros", "config": {}}, "activity_regularizer": null, "trainable": true, "data_format": "channels_last", "kernel_regularizer": null, "name": "conv2d_transpose", "use_bias": true, "filters": 512, "output_padding": null}, "name": "conv2d_transpose"}, {"class_name": "Concatenate", "inbound_nodes": [[["conv2d_transpose", 0, 0, {}], ["conv3_block8_out", 0, 0, {}]]], "config": {"axis": -1, "dtype": "float32", "trainable": true, "name": "concatenate_1"}, "name": "concatenate_1"}, {"class_name": "Conv2D", "inbound_nodes": [[["concatenate_1", 0, 0, {}]]], "config": {"strides": [1, 1], "kernel_constraint": null, "padding": "same", "dtype": "float32", "dilation_rate": [1, 1], "bias_regularizer": null, "kernel_initializer": {"class_name": "GlorotUniform", "config": {"seed": null}}, "activation": "linear", "kernel_size": [3, 3], "bias_constraint": null, "bias_initializer": {"class_name": "Zeros", "config": {}}, "activity_regularizer": null, "trainable": true, "data_format": "channels_last", "kernel_regularizer": null, "name": "conv2d_2", "use_bias": true, "filters": 256}, "name": "conv2d_2"}, {"class_name": "ELU", "inbound_nodes": [[["conv2d_2", 0, 0, {}]]], "config": {"name": "elu_2", "dtype": "float32", "trainable": true, "alpha": 1.0}, "name": "elu_2"}, {"class_name": "BatchNormalization", "inbound_nodes": [[["elu_2", 0, 0, {}]]], "config": {"moving_mean_initializer": {"class_name": "Zeros", "config": {}}, "dtype": "float32", "beta_constraint": null, "gamma_regularizer": null, "gamma_initializer": {"class_name": "Ones", "config": {}}, "beta_regularizer": null, "moving_variance_initializer": {"class_name": "Ones", "config": {}}, "epsilon": 0.001, "name": "batch_normalization_2", "center": true, "gamma_constraint": null, "scale": true, "trainable": true, "beta_initializer": {"class_name": "Zeros", "config": {}}, "axis": [3], "momentum": 0.99}, "name": "batch_normalization_2"}, {"class_name": "Conv2DTranspose", "inbound_nodes": [[["batch_normalization_2", 0, 0, {}]]], "config": {"strides": [2, 2], "kernel_constraint": null, "padding": "same", "dtype": "float32", "dilation_rate": [1, 1], "bias_regularizer": null, "kernel_initializer": {"class_name": "GlorotUniform", "config": {"seed": null}}, "activation": "linear", "kernel_size": [2, 2], "bias_constraint": null, "bias_initializer": {"class_name": "Zeros", "config": {}}, "activity_regularizer": null, "trainable": true, "data_format": "channels_last", "kernel_regularizer": null, "name": "conv2d_transpose_1", "use_bias": true, "filters": 256, "output_padding": null}, "name": "conv2d_transpose_1"}, {"class_name": "Concatenate", "inbound_nodes": [[["conv2d_transpose_1", 0, 0, {}], ["conv2_block3_out", 0, 0, {}]]], "config": {"axis": -1, "dtype": "float32", "trainable": true, "name": "concatenate_2"}, "name": "concatenate_2"}, {"class_name": "Conv2D", "inbound_nodes": [[["concatenate_2", 0, 0, {}]]], "config": {"strides": [1, 1], "kernel_constraint": null, "padding": "same", "dtype": "float32", "dilation_rate": [1, 1], "bias_regularizer": null, "kernel_initializer": {"class_name": "GlorotUniform", "config": {"seed": null}}, "activation": "linear", "kernel_size": [3, 3], "bias_constraint": null, "bias_initializer": {"class_name": "Zeros", "config": {}}, "activity_regularizer": null, "trainable": true, "data_format": "channels_last", "kernel_regularizer": null, "name": "conv2d_3", "use_bias": true, "filters": 128}, "name": "conv2d_3"}, {"class_name": "ELU", "inbound_nodes": [[["conv2d_3", 0, 0, {}]]], "config": {"name": "elu_3", "dtype": "float32", "trainable": true, "alpha": 1.0}, "name": "elu_3"}, {"class_name": "BatchNormalization", "inbound_nodes": [[["elu_3", 0, 0, {}]]], "config": {"moving_mean_initializer": {"class_name": "Zeros", "config": {}}, "dtype": "float32", "beta_constraint": null, "gamma_regularizer": null, "gamma_initializer": {"class_name": "Ones", "config": {}}, "beta_regularizer": null, "moving_variance_initializer": {"class_name": "Ones", "config": {}}, "epsilon": 0.001, "name": "batch_normalization_3", "center": true, "gamma_constraint": null, "scale": true, "trainable": true, "beta_initializer": {"class_name": "Zeros", "config": {}}, "axis": [3], "momentum": 0.99}, "name": "batch_normalization_3"}, {"class_name": "Conv2DTranspose", "inbound_nodes": [[["batch_normalization_3", 0, 0, {}]]], "config": {"strides": [2, 2], "kernel_constraint": null, "padding": "same", "dtype": "float32", "dilation_rate": [1, 1], "bias_regularizer": null, "kernel_initializer": {"class_name": "GlorotUniform", "config": {"seed": null}}, "activation": "linear", "kernel_size": [2, 2], "bias_constraint": null, "bias_initializer": {"class_name": "Zeros", "config": {}}, "activity_regularizer": null, "trainable": true, "data_format": "channels_last", "kernel_regularizer": null, "name": "conv2d_transpose_2", "use_bias": true, "filters": 128, "output_padding": null}, "name": "conv2d_transpose_2"}, {"class_name": "Concatenate", "inbound_nodes": [[["conv2d_transpose_2", 0, 0, {}], ["pool1_pool", 0, 0, {}]]], "config": {"axis": -1, "dtype": "float32", "trainable": true, "name": "concatenate_3"}, "name": "concatenate_3"}, {"class_name": "Conv2D", "inbound_nodes": [[["concatenate_3", 0, 0, {}]]], "config": {"strides": [1, 1], "kernel_constraint": null, "padding": "same", "dtype": "float32", "dilation_rate": [1, 1], "bias_regularizer": null, "kernel_initializer": {"class_name": "GlorotUniform", "config": {"seed": null}}, "activation": "linear", "kernel_size": [3, 3], "bias_constraint": null, "bias_initializer": {"class_name": "Zeros", "config": {}}, "activity_regularizer": null, "trainable": true, "data_format": "channels_last", "kernel_regularizer": null, "name": "conv2d_4", "use_bias": true, "filters": 64}, "name": "conv2d_4"}, {"class_name": "ELU", "inbound_nodes": [[["conv2d_4", 0, 0, {}]]], "config": {"name": "elu_4", "dtype": "float32", "trainable": true, "alpha": 1.0}, "name": "elu_4"}, {"class_name": "BatchNormalization", "inbound_nodes": [[["elu_4", 0, 0, {}]]], "config": {"moving_mean_initializer": {"class_name": "Zeros", "config": {}}, "dtype": "float32", "beta_constraint": null, "gamma_regularizer": null, "gamma_initializer": {"class_name": "Ones", "config": {}}, "beta_regularizer": null, "moving_variance_initializer": {"class_name": "Ones", "config": {}}, "epsilon": 0.001, "name": "batch_normalization_4", "center": true, "gamma_constraint": null, "scale": true, "trainable": true, "beta_initializer": {"class_name": "Zeros", "config": {}}, "axis": [3], "momentum": 0.99}, "name": "batch_normalization_4"}, {"class_name": "Conv2DTranspose", "inbound_nodes": [[["batch_normalization_4", 0, 0, {}]]], "config": {"strides": [2, 2], "kernel_constraint": null, "padding": "same", "dtype": "float32", "dilation_rate": [1, 1], "bias_regularizer": null, "kernel_initializer": {"class_name": "GlorotUniform", "config": {"seed": null}}, "activation": "linear", "kernel_size": [2, 2], "bias_constraint": null, "bias_initializer": {"class_name": "Zeros", "config": {}}, "activity_regularizer": null, "trainable": true, "data_format": "channels_last", "kernel_regularizer": null, "name": "conv2d_transpose_3", "use_bias": true, "filters": 64, "output_padding": null}, "name": "conv2d_transpose_3"}, {"class_name": "Conv2D", "inbound_nodes": [[["conv2d_transpose_3", 0, 0, {}]]], "config": {"strides": [1, 1], "kernel_constraint": null, "padding": "same", "dtype": "float32", "dilation_rate": [1, 1], "bias_regularizer": null, "kernel_initializer": {"class_name": "GlorotUniform", "config": {"seed": null}}, "activation": "linear", "kernel_size": [3, 3], "bias_constraint": null, "bias_initializer": {"class_name": "Zeros", "config": {}}, "activity_regularizer": null, "trainable": true, "data_format": "channels_last", "kernel_regularizer": null, "name": "conv2d_5", "use_bias": true, "filters": 64}, "name": "conv2d_5"}, {"class_name": "ELU", "inbound_nodes": [[["conv2d_5", 0, 0, {}]]], "config": {"name": "elu_5", "dtype": "float32", "trainable": true, "alpha": 1.0}, "name": "elu_5"}, {"class_name": "BatchNormalization", "inbound_nodes": [[["elu_5", 0, 0, {}]]], "config": {"moving_mean_initializer": {"class_name": "Zeros", "config": {}}, "dtype": "float32", "beta_constraint": null, "gamma_regularizer": null, "gamma_initializer": {"class_name": "Ones", "config": {}}, "beta_regularizer": null, "moving_variance_initializer": {"class_name": "Ones", "config": {}}, "epsilon": 0.001, "name": "batch_normalization_5", "center": true, "gamma_constraint": null, "scale": true, "trainable": true, "beta_initializer": {"class_name": "Zeros", "config": {}}, "axis": [3], "momentum": 0.99}, "name": "batch_normalization_5"}, {"class_name": "UpSampling2D", "inbound_nodes": [[["batch_normalization_5", 0, 0, {}]]], "config": {"dtype": "float32", "trainable": true, "size": [2, 2], "data_format": "channels_last", "interpolation": "bilinear", "name": "up_sampling2d"}, "name": "up_sampling2d"}, {"class_name": "Conv2D", "inbound_nodes": [[["up_sampling2d", 0, 0, {}]]], "config": {"strides": [1, 1], "kernel_constraint": null, "padding": "same", "dtype": "float32", "dilation_rate": [1, 1], "bias_regularizer": null, "kernel_initializer": {"class_name": "GlorotUniform", "config": {"seed": null}}, "activation": "sigmoid", "kernel_size": [1, 1], "bias_constraint": null, "bias_initializer": {"class_name": "Zeros", "config": {}}, "activity_regularizer": null, "trainable": true, "data_format": "channels_last", "kernel_regularizer": null, "name": "conv2d_6", "use_bias": true, "filters": 1}, "name": "conv2d_6"}], "name": "model", "output_layers": [["conv2d_6", 0, 0]], "input_layers": [["input_1", 0, 0]]}, "keras_version": "2.2.4-tf"}